runs/expBipedalWalker-v2./critic.pth (torch, 530647 bytes, 5 tensors)

l1.weight f4 [400, 28]
0.088138364 0.12321945 -0.13541228 -0.28337544 0.10598605 0.11094072 -0.0090283835 -0.15260792
-0.189911 0.17262417 0.10964464 -0.07187848 0.11418343 0.091617726 -0.24001165 -0.031848602
-0.08148361 -0.03303037 -0.08308251 -0.3689749 -0.28046376 -0.032445546 -0.12789364 -0.23909818
0.20845352 -0.15722752 0.1005201 0.12603292 0.13188615 0.052040037 -0.1655552 -0.45199218
0.011147659 0.053131755 0.1941239 -0.080405354 0.14840187 -0.035828304 -0.22241163 -0.14315264
-0.249142 -0.024771543 -0.20951763 -0.11467458 -0.25161123 -0.15203013 0.010343673 -0.123182826
-0.016803041 0.009430473 -0.11761266 0.05566107 0.060273122 0.2016121 0.044267707 0.0155923925
-0.1332666 0.04498129 -0.008126704 -0.14545639 -0.20401604 -0.29049224 -0.05677412 -0.22728103
0.1286055 -0.14556235 -0.13442892 -0.04259481 0.23794644 0.16501267 -0.2389124 -0.26613727
-0.17303091 -0.058783885 -0.31745276 -0.25047684 -0.15895924 -0.23821786 -0.006207105 0.10707182
0.19015534 0.10760226 0.046383243 -0.40205947 0.31268603 0.19858846 -0.3985813 -0.162396
-0.07437753 0.027556239 -0.023738934 -0.06747009 0.016169632 -0.111462004 0.1828947 -0.068321474
0.07686484 -0.11474699 0.046155512 -0.06638305 -0.2674791 -0.22641173 -0.10500404 -0.3058869
-0.061881308 0.06375217 -0.14110866 0.079254165 -0.093415596 -0.22991012 0.106554516 -0.16132186
-0.15264471 -0.14067687 0.042183228 0.056557793 -0.18680425 -0.22751275 -0.038984224 -0.17406188
-0.12946802 -0.08019267 -0.12850049 -0.40292326 -0.10632399 -0.16877283 -0.2568542 -0.077810064
-0.056930188 -0.1753416 -0.1653588 -0.22398262 -0.27184713 -0.18663956 0.0051147486 -0.17557825
-0.03800208 -0.38087198 -0.11350232 0.3260205 -0.18873213 -0.4912876 0.27827424 -0.31197876
-0.11932015 -0.13175198 -0.01198853 0.03708728 -0.07286588 -0.075518586 -0.14797567 0.058398366
-0.014861958 -0.13156913 0.049383488 -0.13884151 0.021398371 -0.08875787 -0.2984194 -0.0012299559
0.016949015 0.049589224 -0.2095321 -0.005016956 -0.1517621 0.056940153 0.032904793 -0.078246735
0.16704011 -0.04829729 -0.27299324 -0.48320022 -0.13820581 0.14685778 -0.020108866 -0.09809709
0.14808054 -0.13912341 0.10440795 -0.14973809 0.30596396 0.13558595 0.0038641552 -0.28485462
-0.12481579 -0.15214345 -0.32797307 -0.07103685 -0.07104967 -0.21972086 -0.20799008 0.055328015
0.15322866 0.14887165 0.17975275 0.15973869 0.1751686 -0.07224015 0.089773424 0.27367064
-0.3170466 0.36229226 -0.06368351 0.1334046 -0.16469333 0.045580197 0.24773207 -0.017221618
0.25681737 0.029562734 0.21913756 0.023751682 2.3147702e-05 -0.023661107 -0.06571652 -0.008273381
-0.14794129 0.05676162 -0.077063836 -0.052582346 -0.26642242 0.058118645 0.032948278 -0.09667537
-0.023658426 -0.24400418 0.27987996 -0.04523251 -0.14710821 -0.00086267205 0.12757705 0.08977976
-0.18466811 -0.049831573 -0.17038175 -0.03387955 -0.12579387 -0.21577734 -0.114619665 -0.11404721
-0.16767749 -0.13356802 -0.08869214 -0.06629557 -0.07376572 0.034675863 -0.027525641 -0.035941053
0.19485047 -0.06709599 0.11136204 -0.096801125 -0.0167715 0.08829955 -0.15044048 0.18304391
00000000: e381 b43d 7b5a fc3d 84a9 0abe 9616 91be
00000010: 370f d93d e334 e33d c9eb 13bc 4045 1cbe
00000020: 0778 42be 64c4 303e 5e8d e03d 0635 93bd
00000030: 01d9 e93d 13a2 bb3d 9dc5 75be ae73 02bd
00000040: e1e0 a6bd da4a 07bd 2a27 aabd 47ea bcbe
00000050: f298 8fbe 9fe5 04bd 8df6 02be 27d6 74be
00000060: d774 553e 4000 21be 7bdd cd3d c60e 013e
00000070: 2a0d 073e ef27 553d 4d87 29be 856b e7be
00000080: aca4 363c afa0 593d 6ac8 463e 90ab a4bd
00000090: a9f6 173e b3c0 12bd e0bf 63be 9b96 12be
000000a0: 151f 7fbe b1ed cabc ca8b 56be 82da eabd
000000b0: 30d3 80be c9ad 1bbe 8278 293c 4747 fcbd
000000c0: 88a6 89bc 4582 1a3c e8de f0bd ddfc 633d
000000d0: f3e0 763d 6773 4e3e 0e52 353d 3c77 7f3c
000000e0: 0a77 08be 4d3e 383d de25 05bc 85f2 14be
000000f0: 95e9 50be 66bb 94be fb8b 68bd 5cbc 68be
00000100: 29b1 033e 4c0e 15be bca7 09be e577 2ebd
00000110: 3ba8 733e 15f9 283e 74a5 74be 2543 88be
00000120: 042f 31be 5fc7 70bd 2b89 a2be 803e 80be
00000130: 36c6 22be 62ef 73be f864 cbbb 7848 db3d
00000140: 15b8 423e 935e dc3d 5bfc 3d3d bdda cdbe
00000150: 6218 a03e c65a 4b3e d912 ccbe 234b 26be
00000160: 3f53 98bd 9fbd e13c 2778 c2bc c22d 8abd
00000170: 2d76 843c 3146 e4bd c048 3b3e 21ec 8bbd
00000180: 506b 9d3d 7800 ebbd 900d 3d3d d6f3 87bd
00000190: 05f3 88be 7ad8 67be 5c0c d7bd 359d 9cbe
000001a0: 4177 7dbd 7f90 823d ca7e 10be 0250 a23d
000001b0: ad50 bfbd 8f6d 6bbe 4139 da3d 8f31 25be
000001c0: e54e 1cbe 990d 10be 52c8 2c3d 25a9 673d
000001d0: 9d49 3fbe 1af9 68be ecad 1fbd 473d 32be
000001e0: 4493 04be 0e3c a4bd a295 03be f54b cebe
000001f0: 64c0 d9bd c9d2 2cbe 6582 83be e25a 9fbd
00000200: a12f 69bd c08c 33be d153 29be b35b 65be
00000210: 8c2f 8bbe 711e 3fbe 9f99 a73b c9ca 33be
00000220: 12a8 1bbd a701 c3be e873 e8bd 29ec a63e
00000230: ff42 41be 0c8a fbbe f679 8e3e aebb 9fbe
00000240: 1f5e f4bd fee9 06be 8a6b 44bc d5e8 173d
00000250: b53a 95bd 7da9 9abd ef86 17be 2033 6f3d
00000260: 927f 73bc 0fba 06be 5746 4a3d 782c 0ebe
00000270: a34b af3c b0c6 b5bd 6dca 98be 7936 a1ba
00000280: a9d8 8a3c 121e 4b3d 958f 56be 4765 a4bb
00000290: 8667 1bbe 143a 693d 2dc7 063d d33f a0bd
000002a0: 900c 2b3e 61d3 45bd c5c5 8bbe 0566 f7be
000002b0: d385 0dbe e361 163e 59bb a4bc 21e7 c8bd
000002c0: 6da2 173e 5e76 0ebe d6d3 d53d f154 19be
000002d0: 4fa7 9c3e 0bd7 0a3e c43d 7d3b 77d8 91be
000002e0: 6c9f ffbd 7ecb 1bbe 16ec a7be c57b 91bd
000002f0: 7d82 91bd 81fe 60be 5afb 54be a19f 623d
00000300: f9e7 1c3e cf71 183e 1b11 383e 8a92 233e
00000310: 665f 333e a5f2 93bd 21db b73d 8f1e 8c3e
00000320: ef53 a2be 5f7e b93e 806c 82bd 379b 083e
00000330: 5ea5 28be 4db2 3a3d 7aad 7d3e 5a14 8dbc
00000340: 917d 833e 8c2d f23c 9965 603e e392 c23c
00000350: 502d c237 f0d4 c1bc 6296 86bd 138d 07bc
00000360: ec7d 17be df7e 683d a5d3 9dbd 9660 57bd
00000370: 8568 88be d10d 6e3d c6f4 063d bdfd c5bd
00000380: 51cf c1bc 3bdc 79be 6d4c 8f3e b945 39bd
00000390: 89a3 16be f124 62ba 8fa3 023e 73de b73d
000003a0: a319 3dbe 311c 4cbd 8e78 2ebe 48c5 0abd
000003b0: 1cd0 00be bcf4 5cbe b7bd eabd 9591 e9bd
000003c0: a6b3 2bbe 0ec6 08be 3aa4 b5bd f9c5 87bd
000003d0: 7b12 97bd 4708 0e3d 747d e1bc ed36 13bd
000003e0: e286 473e 9f69 89bd c811 e43d ab3f c6bd
000003f0: 6364 89bc 65d6 b43d 120d 1abe dd6f 3b3e

l1.bias f4 [400]
-0.02810252 0.0768549 -0.10280917 -0.07796954 0.08581265 0.051110532 0.30893552 -0.17429797
-0.14191824 -0.18171395 0.18462402 0.08021803 0.027216073 -0.09861555 0.2412405 0.06459176
-0.16247906 -0.05744675 -0.08378527 -0.056397073 -0.08751109 0.19701758 0.066815995 0.086828
-0.18783534 0.10830777 -0.052820865 -0.049361985 -0.074026845 0.023460574 -0.14998454 0.064322
-0.26120824 -0.071290776 -0.16708262 -0.22269356 0.08730421 0.14758465 0.22626969 -0.21966957
-0.18146174 0.17563662 -0.15195455 -0.14803292 -0.06705511 -0.2570552 0.2247542 0.32276568
-0.14164607 -0.07564431 0.21611607 0.0015736091 0.17057504 -0.13690948 0.17891696 -0.18838052
-0.01498603 -0.092590906 0.118548855 -0.15069848 0.0669292 0.10127327 0.101966284 -0.24369968
-0.06323482 0.027349284 -0.22270773 -0.29942033 0.15598164 -0.12333563 0.023182733 -0.1997847
0.13182284 0.24455939 -0.25532237 -0.08693168 0.06328201 0.2589123 0.23115325 0.080724396
-0.16112244 -0.14559308 -0.13999963 0.19245477 0.19963206 0.1735353 0.121254586 -0.20451118
0.25012708 -0.08459143 -0.18045004 -0.027952679 0.08897874 -0.05508251 0.043672718 0.024941312
0.12703373 -0.036745034 0.20558096 0.21603811 -0.079974644 0.27760124 -0.042240635 -0.11845982
0.1685341 -0.07136089 -0.03742603 -0.05564966 -0.12204796 -0.023697246 -0.22035491 -0.18398525
-0.3743269 0.20042515 -0.06226751 -0.058600057 0.13683891 0.093979 -0.06790496 0.11358848
0.011712755 -0.19954427 0.06643058 0.009751069 0.27510998 0.16971196 -0.07196166 0.12948672
0.027344814 -0.11620064 0.06651307 0.14146107 -0.16755487 -0.035488367 -0.19364496 -0.23095909
-0.14317776 -0.17833437 -0.24382646 -0.007288606 -0.19978334 -0.11426959 0.019335547 0.06494871
-0.14094533 -0.2280592 0.17254558 -0.050768983 -0.1719902 0.1776986 0.043393455 -0.004372266
0.0096893925 -0.14084743 -0.047063958 0.16150533 0.12516835 -0.07102622 -0.24707921 -0.07377161
-0.090698406 0.17176601 0.024525624 -0.0054757283 0.03783663 0.101640984 -0.036752254 -0.09338395
0.042221557 -0.0005541687 -0.05378164 -0.15789749 0.176794 0.19747028 -0.010527801 -0.0015664024
-0.07268358 -0.25210366 -0.26363432 0.037267454 0.08826341 -0.24139687 -0.21505857 -0.029784087
0.020545522 -0.21387337 -0.2140619 -0.09075038 0.15055545 0.1850123 -0.0702777 0.121129066
-0.09708795 -0.07807901 0.011098428 -0.16465412 -0.01632102 0.12104454 -0.07565468 0.006852365
-0.12910359 -0.07436614 -0.15254337 -0.18605404 0.14414623 0.03847946 -0.07267837 -0.12172259
0.1013553 0.22227818 -0.07561138 -0.17321236 0.28477144 -0.14284343 0.2699392 0.17889722
-0.0071440693 0.014758576 -0.09865502 0.22693953 0.2835319 0.0076015955 0.12215274 0.03954679
0.16019122 -0.10398721 0.027212873 -0.116940714 -0.18664257 0.047607873 0.022089727 0.115108274
0.15905651 0.004624532 0.034715805 -0.11069692 -0.09361409 -0.15962897 -0.14021313 -0.11348776
-0.15103413 0.13963076 -0.13332917 -0.2076564 0.1193936 0.15270843 0.17592604 0.033002466
-0.058597572 -0.0118544595 0.04308307 0.25006273 0.03646689 -0.012389052 0.028491048 0.21008255
00000000: 4237 e6bc 1a66 9d3d 9d8d d2bd 7fae 9fbd
00000010: 8bbe af3d 4759 513d cc2c 9e3e 2b7b 32be
00000020: 0453 11be 3913 3abe 140e 3d3e 5a49 a43d
00000030: 3ef4 de3c f3f6 c9bd c007 773e af48 843d
00000040: e960 26be 494d 6bbd 9d97 abbd 9e00 67bd
00000050: 0439 b3bd fabe 493e d3d6 883d e1d2 b13d
00000060: e857 40be 77d0 dd3d b15a 58bd cb2f 4abd
00000070: 639b 97bd 6430 c03c 8c95 19be 41bb 833d
00000080: 16bd 85be e600 92bd b517 2bbe c809 64be
00000090: 8dcc b23d 6e20 173e 3eb3 673e 0ff1 60be
000000a0: 1bd1 39be 16da 333e f999 1bbe f195 17be
000000b0: 3154 89bd bd9c 83be f725 663e 8b41 a53e
000000c0: ab0b 11be 67eb 9abd 884d 5d3e 8f41 ce3a
000000d0: 39ab 2e3e 0032 0cbe 0236 373e d3e6 40be
000000e0: f787 75bc 4da0 bdbd bec9 f23d b450 1abe
000000f0: 2d12 893d 5c68 cf3d b3d3 d03d 698c 79be
00000100: 4281 81bd 9b0b e03c 7f0d 64be 9f4d 99be
00000110: a7b9 1f3e 6497 fcbd b7e9 bd3c 5c94 4cbe
00000120: 91fc 063e c76d 7a3e 9db9 82be 3d09 b2bd
00000130: 009a 813d 2790 843e 70b3 6c3e d552 a53d
00000140: 48fd 24be 5a16 15be 105c 0fbe dd12 453e
00000150: 596c 4c3e 3db3 313e 5354 f83d 616b 51be
00000160: a810 803e 463e adbd e5c7 38be 04fd e4bc
00000170: 7c3a b63d 339e 61bd 2ae2 323d b951 cc3c
00000180: 2115 023e f681 16bd d183 523e 1839 5d3e
00000190: bfc9 a3bd c021 8e3e 8404 2dbd 109b f2bd
000001a0: 3494 2c3e a925 92bd 094c 19bd e6f0 63bd
000001b0: 48f4 f9bd ba20 c2bc b8a4 61be a166 3cbe
000001c0: c7a7 bfbe 403c 4d3e 370c 7fbd 9d06 70bd
000001d0: 801f 0c3e 1078 c03d c111 8bbd 14a1 e83d
000001e0: dbe6 3f3c 5555 4cbe c20c 883d f3c2 1f3c
000001f0: 37db 8c3e f9c8 2d3e a360 93bd 2b98 043e
00000200: 3b02 e03c 9afa edbd 0138 883d 2cdb 103e
00000210: 8193 2bbe 405c 11bd dd4a 46be 8a80 6cbe
00000220: 319d 12be 499d 36be a5ad 79be 42d5 eebb
00000230: 0194 4cbe 2d06 eabd 9565 9e3c d403 853d
00000240: f953 10be 5a88 69be caaf 303e 23f3 4fbd
00000250: 331e 30be 9ff6 353e 56bd 313d 3a45 8fbb
00000260: 42c0 1e3c 4f3a 10be 23c6 40bd a761 253e
00000270: 222c 003e 3276 91bd 5502 7dbe 9215 97bd
00000280: 16c0 b9bd 6ee3 2f3e f6e9 c83c bd6d b3bb
00000290: 95fa 1a3d 2629 d03d 8889 16bd 1640 bfbd
000002a0: 83f0 2c3d a245 11ba 234a 5cbd e1af 21be
000002b0: 7d09 353e a635 4a3e cc7c 2cbc be4f cdba
000002c0: 21db 94bd bb13 81be 14fb 86be c2a5 183d
000002d0: 72c3 b43d be30 77be 5038 5cbe c2fd f3bc
000002e0: 154f a83c 9f01 5bbe 0b33 5bbe 56db b9bd
000002f0: 352b 1a3e dd73 3d3e c1ed 8fbd 8412 f83d
00000300: 0cd6 c6bd e3e7 9fbd 2ed6 353c 179b 28be
00000310: a9b3 85bc 33e6 f73d d7f0 9abd ce89 e03b
00000320: bb33 04be 464d 98bd 5434 1cbe f384 3ebe
00000330: 129b 133e a39c 1d3d 66d8 94bd b149 f9bd
00000340: 5e93 cf3d e49c 633e 24da 9abd 955e 31be
00000350: 90cd 913e 8c45 12be 7935 8a3e d530 373e
00000360: cc18 eabb f4cd 713c a50b cabd d662 683e
00000370: 182b 913e ce16 f93b 372b fa3d d1fb 213d
00000380: 2b09 243e 3ff7 d4bd 88ed de3c 9d7e efbd
00000390: 3b1f 3fbe 7900 433d 84f5 b43c e3bd eb3d
000003a0: b6df 223e 6389 973b 2932 0e3d 11b5 e2bd
000003b0: beb8 bfbd c775 23be 0894 0fbe 456c e8bd
000003c0: b1a8 1abe 5efb 0e3e 7187 08be e1a3 54be
000003d0: a284 f43d 995f 1c3e f525 343e 982d 073d
000003e0: 0204 70bd 3539 42bc e077 303d 3908 803e
000003f0: 4e5e 153d 73fb 4abc 0f66 e93c e11f 573e

l2.weight f4 [300, 400]
-0.02866013 0.024169004 -0.009191664 -0.044235393 0.026020367 0.0074439715 0.008465879 -0.066382594
-0.029073287 0.03944648 -0.07262641 -0.04711573 -0.045551043 0.038516477 0.026312072 0.009051769
-0.012518496 0.009998959 -0.033952583 -0.03165481 -2.65045e-05 0.020173736 -0.008978825 -0.060635
-0.012492284 -0.012665912 0.007596654 -0.044857252 -0.024192777 0.030537385 -0.009642476 0.021428552
-0.03205236 -0.040402263 0.022325044 -0.036240734 0.044966575 0.023999004 -0.018672416 -0.053223874
0.042145886 0.045146964 -0.015266519 0.044702254 0.03006718 0.0134017905 0.030877965 0.01213808
-0.022217846 -0.037886553 -0.01686232 0.021904772 -0.026890222 -0.02685163 -0.0050148354 -0.026045222
0.028985208 -0.011039652 0.0057344227 -0.028996376 0.022499397 0.0031493977 0.014709645 0.026225401
-0.04851629 -0.017975913 -0.014232856 -0.05372471 0.016712096 0.03258165 -0.0428778 -0.013581499
-0.035439324 -0.0030114765 -0.045318563 0.00498783 -0.04791772 -0.0213193 -0.039708182 -0.02896481
0.021020003 -0.012024748 0.020650338 0.03235372 -0.04427654 -0.04864137 -0.059992827 0.000616294
-0.053245716 -0.028324733 -0.05968829 0.032286245 -0.0425073 0.025031568 0.022090498 -0.035587586
0.011885699 0.02702441 -0.05199427 -0.039665397 -0.003646054 -0.033167876 0.002164107 0.03617591
-0.03731393 -0.01880696 -0.0505267 -0.088309124 -0.053723473 0.005216323 -0.011048086 0.031968907
0.0053123664 0.03173878 -0.02763084 0.03760963 -0.050635137 -0.027131286 -0.035348132 0.025112137
0.011128097 -0.048502177 0.018674463 0.01199931 0.03906189 0.02313629 -0.03658752 -0.028084857
-0.033708543 -0.033020243 0.017271081 -0.04487402 0.041146837 -0.0031590834 -0.00088894216 0.04456691
-0.039710872 -0.026777321 -0.033195496 0.042654335 0.0053519197 -0.033230327 -0.021565687 -0.046674475
-0.0440107 -0.042085104 0.025501199 -0.035032094 0.017761305 0.030953795 0.028987996 0.0036573512
0.022802893 0.021160854 0.0020751338 -0.07361865 0.009923983 -0.03144293 0.0079318 0.02090199
-0.032202207 0.032922328 -0.073670946 -0.031039733 -0.020261617 0.018995471 -0.026406031 0.04880495
-0.05507074 -0.039442323 0.01626573 0.031981215 -0.040724237 0.03902596 0.027879465 0.0099399
0.01916432 0.02986574 -0.01164786 0.027143989 -0.009731322 0.019771166 -0.034899853 -0.047684457
-0.020458216 0.043764416 -0.058265783 -0.05242243 -0.005812985 -0.040161245 -0.021919725 0.014991911
-0.011044553 0.010889677 0.00962364 -0.009652566 0.024626084 -0.009798499 0.000551407 -0.017339397
0.0083249435 -0.025561912 -0.028394273 -0.03793948 0.039300725 -0.024304427 -0.030753613 0.0069162287
-0.014298575 0.042547468 0.03148504 -0.019575872 -0.0011742502 0.023006309 -0.03470357 0.015077583
0.016389113 -0.052356765 0.017573113 -0.019948918 -0.014090576 0.025415737 -0.0028457362 -0.03325091
-0.07450379 -0.00561705 0.0385021 0.00844808 0.051241696 5.1269046e-05 0.025814958 -0.014446972
0.03219867 0.009532608 -0.04458959 0.050257035 -0.011124492 -0.052928206 -0.076796085 0.02319811
-0.06265829 0.028424922 -0.035019714 0.004726109 0.037060767 -0.019289376 0.0057995906 0.009673044
0.0015285835 -0.024384165 0.033544745 -0.051120136 -0.03965451 0.016008198 -0.014102667 0.021885365
00000000: a6c8 eabc 13fe c53c a298 16bc 2c30 35bd
00000010: aa28 d53c 8fec f33b 78b4 0a3c 99f3 87bd
00000020: 1a2b eebc a292 213d 28bd 94bd 6cfc 40bd
00000030: bb93 3abd 74c3 1d3d 6a8c d73c df4d 143c
00000040: 611a 4dbc acd2 233c dd11 0bbd 79a8 01bd
00000050: fb55 deb7 6443 a53c ec1b 13bc 685c 78bd
00000060: 70ac 4cbc af84 4fbc 5aed f83b 3dbc 37bd
00000070: ee2f c6bc 8a29 fa3c 7afb 1dbc ee8a af3c
00000080: 5649 03bd d87c 25bd 03e3 b63c 2a71 14bd
00000090: df2e 383d 8f99 c43c e5f6 98bc 4701 5abd
000000a0: 2aa1 2c3d 06ec 383d 6c20 7abc b619 373d
000000b0: 724f f63c 2f93 5b3c c9f3 fc3c ccde 463c
000000c0: 3302 b6bc ee2e 1bbd d922 8abc a371 b33c
000000d0: e248 dcbc f3f7 dbbc 7d53 a4bb ca5c d5bc
000000e0: 6372 ed3c a8df 34bc d3e7 bb3b cf89 edbc
000000f0: a850 b83c 2066 4e3b b900 713c a7d6 d63c
00000100: 04b9 46bd 3942 93bc ed30 69bc 710e 5cbd
00000110: cee7 883c 5674 053d a2a0 2fbd f084 5ebc
00000120: d328 11bd 315c 45bb f59f 39bd f370 a33b
00000130: 5f45 44bd d0a5 aebc 0ca5 22bd 9c47 edbc
00000140: 2432 ac3c 7303 45bc e62a a93c 5685 043d
00000150: 515b 35bd 2c3c 47bd 0abb 75bd ca8e 213a
00000160: 2e18 5abd 4509 e8bc b57b 74bd 953e 043d
00000170: 221c 2ebd 010f cd3c 22f7 b43c 4ac4 11bd
00000180: 3cbc 423c 4c62 dd3c f2f7 54bd 2f78 22bd
00000190: a3f2 6ebb 0adb 07bd b1d3 0d3b 312d 143d
000001a0: 7ed6 18bd 0e11 9abc 16f5 4ebd 6adb b4bd
000001b0: 250d 5cbd b0ed aa3b 0803 35bc d4f1 023d
000001c0: 5c13 ae3b 8600 023d 125a e2bc 8e0c 1a3d
000001d0: ca66 4fbd 6e42 debc 34c9 10bd f8b7 cd3c
000001e0: 9f52 363c 38aa 46bd 30fb 983c c198 443c
000001f0: 5cff 1f3d 5188 bd3c ccdc 15bd 3712 e6bc
00000200: f811 0abd 3c40 07bd 157c 8d3c d2cd 37bd
00000210: 9689 283d a008 4fbb e607 69ba cb8b 363d
00000220: dea7 22bd 1d5c dbbc 00f8 07bd 50b6 2e3d
00000230: 285f af3b 861c 08bd 86aa b0bc bc2d 3fbd
00000240: 9044 34bd 6e61 2cbd e4e7 d03c d07d 0fbd
00000250: 2880 913c d092 fd3c 3c78 ed3c 2cb0 6f3b
00000260: 22cd ba3c 8759 ad3c f8fe 073b 60c5 96bd
00000270: 3498 223c 4dca 00bd 61f4 013c a63a ab3c
00000280: 76e6 03bd 90d9 063d cbe0 96bd 0a47 febc
00000290: b1fb a5bc 649c 9b3c 7651 d8bc b3e7 473d
000002a0: db91 61bd 468e 21bd b53f 853c bcfe 023d
000002b0: 75ce 26bd afd9 1f3d 7a63 e43c f6da 223c
000002c0: 7efe 9c3c ffa8 f43c aad6 3ebc 125d de3c
000002d0: 1f70 1fbc 24f7 a13c 26f3 0ebd c750 43bd
000002e0: fd97 a7bc 5142 333d 1aa8 6ebd e7b8 56bd
000002f0: da7a bebb 1e80 24bd ff90 b3bc a2a0 753c
00000300: 36f4 34bc 9e6a 323c 79ac 1d3c cc25 1ebc
00000310: a4bc c93c e289 20bc 4c8c 103a 5a0b 8ebc
00000320: 5865 083c 3767 d1bc 1b9b e8bc 6e66 1bbd
00000330: ccf9 203d 141a c7bc 00ef fbbc 88a1 e23b
00000340: 9244 6abc 4146 2e3d 75f6 003d 945d a0bc
00000350: 4ce9 99ba ba77 bc3c 5525 0ebd f707 773c
00000360: 7642 863c 0c74 56bd 7df5 8f3c ea6b a3bc
00000370: 29dc 66bc aa34 d03c 887f 3abb 1b32 08bd
00000380: 7195 98bd 3b0f b8bb 61b4 1d3d d169 0a3c
00000390: d0e2 513d b809 5738 e479 d33c feb2 6cbc
000003a0: c1e2 033d a82e 1c3c 93a3 36bd 52da 4d3d
000003b0: 8043 36bc 3fcb 58bd 4447 9dbd f609 be3c
000003c0: fd52 80bd 62db e83c d570 0fbd 7add 9a3b
000003d0: 08cd 173d c104 9ebc 7e0a be3b b07b 1e3c
000003e0: c05a c83a 4dc1 c7bc 3766 093d 5963 51bd
000003f0: c46c 22bd a023 833c df0e 67bc f048 b33c

l2.bias f4 [300]
-0.04595375 0.04799446 -0.08814999 -0.03379854 -0.08688035 0.2074347 0.19257581 -0.0044454006
0.08590714 -0.07493149 0.094114125 -0.08827455 0.021837598 -0.027891275 -0.09182808 -0.04230091
-0.05427013 -0.025385406 -0.03956852 -0.087743655 -0.04494544 0.14852473 -0.027060881 -0.029588751
-0.13417986 -0.013323294 0.04547603 0.027565822 0.15012547 -0.05914016 -0.035441373 -0.020899178
-0.009711403 -0.09014295 0.15126365 0.13167854 -0.04241281 -0.08119591 -0.017915854 -0.039780445
-0.01536689 0.1643735 0.18453676 -0.11554918 -0.035753205 -0.11060967 0.016456835 -0.061220765
-0.07474136 0.18150164 0.003475319 0.029975792 -0.059773322 -0.029811835 0.017817428 0.13152418
-0.1495968 0.021468641 0.16328347 -0.10243943 -0.029119702 -0.07622729 0.11079657 -0.121714525
0.13878371 -0.027351111 -0.053055856 -0.04822849 -0.04284081 0.046499394 -0.053320765 0.0040140827
-0.07946592 -0.047727246 -0.0015102543 0.06490184 0.022828491 -0.024095807 0.1507351 -0.054345194
-0.17837636 -0.0017314869 -0.0797255 -0.0032492816 0.1259095 -0.09174067 0.15652093 -0.04511873
0.017421227 -0.065302774 -0.05432273 0.1706356 0.1799507 -0.0951867 0.14797705 -0.034295227
-0.03533282 -0.041700155 0.11567448 -0.05023449 0.12649608 -0.1080745 0.013282143 -0.06841566
0.0019848002 -0.03439775 -0.0022650033 -0.03192808 0.0036414515 -0.06716961 0.05978332 -0.010754007
0.15193214 -0.023451552 -0.04198584 0.17935655 0.07633968 0.18348314 0.016770257 -0.07539452
0.010307145 -0.031151963 -0.050692186 -0.09286623 -0.020367 -0.036059994 0.04030402 0.13639212
-0.08539622 -0.0438161 -0.00067426 0.12202775 0.019883627 -0.013479837 0.1953689 -0.072185695
-0.040731605 -0.047862116 -0.019805627 -0.006922587 0.18262926 -0.054029394 -0.120166466 -0.0295266
-0.20543952 0.009290148 0.028701872 -0.023504727 0.07277583 0.10095835 0.13290557 -0.068055555
0.09950318 0.14891264 0.15587051 -0.056448076 -0.08053603 -0.025541252 0.13068934 -0.049875583
-0.05539811 -0.03126536 -0.04000163 0.20529313 -0.027195191 -0.08480046 -0.071616456 -0.052735116
-0.03636102 0.19522443 0.113361 0.008021463 -0.094507806 -0.027320724 0.12954797 -0.10679162
0.008917148 0.11701949 0.18521376 0.0044524036 0.16328834 0.074874304 -0.054262068 0.17997791
0.20159736 0.02853522 -0.07198019 -0.013595679 -0.041515864 -0.04005585 0.016202854 -0.006815005
-0.043303665 -0.07847738 -0.059418358 -0.014385776 0.20082183 0.013861334 0.19768545 -0.048132427
-0.035646297 -0.05916452 -0.03874069 0.16620995 0.08967137 0.06332389 0.010176842 0.114177324
0.027431143 -0.08295455 0.008135675 -0.039373115 -0.040945683 -0.024587093 -0.039906047 -0.044475626
-0.0038588084 -0.049367096 0.15008171 -0.0010596291 -0.061620045 -0.017093338 -0.0625431 -0.00799345
0.01218584 0.008810491 -0.091919765 -0.00042162125 -0.097657435 -0.015976956 0.17681912 0.019861933
0.13690682 0.05086357 -0.052446816 -0.017861754 0.07455348 -0.019524187 -0.05124375 -0.0459103
-0.08862661 -0.057470094 -0.10731017 -0.026482884 -0.073079914 -0.041047767 -0.03684611 0.08169274
0.13374244 -0.02754571 0.060113966 -0.045689177 -0.024516033 0.08586315 -0.024313193 -0.08200037
00000000: 003a 3cbd d795 443d fb87 b4bd 5670 0abd
00000010: 53ee b1bd c369 543e 9832 453e b9aa 91bb
00000020: 15f0 af3d ae75 99bd e8be c03d 4ac9 b4bd
00000030: c3e4 b23c 3e7c e4bc 5c10 bcbd b843 2dbd
00000040: 5b4a 5ebd 0ef5 cfbc 9a12 22bd f2b2 b3bd
00000050: b618 38bd de16 183e c8ae ddbc 1c64 f2bc
00000060: 7266 09be f249 5abc 1345 3a3d b8d1 e13c
00000070: 7eba 193e f43c 72bd f92a 11bd c134 abbc
00000080: 941c 1fbc de9c b8bd dce4 1a3e bdd6 063e
00000090: 0eb9 2dbd 0b4a a6bd 45c4 92bc d2f0 22bd
000000a0: 68c5 7bbc 8751 283e 34f7 3c3e 0ca5 ecbd
000000b0: f471 12bd 5387 e2bd 7cd0 863c a0c2 7abd
000000c0: 0012 99bd 91db 393e 2dc2 633b cb8f f53c
000000d0: dfd4 74bd f337 f4bc dbf5 913c 46ae 063e
000000e0: e72f 19be 01df af3c c833 273e c4cb d1bd
000000f0: 718c eebc 0e1d 9cbd 50e9 e23d 7745 f9bd
00000100: 511d 0e3e 700f e0bc 1951 59bd 3d8b 45bd
00000110: d879 2fbd 2676 3e3d e066 5abd 9188 833b
00000120: 07bf a2bd a57d 43bd baf3 c5ba 42eb 843d
00000130: d102 bb3c 9264 c5bc 4d5a 1a3e 1199 5ebd
00000140: 4ba8 36be 0ff3 e2ba 1f47 a3bd e6f1 54bb
00000150: 6cee 003e 88e2 bbbd 0647 203e 6bce 38bd
00000160: f6b6 8e3c 76bd 85bd 8381 5ebd 19bb 2e3e
00000170: ff44 383e 3ff1 c2bd 4c87 173e 2779 0cbd
00000180: 26b9 10bd c8cd 2abd bee6 ec3d aec2 4dbd
00000190: 3088 013e 2a56 ddbd 589d 593c 821d 8cbd
000001a0: 6c13 023b a8e4 0cbd 7370 14bb 05c7 02bd
000001b0: 6ba5 6e3b 3890 89bd 5bdf 743d 9331 30bc
000001c0: 1994 1b3e 781d c0bc 58f9 2bbd 3ea9 373e
000001d0: fa57 9c3d 01e3 3b3e c761 893c 7168 9abd
000001e0: 4ddf 283c 6732 ffbc 9ca2 4fbd a630 bebd
000001f0: b2d8 a6bc a5b3 13bd d415 253d 60aa 0b3e
00000200: 37e4 aebd 8378 33bd d3c0 30ba afe9 f93d
00000210: fde2 a23c 89da 5cbc c90e 483e 18d6 93bd
00000220: 2fd6 26bd 110b 44bd 693f a2bc ded6 e2bb
00000230: 2a03 3b3e ed4d 5dbd d619 f6bd c5e1 f1bc
00000240: bd5e 52be b435 183c 3020 eb3c fc8c c0bc
00000250: 7f0b 953d 40c3 ce3d 6618 083e b660 8bbd
00000260: 53c8 cb3d 8e7c 183e 859c 1f3e 1936 67bd
00000270: 13f0 a4bd e33b d1bc 6dd3 053e 574a 4cbd
00000280: 21e9 62bd 1b10 00bd c0d8 23bd 5d38 523e
00000290: 73c8 debc ddab adbd a6ab 92bd c700 58bd
000002a0: 4bef 14bd eae8 473e d029 e83d 746c 033c
000002b0: 4f8d c1bd b6cf dfbc 39a8 043e 91b5 dabd
000002c0: 3b19 123c eaa7 ef3d ada8 3d3e 78e5 913b
000002d0: 0f35 273e b357 993d e741 5ebd 214c 383e
000002e0: 8a6f 4e3e b2c2 e93c 5a6a 93bd 69c0 5ebc
000002f0: 8a0c 2abd 9a11 24bd d9bb 843c 6850 dfbb
00000300: 2f5f 31bd c0b8 a0bd aa60 73bd 51b2 6bbc
00000310: 3da4 4d3e a61a 633c 0e6e 4a3e 8226 45bd
00000320: da01 12bd 7f56 72bd 8fae 1ebd f132 2a3e
00000330: a0a5 b73d f5af 813d c5bc 263c cdd5 e93d
00000340: 47b7 e03c 13e4 a9bd 7f4b 053c b445 21bd
00000350: a9b6 27bd df6a c9bc 8674 23bd 132c 36bd
00000360: 10e4 7cbb 2735 4abd 05af 193e 41e3 8aba
00000370: 4d65 7cbd 5407 8cbc 9916 80bd f6f6 02bc
00000380: 1ea7 473c e159 103c 6e40 bcbd 0c0d ddb9
00000390: 9f00 c8bd 1be2 82bc 1210 353e 7eb5 a23c
000003a0: 4d31 0c3e 5256 503d 79d2 56bd d052 92bc
000003b0: 7faf 983d 30f1 9fbc f7e4 51bd 700c 3cbd
000003c0: de81 b5bd c365 6bbd 6fc5 dbbd a2f2 d8bc
000003d0: ecaa 95bd b421 28bd f2eb 16bd 864e a73d
000003e0: c7f3 083e 8aa7 e1bc 103a 763d 9324 3bbd
000003f0: d9d5 c8bc 05d9 af3d 762c c7bc cfef a7bd

l3.weight f4 [1, 300]
0.02083377 -0.14656131 -0.00049543584 0.006847547 0.011415454 -0.25611374 -0.26466098 -0.035668407
0.16879702 -0.009688241 -0.21378215 -0.007526521 -0.0021771723 -0.02461112 -0.0039851135 -0.004363582
-0.0437133 0.024235167 0.01605342 0.017324109 -0.024594361 -0.1811238 -0.0069604344 -0.0035407317
0.112900294 0.018679867 0.0939664 -0.00032457334 -0.26145247 0.017212199 0.018706353 -0.0047597103
-0.027318299 0.0019773098 -0.19378006 -0.26336807 -0.045242257 -0.00036145165 -0.08269751 0.008132656
0.004340778 -0.24266033 -0.2516848 0.00779567 0.0077869156 -0.023844248 -0.10821884 -0.014807721
-0.013341398 -0.22119653 -0.026750542 0.036526214 0.026353337 -0.14731638 -0.0029404922 -0.27081668
-0.038374573 -0.021031706 -0.25636932 0.042113014 0.006547576 0.010379903 -0.2419128 0.013085754
-0.11037463 0.006655221 0.030959321 -0.0394959 -0.042254187 -0.08276092 -0.017917855 -0.014046637
0.0025560097 -0.0014845182 0.031968452 0.14830406 0.0027059903 -0.02183157 -0.14953542 -0.022166932
-0.069285944 -0.0015117887 0.006119028 0.0038338709 -0.17887583 0.058327798 -0.18489653 0.042249758
-0.083002776 -0.061745774 0.009451202 -0.2557513 -0.17919856 -0.022407549 -0.26435018 -0.0018384645
0.00499033 0.25393024 -0.24461424 0.02328925 -0.25826773 0.051535808 -0.017551662 0.013659042
-0.14682117 0.016718065 0.047398876 0.050189346 -0.16436906 0.044229414 -0.15119284 0.015946234
-0.17086698 -0.008071522 0.0029317343 -0.2506955 -0.20469047 -0.23040432 0.03422734 0.005115911
-0.05013712 -0.025768146 -0.007287208 -0.004628213 0.01604871 0.056757145 0.03544123 -0.1852653
0.014415191 0.010564639 -0.005811758 -0.19632985 -0.002207115 0.023685202 -0.25027817 0.008029635
-0.024349205 -0.03504278 0.14573465 0.0022754867 -0.25771677 0.02573516 0.16505165 0.0143033685
-0.0074773217 0.007758874 0.004225882 -0.074821435 -0.13325696 -0.18611117 -0.20610322 -0.041867558
-0.24791336 -0.24073489 -0.13271011 0.08425603 0.07022575 0.024418848 -0.25250039 0.024087504
-0.008334695 0.024890969 -0.033849996 -0.22003432 0.038472466 0.012853187 0.00048620396 -0.030078202
0.017600574 -0.26774496 -0.19662216 -0.00440165 0.010733741 0.0054939524 -0.25389016 0.12233794
0.012554615 -0.12626168 -0.24742559 0.019908154 -0.19164188 -0.041485053 -0.021564696 -0.25885108
-0.23631309 -0.004161812 -0.015232087 -0.018936712 -0.009724927 0.023159545 -0.007036666 0.009261758
-0.08689425 -0.009354706 -0.001369552 0.001508801 -0.23671618 -0.0036880167 -0.23879217 -0.02654747
-0.009053746 -0.001949391 0.018162072 -0.2705767 -0.19751512 0.27289468 -0.20710765 -0.1140982
-0.074025504 0.02198497 0.030808302 -0.009824893 0.016432704 -0.0048888135 0.028078826 -0.00096913276
0.013828403 0.036211357 -0.2316278 -0.004661715 -0.008403915 -0.00297368 -0.001526427 -0.013576431
-0.029213823 0.009248128 0.048885375 -0.017117105 0.014281113 0.0033999917 -0.2128302 0.0076104393
-0.14923187 -0.18487036 -0.017192213 -0.0069843377 0.07666636 0.023305725 -0.012273713 -0.0035239789
-0.052548937 -0.027719647 0.0011934825 -0.023696907 0.07059241 -0.050040018 0.018046353 -0.14609699
-0.21377811 -0.02833653 -0.05392265 -0.025959902 0.00853173 -0.23931935 -0.001237897 0.05908637
00000000: 95ab aa3c 2b14 16be 23e0 01ba 6361 e03b
00000010: e207 3b3c 5721 83be a581 87be 0919 12bd
00000020: 20d9 2c3e 6ebb 1ebc b5e9 5abe 09a1 f6bb
00000030: e4ae 0ebb 429d c9bc 8e95 82bb 61fc 8ebb
00000040: b80c 33bd d488 c63c 7682 833c 4aeb 8d3c
00000050: 1d7a c9bc 8478 39be 5b14 e4bb 9f0b 68bb
00000060: 4538 e73d 8506 993c 7571 c03d 7f2b aab9
00000070: 19dd 85be 9900 8d3c 113e 993c 58f7 9bbb
00000080: a0ca dfbc c195 013b 486e 46be 2ed8 86be
00000090: f24f 39bd 3881 bdb9 505d a9bd d53e 053c
000000a0: 163d 8e3b f37b 78be d5dc 80be d272 ff3b
000000b0: 6229 ff3b 0355 c3bc d7a1 ddbd 159c 72bc
000000c0: e195 5abc 5881 62be f423 dbbc 839c 153d
000000d0: f4e2 d73c 1bda 16be 46b5 40bb 7ca8 8abe
000000e0: a82e 1dbd af4a acbc d742 83be b27e 2c3d
000000f0: 0c8d d63b 7810 2a3c fdb7 77be a165 563c
00000100: 180c e2bd 0a14 da3b 679e fd3c 74c6 21bd
00000110: ba12 2dbd 8f7e a9bd 77c8 92bc de23 66bc
00000120: ba82 273b 2a94 c2ba 5af1 023d 05dd 173e
00000130: fc56 313b 1fd8 b2bc d01f 19be 6d97 b5bc
00000140: cae5 8dbd 3627 c6ba 2182 c83b ae41 7b3b
00000150: 3a2b 37be 21e9 6e3d 8455 3dbe 150e 2d3d
00000160: 5cfd a9bd 23e9 7cbd 37d9 1a3c d6f1 82be
00000170: d47f 37be 0990 b7bc e858 87be a2f8 f0ba
00000180: ec85 a33b 2503 823e 287c 7abe 19c9 be3c
00000190: ab3b 84be 3617 533d 81c8 8fbc 2dca 5f3c
000001a0: 4a58 16be 53f4 883c 5325 423d 5893 4d3d
000001b0: 5d50 28be e729 353d 4cd2 1abe ada1 823c
000001c0: c1f7 2ebe 6b3e 04bc 5722 403b 295b 80be
000001d0: 619a 51be 1cef 6bbe f831 0c3d 5fa3 a73b
000001e0: 955c 4dbd b817 d3bc 88c9 eebb 44a8 97bb
000001f0: 9678 833c 2e7a 683d d32a 113d 30b6 3dbe
00000200: b12d 6c3c 4f17 2d3c 8f70 bebb b10a 49be
00000210: 3fa5 10bb 7807 c23c 7624 80be bb8e 033c
00000220: fc77 c7bc 0589 0fbd 773b 153e 5520 153b
00000230: 74f3 83be 8bd2 d23c 4d03 293e ad58 6a3c
00000240: 5204 f5bb 273e fe3b 4479 8a3b fb3b 99bd
00000250: 8374 08be ed93 3ebe b90c 53be 517d 2bbd
00000260: 00dd 7dbe 3583 76be 29e5 07be 6d8e ac3d
00000270: 85d2 8f3d 090a c83c bb47 81be 2853 c53c
00000280: 3f8e 08bc 25e8 cb3c 4ba6 0abd ad50 61be
00000290: 4e95 1d3d 2c96 523c 31e9 fe39 9066 f6bc
000002a0: 142f 903c de15 89be 5257 49be b73b 90bb
000002b0: 93dc 2f3c 9d06 b43b e4fd 81be 508c fa3d
000002c0: dfb1 4d3c be4a 01be 225d 7dbe 6d16 a33c
000002d0: c53d 44be 3bec 29bd 72a8 b0bc 2188 84be
000002e0: 0ffc 71be cf5f 88bb 0190 79bc 2a21 9bbc
000002f0: 4d55 1fbc 16b9 bd3c d593 e6bb a1be 173c
00000300: 9df5 b1bd 7b44 19bc 8a82 b3ba f6c2 c53a
00000310: ba65 72be a7b2 71bb ef85 74be 147a d9bc
00000320: 2a56 14bc b582 ffba a0c8 943c 0789 8abe
00000330: 6741 4abe dab8 8b3e 0714 54be 51ac e9bd
00000340: af9a 97bd d319 b43c b161 fc3c 97f8 20bc
00000350: e19d 863c 5732 a0bb 9105 e63c 660d 7eba
00000360: 8790 623c 5c52 143d d72f 6dbe 4dc1 98bb
00000370: 93b0 09bc 12e2 42bb 6412 c8ba ae6f 5ebc
00000380: d451 efbc 7685 173c 083c 483d 2c39 8cbc
00000390: 54fb 693c 65d2 5e3b 29f0 59be fe60 f93b
000003a0: 3dd0 18be a84e 3dbe afd6 8cbc dfdc e4bb
000003b0: 4103 9d3d a6eb be3c af17 49bc 8ef2 66bb
000003c0: 8e3d 57bd 5014 e3bc a16e 9c3a 0420 c2bc
000003d0: c192 903d c3f6 4cbd f2d5 933c 739a 15be
000003e0: a6e8 5abe 0322 e8bc ffdd 5cbd dca9 d4bc
000003f0: abc8 0b3c 2210 75be ee40 a2ba 8d04 723d
