models/BipedalWalker-v2/critic.pth (torch, 530647 bytes, 5 tensors)

l1.weight f4 [400, 28]
0	0xbd97f8ee	-0.074205264
1	0xbe106c82	-0.14103892
2	0xbf0bef17	-0.546617
3	0x3c0561fd	0.008141038
4	0x3d95f190	0.07321465
5	0xbe462489	-0.19349875
6	0xbe326baa	-0.17423883
7	0xbf020448	-0.5078778
8	0xbdbdb17f	-0.0926237
9	0xbe827547	-0.254801
10	0x3dcb9c26	0.09941892
11	0xbe5cbf94	-0.21557456
12	0x3b7f5777	0.0038962045
13	0xbec346bf	-0.38139912
14	0xbf2f01c4	-0.6836207
15	0xbf2503ae	-0.6445874
16	0xbf27aa50	-0.6549425
17	0xbed56e7c	-0.41685855
18	0xbef1eb35	-0.4724976
19	0xbeb458dd	-0.35224047
20	0xbf0bf086	-0.54663885
21	0xbf0b8662	-0.54501927
22	0xbf21baf1	-0.63175875
23	0xbee29406	-0.44253558
24	0xbd114dc2	-0.035474546
25	0x3c1836c1	0.009290398
26	0x3d5d5a96	0.054041468
27	0xbd74545b	-0.05965076
28	0x3e6a12ed	0.22858782
29	0xc0164236	-2.3477912
30	0x3ef1fdd3	0.47263965
31	0x400a3a74	2.1598177
32	0xbe9615e7	-0.29313585
33	0xbf27edd6	-0.65597284
34	0x3f9ae8d6	1.2102306
35	0x3e3de8a5	0.18545778
36	0xc04cd77b	-3.200652
37	0x3e191075	0.14947684
38	0x3ec8357c	0.39103305
39	0xbe8ce945	-0.2752172
40	0xbe7793b9	-0.24177445
41	0xbdf6ac20	-0.12044549
42	0xbf4d9605	-0.80307037
43	0xbf38847f	-0.72077173
44	0xbf1e1fd2	-0.61767304
45	0xbf3f1bca	-0.7465178
46	0xbf776e6c	-0.96652865
47	0xbf4d57e3	-0.8021223
48	0xbf1a5db8	-0.60299253
49	0xbf38bb51	-0.7216082
50	0xbe64d8e0	-0.22348356
51	0x3f37cf75	0.7180093
52	0xbebf22d4	-0.3733126
53	0x3d52c267	0.051454928
54	0x3e925ca2	0.28586298
55	0xbf047808	-0.51745653
56	0xbf6ccc90	-0.9249964
57	0x3fd39cc0	1.6532211
58	0x400f9dc5	2.2440045
59	0xbef92260	-0.4865904
60	0xbe468386	-0.1938611
61	0xbe090ed3	-0.13384561
62	0x3ded5783	0.11588957
63	0x3d13b34d	0.036059666
64	0x3f00dc9a	0.5033661
65	0x3e1a2c2d	0.15055914
66	0x3e15618c	0.14587992
67	0xbf100ca0	-0.56269264
68	0x3d19514a	0.03743104
69	0xbfe297fd	-1.7702633
70	0x3eb23235	0.3480393
71	0x3ed6a76d	0.4192461
72	0x3ebc8a8f	0.36824462
73	0x3eb3c67a	0.35112363
74	0x3e9ba369	0.3039811
75	0x3e508759	0.20364131
76	0x3d79c866	0.06098213
77	0x3e4f63ae	0.20252869
78	0xbec3941c	-0.38198936
79	0xbf457104	-0.77125573
80	0xbe77ae10	-0.24187493
81	0x3ea038a2	0.31293207
82	0x3ec9b57c	0.39396274
83	0xbe1feb1d	-0.15617032
84	0x3ea6fff0	0.3261714
85	0x3fda868c	1.707231
86	0x3ef7adf2	0.48374897
87	0xc08a567a	-4.323056
88	0xbf0afe12	-0.5429393
89	0x3e7836f2	0.2423971
90	0xbf4801ed	-0.7812794
91	0x3e96191b	0.2931603
92	0x3c5a3767	0.013318873
93	0xbfd51c60	-1.6649284
94	0x3e6fd29b	0.23420183
95	0xbee2c701	-0.44292453
96	0x3e6d42d3	0.23170023
97	0x3eca030d	0.39455453
98	0xbf7bb53b	-0.9832341
99	0xbf8b7955	-1.0896403
100	0xbf756f18	-0.9587264
101	0xbf8e6587	-1.1124734
102	0xbf8c1773	-1.0944656
103	0xbf8e88a2	-1.1135447
104	0xbf6ca1a0	-0.9243412
105	0xbf70faac	-0.94132495
106	0xbf02cca2	-0.51093495
107	0x3f1ad56a	0.60481894
108	0xbe1d016d	-0.15332575
109	0xbf0a32d0	-0.53983784
110	0xbd937ade	-0.072011694
111	0x3e1f13ba	0.15534869
112	0x3fabf476	1.3433979
113	0x413bf603	11.747561
114	0xbff5f193	-1.9214348
115	0x40853b60	4.163498
116	0x3c45eb3c	0.01208001
117	0x3e9d3a3a	0.30708486
118	0x3d9f1ac4	0.07768777
119	0x39f16136	0.0004603953
120	0x3e3a0a65	0.18168028
121	0x3f0232b5	0.5085862
122	0x3f01c390	0.5068903
123	0xbed35c19	-0.41281202
124	0x3da8161c	0.08207342
125	0x3e2e0ca1	0.16997005
126	0x3f48f7df	0.7850322
127	0x3f33d70b	0.70250005
128	0x3f630fc0	0.8869591
129	0x3f5135f7	0.8172297
130	0x3f523a9d	0.82120687
131	0x3f44ec53	0.769231
132	0x3f53131c	0.82451034
133	0x3f125e66	0.5717529
134	0x3ea0b85f	0.31390664
135	0xbf63813e	-0.8886908
136	0x3cf6fd5d	0.03015011
137	0xbcd721d9	-0.026261257
138	0x3bad7693	0.005293676
139	0xbd43cb57	-0.04780134
140	0x3fdfcbdd	1.7484089
141	0x40b0628e	5.5120306
142	0xc0ab582c	-5.354513
143	0xbf8e57cf	-1.1120547
144	0xbf228ac2	-0.6349298
145	0x3d7158e3	0.05892266
146	0x3d0511c9	0.032487664
147	0x3e0cd857	0.13754402
148	0x3d37f159	0.0449079
149	0x3f112d6d	0.5670994
150	0x3e1e68c0	0.15469646
151	0xbef21a11	-0.47285512
152	0xbc4be69d	-0.012445119
153	0x3db2d58b	0.08732136
154	0xbf462364	-0.7739775
155	0xbf0c5751	-0.54820734
156	0xbf2164fb	-0.6304471
157	0xbf1256f8	-0.57163954
158	0xbeeff1e6	-0.4686424
159	0xbf204918	-0.6261153
160	0xbf02749f	-0.509592
161	0xbf0a8a6e	-0.54117477
162	0xbe998ca8	-0.29990125
163	0xbe6ddc18	-0.2322849
164	0xbe273413	-0.16328458
165	0x3d935138	0.071932256
166	0x3cc55d2b	0.024092278
167	0xbdbb85e4	-0.09156397
168	0x3e6079a7	0.21921407
169	0xbfcb35e9	-1.5875827
170	0xbf051ca9	-0.51996857
171	0x3eab6576	0.33475846
172	0x401a422f	2.4102895
173	0x3e227f68	0.15868914
174	0xbf76cc5b	-0.9640557
175	0x3cf21761	0.029552164
176	0x3e9cce90	0.30626345
177	0xc006668e	-2.1000094
178	0xbea6ae2f	-0.32554767
179	0xbf4b366a	-0.79379904
180	0xbe4ebfdf	-0.2019038
181	0x3dcc3f41	0.09973002
182	0xbe866f51	-0.26256803
183	0xbe1ca186	-0.15295991
184	0xbe354f29	-0.17705978
185	0xbd66018d	-0.056153823
186	0x3d04026d	0.032228876
187	0x3d2eda89	0.04268888
188	0xbe468310	-0.19385934
189	0xbe0e32cc	-0.13886565
190	0x3e20fdc4	0.15721804
191	0xbe95bb1a	-0.2924431
192	0x3e9b9b1f	0.30391786
193	0xbe3f4dc8	-0.18682015
194	0xbd838075	-0.064209856
195	0xbdd5816e	-0.104250774
196	0xc05a0fb0	-3.4072075
197	0xc021aafa	-2.5260606
198	0x40599813	3.3999069
199	0x3ff7814c	1.9336333
200	0xbf0a6b34	-0.5406983
201	0x3e44960f	0.19197868
202	0xbd95c462	-0.07312848
203	0xbe97b8e7	-0.29633257
204	0x3d228251	0.03967506
205	0xbf891a3c	-1.0711131
206	0xbe895eab	-0.26830038
207	0xbc34dac7	-0.011038489
208	0xbdb2045b	-0.08692237
209	0xbe3da31e	-0.18519256
210	0xbe83471f	-0.256402
211	0xbe68b787	-0.2272626
212	0xbeb481d3	-0.35255298
213	0xbe9cce37	-0.3062608
214	0xbed178c2	-0.40912443
215	0xbefadd9e	-0.48997205
216	0xbf04790b	-0.51747197
217	0xbeb6e8ca	-0.3572448
218	0xbea45dc4	-0.32102787
219	0xbd1d1385	-0.038348693
220	0x3c7a5405	0.015278821
221	0xbe017101	-0.12640764
222	0xbe38327b	-0.17988007
223	0x3dde1aa5	0.10844926
224	0xbd4d6a3b	-0.050150137
225	0x3d69c002	0.05706788
226	0xbe304ed0	-0.17217565
227	0x3ea18b86	0.3155176
228	0xbd539c6f	-0.05166286
229	0xbe0b1e9d	-0.13585897
230	0xbd97284e	-0.073807344
231	0x3c2fb659	0.010724627
232	0xbe5f6181	-0.21814539
233	0xbd96edc9	-0.07369573
234	0xbe093d7c	-0.1340236
235	0x3db3b123	0.087740205
236	0xbd631af2	-0.05544562
237	0xbe2a8d1d	-0.16655393
238	0xbd5e4291	-0.0542627
239	0xbe35e403	-0.17762761
240	0xbe6e08e5	-0.2324558
241	0xbe44cdb2	-0.19219092
242	0xbc2b3f1d	-0.010452059
243	0xbeb6f8a3	-0.3573657
244	0xba078585	-0.0005169737
245	0xbe886a47	-0.26643583
246	0xbe879e1c	-0.26487815
247	0xbdeb3d13	-0.11486258
248	0xbd081043	-0.033218633
249	0x3d4edcce	0.050503545
250	0x3b6c3a06	0.0036045327
251	0x3d433a10	0.047662795
252	0x3ff8eb5f	1.944683
253	0x40ec5ea1	7.3865514
254	0xc066a7f1	-3.6040003
255	0xbff6f7c9	-1.9294368

l1.bias f4 [400]
0	0xbef9a3d8	-0.48757815
1	0x3f2987f6	0.66223085
2	0xbf959d26	-1.1688583
3	0x3e9394e3	0.2882453
4	0xbf7c49d6	-0.98550165
5	0xbe935381	-0.28774646
6	0xbf0fd893	-0.5618984
7	0xbdf63e1f	-0.120235674
8	0xbeb55450	-0.35415888
9	0xbf6736f5	-0.9031823
10	0xbe0082db	-0.12549917
11	0xbf642a75	-0.89127284
12	0x3e8b8aff	0.27254483
13	0xbe7d44b2	-0.24733236
14	0xbd868ea8	-0.06570178
15	0xbeeeb1d1	-0.46620038
16	0xbefa5ef6	-0.48900574
17	0xbcbdd1c9	-0.023171322
18	0xbe1fdbfd	-0.15611263
19	0x3f2901ec	0.6601856
20	0xbe6d428d	-0.23169918
21	0x3e725515	0.23665269
22	0xbf2a6963	-0.6656706
23	0xbfb70220	-1.4297523
24	0x3ed52666	0.41630858
25	0xbf60b8f7	-0.87782234
26	0xbf1a2048	-0.6020551
27	0xbeb8707f	-0.36023328
28	0xbea8c828	-0.32965207
29	0x3f9ab583	1.2086643
30	0xbf8f08fb	-1.1174616
31	0xbed0a564	-0.40751183
32	0xbe9b1282	-0.30287558
33	0xbece4466	-0.4028656
34	0xbf5ea3cc	-0.86968684
35	0xbdf726db	-0.12067958
36	0xbfd917ca	-1.6960385
37	0xbeed0931	-0.46296075
38	0x3fc95fa4	1.5732312
39	0xbe04ae72	-0.1295717
40	0xbe797825	-0.24362238
41	0xbef0dfe6	-0.4704582
42	0xbeef2a33	-0.46711883
43	0x3ea23592	0.31681496
44	0xbee8676b	-0.45391402
45	0xbf4de205	-0.80423003
46	0xbeecba75	-0.46236005
47	0xbeeae8d3	-0.45880756
48	0xbf31439f	-0.69243807
49	0xbf27626a	-0.6538454
50	0xbf09740e	-0.5369271
51	0xbeacd7cd	-0.33758393
52	0xbeba2451	-0.36355832
53	0xbf4182e2	-0.75590336
54	0xbeeee9ae	-0.46662658
55	0xbe08754d	-0.13325997
56	0xbf2c0802	-0.6719972
57	0xbedd661e	-0.43241972
58	0xbf6ae664	-0.917578
59	0xbea35d1a	-0.31906968
60	0xbf1a0a69	-0.60172135
61	0x3fb0602c	1.3779349
62	0xbfa0eb5c	-1.2571826
63	0xbf52b5bc	-0.82308555
64	0xbf2c14f2	-0.6721946
65	0x3f3ee4f3	0.745681
66	0xbf427889	-0.7596517
67	0xbeb6b3a5	-0.35683933
68	0xbf446db2	-0.7672988
69	0xbf9ab5e5	-1.208676
70	0xbf92978a	-1.1452496
71	0xbe728b7b	-0.2368602
72	0xbf87cb2d	-1.0608879
73	0xbfd5363b	-1.6657175
74	0xbe1ed31a	-0.15510216
75	0x3c56e6c3	0.013116541
76	0x3e82d010	0.25549364
77	0xbed749f7	-0.42048618
78	0x3cb67841	0.022274138
79	0xbeb24329	-0.34816864
80	0x3f0e33a6	0.5554756
81	0xbf63d8c0	-0.8900261
82	0xbeb638d9	-0.35590246
83	0xbe1ec237	-0.15503775
84	0x3e8932ad	0.26796475
85	0xbf4814d0	-0.7815676
86	0xbf0da64c	-0.55331874
87	0xbf260ad8	-0.64860296
88	0xbf4a221d	-0.789583
89	0xbeda72e2	-0.42665774
90	0xbf90dc52	-1.1317236
91	0x3e03bc7e	0.12864873
92	0x3ea6ea5b	0.32600674
93	0x3f82e1e1	1.0225183
94	0x3d83a89c	0.06428644
95	0x3ec82559	0.39090994
96	0xbf7ab481	-0.9793168
97	0xbf068da8	-0.525599
98	0xbed903f5	-0.4238583
99	0xbf8f804f	-1.1211032
100	0xbf6afcd6	-0.9179205
101	0xbf40949d	-0.75226766
102	0x3f237735	0.6385377
103	0xbecee76c	-0.40410936
104	0x3ebc8185	0.36817566
105	0xbfba4377	-1.4551839
106	0xbeece959	-0.4627178
107	0xbe9b1d38	-0.3029573
108	0xbefd042b	-0.49417242
109	0xbeb9e42a	-0.36306888
110	0xbe512582	-0.20424464
111	0xbf3efd74	-0.7460549
112	0xbf8b3611	-1.0875875
113	0xbec32843	-0.38116655
114	0x3e1936fc	0.14962381
115	0xbf617af0	-0.8807821
116	0xbe651552	-0.22371414
117	0xbf479364	-0.77959275
118	0xbf406f4a	-0.75169814
119	0xbf722d3e	-0.94600284
120	0xbf0ef8e0	-0.55848503
121	0xbf46c681	-0.7764664
122	0xbedaed99	-0.42759398
123	0xbe69e55f	-0.22841404
124	0xbfacfcb6	-1.3514621
125	0xbccb0616	-0.024783175
126	0x3f4d258a	0.80135405
127	0x3e4c2c5d	0.19938798
128	0xbe5199aa	-0.20468774
129	0xbe8d0f5f	-0.2755079
130	0xbee3718a	-0.4442256
131	0x3cbae2e2	0.022813264
132	0xbe94b2ff	-0.29042813
133	0xbc8086de	-0.01568931
134	0xbdd8222c	-0.10553393
135	0xbf91b1ef	-1.1382426
136	0xbf62e609	-0.88632256
137	0xbe932b9c	-0.2874421
138	0xbf590e43	-0.84787387
139	0xbe7563c3	-0.23963837
140	0xbecca741	-0.39971355
141	0xbf3894a2	-0.72101796
142	0xbe54d6b4	-0.20785028
143	0xbeb18898	-0.34674525
144	0xbf7fbd7c	-0.99898505
145	0xbedd83d4	-0.4326464
146	0xbf09df38	-0.5385623
147	0xbd4c961b	-0.04994784
148	0xbeae5cca	-0.34055167
149	0xbf99764d	-1.1989228
150	0xbf8ec1a6	-1.1152847
151	0x3ecf172c	0.40447366
152	0xbf8e2a0d	-1.1106583
153	0xbeb1715a	-0.34656793
154	0xbece1ac5	-0.402548
155	0xbf48939c	-0.78350234
156	0xbf3fa8c8	-0.74866915
157	0x3f5ab1bf	0.8542747
158	0xbe4552b1	-0.19269826
159	0xbf0e8930	-0.5567808
160	0xbee1e148	-0.44117188
161	0xbe099976	-0.13437447
162	0xbf90f2f4	-1.1324143
163	0xbf00e6e4	-0.5035231
164	0xbf583953	-0.8446247
165	0xbd555a8c	-0.052088305
166	0x3e735804	0.23764044
167	0xbf67b58a	-0.9051138
168	0xbee331dc	-0.44373977
169	0xbde68342	-0.11255504
170	0xbf89dc9e	-1.0770452
171	0xbf0ed954	-0.55800366
172	0xbf012d27	-0.5045952
173	0xbf156db7	-0.58370537
174	0xbf96f9f8	-1.1795034
175	0xbef8943f	-0.48550603
176	0xbefd7c2c	-0.49508798
177	0x3f67abb0	0.9049635
178	0xbf89fd5d	-1.0780445
179	0xbf29af2c	-0.66282916
180	0x3fbdf319	1.4839813
181	0xbeae5541	-0.3404942
182	0xbedc126d	-0.42982808
183	0xbf84c94c	-1.0373931
184	0xbed61945	-0.41816154
185	0xbde59261	-0.1120956
186	0xbf247afa	-0.6425015
187	0xbf9f8b28	-1.2464342
188	0xbda19570	-0.07889831
189	0xbe50ee5b	-0.20403425
190	0xbd98ac29	-0.07454712
191	0xbf79de7a	-0.976051
192	0xbf6a1c0e	-0.9144906
193	0xbf403f06	-0.75096166
194	0xbf0641cd	-0.52444154
195	0xbf3e3061	-0.7429257
196	0xbfbe5fb0	-1.4872952
197	0xbed2ffef	-0.41210887
198	0xbe03eaa7	-0.12882482
199	0x3fcf6ddb	1.62054
200	0xbf7a7ebb	-0.97849625
201	0xbe38ae84	-0.18035322
202	0x3f1c5484	0.6106646
203	0xbf0bd92b	-0.5462825
204	0xbf149888	-0.58045244
205	0xbf3e9a83	-0.74454516
206	0xbf0e85cb	-0.556729
207	0xbf8cf296	-1.1011531
208	0xbe4d9916	-0.20077929
209	0xbef7bac9	-0.48384693
210	0xbe9fa265	-0.31178585
211	0xbef89b1f	-0.48555848
212	0xbf886be0	-1.0657921
213	0xbe6fdeed	-0.23424883
214	0xbf273b6f	-0.65325063
215	0xbdee09ad	-0.11622939
216	0xbf30aded	-0.6901539
217	0x3fa4b9f1	1.2869245
218	0xbf836929	-1.0266467
219	0xbfb4f842	-1.4138262
220	0xbf9b7442	-1.2144854
221	0xbf7410ae	-0.9533795
222	0xbf793c35	-0.97357494
223	0xbfba8253	-1.4571022
224	0xbf688c17	-0.9083876
225	0xbeb66d07	-0.35630056
226	0xbe5fb742	-0.21847251
227	0xbf0b049d	-0.54303914
228	0xbf8dd500	-1.1080627
229	0xbe946506	-0.28983325
230	0xbedc1964	-0.42988122
231	0xbef2cea1	-0.4742327
232	0xbf659a4e	-0.89688575
233	0x3edf7312	0.4364248
234	0xbf2d0a04	-0.6759341
235	0xbe037b7e	-0.12840077
236	0xbf78c591	-0.9717646
237	0x3f07ccdd	0.5304697
238	0xbe17a883	-0.14810376
239	0xbed0d841	-0.4078999
240	0xbef3d38a	-0.4762233
241	0xbf68954a	-0.908528
242	0x3ed5972e	0.41716903
243	0x3f186d81	0.5954209
244	0xbf3e3cdc	-0.74311614
245	0xbea4878b	-0.3213466
246	0xbe76296e	-0.24039242
247	0xbfccd781	-1.6003267
248	0x3fc5c4f7	1.5450734
249	0xbf9fea26	-1.2493331
250	0xbf44bc5f	-0.7684993
251	0xbeef3795	-0.46722093
252	0x3fc94b9d	1.57262
253	0xbe4b30b5	-0.19842799
254	0xbe15a651	-0.14614226
255	0xbf72182e	-0.94568145

l2.weight f4 [300, 400]
0	0xbdfab34a	-0.12241228
1	0xbe51c89f	-0.20486687
2	0xbe8c134a	-0.27358466
3	0xbdc67307	-0.096899085
4	0xbe57f5a4	-0.21089798
5	0xbe0471ab	-0.12933986
6	0xbe5dbf63	-0.2165504
7	0xbd946e61	-0.072476156
8	0x3a7f2a21	0.0009733756
9	0x3c9fb2b9	0.019494401
10	0xbdcbd9ed	-0.099536754
11	0xbd4ae4e6	-0.0495347
12	0x3dab137d	0.083533265
13	0x3e23a908	0.15982449
14	0x3dc79a18	0.09746188
15	0xbe97b608	-0.29631066
16	0x3d51a1a8	0.051179558
17	0xbd65643b	-0.05600379
18	0x3c5f08d2	0.013612943
19	0xbe6a4576	-0.2287806
20	0x3d122f9d	0.03568994
21	0xbd6cf0a4	-0.05784668
22	0xbe53f9c2	-0.20700744
23	0x3c133ff4	0.008987416
24	0xbe087ab8	-0.13328063
25	0xbeb17a42	-0.34663588
26	0x3b896200	0.0041925907
27	0xbd93ed20	-0.072229624
28	0xbe3143b5	-0.17310984
29	0xbe6d01ba	-0.2314519
30	0xbc74c0a4	-0.014938507
31	0x3d36135b	0.044452053
32	0x3dc51ec2	0.09625007
33	0x3d9c7afc	0.07640645
34	0x3c74a139	0.014931017
35	0x3d578ea7	0.05262628
36	0xbd01d599	-0.031697843
37	0x3d49624d	0.049166013
38	0x3b920024	0.004455583
39	0x3e1a973f	0.15096758
40	0x3bf68cf9	0.0075241295
41	0xbf09259c	-0.5357301
42	0x3ab37069	0.0013690117
43	0xbe7dea86	-0.24796495
44	0x3e300519	0.17189445
45	0xbe0a8645	-0.13527782
46	0xbde6ce34	-0.11269799
47	0x3e0502fe	0.12989423
48	0x3dc7f9a4	0.09764412
49	0xbda26e6d	-0.07931218
50	0xbe3d0442	-0.18458655
51	0xbdbfb1db	-0.09360095
52	0x3d5cdb5d	0.05392014
53	0x3c396b32	0.011317061
54	0x3d1ec2ec	0.03876011
55	0xbdb4e08d	-0.08831892
56	0xbd85b849	-0.0652929
57	0xbc3e4b42	-0.011614623
58	0xbdc35d13	-0.09539237
59	0xbe34965b	-0.17635481
60	0x3a6c49a0	0.00090136565
61	0xbdde15ec	-0.10844025
62	0xbe8844f2	-0.266151
63	0x3c19a663	0.009378049
64	0x3b9dd239	0.0048163203
65	0xbd76d323	-0.06025995
66	0x3ddd5201	0.10806657
67	0x3e153181	0.14569665
68	0xbdfd336a	-0.12363322
69	0xbebe2cf1	-0.37143663
70	0x3da2d8a4	0.07951477
71	0xbb6f73bd	-0.0036537491
72	0xbd6eba89	-0.058283363
73	0xbd3593de	-0.04433047
74	0xbe13ea38	-0.14444816
75	0xbe257b8e	-0.16160414
76	0x3e1221c2	0.1427069
77	0xbcfb9f07	-0.030715479
78	0xbe02919e	-0.12750861
79	0xbc8765c2	-0.016528014
80	0x3bc799fb	0.006091354
81	0xbe54f4f6	-0.2079657
82	0xbc05256d	-0.008126599
83	0x3e25f749	0.16207613
84	0xbe4f12ab	-0.20221965
85	0x3da4a2d4	0.080388695
86	0xbb9dfd18	-0.004821431
87	0xbe683e95	-0.22680123
88	0x3d646aee	0.05576604
89	0x3e48929c	0.19587177
90	0xbd9c93ef	-0.076454036
91	0xbe03ab24	-0.12858254
92	0x3c7d8a85	0.01547492
93	0xbd88217b	-0.06647011
94	0x3dcdc29b	0.10046884
95	0x3b2302d4	0.0024873512
96	0xbd28fc95	-0.041256506
97	0x3c29e2cc	0.010369014
98	0x3cf8aa5f	0.030354677
99	0xbc054091	-0.00813307
100	0x3ce88e2d	0.028388107
101	0x3e11e618	0.1424793
102	0xbd642576	-0.055699788
103	0x3dbf4404	0.09339145
104	0xbe1932ff	-0.1496086
105	0xbe456ef1	-0.19280602
106	0xbe4484ec	-0.1919133
107	0xbdfb7ebc	-0.12280032
108	0x3d589451	0.05287582
109	0x3c030594	0.007996935
110	0xbd1349f1	-0.035959188
111	0xbce83fad	-0.028350675
112	0xbe31daa4	-0.17368561
113	0xbc8d3363	-0.017236417
114	0x3d0a881d	0.033821214
115	0xbe11da07	-0.14243327
116	0xbda786d1	-0.08180011
117	0x3c4ae2c3	0.012383166
118	0xbcd8fb0a	-0.026486892
119	0xbd1c9881	-0.038231377
120	0xbd334f3d	-0.04377674
121	0x3d843fe6	0.064575
122	0xbdc3ba33	-0.09556999
123	0xbc76ad90	-0.015056029
124	0xbd0ad0a4	-0.03389038
125	0xbe6894d0	-0.22713017
126	0xbe80dcba	-0.251684
127	0xbdcb099a	-0.09913941
128	0x3d0be93b	0.034157973
129	0x3d1abed8	0.03777966
130	0x3d0a332c	0.033740208
131	0x3dd071de	0.101779684
132	0xbe104290	-0.14087892
133	0xbd8e2ee4	-0.069425374
134	0x3cd2b51c	0.025721125
135	0x3d49c98f	0.049264487
136	0xbead0f4a	-0.33800727
137	0x3c0aae43	0.008464399
138	0xbe89b5b2	-0.26896435
139	0x3d0413ef	0.032245573
140	0x3e1e7126	0.1547285
141	0xbce07897	-0.027401252
142	0xbc4c288c	-0.012460839
143	0xbce5ed64	-0.028067298
144	0xbe2af0dd	-0.16693445
145	0x3c30e609	0.010797032
146	0xbe39e18e	-0.18152449
147	0xbe493236	-0.1964806
148	0x3da1c1a7	0.078982644
149	0xbd904cbb	-0.07045885
150	0xbe42d024	-0.19024712
151	0xb94187dd	-0.00018456527
152	0x3e039dcd	0.12853165
153	0x3cefacd1	0.02925721
154	0xbe3a60de	-0.18201014
155	0xbcd30840	-0.02576077
156	0xbb904fed	-0.004404059
157	0x3e0c7ad2	0.13718727
158	0xbea4fe0e	-0.32225078
159	0xbde60009	-0.112304755
160	0xbe58f0fd	-0.2118568
161	0x3da1ad14	0.0789434
162	0xbdd7f601	-0.105449684
163	0x3d93f49f	0.07224392
164	0xbe464e88	-0.19365895
165	0x3bf1422a	0.0073626237
166	0xbc942f36	-0.018088918
167	0x3ce861f2	0.028367016
168	0xbdfd1447	-0.12357383
169	0xbcb6ff3f	-0.022338508
170	0xbe342c53	-0.17595033
171	0xbde90ad0	-0.113790154
172	0x3d62301e	0.05522167
173	0x3ce244cc	0.027620696
174	0xbe19bf3b	-0.15014355
175	0x3df91a6c	0.12163243
176	0x3d881873	0.06645288
177	0x3d96ab6b	0.07356914
178	0xbdad567d	-0.08463762
179	0xbe4c9071	-0.19976975
180	0x3c82e778	0.015979514
181	0x3da0c6ed	0.07850442
182	0xbec5dad2	-0.3864351
183	0xbcb8cda8	-0.022559002
184	0xbdcb9382	-0.09940244
185	0xbe56fc5e	-0.20994708
186	0x3c22e6c0	0.00994271
187	0x3d9a60d2	0.07537998
188	0xbcbaea3f	-0.022816775
189	0x3d996560	0.07490039
190	0xbd4578c1	-0.048210863
191	0xbea188f2	-0.31549793
192	0xbe92838f	-0.28615996
193	0x3db4050b	0.08790024
194	0xbe287efc	-0.1645469
195	0xbe91aa5a	-0.2845028
196	0xbd8b5419	-0.0680315
197	0xbd7522f7	-0.0598478
198	0xbe24d2bb	-0.16096012
199	0xbda90d59	-0.08254499
200	0xbdeef304	-0.11667445
201	0xbdf663e7	-0.120307736
202	0xbd285874	-0.04109998
203	0xbd439734	-0.04775162
204	0xbdad4214	-0.08459869
205	0xbdd9eff7	-0.10641473
206	0xbd56097c	-0.05225514
207	0xbdd93bbe	-0.10607098
208	0xbd250ca6	-0.040295266
209	0x3dab7236	0.083713934
210	0xbe152d5f	-0.14568089
211	0xbd337f31	-0.04382247
212	0xbe512b2b	-0.20426624
213	0xbd120dbd	-0.035657633
214	0xbe1ac30e	-0.1511347
215	0xbcac4a92	-0.021031652
216	0xbe7edd8e	-0.24889204
217	0x3d71175b	0.058860164
218	0xbd1a727f	-0.03770685
219	0xbd5491bb	-0.051896792
220	0xbd5f40bd	-0.0545051
221	0xbe1be271	-0.152231
222	0xbd409f69	-0.047027025
223	0xbd795168	-0.06086865
224	0xbe4b86b1	-0.198756
225	0x3e07f604	0.13277441
226	0xbd4739b9	-0.048639033
227	0xbe69b613	-0.22823362
228	0xbd92438e	-0.07141791
229	0xbe2ed4d9	-0.17073382
230	0xbd5a03f5	-0.05322643
231	0xbd56c7c9	-0.052436624
232	0xbd4d32b5	-0.050097186
233	0xbceb1ead	-0.02870115
234	0xbea4fceb	-0.3222421
235	0xbddd99f0	-0.10820377
236	0xbe48edf7	-0.19622026
237	0xbd424a7a	-0.047434308
238	0x3de6ddb4	0.11272755
239	0xbcac945d	-0.021066839
240	0xbcbc2119	-0.022965001
241	0xbbf6759e	-0.0075213453
242	0xbda385a1	-0.07984472
243	0xbed5aeb5	-0.41734853
244	0xbd880061	-0.06640697
245	0xbe85e29e	-0.26149458
246	0x3e3c921a	0.18415108
247	0xbe3b077b	-0.18264572
248	0xbd068bed	-0.032848287
249	0xbe943757	-0.2894847
250	0xbeae46af	-0.34038302
251	0xbe118fbf	-0.14214991
252	0xbdfa31c1	-0.12216521
253	0xbe9d008e	-0.30664486
254	0xbdb41774	-0.08793536
255	0xbd4a1840	-0.049339533

l2.bias f4 [300]
0	0xbd64ab52	-0.055827446
1	0xbcf232d8	-0.02956526
2	0xbd6faad8	-0.05851254
3	0xbc745f77	-0.014915339
4	0x3de42ffd	0.111419655
5	0xba58c126	-0.00082685275
6	0x3fbcf7d0	1.4763126
7	0xbe08de48	-0.13366044
8	0xbd37866d	-0.044805933
9	0xbf4497e7	-0.76794285
10	0xbdac0be9	-0.08400709
11	0xbd26ad63	-0.0406927
12	0xbcd10598	-0.025515363
13	0xbd8f2f90	-0.06991494
14	0x3b5d6ad8	0.0033785608
15	0xbd334153	-0.04376347
16	0xbd70f666	-0.058828734
17	0xbcba5fe7	-0.022750808
18	0xbcf087b7	-0.029361589
19	0x3e2910b5	0.1651028
20	0xbdfae245	-0.12250189
21	0xbdd9c895	-0.10633961
22	0x3f945e5e	1.1591299
23	0xbf11c2fb	-0.5693814
24	0xbd964f89	-0.07339389
25	0xbd3da187	-0.046296623
26	0xbd7cef49	-0.061751638
27	0xbdb3876f	-0.08766066
28	0xbdd84919	-0.10560817
29	0xbd783897	-0.060600843
30	0x3fb46e35	1.4096133
31	0xbda0f8b6	-0.07859938
32	0xbce05363	-0.027383512
33	0x3f800485	1.0001379
34	0xbdd26a95	-0.10274235
35	0x3c9fcf9a	0.019508172
36	0xbdcaf175	-0.099093355
37	0xbd62089f	-0.055184003
38	0xbd96c448	-0.073616564
39	0x4007c420	2.1213455
40	0xbcdb0542	-0.026735906
41	0xbf1e3e3c	-0.6181371
42	0xbdcebaaa	-0.10094197
43	0x3e77eabb	0.24210636
44	0xbe2d81a8	-0.16943991
45	0xbd4ba5fb	-0.04971884
46	0x3b134319	0.0022470413
47	0x3f6a048f	0.91413206
48	0xbd654c3f	-0.055980917
49	0xbcec3ff9	-0.028839098
50	0x3facb790	1.3493519
51	0x3f4baaca	0.7955748
52	0x3f3c2b9b	0.73504037
53	0xbd285dc5	-0.04110505
54	0xbd9dcdc5	-0.07705263
55	0x3f9bac00	1.2161865
56	0x3fa1417b	1.2598108
57	0xbd8de315	-0.06928078
58	0xbd98ddef	-0.074642055
59	0x3f978a55	1.183909
60	0x3fcd2044	1.6025472
61	0xbd8e2df7	-0.06942361
62	0x3d5f23c2	0.05447746
63	0x3e80551d	0.25064936
64	0xbdbd4c9f	-0.0924313
65	0xbd83057f	-0.06397533
66	0xbd726bcf	-0.059184846
67	0xbd69a799	-0.0570446
68	0xbd2868c4	-0.041115537
69	0xbda8f063	-0.08248975
70	0x3fc2a186	1.5205543
71	0x3ddf3d70	0.1090039
72	0xbdbbcf7f	-0.09170436
73	0xbd091e88	-0.033476382
74	0xbe0a5eb8	-0.13512695
75	0xbdffabb3	-0.12483921
76	0xbd6a4ca8	-0.05720201
77	0xbd36ceb1	-0.04463071
78	0x3eb42f4f	0.35192344
79	0xbd7e4763	-0.0620798
80	0xbdebce87	-0.11514001
81	0xbd4160bc	-0.047211394
82	0xbd186d67	-0.03721371
83	0x3fb73627	1.4313401
84	0xbdb6bab1	-0.08922327
85	0xbd4aa9cb	-0.049478333
86	0xbdb77f44	-0.08959821
87	0xbdb8e81d	-0.09028647
88	0xbdf1397e	-0.11778544
89	0x3f954b03	1.1663517
90	0xbf12aae9	-0.5729204
91	0xbd9108bb	-0.07081743
92	0xbd4289a5	-0.04749455
93	0xbc82d69a	-0.01597147
94	0xbc1c987f	-0.009557842
95	0x3e309b81	0.1724682
96	0x3cafa725	0.021442005
97	0x3fabdfff	1.3427733
98	0xbda76999	-0.08174438
99	0xbd11c72d	-0.03559034
100	0x3f8989f0	1.074522
101	0xbd106280	-0.035250187
102	0x3fc51820	1.5397987
103	0xbc4cc044	-0.012497012
104	0x3d277a22	0.04088796
105	0xbce10158	-0.027466461
106	0xbd61cb2a	-0.055125393
107	0xbc8519cd	-0.016247654
108	0xbd1caf7d	-0.038253296
109	0xbdb9f55e	-0.09080003
110	0x3bde1065	0.0067768567
111	0xbcc4e12c	-0.024033152
112	0xbdad080c	-0.084488004
113	0xbd2a515c	-0.041581497
114	0xbd968c6c	-0.07351002
115	0x3ff25065	1.8930784
116	0x3f6408cb	0.89075917
117	0xbcb8d402	-0.02256203
118	0xbca85f5b	-0.020553282
119	0xbd3f1350	-0.046649277
120	0xbcadd8c4	-0.021221526
121	0xbe17ba52	-0.1481717
122	0xbd9594cf	-0.073037736
123	0xbce6031d	-0.028077656
124	0x3fd711e8	1.680234
125	0xbdadf21a	-0.08493443
126	0xbd2478b6	-0.04015418
127	0xbe29e1cf	-0.16590045
128	0xbde05a48	-0.1095472
129	0x3fcba04b	1.5908293
130	0xbf046870	-0.5172186
131	0xbd8bce8d	-0.06826506
132	0xbcf3e50b	-0.029772302
133	0x3fbf708a	1.4956219
134	0xbd0df01c	-0.034652814
135	0xbdbb4793	-0.09144511
136	0xbd56456f	-0.05231231
137	0xbd349d92	-0.044095583
138	0xbd6398aa	-0.055565514
139	0xbc1f292c	-0.009714406
140	0x3e317fdf	0.17333935
141	0xbe243601	-0.16036226
142	0xbddc3439	-0.10752148
143	0xbd59f3e0	-0.053211093
144	0xbeebebe9	-0.46078423
145	0xbdd077e9	-0.10179121
146	0xbcca8eb2	-0.024726246
147	0xbda2f270	-0.079563975
148	0xbf256ae8	-0.6461625
149	0xbde340ff	-0.110963814
150	0xbd7af1ef	-0.061265882
151	0xbd8eb7be	-0.0696864
152	0xbd346d01	-0.044049267
153	0x3e888216	0.26661748
154	0x400e78b1	2.2261164
155	0xbd8fa47c	-0.07013795
156	0xbe0977fa	-0.13424674
157	0xbd07b233	-0.03312893
158	0xbdc8eaef	-0.09810435
159	0xbbfba192	-0.007679173
160	0xbf0de973	-0.5543434
161	0xb985484c	-0.00025421602
162	0xbd750144	-0.05981566
163	0xbf05a894	-0.52210355
164	0xbdc5e0d9	-0.09662027
165	0x3f03615a	0.5132042
166	0x3faaa1ac	1.3330588
167	0xbd3d1046	-0.046158098
168	0xbc55a436	-0.013039639
169	0x3fe6d615	1.8034083
170	0xbdcbbbd2	-0.09947933
171	0x3fa6d1c2	1.3032763
172	0x3f6c580d	0.92321855
173	0xbee8d584	-0.454754
174	0xbdf058e9	-0.11735708
175	0xbd03b942	-0.032159097
176	0x3f252eae	0.6452435
177	0xbdd50d28	-0.104029
178	0xbe46b1b5	-0.19403727
179	0xbf736e90	-0.9509058
180	0xbd7dd60a	-0.0619717
181	0x3fa201ea	1.2656834
182	0x3f031c97	0.512155
183	0xbdacc62b	-0.08436235
184	0x3f97269a	1.1808655
185	0x3fc9f44f	1.5777682
186	0x3c1a3c89	0.009413847
187	0xbb8a3baf	-0.0042185406
188	0xbf6ecfa6	-0.93285596
189	0xbc26ea77	-0.010187737
190	0xbd8bb7eb	-0.06822189
191	0xbdca053b	-0.09864279
192	0xbd41887c	-0.047249302
193	0xbd77b48f	-0.06047493
194	0xbaa58b87	-0.0012630083
195	0xbd4d0efd	-0.050063122
196	0xbdbc48ab	-0.09193548
197	0x3d273dae	0.040830307
198	0xbd998f4f	-0.07498037
199	0x401d4fe1	2.4580004
200	0x3fbdad1a	1.4818451
201	0xbdc7cee4	-0.09756258
202	0x3f4ab574	0.79183125
203	0xbda286dd	-0.079358794
204	0xbca8700a	-0.020561237
205	0xbd58ab5c	-0.052897796
206	0xbcf98d89	-0.030462997
207	0xbda7bc6a	-0.08190234
208	0xbdcae933	-0.099077605
209	0xbcd908c9	-0.026493447
210	0xbd839d8a	-0.064265326
211	0xbd0616ce	-0.032736592
212	0xbd7a6502	-0.061131485
213	0x3b3d702f	0.0028905978
214	0xbd1b7efe	-0.037962906
215	0xbd4933d0	-0.049121678
216	0xbda19955	-0.07890574
217	0xbe003a4f	-0.12522243
218	0xc022fed7	-2.5468042
219	0xbc41ccd6	-0.011828622
220	0xbd93df0c	-0.07220277
221	0xbd66e22a	-0.05636803
222	0x3fccacad	1.5990196
223	0x3f783a06	0.96963537
224	0xbd2309cf	-0.039804276
225	0xbd9f22fd	-0.07770345
226	0xbd8c0481	-0.068367966
227	0xbca51750	-0.020152718
228	0xbdb317a1	-0.08744741
229	0xbaa73cf2	-0.0012759252
230	0xbcc54e62	-0.024085227
231	0xbd9102f4	-0.070806414
232	0x3f81877f	1.0119475
233	0xbd8377f5	-0.06419364
234	0xbdc41c90	-0.0957576
235	0xbd75b99e	-0.05999147
236	0x3fd47ef1	1.660124
237	0x3faf4ecd	1.3695923
238	0xbdf1beb5	-0.118039526
239	0xbcad463a	-0.02115165
240	0xbd745adf	-0.059656974
241	0xbc247020	-0.010036498
242	0x3f885f71	1.0654126
243	0xbcc65ed9	-0.024215149
244	0xbd94c875	-0.07264797
245	0xbcfdc9fb	-0.0309801
246	0xbddbe07c	-0.10736176
247	0xbe195f1b	-0.14977686
248	0xbd9f649e	-0.07782863
249	0xbd8f153a	-0.069864705
250	0xbdafc162	-0.08581807
251	0xbd83c14a	-0.06433351
252	0xbd0a0559	-0.033696506
253	0xbde7cc98	-0.1131832
254	0x40047ebb	2.070235
255	0xbdb1f4e3	-0.086892866

l3.weight f4 [1, 300]
0	0xbd1c8016	-0.03820809
1	0xbbe91355	-0.0071129003
2	0xbdde674b	-0.10859545
3	0xbce549b7	-0.027989252
4	0xbf3cd288	-0.73758745
5	0xc024ac0d	-2.5730011
6	0x3d66ca1f	0.0563451
7	0xbd7d232a	-0.061801113
8	0xbc5fee15	-0.013667603
9	0xbdb64584	-0.08899978
10	0xbcab258d	-0.020891929
11	0x3cf95308	0.0304351
12	0x3c60007c	0.0136719905
13	0xbc70682d	-0.014673275
14	0x3b805937	0.0039168852
15	0xbbfbd63b	-0.0076854504
16	0x3cc73fbe	0.024322387
17	0x3c0023bd	0.007821021
18	0xbcc58605	-0.024111757
19	0x3de6c6a3	0.11268356
20	0xbe712589	-0.23549475
21	0xbc834e6b	-0.016028604
22	0xbe8bfb73	-0.27340278
23	0xbed243e3	-0.41067418
24	0xbde70edb	-0.1128213
25	0xbd284907	-0.04108527
26	0xbd2296a8	-0.03969446
27	0xbc84bec1	-0.01620424
28	0xbd7be87b	-0.061501008
29	0x3c1519d9	0.009100401
30	0x3e235a50	0.1595242
31	0x3bfeffc4	0.0077819545
32	0xbc8e1e4d	-0.017348433
33	0xbe2e5512	-0.17024639
34	0xbd828269	-0.0637253
35	0xc026aaae	-2.6041675
36	0xbc9c505e	-0.01908129
37	0x3bed623a	0.0072443755
38	0xbd9f39c7	-0.07774692
39	0xbe866d47	-0.26255247
40	0xbc4b3624	-0.012403045
41	0xbf7ed2b2	-0.99540246
42	0xbc767506	-0.015042549
43	0xbfe3bb31	-1.7791501
44	0xbf801883	-1.000748
45	0xba434cc0	-0.00074500963
46	0xbcd1b694	-0.025599755
47	0x3de0ddcc	0.109798044
48	0xbc746a89	-0.014917978
49	0xbc9942a4	-0.018708535
50	0x3e93d361	0.28872207
51	0x3dd9af5f	0.106291525
52	0x3e2d428f	0.16919921
53	0xb9eac407	-0.0004477801
54	0x3be58187	0.0070039663
55	0x3e4b841d	0.19874616
56	0x3e3900bb	0.18066685
57	0x3ca24769	0.019809442
58	0x3d12be2a	0.035825886
59	0x3dfd7e24	0.12377575
60	0x3ef56773	0.47930488
61	0x3c85e01f	0.01634222
62	0xc001ac07	-2.0261247
63	0xbd86663f	-0.06562471
64	0xbbc4074a	-0.0059823142
65	0x392ff1db	0.00016779399
66	0x3c2c295b	0.010507907
67	0xbd3006f5	-0.042975385
68	0x3c9a3909	0.018826025
69	0xbd05f273	-0.03270192
70	0x3e06ae0b	0.1315233
71	0x40208f87	2.5087602
72	0xbca51df5	-0.020155886
73	0xbc9e8fe4	-0.019355722
74	0xbe259a27	-0.16172086
75	0xbd290e89	-0.041273627
76	0xbc9b81c9	-0.018982785
77	0x3d212133	0.039338302
78	0xbffc0bfa	-1.9691155
79	0x3ca15c15	0.019697228
80	0xbcbe05a4	-0.023196049
81	0xbb09b41d	-0.0021011897
82	0xbcd54af6	-0.02603672
83	0x3e90be0e	0.2827
84	0xbc5654fd	-0.013081786
85	0x3cade318	0.02122645
86	0x3be7b559	0.007071179
87	0xbb72df7f	-0.0037059484
88	0x3cb8ba62	0.022549812
89	0xbfc2b64c	-1.5211883
90	0xbfa5b0b5	-1.2944552
91	0xbdd204af	-0.102547996
92	0xbc8c6869	-0.01713963
93	0xbe08ca95	-0.13358529
94	0xbd91cd5e	-0.07119249
95	0xbdf4c252	-0.11951126
96	0x3c696345	0.014244859
97	0x3e1535f7	0.14571367
98	0x3b141ba3	0.002259948
99	0xbbc2766b	-0.0059345267
100	0x3e4c3bb9	0.19944657
101	0xbcd0348c	-0.025415681
102	0x3e2ac467	0.16676484
103	0x3ccd8ab1	0.025090547
104	0x3f2a9830	0.6663847
105	0xbcf75d4b	-0.030195853
106	0x3c63ceae	0.013904257
107	0xbc4a8c9e	-0.012362627
108	0xbd0da811	-0.03458411
109	0xbd6836ae	-0.05669277
110	0x3c9fd55f	0.019510923
111	0xbc2a567d	-0.010396597
112	0xbd0a7cba	-0.033810355
113	0xbbe7e86d	-0.007077268
114	0xbca838a0	-0.020534813
115	0xbf59e96d	-0.85121804
116	0xbdb078fd	-0.08616827
117	0x3cf80ed6	0.030280512
118	0x3cbeec5e	0.023306068
119	0xbbf810b9	-0.007570353
120	0xbe07f65d	-0.13277574
121	0x3d11d5ce	0.03560429
122	0xbdcab83a	-0.0989842
123	0xbdc71206	-0.097202346
124	0x3e824832	0.25445706
125	0x3b04694c	0.0020204363
126	0xbcaf6238	-0.021409139
127	0x3f4207f4	0.75793386
128	0x3c8a1370	0.016854972
129	0x3eb5aae0	0.3548193
130	0xc0131908	-2.2984028
131	0x3b4a3b3f	0.0030858067
132	0xbd2215e1	-0.039571647
133	0x3e9aed93	0.3025938
134	0xbcc7988f	-0.024364738
135	0xbd8a89cb	-0.06764563
136	0xbd7fe0a7	-0.062470105
137	0xbd7a78bc	-0.061150298
138	0x3c0d5646	0.008626526
139	0x3cb615e2	0.022227231
140	0xbe36dc41	-0.17857458
141	0xbca01b9c	-0.019544415
142	0xbd5afa2d	-0.053461242
143	0x3dd20bee	0.10256182
144	0xbdfa1008	-0.12210089
145	0x3a93b697	0.0011269626
146	0xbe663ead	-0.22484846
147	0xbcef0338	-0.02917634
148	0xbeb239bb	-0.3480967
149	0xbdf6567f	-0.120282166
150	0xbd05c45c	-0.032657966
151	0xbdacc0d5	-0.08435217
152	0xbdaa7448	-0.0832296
153	0xbf283557	-0.6570639
154	0xbf4ccdf7	-0.8000178
155	0xbca3dfd6	-0.020004194
156	0xbdd48855	-0.10377566
157	0xbcdb789f	-0.026790915
158	0x3d115bc8	0.03548792
159	0x3c03d8f5	0.008047332
160	0xbdfdc8d5	-0.12391821
161	0xbf489304	-0.7834933
162	0x3c2a60df	0.010399072
163	0xbd1139ce	-0.035455517
164	0xbc88e52b	-0.016710838
165	0x3e66d731	0.22543027
166	0x3e3b3398	0.182814
167	0xbe4da7df	-0.20083569
168	0x3c71b568	0.014752723
169	0xbf03db1d	-0.51506215
170	0xbdd0c14a	-0.10193117
171	0x3eaf3a44	0.3422414
172	0x3d720c2e	0.059093647
173	0xbf4da0f5	-0.80323726
174	0xbcbe3fc3	-0.023223763
175	0xbd68d4ac	-0.056843445
176	0x3d95debe	0.07317875
177	0xbc1d77ef	-0.009611114
178	0xbbf0b273	-0.0073454916
179	0xbdf06b43	-0.117392085
180	0xbda049be	-0.07826565
181	0x3d24137a	0.040057637
182	0x401db0ab	2.463908
183	0xbcf33b31	-0.02969131
184	0x3d92bbf0	0.071647525
185	0x3e763361	0.24043037
186	0xbd11d6ae	-0.035605125
187	0x3e93a225	0.28834644
188	0xbf9b3c2b	-1.2127737
189	0xbd354891	-0.044258658
190	0xbdde763e	-0.10862397
191	0xbd73eda9	-0.059552822
192	0x3cbc179d	0.022960478
193	0x3dd964f1	0.10614956
194	0xbc814c2c	-0.015783392
195	0x3ccdcd98	0.025122449
196	0x3e8b82d5	0.27248254
197	0xbdde0357	-0.10840481
198	0xbd93a169	-0.07208521
199	0xbf1f2073	-0.6215889
200	0xbdb13a42	-0.0865369
201	0xbb583441	-0.003299013
202	0xc05ef07a	-3.4834275
203	0xbcb0742a	-0.021539766
204	0x3aff102f	0.0019459779
205	0x3a58b921	0.00082673325
206	0xba726fbd	-0.00092482177
207	0xbbc1f7bd	-0.0059194253
208	0xbd33de6a	-0.043913282
209	0x3cdbd15e	0.026833232
210	0x3c257ae1	0.010100097
211	0xbd184513	-0.03717525
212	0xbd3e3dca	-0.046445645
213	0xbc6732d5	-0.01411124
214	0xbcbc189a	-0.02296095
215	0xbd32f385	-0.04368927
216	0x3f02efc7	0.5114712
217	0xbdc6c4b9	-0.097054906
218	0x4013bc0e	2.308353
219	0x3cc9e2f6	0.024644356
220	0x3b869112	0.004106649
221	0x3ae76886	0.0017655052
222	0x3eb6d9ce	0.35713047
223	0xbd915690	-0.070965886
224	0x3bb33425	0.0054688626
225	0xbc8c7ca5	-0.017149279
226	0x3b1098e3	0.0022063784
227	0x3c2fdeb7	0.010734252
228	0xbd9c9c86	-0.07647042
229	0x3e4a24fb	0.1974067
230	0x3ca5ffc0	0.020263553
231	0xbc92e46f	-0.017931191
232	0x3d909639	0.07059903
233	0x3cd75a08	0.026288047
234	0x3c3707bf	0.01117128
235	0xbcbbbce5	-0.02291722
236	0xbe27e855	-0.16397221
237	0x3deaad43	0.11458828
238	0x3ca0cf43	0.01963008
239	0xbd7d19ef	-0.06179231
240	0xbb4b572f	-0.0031027307
241	0x3a674600	0.00088223815
242	0x3c87b3ad	0.016565168
243	0x3ce85706	0.028361809
244	0x3b9718be	0.004611104
245	0x3c3f5462	0.011677833
246	0xbd51d26b	-0.05122606
247	0xbdd9e9e7	-0.106403165
248	0xbce9cfde	-0.028541502
249	0xbcf75aca	-0.030194659
250	0xbbda6f08	-0.006666068
251	0xbdd9bd5b	-0.1063182
252	0x3c0b8ab5	0.008516957
253	0xbdbb2046	-0.09137015
254	0xbf22c60a	-0.63583434
255	0xbcb83b9a	-0.022489358
