models/BipedalWalker-v2/critic.pth (torch, 530647 bytes, 5 tensors)

l1.weight f4 [400, 28]
00000000: adac d4bd 31c6 2ebe a458 04bf 921d b0bc
00000010: 47a5 d23d 12f4 4abe 7ec5 50be be9a 09bf
00000020: 7fb1 bdbd 30a2 91be 269c cb3d 6719 7bbe
00000030: e689 c73b bf46 c3be 686b 27bf 516d 1dbf
00000040: f313 20bf ba41 c6be 71be e2be 142c a5be
00000050: 215a 04bf faef 03bf 8724 1abf 2367 d3be
00000060: 7f32 bfbb 86b3 a6bc 44e6 c73c e5dd b6bd
00000070: 7c3c 6dbd 6b3f e9bf e1c3 b63f de93 1f3f
00000080: 024d 093e 811c 2bbc 50b9 0a3e aad4 0cbd
00000090: cfd5 b2be 03a5 67be 705f 4f3e 4678 d73d
000000a0: 10dc c2bc 1094 a3be ed80 bbbe d71d 8fbe
000000b0: eb0f 35be 6c46 97be b1be 00bf 2cea aabe
000000c0: cf7e 15be 235f 99be 0aac 8fbd 1a62 1d3f
000000d0: e476 1cbd 97d7 89bd 4fb9 58bd 9c51 3fbd
000000e0: 7088 cabe b0ac b8be a3fd c13f c80a 05c0
000000f0: 87c0 e7be 5a1a dabd 5e29 97be 726c 8e3d
00000100: 6d38 33bf 2aef 083f 889c 1bbf 55c0 a8be
00000110: 6c47 a8be e73b 0dbf 5773 89bd 6035 003c
00000120: fd9f 28bd bf2a 44bd dc6e b8bd 6fca 3abe
00000130: 955a 9fbe 8e89 21be 9cfa 94be aa46 53be
00000140: d564 9b3d de22 cebd 39f5 173e 38ff 0d3f
00000150: a20f 9b3d 0458 323e 602f 2a3f fdf7 dabf
00000160: 2b0e 18be 9006 1bbf 680f 45bf 8f8d e2be
00000170: 9bd2 07be a11c dbbe a364 2a3e 09bd 40bf
00000180: 13cd 62be c8d9 91be b755 e5be 2cd0 0ebf
00000190: 1366 d9be cc86 13bf 964a 10bf b730 17bf
000001a0: c8e4 c8be f01d d8be 8896 43be aedb fe3e
000001b0: f742 3cbf 9855 b5be 74de ed3e 0a29 2b3e
000001c0: ae04 a03f 9676 0341 9154 26bf 309d a13f
000001d0: e20d f03d 36d9 a43e a78e 8a3e bf0b ba3d
000001e0: 9319 55bd 0f6b 343f 4559 cb3e 63ab 923e
000001f0: 8f26 573d b5b4 dfbe d3dc f73e 2a81 d73e
00000200: e13c 203f 6b88 113f 7474 183f 1820 143f
00000210: c700 293f 3ff5 c43e 9a78 f9bd 910d 30bf
00000220: 27bc 47bd a94f ebbd 1ea7 553e 1e29 0bbd
00000230: 899a 903f fc21 e53f 9101 a4bf ba51 b73d
00000240: 447e a6be 59c0 cb3d 8371 58be 08cd da3e
00000250: 3f73 383f 14c3 32bf adb6 253e 5e06 e53e
00000260: d16b 9b3d c542 1a3f 4912 51bf 53f8 18bf
00000270: 7d6d 2fbf ebed 1fbf 0803 09bf e6d1 3cbf
00000280: 661b 30bf 89c7 41bf 166c 13bf f98c 8abe
00000290: 9e11 023e 413c 1f3d 0747 a1bd 2098 a23d
000002a0: a2df a7be b797 ffbe 2753 15bf 092e e63e
000002b0: eb75 0f3f 93d6 a1be ae63 00bf 5e25 973e
000002c0: 0364 4bbd 1044 aabe 3723 7c3f 6257 68bf
000002d0: dcb8 c43e 3c51 98bf 3416 4dbf 23f4 31bf
000002e0: a965 39bf e9e7 1bbf dfc5 09bf 5130 09bf
000002f0: 7030 4abf efc5 3ebf 1308 0bbf 2cf7 40bf
00000300: 21f6 363e d299 a33d c8ba d13e bd32 813e
00000310: 07d1 13c0 8175 66c0 0a2f c63f ce57 873e
00000320: 4fe5 25bf 9066 dbbe f4b0 c53c ba0a 87be
00000330: 8ae0 6a3e cca9 0bbf a749 08be 7692 b4be
00000340: 4eef abbd 7d2a 4abe 350a babe 9582 abbe
00000350: 6b41 e6be ff4f c4be 6c67 f9be 0c67 10bf
00000360: 701a 15bf 5e2f acbe b0fe 43be ab96 f03d
00000370: 3575 8cbe 10da 223e 464f a73a 1227 b2bd
00000380: 6ed4 b2bd 4c10 913c b8e1 07be 354d 8e3e
00000390: d5d6 2fbc 4d56 27be 3e9e c4bd 1123 e2bc
000003a0: 8161 5fbe e4de dbbd 437d 30be 7087 4b3d
000003b0: 050d c0bd 1d8d 2abe 0b75 66bc aaba 0cbe
000003c0: 6adf 44be f7a3 1bbe 07b1 f33c 7563 a2be
000003d0: e771 223d 66ab 67be 8b11 66be eead 98bd
000003e0: 8ece 8fbd fb02 423c 4f49 13bd d5ab 193c
000003f0: 229e e23f 2388 9e40 b7e8 26c0 80c9 343f
-0.10384498 -0.17067792 -0.51697755 -0.021498475 0.102854304 -0.19819668 -0.20387837 -0.5375174
-0.0926237 -0.28444052 0.09941892 -0.24521409 0.006089437 -0.38139912 -0.65398264 -0.6149493
-0.6253044 -0.3872202 -0.4428592 -0.3226019 -0.51700026 -0.5153805 -0.60211986 -0.41289625
-0.005834877 -0.020349275 0.024401791 -0.08929042 -0.05791901 -1.8222479 1.4278527 0.62335
0.13408282 -0.010443808 0.13547254 -0.0343825 -0.34928748 -0.2262154 0.2025125 0.10520987
-0.023786575 -0.319489 -0.366218 -0.27952453 -0.17681853 -0.29545915 -0.5029097 -0.33381784
-0.14599155 -0.29955396 -0.07015236 0.61477816 -0.03819932 -0.067305736 -0.0529111 -0.04670869
-0.3955722 -0.3606925 1.5155529 -2.078783 -0.45264074 -0.106495574 -0.29523748 0.06954278
-0.70007974 0.53489935 -0.6078572 -0.32959238 -0.3286699 -0.5516953 -0.067114525 0.007825226
-0.0411682 -0.04789233 -0.0900552 -0.18241285 -0.31123796 -0.15775129 -0.2909745 -0.20632425
0.075875916 -0.10065244 0.14839639 0.5546756 0.07571341 0.17416388 0.6647854 -1.710693
-0.14849155 -0.6055689 -0.76976633 -0.44248626 -0.13263933 -0.4279528 0.16639952 -0.75288445
-0.22148542 -0.28486466 -0.44791958 -0.55786395 -0.4246069 -0.5762756 -0.5636381 -0.5905871
-0.39237046 -0.4221034 -0.19100392 0.49776977 -0.7353968 -0.35416865 0.4645878 0.16714874
1.2501428 8.216452 -0.6497279 1.2626095 0.11721398 0.3219697 0.2706196 0.09084272
-0.052026343 0.7047586 0.39716545 0.28646383 0.052527007 -0.43692556 0.48410663 0.42090732
0.62592894 0.5684878 0.59552693 0.5786147 0.6601681 0.38468358 -0.12181206 -0.687707
-0.04876342 -0.11489803 0.20864531 -0.03397476 1.129716 1.7900996 -1.2812978 0.08951135
-0.32518208 0.09948797 -0.21137051 0.4273455 0.7205085 -0.69828916 0.16182967 0.4473142
0.07588924 0.6025813 -0.81668526 -0.5975391 -0.6852644 -0.6247241 -0.5352025 -0.7375778
-0.68791807 -0.7569509 -0.575868 -0.2706068 0.12702033 0.038875822 -0.078748755 0.07939172
-0.32787806 -0.49920437 -0.58330005 0.44956997 0.56039304 -0.3160902 -0.501521 0.29520696
-0.049655925 -0.33255053 0.98491234 -0.90758336 0.38422287 -1.1899791 -0.80112004 -0.6951315
-0.72420746 -0.6090074 -0.5381755 -0.5358935 -0.7898016 -0.7452077 -0.54309195 -0.75377154
0.17867328 0.07988323 0.40962815 0.25234023 -2.309633 -3.6009219 1.5483105 0.26434177
-0.6480302 -0.42851686 0.02413223 -0.2637537 0.22937217 -0.54555964 -0.13309346 -0.3526799
-0.08395253 -0.1974277 -0.36335912 -0.33498064 -0.44971785 -0.38342282 -0.48711717 -0.5640724
-0.58243465 -0.33629888 -0.19140124 0.11747488 -0.27433172 0.15903497 0.0012764714 -0.08698858
-0.08731924 0.017707966 -0.13269699 0.2779328 -0.010732372 -0.16341515 -0.09600495 -0.027604612
-0.21814539 -0.107358724 -0.17235284 0.04968971 -0.09377483 -0.16655393 -0.014065991 -0.13743082
-0.1922585 -0.15199266 0.0297475 -0.31716505 0.039659407 -0.22623977 -0.2246763 -0.074550495
-0.07021819 0.011841531 -0.035958584 0.009379347 1.7704508 4.9541183 -2.6079538 0.70619965

l1.bias f4 [400]
00000000: ee76 eabe 8f7c 383f 3c87 6cbe 2fc7 ae3e
00000010: 6185 49bf 0498 5cbe 0770 55bf c4fe ef3d
00000020: 6db4 a1be 67cc 14bf 8a1f c63d eec5 59be
00000030: e131 bb3d 9159 2abe 8625 e93e 2719 063e
00000040: 0aba 02be 54a8 1d3e fddb 1fbe f4e9 a63e
00000050: 4f57 5ebe 8ba7 b63d 4a97 e6be 3843 56bf
00000060: ebe7 ef3e 5e2f e5be 5b7e d5be 416a 2f3d
00000070: 28c8 a8be 0999 0a3f 79f3 c4be 3ee6 acbe
00000080: 1c24 21be 9b21 c8be 9f3f 0fbf ed7b dabd
00000090: 469c 6abf 11c8 07bf e6f0 6c3f a90f 79bd
000000a0: 2578 79be 6261 87be 532c c9be 7b2e b93e
000000b0: d6d3 c83d 2f26 53bf 7edf f63d ec62 cabe
000000c0: 3abf b1be 87b9 d1be 0333 b1be d1da 94bd
000000d0: 3339 d9bc b036 03bf 06df 16bf 1252 d6be
000000e0: 11c6 1bbf 814b d1bd 9cee 15bf a748 d6bd
000000f0: 690a 1abf 9f2a 753f 191a 56bf 7fc5 0cbf
00000100: aab4 eebe b3b0 b63e ce4f 18bf 2e2a 9dbe
00000110: 8bd6 eebe 2ca0 6abf 9842 edbe 70a0 92be
00000120: 4f1d 15bf dda3 6dbf e760 08be efe6 f33d
00000130: 9b02 71be cf4b c5bc a783 053e dbbf 013e
00000140: a03d 0a3e 55a5 aebe b83d b1be b4fc 463d
00000150: cab3 ea3e 8496 41bf 0b96 b2be d80a 26bf
00000160: 900b dabe d1a8 a9be ad07 ffbe 600d f93c
00000170: 5a87 053e 5332 323f fcb6 c43d f662 6abd
00000180: 486b 05bf 73eb e2be 7b35 b7be 3922 1bbf
00000190: 4063 3bbe 765a babe 9cb7 de3e e559 bfbe
000001a0: 3888 eb3e b874 61bf 1823 f6be 3b44 3a3e
000001b0: c44e 2b3e 0ac2 8ebe 602e 71be 5f59 0bbf
000001c0: 7891 10bf be41 21bf 3fef f13e a149 2dbe
000001d0: f64c 7cbe 2aa4 20bf 18f5 68be 4eca 1fbf
000001e0: 5ca3 443d b858 d8be 06aa cabe 265e 49be
000001f0: 8ab9 22bf 795a 33be 429c cf3e dd85 233e
00000200: fd4d d63e 9a8a 73be 7b75 bbbe ddb2 463e
00000210: ffb2 94be 68aa 523d 9bb5 353e c2e5 19bf
00000220: 8076 f8be 79ae 8dbe 85df 00bf c363 75be
00000230: 113d 96be c625 98be b4d6 54be 0445 a1be
00000240: 3d78 30bf 7f7b dabe d46f d6be 3a4f 2e3e
00000250: eb9d 90be 9ed4 77bf a0ac f9be 5a61 16bd
00000260: c814 dabe 08e0 acbe 84ad 6abe 4391 e5be
00000270: 14cc 17bf 5ba2 1b3f 7b8f c53d 63a1 e4be
00000280: b19d d1be 7e24 d2bd e8b7 12bf 22f1 00bf
00000290: 614f e2be 76c0 9ebe 8667 2abe 7c20 29bf
000002a0: c028 b0be d215 26bd 6fe7 20bf 787b 1abe
000002b0: d444 023f 40a5 0abf 8677 16bf 3f94 f8be
000002c0: b904 e4be d8ee 2f3f 812b aebe 54bd 8f3e
000002d0: e6d3 553f 22c6 6bbe ab20 40bf a999 cbbe
000002e0: ab47 f5be da28 ad3d f34b 26be e961 5bbf
000002f0: 706b 303f 1d67 bbbe 23e6 91bd 6e31 79be
00000300: 46db 06bf 5f03 20bf cdfe b3be 6606 e2bb
00000310: 1476 3abf f8f3 a13d cc67 4e3a 95c7 8f3f
00000320: c238 53bf eaa1 1fbe 3adc 7e3f fc11 04bf
00000330: e675 cdbe 91f3 d4be cb85 0ebf 029c 25bf
00000340: ee11 2dbe 61fc c6be cde3 90be 7518 273d
00000350: d78c 3ebf edde 6fbe d514 12bf ad09 eebd
00000360: c50b b9be 6437 4d3f ccf4 13bf 2ae6 79bf
00000370: 90ae 3cbf 435d b4be f060 b3be 512d 46bf
00000380: f496 0b3d 4e9b 36bf 47ec 523d 9d04 0bbf
00000390: 086f 04bf 4066 4bbe 6419 dcbe a1ce f2be
000003a0: af37 24be 61e9 193f 37d7 0cbf 7e7b 03be
000003b0: 4756 38bf 6492 2ebe fd3b 523d c085 7d3b
000003c0: 01ee d6be ebd3 3cbf 7527 a33e a492 323e
000003d0: eaf4 4dbe 8b87 a4be 2c70 78be d337 4bbf
000003e0: fded 833f 6be7 57bf 6535 25bf cd18 7cbe
000003f0: 17ea 8a3f d880 2bbe be92 00be ad6a 66be
-0.4579386 0.7206506 -0.23098463 0.3413634 -0.78719145 -0.21542364 -0.83374065 0.117185146
-0.31582966 -0.58124393 0.09673984 -0.2126691 0.09140373 -0.1663573 0.4553644 0.13095532
-0.12766281 0.15396243 -0.15611263 0.32600367 -0.21712993 0.08918675 -0.450373 -0.8369632
0.46856627 -0.447627 -0.41697964 0.04282594 -0.32965207 0.54139763 -0.38467005 -0.3376941
-0.15736431 -0.3908814 -0.55956453 -0.10668168 -0.91644704 -0.5303965 0.9255508 -0.06080595
-0.24362238 -0.26441485 -0.3929163 0.36168274 0.098060295 -0.8248014 0.120543465 -0.39528596
-0.34716207 -0.4096186 -0.3460923 -0.072682984 -0.026516533 -0.5125532 -0.58934057 -0.4185949
-0.608491 -0.10219479 -0.58567214 -0.10463076 -0.60172135 0.9576816 -0.8363357 -0.54988855
-0.4662221 0.35681686 -0.5949677 -0.30696243 -0.46648058 -0.9165065 -0.4633987 -0.2863803
-0.58247846 -0.9282816 -0.13318215 0.119092815 -0.2353615 -0.024084 0.13038503 0.12670843
0.1350007 -0.34110513 -0.346174 0.04858084 0.45840293 -0.75620294 -0.348801 -0.64860296
-0.42586946 -0.3313661 -0.49810544 0.030401886 0.13039914 0.6960804 0.09605214 -0.057223283
-0.52116823 -0.44320258 -0.3578299 -0.60599095 -0.1829958 -0.3639714 0.43499458 -0.37373272
0.46002364 -0.88068724 -0.4807365 0.1819009 0.16729265 -0.27882415 -0.23552847 -0.54433244
-0.5647197 -0.6299094 0.47252843 -0.16922618 -0.24638733 -0.62750494 -0.22749746 -0.6241807
0.048007354 -0.42255187 -0.39582843 -0.19664821 -0.6356436 -0.17514981 0.40548903 0.15969034
0.41856375 -0.23783341 -0.36613068 0.19404168 -0.29042813 0.051432043 0.17745058 -0.6011621
-0.48527908 -0.27672175 -0.50341064 -0.23963837 -0.29343465 -0.2971632 -0.20785028 -0.31497967
-0.6893347 -0.42672345 -0.41882193 0.1702241 -0.28245482 -0.96808803 -0.48764515 -0.036713935
-0.4259398 -0.33764672 -0.22917753 -0.44837388 -0.59295774 0.6079461 0.09646507 -0.44654378
-0.40940621 -0.102608666 -0.5731187 -0.5036794 -0.44201186 -0.3100621 -0.16641054 -0.6606519
-0.3440609 -0.040548153 -0.6285314 -0.15086162 0.50886273 -0.541584 -0.5877613 -0.48550603
-0.44534853 0.6872382 -0.34017566 0.28074133 0.83526456 -0.230248 -0.7504985 -0.3976567
-0.4790624 0.084550574 -0.1623991 -0.85696274 0.68913937 -0.36602107 -0.07123973 -0.24335262
-0.52678335 -0.62505144 -0.35155335 -0.0068977354 -0.7283642 0.079078615 0.00078737433 1.1232783
-0.8250848 -0.15589109 0.9955479 -0.5158994 -0.40129012 -0.41592076 -0.556729 -0.64691174
-0.16901371 -0.38864425 -0.28298798 0.04079481 -0.74433655 -0.23424883 -0.5706304 -0.11622939
-0.36141792 0.80162644 -0.57795405 -0.9761683 -0.7370386 -0.35227403 -0.35034895 -0.774129
0.034079507 -0.71330726 0.051494863 -0.54303914 -0.5173192 -0.19863224 -0.42988122 -0.4742327
-0.16036867 0.6012173 -0.5501589 -0.12840077 -0.7200665 -0.17048031 0.05132674 0.0038684458
-0.41978458 -0.7376086 0.3186604 0.17438751 -0.20112959 -0.3213466 -0.2426154 -0.79382056
1.0307003 -0.8433749 -0.645346 -0.24618836 1.0852689 -0.16748369 -0.12555978 -0.22501631

l2.weight f4 [300, 400]
00000000: 4ab3 fabd 9fc8 51be 4a13 8cbe 0773 c6bd
00000010: a4f5 57be ab71 04be 63bf 5dbe 616e 94bd
00000020: 212a 7f3a b9b2 9f3c edd9 cbbd e6e4 4abd
00000030: 7d13 ab3d 08a9 233e 189a c73d 08b6 97be
00000040: a8a1 513d 3b64 65bd d208 5f3c 7645 6abe
00000050: 9d2f 123d a4f0 6cbd c2f9 53be f43f 133c
00000060: b87a 08be 427a b1be 0062 893b 20ed 93bd
00000070: b543 31be ba01 6dbe a4c0 74bc 5b13 363d
00000080: c21e c53d fc7a 9c3d 39a1 743c a78e 573d
00000090: 99d5 01bd 4d62 493d 2400 923b 3f97 1a3e
000000a0: f98c f63b 9c25 09bf 6970 b33a 86ea 7dbe
000000b0: 1905 303e 4586 0abe 34ce e6bd fe02 053e
000000c0: a4f9 c73d 6d6e a2bd 4204 3dbe dbb1 bfbd
000000d0: 5ddb 5c3d 326b 393c ecc2 1e3d 8de0 b4bd
000000e0: 49b8 85bd 424b 3ebc 135d c3bd 5b96 34be
000000f0: a049 6c3a ec15 debd f244 88be 63a6 193c
00000100: 39d2 9d3b 23d3 76bd 0152 dd3d 8131 153e
00000110: 6a33 fdbd f12c bebe a4d8 a23d bd73 6fbb
00000120: 89ba 6ebd de93 35bd 38ea 13be 8e7b 25be
00000130: c221 123e 079f fbbc 9e91 02be c265 87bc
00000140: fb99 c73b f6f4 54be 6d25 05bc 49f7 253e
00000150: ab12 4fbe d4a2 a43d 18fd 9dbb 953e 68be
00000160: ee6a 643d 9c92 483e ef93 9cbd 24ab 03be
00000170: 858a 7d3c 7b21 88bd 9bc2 cd3d d402 233b
00000180: 95fc 28bd cce2 293c 5faa f83c 9140 05bc
00000190: 2d8e e83c 18e6 113e 7625 64bd 0444 bf3d
000001a0: ff32 19be f16e 45be ec84 44be bc7e fbbd
000001b0: 5194 583d 9405 033c f149 13bd ad3f e8bc
000001c0: a4da 31be 6333 8dbc 1d88 0a3d 07da 11be
000001d0: d186 a7bd c3e2 4a3c 0afb d8bc 8198 1cbd
000001e0: 3d4f 33bd e63f 843d 33ba c3bd 90ad 76bc
000001f0: a4d0 0abd d094 68be badc 80be 9a09 cbbd
00000200: 3be9 0b3d d8be 1a3d 2c33 0a3d de71 d03d
00000210: 9042 10be e42e 8ebd 1cb5 d23c 8fc9 493d
00000220: 4a0f adbe 43ae 0a3c b2b5 89be ef13 043d
00000230: 2671 1e3e 9778 e0bc 8c28 4cbc 64ed e5bc
00000240: ddf0 2abe 09e6 303c 8ee1 39be 3632 49be
00000250: a7c1 a13d bb4c 90bd 24d0 42be dd87 41b9
00000260: cd9d 033e d1ac ef3c de60 3abe 4008 d3bc
00000270: ed4f 90bb d27a 0c3e 0efe a4be 0900 e6bd
00000280: fdf0 58be 14ad a13d 01f6 d7bd 9ff4 933d
00000290: 884e 46be 2a42 f13b 362f 94bc f261 e83c
000002a0: 4714 fdbd 3fff b6bc 532c 34be d00a e9bd
000002b0: 1e30 623d cc44 e23c 3bbf 19be 6c1a f93d
000002c0: 7318 883d 6bab 963d 7d56 adbd 7190 4cbe
000002d0: 78e7 823c edc6 a03d d2da c5be a8cd b8bc
000002e0: 8293 cbbd 5efc 56be c0e6 223c d260 9a3d
000002f0: 3fea babc 6065 993d c178 45bd f288 a1be
00000300: 8f83 92be 0b05 b43d fc7e 28be 5aaa 91be
00000310: 1954 8bbd f722 75bd bbd2 24be 590d a9bd
00000320: 04f3 eebd e763 f6bd 7458 28bd 3497 43bd
00000330: 1442 adbd f7ef d9bd 7c09 56bd be3b d9bd
00000340: a60c 25bd 3672 ab3d 5f2d 15be 317f 33bd
00000350: 2b2b 51be bd0d 12bd 0ec3 1abe 924a acbc
00000360: 8edd 7ebe 5b17 713d 7f72 1abd bb91 54bd
00000370: bd40 5fbd 71e2 1bbe 699f 40bd 6851 79bd
00000380: b186 4bbe 04f6 073e b939 47bd 13b6 69be
00000390: 8e43 92bd d9d4 2ebe f503 5abd c9c7 56bd
000003a0: b532 4dbd ad1e ebbc ebfc a4be f099 ddbd
000003b0: f7ed 48be 7a4a 42bd b4dd e63d 5d94 acbc
000003c0: 1921 bcbc 9e75 f6bb a185 a3bd b5ae d5be
000003d0: 6100 88bd 9ee2 85be 1a92 3c3e 7b07 3bbe
000003e0: ed8b 06bd 5737 94be af46 aebe bf8f 11be
000003f0: c131 fabd 8e00 9dbe 7417 b4bd 4018 4abd
-0.12241228 -0.20486687 -0.27358466 -0.096899085 -0.21089798 -0.12933986 -0.2165504 -0.072476156
0.0009733756 0.019494401 -0.099536754 -0.0495347 0.083533265 0.15982449 0.09746188 -0.29631066
0.051179558 -0.05600379 0.013612943 -0.2287806 0.03568994 -0.05784668 -0.20700744 0.008987416
-0.13328063 -0.34663588 0.0041925907 -0.072229624 -0.17310984 -0.2314519 -0.014938507 0.044452053
0.09625007 0.07640645 0.014931017 0.05262628 -0.031697843 0.049166013 0.004455583 0.15096758
0.0075241295 -0.5357301 0.0013690117 -0.24796495 0.17189445 -0.13527782 -0.11269799 0.12989423
0.09764412 -0.07931218 -0.18458655 -0.09360095 0.05392014 0.011317061 0.03876011 -0.08831892
-0.0652929 -0.011614623 -0.09539237 -0.17635481 0.00090136565 -0.10844025 -0.266151 0.009378049
0.0048163203 -0.06025995 0.10806657 0.14569665 -0.12363322 -0.37143663 0.07951477 -0.0036537491
-0.058283363 -0.04433047 -0.14444816 -0.16160414 0.1427069 -0.030715479 -0.12750861 -0.016528014
0.006091354 -0.2079657 -0.008126599 0.16207613 -0.20221965 0.080388695 -0.004821431 -0.22680123
0.05576604 0.19587177 -0.076454036 -0.12858254 0.01547492 -0.06647011 0.10046884 0.0024873512
-0.041256506 0.010369014 0.030354677 -0.00813307 0.028388107 0.1424793 -0.055699788 0.09339145
-0.1496086 -0.19280602 -0.1919133 -0.12280032 0.05287582 0.007996935 -0.035959188 -0.028350675
-0.17368561 -0.017236417 0.033821214 -0.14243327 -0.08180011 0.012383166 -0.026486892 -0.038231377
-0.04377674 0.064575 -0.09556999 -0.015056029 -0.03389038 -0.22713017 -0.251684 -0.09913941
0.034157973 0.03777966 0.033740208 0.101779684 -0.14087892 -0.069425374 0.025721125 0.049264487
-0.33800727 0.008464399 -0.26896435 0.032245573 0.1547285 -0.027401252 -0.012460839 -0.028067298
-0.16693445 0.010797032 -0.18152449 -0.1964806 0.078982644 -0.07045885 -0.19024712 -0.00018456527
0.12853165 0.02925721 -0.18201014 -0.02576077 -0.004404059 0.13718727 -0.32225078 -0.112304755
-0.2118568 0.0789434 -0.105449684 0.07224392 -0.19365895 0.0073626237 -0.018088918 0.028367016
-0.12357383 -0.022338508 -0.17595033 -0.113790154 0.05522167 0.027620696 -0.15014355 0.12163243
0.06645288 0.07356914 -0.08463762 -0.19976975 0.015979514 0.07850442 -0.3864351 -0.022559002
-0.09940244 -0.20994708 0.00994271 0.07537998 -0.022816775 0.07490039 -0.048210863 -0.31549793
-0.28615996 0.08790024 -0.1645469 -0.2845028 -0.0680315 -0.0598478 -0.16096012 -0.08254499
-0.11667445 -0.120307736 -0.04109998 -0.04775162 -0.08459869 -0.10641473 -0.05225514 -0.10607098
-0.040295266 0.083713934 -0.14568089 -0.04382247 -0.20426624 -0.035657633 -0.1511347 -0.021031652
-0.24889204 0.058860164 -0.03770685 -0.051896792 -0.0545051 -0.152231 -0.047027025 -0.06086865
-0.198756 0.13277441 -0.048639033 -0.22823362 -0.07141791 -0.17073382 -0.05322643 -0.052436624
-0.050097186 -0.02870115 -0.3222421 -0.10820377 -0.19622026 -0.047434308 0.11272755 -0.021066839
-0.022965001 -0.0075213453 -0.07984472 -0.41734853 -0.06640697 -0.26149458 0.18415108 -0.18264572
-0.032848287 -0.2894847 -0.34038302 -0.14214991 -0.12216521 -0.30664486 -0.08793536 -0.049339533

l2.bias f4 [300]
00000000: 52ab 64bd d832 f2bc d8aa 6fbd 775f 74bc
00000010: ffc9 983e 26c1 58ba 30cc 733f 48de 08be
00000020: 6d86 37bd 945b bbbe e90b acbd 63ad 26bd
00000030: 5784 cc3b 902f 8fbd d86a 5d3b 5341 33bd
00000040: 66f6 70bd e75f babc b787 f0bc 3121 193c
00000050: 45e2 fabd 95c8 d9bd 7028 313f 1385 86be
00000060: 894f 96bd 87a1 3dbd 49ef 7cbd 1019 70bd
00000070: 1949 d8bd 9738 78bd d7b7 853f b6f8 a0bd
00000080: 6353 e0bc 34c8 4b3f 956a d2bd 59aa af3e
00000090: 16f2 89bd 9f08 62bd 48c4 96bd 8622 ac3f
000000a0: 4205 dbbc 3d1c 91be aaba cebd bbea 773e
000000b0: cea6 133e 3c45 93bc 1943 133b feaf b13e
000000c0: 3f4c 65bd f93f ecbc 4613 353f d3f2 303f
000000d0: 6b54 803f c55d 28bd c5cd 9dbd 9a38 473f
000000e0: a1ea 2f3f 15e3 8dbd efdd 98bd 0189 073f
000000f0: 527d 623f f72d 8ebd 3b33 2b3e 49fc 573f
00000100: 9f4c bdbd b40e 36bd cf6b 72bd 99a7 69bd
00000110: 87e1 84bc 63f0 a8bd 5003 703f 1af1 703e
00000120: 278e 75bd 881e 09bd b85e 0abe b3ab ffbd
00000130: 146d d0bc b1ce 36bd 285d f63e 3205 1fbd
00000140: cbca aabd bc60 41bd 676d 18bd 7426 7b3f
00000150: b1ba b6bd cba9 4abd 447f b7bd 1de8 b8bd
00000160: 7e39 f1bd 5772 d03f d5a4 f6be bb08 91bd
00000170: a589 42bd 9ad6 82bc 7f98 1cbc 4365 613e
00000180: 25a7 af3c a051 383f 18bf a1bc f0cc 7abb
00000190: a5aa c53e 8062 10bd f68e 693f 44c0 4cbc
000001a0: 7bcb 943d 5801 e1bc 2acb 61bd 7929 e1ba
000001b0: 7daf 1cbd 5ef5 b9bd 6510 de3b 2ce1 c4bc
000001c0: 0c08 adbd 5c51 2abd 6c8c 96bd bcf2 af3f
000001d0: dc4e 483f ab3f 153c 5b5f a8bc 47b7 b3bc
000001e0: c4d8 adbc 41a4 e7bd cf94 95bd 1d03 e6bc
000001f0: 9b56 733f 1af2 adbd 0703 0abc 1cea 3b3e
00000200: 485a e0bd 35ef 723f 12cb 073d 8dce 8bbd
00000210: 0be5 f3bc a952 673f 1cf0 0dbd 9347 bbbd
00000220: 6f45 56bd 929d 34bd aa98 63bd 2c29 1fbc
00000230: f4b5 a6bd 0136 24be 3934 dcbd e0f3 59bd
00000240: 0b8d 5fbd 1d77 27bd b28e cabc 70f2 a2bd
00000250: b63c 25be ff40 e3bd eff1 7abd beb7 8ebd
00000260: 016d 34bd 0eb5 fb3c 8d24 ba3f f48e 1dbd
00000270: fa77 09be 33b2 07bd efea c8bd 92a1 fbbb
00000280: 4a1b cfbb 792d 3e3e 1dfa e5bc 19e3 6abc
00000290: d9e0 c5bd 9863 ec3e 0767 5d3f 4610 3dbd
000002a0: 36a4 55bc 110f 9d3f d2bb cbbd 4fc6 433f
000002b0: 60ca 6c3f 33ba 4bbc 2703 8b3e 42b9 03bd
000002c0: 4a75 4a3f 280d d5bd 3a2f 26be 5560 b9be
000002d0: 0ad6 7dbd c8f1 673f 6f60 d1bb 1029 62bd
000002e0: 1a3c 173f dd02 6d3f 893c 1a3c 5773 d13e
000002f0: 1141 08bf 77ea 26bc ebb7 8bbd 3b05 cabd
00000300: 7c88 41bd 7b81 05bd 878b a5ba fd0e 4dbd
00000310: 2878 583e 0590 eb3d 4f8f 99bd 3e14 c63f
00000320: 6768 743f e4ce c7bd 43fb 673f dd86 a2bd
00000330: 0a70 a8bc 5cab 58bd 2e72 a93a cb62 4dbd
00000340: 33e9 cabd c908 d9bc 8a9d 83bd ce16 06bd
00000350: 0265 7abd 2f70 3d3b fe7e 1bbd d033 49bd
00000360: 6d62 17bd 4f3a 00be dd3b debf d6cc 41bc
00000370: 12a3 25bd 2ae2 66bd 5b77 7b3f fcfa 613f
00000380: cf09 23bd fd22 9fbd 8104 8cbd 6024 1e3b
00000390: a117 b3bd 6a73 c03d 624e c5bc f402 91bd
000003a0: af07 383f f577 83bd 901c c4bd 9eb9 75bd
000003b0: ae36 b53f 0245 623f 22b1 b0bd 3a46 adbc
000003c0: df5a 74bd 2070 24bc cd1d 633f 0a0f f23b
000003d0: 75c8 94bd fbc9 fdbc 7ce0 dbbd b48b 0c3e
000003e0: 9e64 9fbd 3a15 8fbd 62c1 afbd 4ac1 83bd
000003f0: 5905 0abd 98cc e7bd ee6e ab3f 4909 62bd
-0.055827446 -0.02956526 -0.05851254 -0.014915339 0.2984161 -0.00082685275 0.9523344 -0.13366044
-0.044805933 -0.36593306 -0.08400709 -0.0406927 0.006241362 -0.06991494 0.0033785608 -0.04376347
-0.058828734 -0.022750808 -0.029361589 0.009346292 -0.12250189 -0.10633961 0.6920233 -0.26273403
-0.07339389 -0.046296623 -0.061751638 -0.05861765 -0.10560817 -0.060600843 1.0446728 -0.07859938
-0.027383512 0.7960236 -0.10274235 0.34309652 -0.06735627 -0.055184003 -0.073616564 1.3448036
-0.026735906 -0.28341857 -0.10094197 0.24210636 0.144191 -0.01797735 0.0022470413 0.34704584
-0.055980917 -0.028839098 0.70732534 0.6912052 1.0025762 -0.04110505 -0.07705263 0.7782074
0.6871739 -0.06928078 -0.074642055 0.52943426 0.88472474 -0.06942361 0.16718762 0.8436933
-0.0924313 -0.044447616 -0.059184846 -0.0570446 -0.016220821 -0.08248975 0.93755054 0.23529473
-0.05995002 -0.033476382 -0.13512695 -0.12483921 -0.025442638 -0.04463071 0.48117948 -0.038823314
-0.08339461 -0.047211394 -0.03721371 0.9810555 -0.08922327 -0.049478333 -0.08959821 -0.09028647
-0.11778544 1.6284894 -0.48172632 -0.07081743 -0.04749455 -0.01597147 -0.009557842 0.22011285
0.021442005 0.7199955 -0.01974444 -0.0038269125 0.38606754 -0.035250187 0.91233766 -0.012497012
0.07265373 -0.027466461 -0.055125393 -0.0017178498 -0.038253296 -0.09080003 0.0067768567 -0.024033152
-0.084488004 -0.041581497 -0.07351002 1.3745952 0.7824533 0.009109418 -0.020553282 -0.02193798
-0.021221526 -0.11310626 -0.073037736 -0.028077656 0.95054024 -0.08493443 -0.008423573 0.18351024
-0.1095472 0.9489625 0.033152647 -0.06826506 -0.029772302 0.90360504 -0.034652814 -0.09144511
-0.05231231 -0.044095583 -0.055565514 -0.009714406 -0.081401736 -0.16036226 -0.10752148 -0.053211093
-0.05457787 -0.04088508 -0.024726246 -0.079563975 -0.1613644 -0.110963814 -0.061265882 -0.0696864
-0.044049267 0.030725982 1.4542404 -0.03846641 -0.13424674 -0.03312893 -0.09810435 -0.007679173
-0.006320392 0.18572034 -0.028073365 -0.014336371 -0.09662027 0.46169734 0.8648533 -0.046158098
-0.013039639 1.2270223 -0.09947933 0.7647447 0.924963 -0.01243453 0.27150843 -0.032159097
0.7908522 -0.104029 -0.16228953 -0.36206308 -0.0619717 0.90603304 -0.0063896696 -0.05521494
0.5907608 0.92582494 0.009413847 0.4090831 -0.53224283 -0.010187737 -0.06822189 -0.09864279
-0.047249302 -0.032594185 -0.0012630083 -0.050063122 0.21139586 0.11502079 -0.07498037 1.5474927
0.95471805 -0.09756258 0.9061777 -0.079358794 -0.020561237 -0.052897796 0.0012927705 -0.050143044
-0.099077605 -0.026493447 -0.064265326 -0.032736592 -0.061131485 0.0028905978 -0.037962906 -0.049121678
-0.0369591 -0.12522243 -1.7362019 -0.011828622 -0.04043872 -0.05636803 0.98228997 0.88273597
-0.039804276 -0.07770345 -0.068367966 0.0024130568 -0.08744741 0.093970135 -0.024085227 -0.070806414
0.71886724 -0.06419364 -0.0957576 -0.05999147 1.4157312 0.8838655 -0.086275354 -0.02115165
-0.059656974 -0.010036498 0.8871735 0.0073870467 -0.07264797 -0.0309801 -0.10736176 0.13725168
-0.07782863 -0.069864705 -0.08581807 -0.06433351 -0.033696506 -0.1131832 1.3393228 -0.055184636

l3.weight f4 [1, 300]
00000000: 1680 1cbd 5513 e9bb 4b67 debd b749 e5bc
00000010: 7243 b8be 0dac 24c0 8034 ab3e 2a23 7dbd
00000020: 15ee 5fbc e7f3 f1be 8d25 abbc 0853 f93c
00000030: 0830 94bc 2d68 70bc 3759 803b 3bd6 fbbb
00000040: be3f c73c bd23 003c 0586 c5bc b069 003d
00000050: 8925 71be 6b4e 83bc 83ab d33e fc5d 28bf
00000060: db0e e7bd 0749 28bd a896 22bd cb26 4d3c
00000070: 7be8 7bbd d919 153c 840b 523e c4ff fe3b
00000080: 4d1e 8ebc 4a83 653d 6982 82bd 00b4 dbbf
00000090: e92f 4d3c 3a62 ed3b c739 9fbd 3511 10bf
000000a0: 2436 4bbc d715 97bf 0675 76bc 31bb e3bf
000000b0: 9b3c b4be 0966 fd3c 94b6 d1bc 77e5 c63e
000000c0: 896a 74bc a442 99bc 0173 683e 9cfe 023f
000000d0: 3efe 673e 07c4 eab9 8781 e53b 8e29 5f3e
000000e0: e7a4 843e 6947 a23c 2abe 123d ba94 3e3e
000000f0: a95b 123f 1fe0 853c 0376 b7be d1f0 b83c
00000100: 4a07 c4bb 8fa8 2c3d 5b29 2c3c f506 30bd
00000110: f877 87bc 73f2 05bd 82ba 7a3e cf6d 1440
00000120: f233 3e3c e48f 9ebc 279a 25be 890e 29bd
00000130: 5fa5 4fbd 3321 213d d62d 81bf cc49 cf3b
00000140: 7e28 0c3c 1db4 09bb f64a d5bc 63ba e53e
00000150: fd54 56bc 18e3 ad3c 59b5 e73b 7fdf 72bb
00000160: 62ba b83c 6c5b bbbe f72e b3bf af04 d2bd
00000170: 6968 8cbc 95ca 08be 5ecd 91bd 8d7e 9cbe
00000180: 4563 693c fde7 a23e c693 0e3b b360 1abd
00000190: 8a81 2f3f 8c34 d0bc 3f4f 3b3e b18a cd3c
000001a0: f6b9 323f 4b5d f7bc aece 633c ab09 323c
000001b0: 11a8 0dbd ae36 68bd 5fd5 9f3c 7d56 2abc
000001c0: ba7c 0abd 6de8 e7bb a038 a8bc 1122 4ebf
000001d0: 6929 d63d 9d61 c2ba 5eec be3c 49a0 9d3c
000001e0: 5df6 07be 8da2 533d 3ab8 cabd 0612 c7bd
000001f0: 20af 743e 4c69 043b 0a6c 293c 4688 8a3f
00000200: 7013 8a3c 2c37 7d3e 2567 77bf 3f3b 4a3b
00000210: e115 22bd 1569 d23e 8f98 c7bc cb89 8abd
00000220: a7e0 7fbd bc78 7abd 4656 0d3c e215 b63c
00000230: 19ca 87be 9c1b a0bc 2dfa 5abd ee0b d23d
00000240: db6d f2be 7654 8fbc ad3e 66be 3803 efbc
00000250: 6ff7 87be 7f56 f6bd 5cc4 05bd d5c0 acbd
00000260: 4874 aabd 8902 2abd c14f 34bf c65f 3e3c
00000270: 5588 d4bd 9f78 dbbc c85b 113d f5d8 033c
00000280: db50 d0be 7a06 23bf a4ed aebc 0b28 51be
00000290: 2be5 88bc 135a ef3f 02f1 e83e dfa7 4dbe
000002a0: 68b5 713c a732 36bf 4ac1 d0bd 4e1b db3e
000002b0: 4c9c ed3d 8822 c53d 96be e5be acd4 68bd
000002c0: b5b8 ca3d ef77 1dbc 57ef c73c 969d efbe
000002d0: be49 a0bd 13e9 323e 45e5 fe3f f7cc 003b
000002e0: ad03 b33e 2cba 963e aed6 11bd 762d ad3e
000002f0: 0b3d a0bf 9148 35bd 3e76 debd a9ed 73bd
00000300: 9d17 bc3c 5d3c 093e 2c4c 81bc 98cd cd3c
00000310: c1e7 ee3e 7dd4 edbe 69a1 93bd 7373 33bf
00000320: 9a5d 513e 4134 58bb 4ce6 4cc0 2a74 b0bc
00000330: 2f10 ff3a 21b9 583a 8896 fc3c 808b d33c
00000340: 6ade 33bd 5ed1 db3c e17a 253c 1345 18bd
00000350: ca3d 3ebd d532 67bc 9a18 bcbc 85f3 32bd
00000360: 50c0 0e3f b9c4 c6bd 6bef 0140 f6e2 c93c
00000370: dc92 e2bc 8668 e73a 8340 e93e 804e 1c3e
00000380: 2534 b33b a57c 8cbc e398 103b e282 4abc
00000390: 869c 9cbd 5087 953e c0ff a53c 6fe4 92bc
000003a0: 7f05 083f 085a d73c bf07 373c e5bc bbbc
000003b0: f891 c4be 6ea1 613e f4d0 46bc ef19 7dbd
000003c0: 2f57 4bbb 0046 673a 468f e13d 6726 5cbb
000003d0: be18 973b 6254 3f3c 6bd2 51bd 25ea 99be
000003e0: decf e9bc ca5a f7bc 086f dabb 5bbd d9bd
000003f0: b58a 0b3c 4620 bbbd d05b 3abf 4fc9 163c
-0.03820809 -0.0071129003 -0.10859545 -0.027989252 -0.35988957 -2.5730011 0.33438492 -0.061801113
-0.013667603 -0.47256395 -0.020891929 0.0304351 -0.01808931 -0.014673275 0.0039168852 -0.0076854504
0.024322387 0.007821021 -0.024111757 0.03135079 -0.23549475 -0.016028604 0.4134179 -0.6576841
-0.1128213 -0.04108527 -0.03969446 0.012521456 -0.061501008 0.009100401 0.20512205 0.0077819545
-0.017348433 0.05603341 -0.0637253 -1.7164307 0.01252363 0.0072443755 -0.07774692 -0.56276256
-0.012403045 -1.180354 -0.015042549 -1.7791501 -0.35202488 0.030932443 -0.025599755 0.38846943
-0.014917978 -0.018708535 0.2270012 0.51169753 0.2265558 -0.0004477801 0.0070039663 0.21793196
0.2590706 0.019809442 0.035825886 0.18611422 0.5717111 0.01634222 -0.35832223 0.022575768
-0.0059823142 0.042152938 0.010507907 -0.042975385 -0.016536698 -0.03270192 0.2448521 2.3192022
0.011609064 -0.019355722 -0.16172086 -0.041273627 -0.05069482 0.039338302 -1.0092113 0.006325936
0.008554576 -0.0021011897 -0.02603672 0.44868764 -0.013081786 0.02122645 0.007071179 -0.0037059484
0.022549812 -0.36593187 -1.3998708 -0.102547996 -0.01713963 -0.13358529 -0.07119249 -0.305653
0.014244859 0.31817618 0.002175556 -0.037689876 0.68557036 -0.025415681 0.18291949 0.025090547
0.69815004 -0.030195853 0.013904257 0.010866563 -0.03458411 -0.05669277 0.019510923 -0.010396597
-0.033810355 -0.007077268 -0.020534813 -0.8052073 0.10457117 -0.0014830116 0.023306068 0.019241469
-0.13277574 0.051668692 -0.0989842 -0.097202346 0.2389493 0.0020204363 0.0103407 1.0822837
0.016854972 0.24728078 -0.9664176 0.0030858067 -0.039571647 0.41095796 -0.024364738 -0.06764563
-0.062470105 -0.061150298 0.008626526 0.022227231 -0.26521376 -0.019544415 -0.053461242 0.10256182
-0.47349438 -0.017496329 -0.22484846 -0.02917634 -0.26555964 -0.120282166 -0.032657966 -0.08435217
-0.0832296 -0.041506324 -0.70434195 0.011619514 -0.10377566 -0.026790915 0.03548792 0.008047332
-0.40686688 -0.6368176 -0.02135355 -0.20425431 -0.016710838 1.8699363 0.45496374 -0.20083569
0.014752723 -0.7117104 -0.10193117 0.4279427 0.11602077 0.09625727 -0.44871968 -0.056843445
0.09898511 -0.009611114 0.024406118 -0.46799916 -0.07826565 0.17471723 1.9913718 0.0019653419
0.34963742 0.29438913 -0.035605125 0.33823746 -1.2518629 -0.044258658 -0.10862397 -0.059552822
0.022960478 0.13401933 -0.015783392 0.025122449 0.4666119 -0.46451178 -0.07208521 -0.70098037
0.20445862 -0.003299013 -3.2015562 -0.021539766 0.0019459779 0.00082673325 0.030833498 0.025823355
-0.043913282 0.026833232 0.010100097 -0.03717525 -0.046445645 -0.01411124 -0.02296095 -0.04368927
0.55762196 -0.097054906 2.030238 0.024644356 -0.027657919 0.0017655052 0.4555703 0.1526432
0.0054688626 -0.017149279 0.0022063784 -0.012360306 -0.07647042 0.29204798 0.020263553 -0.017931191
0.53133386 0.026288047 0.01117128 -0.02291722 -0.38392615 0.22034237 -0.012134779 -0.06179231
-0.0031027307 0.00088223815 0.11013655 -0.0033592226 0.004611104 0.011677833 -0.05122606 -0.3006145
-0.028541502 -0.030194659 -0.006666068 -0.1063182 0.008516957 -0.09137015 -0.72796345 0.009203269
