models/LunarLanderContinuous-v2/actor.pth (torch, 499863 bytes, 6 tensors)

l1.weight f4 [400, 8]
0	0x3ed3572a	0.41277438
1	0x3d28ecc6	0.04124143
2	0x3ea77a4f	0.32710502
3	0xbe095d8b	-0.1341459
4	0x3f011e55	0.5043691
5	0x3e397b71	0.18113495
6	0xbe722a00	-0.23648834
7	0xbe01dc31	-0.12681653
8	0x3dae31b9	0.085055776
9	0xbe3ad650	-0.18245816
10	0xbe540bee	-0.20707676
11	0xbd7969ef	-0.06089204
12	0xbea506ec	-0.32231843
13	0xbda4f219	-0.08053989
14	0xbeba91ba	-0.36439306
15	0xbe106002	-0.14099124
16	0xbe7c36d9	-0.24630298
17	0xbe81911b	-0.2530602
18	0xbf05bc56	-0.522405
19	0x3e5d601b	0.21618693
20	0x3ebc46f8	0.36772895
21	0xbe0a9034	-0.13531572
22	0xbf0d6beb	-0.55242795
23	0xbea60ae7	-0.32430193
24	0xbdba043a	-0.090828374
25	0x3e91ed7d	0.28501502
26	0xbe626ff9	-0.22113027
27	0x3e822e86	0.2542612
28	0xbeba53e9	-0.36392143
29	0x3eca6e99	0.39537504
30	0x3c7bcf96	0.015369317
31	0x3eb33628	0.35002255
32	0xbd9fec95	-0.07808796
33	0xbe960c64	-0.29306328
34	0x3e5d1dc9	0.21593393
35	0xbef487ed	-0.47759953
36	0xbe8790eb	-0.2647775
37	0xbc5a3be7	-0.013319946
38	0x3e9dff7b	0.3085898
39	0xbe83c478	-0.2573583
40	0xbea619b2	-0.3244148
41	0xbe9eeb20	-0.3103876
42	0xbbab8490	-0.0052343085
43	0xbd9dfcf8	-0.077142656
44	0xbea8fce5	-0.33005443
45	0x3e8a295f	0.2698469
46	0x3e0d84e7	0.1382023
47	0x3e8d8855	0.27643076
48	0x3d7fbc19	0.062435243
49	0x3e07fee2	0.13280824
50	0x3ecc2c1b	0.398774
51	0x3e1a69c6	0.15079412
52	0xbeb4440a	-0.3520816
53	0xbea4700e	-0.3211674
54	0x3ecfae65	0.4056274
55	0xbe42b097	-0.19012676
56	0xbe75c87a	-0.24002257
57	0xbe619e53	-0.22033052
58	0x3e41c4c3	0.18922715
59	0x3da3449d	0.07972071
60	0x3f0827cf	0.53185743
61	0xbced473e	-0.028964635
62	0xbe5945de	-0.21218058
63	0x3e5a91a1	0.21344616
64	0xbd96400e	-0.07336436
65	0xbea12b31	-0.31478265
66	0x3db1b9d1	0.0867802
67	0xbd1bd7c7	-0.03804758
68	0xbe30a15b	-0.17249052
69	0x3e1f3881	0.15548898
70	0xbebf4976	-0.37360734
71	0xbd2a214f	-0.04153567
72	0xbe8dd1b6	-0.2769906
73	0xbdc3d7a8	-0.095626175
74	0x3ac4851a	0.0014993281
75	0x3ecb3c0a	0.39694244
76	0x3e16199d	0.14658208
77	0x3d9df787	0.07713228
78	0x3dd7bbee	0.105338916
79	0x3ddff54d	0.10935459
80	0x3d4c3667	0.04985657
81	0x3e4496db	0.19198172
82	0x3e695d73	0.22789554
83	0x3dcb64c9	0.099313326
84	0x3ef0e34f	0.47048423
85	0x3eb0fbbf	0.34567067
86	0xbe298ec8	-0.16558373
87	0x3e34e1f6	0.17664322
88	0x3e56aa4d	0.20963402
89	0xbe4377d7	-0.19088684
90	0xbe206667	-0.15664063
91	0xbce3e137	-0.027817352
92	0x3e841dee	0.25804085
93	0x3ea215ba	0.316572
94	0x3e5b8ef6	0.21441254
95	0xbd561304	-0.05226423
96	0x3cff6b02	0.031178955
97	0xbe402626	-0.18764552
98	0x3ba0a549	0.004902516
99	0xbdfe3359	-0.124121375
100	0x3ee36670	0.4441409
101	0x3e6de248	0.2323085
102	0xbd9aceda	-0.07558985
103	0x3eaf91f8	0.34291053
104	0xbe378dc1	-0.17925169
105	0x3b33919b	0.002740002
106	0xbec75f20	-0.38939762
107	0x3da0a307	0.07843595
108	0x3e841a26	0.258012
109	0xbe0c268b	-0.13686578
110	0xbe863895	-0.26215044
111	0x3de2c533	0.11072769
112	0x3ec9d4fc	0.39420307
113	0x3e96da19	0.2946327
114	0x3daa7bc8	0.08324391
115	0x3ef51211	0.47865346
116	0x3dc3ac0b	0.09554299
117	0x3ea6d4b3	0.32584152
118	0x3e1461f8	0.14490497
119	0xbc69f138	-0.014278702
120	0xbece5e37	-0.40306255
121	0xbe674799	-0.22585906
122	0xbea5d4fe	-0.32389063
123	0xbe9de836	-0.30841225
124	0xbdbff2ae	-0.09372459
125	0x3e96cdb8	0.29453826
126	0xbe5b61f3	-0.21424083
127	0xbe4ac0e8	-0.1980015
128	0xbdf9431f	-0.121710055
129	0x3e083209	0.13300337
130	0xbe2be6bd	-0.16787238
131	0xbe2ac266	-0.1667572
132	0xbea7254a	-0.32645637
133	0x3eb7fe7f	0.35936353
134	0xbd9261b3	-0.07147541
135	0x3e865f1b	0.26244435
136	0x3dfeda8b	0.124440275
137	0x3e3a9f3e	0.18224809
138	0x3e047d6f	0.12938474
139	0x3d095f9f	0.033538457
140	0xbe6de700	-0.23232651
141	0xbe357cd4	-0.177234
142	0xbe52b375	-0.2057627
143	0x3eca9e30	0.39573812
144	0x3e08c8dd	0.13357873
145	0xbeb64ab6	-0.35603875
146	0xbd0743a8	-0.033023506
147	0x3c66798e	0.014067067
148	0x3ee45b7f	0.44601056
149	0xbe222898	-0.15835798
150	0x3dfe29cf	0.12410318
151	0x3e66eb24	0.22550637
152	0x3e53e431	0.20692517
153	0xbc6dac89	-0.014506468
154	0x3dc5aa57	0.0965163
155	0xbe85b189	-0.2611201
156	0x3b073a62	0.0020634164
157	0x3e321096	0.1738914
158	0xbdae775d	-0.085188605
159	0x3de357c6	0.11100726
160	0x3e4283f5	0.1899565
161	0x3e9d51cb	0.30726466
162	0xbec3d8f4	-0.3825146
163	0xbe1e52fc	-0.15461344
164	0xbed22c44	-0.41049397
165	0xbd53f17f	-0.05174398
166	0x3e213485	0.15742691
167	0xbdfc5f7a	-0.12322898
168	0xbe9a31b6	-0.3011605
169	0x3e9de4f6	0.30838746
170	0x3dd5be40	0.10436678
171	0x3f0e097b	0.55483216
172	0xbe5f72e2	-0.21821168
173	0x3ef4d378	0.47817588
174	0xbe68edaf	-0.22746919
175	0xbe3d64ed	-0.18495531
176	0xbe03066a	-0.12795416
177	0x3ea9267b	0.3303717
178	0xbeba0b55	-0.3633677
179	0xbea3472a	-0.3189023
180	0xbda6f04f	-0.08151304
181	0xbde2f190	-0.11081231
182	0x3cdab08f	0.026695518
183	0x3eadedd5	0.33970514
184	0x3d3de57b	0.046361428
185	0x3edaefe6	0.42761153
186	0xbd96f34d	-0.07370625
187	0xbe1d4daa	-0.15361658
188	0xbf083c06	-0.5321659
189	0xbe4e8671	-0.20168473
190	0x3dbfa074	0.09356776
191	0x3e5ab00a	0.21356216
192	0x3eaa37e6	0.33245772
193	0x3e6480c4	0.22314745
194	0xbe59daf3	-0.21274929
195	0xbe97e17f	-0.29664227
196	0x3eb5f36a	0.35537273
197	0x3e367616	0.17818484
198	0xbe9a203e	-0.30102724
199	0xbe5564dc	-0.20839256
200	0x3e79e97a	0.2440547
201	0xbd28e6cf	-0.04123574
202	0xbe8386f1	-0.2568889
203	0x3ec33b7f	0.3813133
204	0x3ec07bee	0.3759455
205	0x3e131c11	0.14366175
206	0x3e6befce	0.23040697
207	0x3d82bf5f	0.063841574
208	0xbe778869	-0.2417313
209	0x3ea68120	0.3252039
210	0xbde888ed	-0.113542415
211	0xbdaa6c5e	-0.08321451
212	0x3e6d89bd	0.23197074
213	0xbe7fb4b0	-0.2497127
214	0xbdf8e72c	-0.121534675
215	0x3e9b5157	0.30335495
216	0xbea2b173	-0.31776008
217	0xbe83ed77	-0.2576711
218	0x3e035718	0.12826192
219	0xbdffc249	-0.12488229
220	0xbe8ad4ac	-0.2711538
221	0xbd293367	-0.041308787
222	0x3e7bc455	0.24586613
223	0xbcd5acf5	-0.026083449
224	0x3e72d0c1	0.23712446
225	0xbe866988	-0.2625239
226	0x3e1dd6d1	0.15413977
227	0xbe636ea4	-0.22210175
228	0x3eda04a2	0.4258166
229	0xbdcf0b4f	-0.10109579
230	0x3ee028f3	0.43781242
231	0xbd666918	-0.05625257
232	0xbd55fe7d	-0.052244652
233	0x3e3fb44a	0.18721119
234	0xbe838a06	-0.2569124
235	0x3eca3377	0.3949239
236	0x3eac5e59	0.33665732
237	0xbe5ec569	-0.21754993
238	0x3e8e989f	0.27850816
239	0xbe0f401f	-0.13989304
240	0xbe0da3cc	-0.13832015
241	0x3e0ea739	0.13930978
242	0xbd213b0a	-0.039362945
243	0x3e854599	0.2602966
244	0xbf12430b	-0.5713355
245	0x3e9c90ec	0.30579317
246	0xbe7843ce	-0.24244615
247	0x3e7ab7ff	0.24484251
248	0x3e3fb136	0.18719944
249	0x3e6e7b95	0.2328933
250	0x3e9f6345	0.31130424
251	0xbe072c42	-0.13200477
252	0xbec0c2cc	-0.37648618
253	0x3c9e2993	0.019306934
254	0xbda8123d	-0.08206604
255	0x3da85cb7	0.08220809

l1.bias f4 [400]
0	0x3dbb1b1a	0.091360286
1	0xbe655f4d	-0.22399636
2	0x3cbd0192	0.023072038
3	0xbe279993	-0.16367178
4	0x3e958397	0.29201958
5	0xbe320260	-0.17383718
6	0xbe6b30f4	-0.22967893
7	0x3b6bd8e5	0.0035987434
8	0x3e57e082	0.21081737
9	0x3e9cc2b0	0.30617285
10	0xbd030b49	-0.031993184
11	0xbe470956	-0.19437155
12	0xbe522474	-0.20521718
13	0xbd44bafe	-0.048029892
14	0x3e4ba7b7	0.19888197
15	0x3e992866	0.29913634
16	0xbe54100f	-0.20709251
17	0x3eab3c70	0.33444548
18	0x3e66f210	0.22553277
19	0xbe7e840c	-0.2485506
20	0xbe5c6f57	-0.21526848
21	0xbe1df146	-0.1542407
22	0xbe116866	-0.14199981
23	0xbea6ea4b	-0.32600626
24	0x3e1481e0	0.14502668
25	0x3e8216a2	0.25407892
26	0x3e967161	0.29383376
27	0x3e89cabc	0.26912487
28	0xbc515cbc	-0.012778457
29	0x3b8f1926	0.0043670116
30	0xbcc60be9	-0.024175601
31	0xbe98e15d	-0.2985944
32	0x3dcf8036	0.10131876
33	0x3ec1fe46	0.37889308
34	0x3cf763bf	0.03019893
35	0xbd1a8d56	-0.037732445
36	0x3d091bf6	0.03347393
37	0x3e7d0571	0.24709107
38	0xbeb2218f	-0.34791228
39	0xbe48aa77	-0.19596277
40	0x3dd49574	0.103800684
41	0xbe857baa	-0.2607091
42	0x3e5e8e8f	0.2173407
43	0xbe9b0e40	-0.3028431
44	0xbde98ddb	-0.1140401
45	0xbe0aec0e	-0.1356661
46	0xbe94fb2d	-0.29097882
47	0xbea89c62	-0.3293181
48	0xbdd710ce	-0.10501252
49	0x3e7e2024	0.24816948
50	0xbe9aef32	-0.30260617
51	0xbe99b1a9	-0.30018356
52	0x3dc1d8f5	0.094652094
53	0xbde5de0c	-0.11223993
54	0x3e085790	0.13314652
55	0xbe27066a	-0.1631104
56	0x3dfe76d3	0.12425008
57	0x3d3bb206	0.045824073
58	0x3e4e628e	0.20154783
59	0x3d852e4f	0.06502973
60	0x3d5f3832	0.05449695
61	0xbe0c4c57	-0.13700996
62	0x3ead6060	0.3386259
63	0xbe752e4e	-0.23943445
64	0xbd028328	-0.03186336
65	0x3e1484a7	0.14503728
66	0x3e740605	0.23830421
67	0x3dd3b88c	0.10337934
68	0xbd9ae47d	-0.07563112
69	0x3ea9a689	0.3313487
70	0x3e4fb11b	0.20282404
71	0x3bfdc874	0.007744843
72	0xbe9c60d3	-0.3054262
73	0xbb91a91d	-0.0044452087
74	0x3e7c58e0	0.24643278
75	0xbeadba5d	-0.33931246
76	0xbdb2abe2	-0.0872419
77	0xbda9e788	-0.08296114
78	0xbd6a3581	-0.05717993
79	0xbe8cee33	-0.27525482
80	0x3dfd94b0	0.123818755
81	0xbdb888f3	-0.09010496
82	0x3dad11c9	0.08450658
83	0x3d2c32d2	0.042040654
84	0x3e049158	0.12946069
85	0xbda16bec	-0.078819126
86	0xbe94912d	-0.2901701
87	0x3e144f10	0.14483285
88	0xbe6deac6	-0.2323409
89	0x3c89edc7	0.016837014
90	0xbe81d33c	-0.25356472
91	0x3b600f95	0.0034188975
92	0xbdf35485	-0.11881355
93	0x3e89e74b	0.26934275
94	0x3e82d144	0.25550282
95	0x3e51003a	0.20410243
96	0x3e5b4c66	0.21415862
97	0x3e3a7c80	0.18211555
98	0x3ea60e37	0.3243272
99	0x3d988309	0.07446868
100	0x3e8a6ca5	0.27036014
101	0x3e1cb3db	0.15302984
102	0x3e77e15f	0.24207066
103	0xbe0894f8	-0.13338077
104	0x3e83b9a2	0.25727564
105	0x3e514e04	0.20439917
106	0x3cef8f6b	0.029243192
107	0x3e13a7d9	0.14419498
108	0xbd640ddf	-0.05567729
109	0xbec5dff3	-0.38647422
110	0xbe67808e	-0.22607633
111	0x3de90bb3	0.113791846
112	0xbe7bf354	-0.24604541
113	0x3e180d98	0.14848936
114	0xbe750676	-0.23928246
115	0x3e15ae2e	0.14617226
116	0x3c55be23	0.01304582
117	0x3d9f9a5e	0.07793115
118	0x3e33a858	0.17544687
119	0x3e7cd0f9	0.24689092
120	0x3d402c34	0.046917155
121	0x3e83f32c	0.25771463
122	0xbe20db3b	-0.1570863
123	0xbd74558a	-0.05965189
124	0x3e11fb1f	0.14255951
125	0x3e540c5b	0.20707838
126	0xbe197b96	-0.1498855
127	0xbe0ad8be	-0.13559243
128	0x3e5adb87	0.21372806
129	0x3e80fedc	0.25194442
130	0xbe3c6134	-0.18396455
131	0xbe2c42ad	-0.1682231
132	0x3e8be53c	0.2732333
133	0xbd874149	-0.06604249
134	0xbdbd0949	-0.09230287
135	0x3e3b2b96	0.18278345
136	0xbe45ca91	-0.19315554
137	0xbe93f71a	-0.2889946
138	0xbeab4a71	-0.33455232
139	0x3e3a1d97	0.1817535
140	0x3da22f6a	0.079192
141	0x3e18eb2e	0.14933464
142	0xbe8d046c	-0.27542436
143	0xbe02c2ea	-0.12769666
144	0xbdb474dc	-0.08811352
145	0xbcdfd017	-0.027320905
146	0xbea705c7	-0.32621595
147	0x3e98cfce	0.29846042
148	0x3d25e92e	0.04050558
149	0x3e505086	0.20343217
150	0xbe23efea	-0.16009489
151	0xbe173d84	-0.1476956
152	0xbd8f5e60	-0.070004225
153	0x3e0062e5	0.12537725
154	0x3e69e01c	0.22839397
155	0x3e61e058	0.22058237
156	0x3e20d140	0.15704823
157	0x3e5ce37a	0.2157115
158	0xbdf319cb	-0.11870154
159	0xbbd6b11f	-0.006551876
160	0xbe1dce75	-0.15410788
161	0x3e61b9b6	0.220435
162	0x3e38daad	0.18052168
163	0x3e9d63b4	0.3074013
164	0x3e8a78a8	0.27045178
165	0x3de0f2bc	0.10983798
166	0x394b3c7c	0.00019382121
167	0xbe230d16	-0.1592296
168	0xbe956549	-0.29178837
169	0xbe67e793	-0.22646932
170	0x3d1bd9aa	0.038049378
171	0x3d05ad62	0.032636054
172	0x3e0cd31f	0.13752411
173	0xbe92a7df	-0.286437
174	0xbd502b28	-0.050822407
175	0x3d119c2f	0.03554934
176	0x3df400c4	0.119142085
177	0xbd8c56fd	-0.06852529
178	0x3eb1ffae	0.3476538
179	0x3e0d9d67	0.13829575
180	0x3d88bf2a	0.06677087
181	0x3dfd7471	0.12375725
182	0x3ebc0f00	0.36730194
183	0x3e141fda	0.14465275
184	0xbe3d0ce4	-0.18461949
185	0xbd3da588	-0.04630044
186	0x3eaee6fa	0.34160596
187	0x3deffbff	0.11717986
188	0xbc7dd861	-0.015493483
189	0xbe810a65	-0.25203243
190	0x3e2b1e19	0.167107
191	0x3e182ddb	0.14861242
192	0xbd2d6f09	-0.04234222
193	0x3d78d24b	0.060747426
194	0xbe94ad62	-0.2903853
195	0xbe0ed94a	-0.13950077
196	0x3e2d09bc	0.16898245
197	0x3deacbe2	0.11464669
198	0xbe962549	-0.2932532
199	0x3e2fc242	0.17163947
200	0xbcc59eeb	-0.02412363
201	0x3d9b57c2	0.07585098
202	0xbbd7dc15	-0.006587515
203	0xbdc3f26f	-0.09567725
204	0x3bc12603	0.005894424
205	0x3b029e44	0.001993076
206	0x3e0f985c	0.14022964
207	0x3e7ccf2c	0.24688405
208	0xbe0f3dad	-0.13988371
209	0x3e1ab017	0.15106235
210	0xbe292246	-0.1651698
211	0xbdc89c6a	-0.097954586
212	0xbe5a2076	-0.21301445
213	0x3e14b490	0.14522004
214	0xbeb1216c	-0.3459581
215	0x3de1d19d	0.11026309
216	0x3e3c9d7f	0.18419455
217	0x3de28981	0.11061383
218	0x3e6b3768	0.22970355
219	0x3e375933	0.1790512
220	0x3df65670	0.120282054
221	0xbc7e2156	-0.015510878
222	0x3d889d97	0.06670683
223	0xbe781f83	-0.24230771
224	0xbeb9886b	-0.3623689
225	0xbc491682	-0.012273433
226	0x3d6826c0	0.05667758
227	0x3e87dff6	0.26538056
228	0xbe8b5a53	-0.2721735
229	0xbe5d077f	-0.21584891
230	0x3d25fafd	0.040522564
231	0xbe3add15	-0.18248399
232	0x3bf5ae8d	0.0074976147
233	0x3e6576a2	0.22408536
234	0x3e89766c	0.2684816
235	0x3c840da8	0.016119793
236	0xbe9ac0e0	-0.30225277
237	0x3e9f15dc	0.31071365
238	0x3eb4ac08	0.352875
239	0x3e286f55	0.1644872
240	0x3d8da02e	0.069153175
241	0x3e3fd62c	0.18734044
242	0x3e64c13c	0.22339338
243	0xbe4d5c3b	-0.20054714
244	0xbe99a6bb	-0.30010018
245	0x3d6e0f1f	0.05811989
246	0xbdb52865	-0.08845595
247	0x3e5013a6	0.20319995
248	0xbe1a2229	-0.15052094
249	0x3d7d65de	0.061864726
250	0xbe8e35df	-0.27775475
251	0x3e35e894	0.17764503
252	0xbe6a3779	-0.22872724
253	0x3e97710f	0.29578444
254	0xbdaef1e4	-0.08542231
255	0x3e71d73d	0.23617263

l2.weight f4 [300, 400]
0	0x3ccce689	0.025012271
1	0x3d3a7a45	0.04552676
2	0x3ca7d8a6	0.020489048
3	0xbc89548d	-0.01676395
4	0x3d28c7b3	0.041206073
5	0x3caaef91	0.020866187
6	0xbd2ef4ab	-0.042713802
7	0xbd5e3e6a	-0.05425874
8	0xbd692903	-0.056923877
9	0x3bfaa6b9	0.0076492694
10	0x3ce67fea	0.028137166
11	0x3c8f9d59	0.017531084
12	0x3d0a6c7d	0.03379487
13	0xbc93954c	-0.018015526
14	0x3c8b7199	0.017021941
15	0x3a93039d	0.0011216287
16	0x3cb56ca3	0.022146529
17	0x3d0a438d	0.033755828
18	0x3d03f728	0.03221813
19	0x3cf3d016	0.029762309
20	0xbcdcf420	-0.026971877
21	0xbd3bc0ab	-0.04583804
22	0x3cfb26e8	0.0306582
23	0xbd49e0c8	-0.049286634
24	0xbbeaedb8	-0.0071694516
25	0x3d0b7375	0.034045655
26	0xbd40b1f5	-0.047044713
27	0x3a895ea8	0.001048048
28	0x3d39b1fa	0.045335747
29	0xbd5ab95e	-0.053399436
30	0xbc02c6d0	-0.007981971
31	0x3c1153a6	0.008870041
32	0x3ce3037e	0.027711626
33	0xbc45c8ad	-0.012071771
34	0xbc86c1c0	-0.01644981
35	0x3d0a9684	0.03383495
36	0xbcb41bb9	-0.021985875
37	0xbc3c368c	-0.011487614
38	0x3c9ebb42	0.0193764
39	0xbce1c9a3	-0.027561968
40	0xbc8a349d	-0.016870791
41	0x3d3fce63	0.046827685
42	0xbc6cba6d	-0.014448744
43	0x3d3020bc	0.042999968
44	0xbd272512	-0.040806837
45	0xbcdb9978	-0.026806578
46	0x3cd5d3fa	0.026102055
47	0xbb2c5410	-0.0026295222
48	0x3cba6348	0.02275242
49	0xbccfe179	-0.025376068
50	0xbbf5cd22	-0.0075012604
51	0x3c0baf28	0.008525647
52	0x3b71c690	0.0036892034
53	0x3d021f29	0.031767998
54	0x3d2bc007	0.04193118
55	0xbd27b323	-0.040942322
56	0x3c495b18	0.012289785
57	0xbcc969dc	-0.02458661
58	0x3d338b7c	0.043834195
59	0xbb00d98e	-0.0019660923
60	0xbd1d1c8d	-0.038357306
61	0xbb8105d0	-0.0039374605
62	0xbd1e9691	-0.03871781
63	0x3d38e305	0.045138378
64	0xbd57f6e8	-0.052725703
65	0xbd0340b3	-0.032044124
66	0x3d073283	0.033007156
67	0x3cfe456c	0.031038962
68	0xbd393994	-0.045220926
69	0xbca50e5b	-0.020148447
70	0xbcd1cf6c	-0.025611602
71	0x3ca1a7d6	0.01973335
72	0xbab912c4	-0.0014119972
73	0xbd49a1f3	-0.049226712
74	0x3d1657b7	0.036704745
75	0xbd250866	-0.040291212
76	0xbcbb398d	-0.02285459
77	0xbcb00254	-0.021485485
78	0xbd2e87f5	-0.042610127
79	0xbc64dc06	-0.013968473
80	0xbd32c3a0	-0.043643594
81	0x3c0512cf	0.00812216
82	0xbcf7ffe6	-0.03027339
83	0xbd425315	-0.047442514
84	0xbd407a9a	-0.046991922
85	0xbcda4a3d	-0.026646728
86	0x3c8147fa	0.015781391
87	0xbd20384a	-0.03911618
88	0x3ca290a0	0.019844353
89	0x3c0a9475	0.0084582465
90	0xbd18a452	-0.037266083
91	0xbd3f107a	-0.046646573
92	0xbd0d9c30	-0.03457278
93	0xbd2e699b	-0.042581182
94	0xbd2e7528	-0.042592198
95	0xbd357093	-0.044296812
96	0x3d089b79	0.033351395
97	0x3c96df3e	0.018416997
98	0xbcf159eb	-0.029461822
99	0xbd15ec83	-0.03660251
100	0x3cde42c3	0.027131444
101	0x3d2a95b3	0.04164667
102	0xbcf33e10	-0.02969268
103	0xbd04cc4e	-0.032421403
104	0x3d0cc323	0.034365784
105	0x3cd479b8	0.025936946
106	0xbbc94002	-0.0061416635
107	0x3d1b13bb	0.037860613
108	0xbd23c9ae	-0.03998726
109	0x3bd72b18	0.0065664165
110	0x3c09eb67	0.008417941
111	0x3d0c896a	0.034310736
112	0xbd3385fb	-0.043828946
113	0x3d2b8938	0.04187891
114	0xbd491965	-0.049096484
115	0x3d32f1c7	0.043687608
116	0x3cf7be47	0.030242098
117	0xbb89db7a	-0.004207072
118	0xbc4be6c3	-0.012445155
119	0xbbd99772	-0.006640368
120	0x3c899b2d	0.016797626
121	0xbd3d2378	-0.046176404
122	0xbc88fa9e	-0.016721066
123	0xbc689929	-0.0141966725
124	0xbd22ed5f	-0.039777156
125	0x3d1aaa57	0.037760105
126	0x3cda3135	0.026634792
127	0x3d1c714f	0.038193997
128	0xbcee92ce	-0.029122736
129	0xbb95a79b	-0.0045670993
130	0x3c1198d6	0.008886537
131	0xbcdae4a3	-0.02672035
132	0x3d10ddc2	0.035367735
133	0xbb36491b	-0.002781457
134	0xbc57f4ff	-0.01318097
135	0xbade1b64	-0.0016945419
136	0x3c601ae5	0.013678287
137	0xbd186365	-0.037204165
138	0xbd3b2055	-0.04568513
139	0x3d01e8a4	0.031716004
140	0xbbd58843	-0.006516488
141	0x3d20da9a	0.039270975
142	0x3d0ba517	0.03409299
143	0x3cc05b29	0.023480969
144	0xbca3144a	-0.019907136
145	0x3d30e1fe	0.043184273
146	0xbbb42b48	-0.0054983236
147	0xbc14c83d	-0.009080944
148	0xbc0e8f5a	-0.00870117
149	0xbd331790	-0.043723643
150	0x3cc3767a	0.023860205
151	0x3c7be52c	0.015374463
152	0x3bac2352	0.005253234
153	0x3d210a91	0.039316718
154	0xbc9cd733	-0.019145584
155	0x3d05566c	0.03255312
156	0x3cc885f3	0.024477934
157	0x3d11cf24	0.035597935
158	0x3c66f71b	0.0140970005
159	0x3d01b5c6	0.031667493
160	0xbc00c3cc	-0.007859182
161	0xbc378ba2	-0.011202725
162	0x3cd0d6da	0.025493074
163	0x3cba08d0	0.02270928
164	0xbb5375e6	-0.0032266318
165	0xbd179839	-0.037010405
166	0xbae8bcd7	-0.0017756474
167	0xbce34791	-0.027744086
168	0xbc6a99ec	-0.014318924
169	0xbd3523f9	-0.04422376
170	0xbcb1516a	-0.021645267
171	0xbd069388	-0.03285554
172	0x3c9013ee	0.017587628
173	0xbc6608b0	-0.014040157
174	0x3d3adefb	0.045622807
175	0x3a9c5121	0.0011926034
176	0xbd0140c1	-0.031555895
177	0x3cde2846	0.027118813
178	0x3ba8d007	0.005151752
179	0x3d4b9e80	0.049711704
180	0x3af86261	0.0018950218
181	0xbd3bba3d	-0.045831908
182	0x3d1054af	0.03523701
183	0x3d3cd127	0.0460979
184	0xbb3b0371	-0.0028535987
185	0x3b8cd50d	0.0042978586
186	0xbd2ee7cd	-0.04270153
187	0xbccf518c	-0.02530744
188	0x3d09e95f	0.033669826
189	0x3cc55143	0.0240866
190	0x3b91b66d	0.0044467957
191	0xbd2c4406	-0.04205706
192	0x3d0b416b	0.033997934
193	0x3d305970	0.043054044
194	0x3d1a47a6	0.037665986
195	0xbce997bd	-0.028514737
196	0xbcf0d679	-0.029399144
197	0xbd39ce76	-0.045362912
198	0x3c4b9dba	0.012427742
199	0x3d0aaaa2	0.033854134
200	0xbcbeabc8	-0.023275271
201	0x3ce901e1	0.028443279
202	0x3c345723	0.011007103
203	0xbc0df6ea	-0.008664826
204	0x3c89bd45	0.016813884
205	0xbd40b7bd	-0.047050226
206	0x3d00f7ce	0.031486325
207	0x3c4d7a7f	0.012541412
208	0x3cc2eb9a	0.023793984
209	0x3c2b1b0d	0.010443461
210	0xbcc86302	-0.024461273
211	0xbd0119bb	-0.03151868
212	0xbcb47bfd	-0.022031778
213	0xbcce54c3	-0.025186902
214	0xbd072c32	-0.033001132
215	0xbc6775b3	-0.014127183
216	0xbd31103d	-0.043228377
217	0xbc86578b	-0.016399166
218	0xbc7fa07b	-0.015602226
219	0x3c806919	0.015675114
220	0x3cdd9630	0.027049154
221	0x3cd868bd	0.02641713
222	0xbc516bc0	-0.012782037
223	0xbd54239a	-0.051791765
224	0x3cd38e8a	0.025824804
225	0x3d36a3a0	0.04458964
226	0xbca5ff5c	-0.020263366
227	0x3d0b12f4	0.033953622
228	0xbd1d2f96	-0.03837546
229	0xbb82420f	-0.00397516
230	0xbcfcc8f9	-0.03085755
231	0x3cb3d600	0.02195263
232	0xbcbdd5aa	-0.023173172
233	0xbcf7135e	-0.030160602
234	0xbca9263f	-0.02064812
235	0x3d3360bf	0.043793436
236	0xbd003ee5	-0.03130998
237	0xbc3c3345	-0.011486833
238	0xbd2d45ad	-0.042302776
239	0x3cd1854e	0.02557626
240	0xbd226163	-0.039643656
241	0xbc8a2df7	-0.01686762
242	0xbcbc1c57	-0.022962732
243	0x3d043b20	0.03228295
244	0x3c4f4728	0.012651242
245	0xbd1b4957	-0.03791174
246	0xbc73822d	-0.014862579
247	0xbd211366	-0.03932514
248	0xbcca9b3a	-0.02473222
249	0x3d1f90fa	0.03895662
250	0xbd470e47	-0.0485976
251	0xbd15cc8d	-0.036572028
252	0xbd26e27c	-0.040743336
253	0xbd54b2e8	-0.05192843
254	0xbc0c6a0a	-0.008570204
255	0xbd49d079	-0.04927108

l2.bias f4 [300]
0	0xbd1ae93f	-0.037820097
1	0x3c16a1e2	0.009193869
2	0xbd829e2f	-0.063778274
3	0xbd4d9d89	-0.050199065
4	0x3ccf4e8c	0.025306009
5	0xbc91594f	-0.017742781
6	0x3ce472bc	0.02788674
7	0x3ce7c964	0.028294273
8	0xbd26e769	-0.040748034
9	0x3cefca44	0.029271252
10	0x3c50c3e2	0.012742015
11	0x3bf45bce	0.007457233
12	0xbb49c5ef	-0.0030788144
13	0x3ca15259	0.019692587
14	0x3ccdaa7c	0.025105707
15	0x3d7fa8f3	0.062416982
16	0xbd308918	-0.043099493
17	0xbd04ab6f	-0.032390054
18	0xbd8a6db3	-0.06759205
19	0x3d7dc89c	0.061958894
20	0x3d4ac86f	0.049507555
21	0x3d00214f	0.031281766
22	0xbd040f91	-0.032241408
23	0x3d8aca7b	0.06776901
24	0x3c6ef3c7	0.014584488
25	0xbd71df82	-0.059051044
26	0x3d638ffb	0.055557232
27	0xbc8961ab	-0.016770205
28	0xbc4d3060	-0.0125237405
29	0xbd4c0c62	-0.049816497
30	0xbc89b577	-0.016810162
31	0x3d3c4356	0.045962654
32	0x3c876950	0.01652971
33	0xbce47a90	-0.027890474
34	0xbce86a5e	-0.028371032
35	0xbcd2b019	-0.025718736
36	0x3ca06095	0.019577304
37	0xbb743a56	-0.0037266216
38	0xbccb4539	-0.024813281
39	0xbcfef5d6	-0.031123083
40	0x3cd96975	0.026539544
41	0x3d22b55a	0.03972373
42	0x3d51d161	0.05122507
43	0xbcbc6928	-0.022999361
44	0xbc4e64da	-0.012597287
45	0xbb9852f3	-0.00464856
46	0xbb286882	-0.0025697057
47	0xbd0b111b	-0.03395186
48	0x3ccd4d51	0.025061281
49	0xbd033944	-0.032037035
50	0xbb9228e3	-0.0044604405
51	0xbc3b16b1	-0.011418984
52	0xbbd29a21	-0.006427065
53	0xbd1a5cbc	-0.037686095
54	0x3c93615f	0.017990766
55	0xbb91e5f0	-0.0044524595
56	0xbd1714cf	-0.03688508
57	0xbc9f2f33	-0.019431686
58	0xbb84e818	-0.004055988
59	0xbc844f2a	-0.01615103
60	0xbd61660a	-0.055028953
61	0x3b2bd11d	0.002621717
62	0x3c8a6f01	0.016898634
63	0x3cbc0111	0.022949727
64	0x3cfe758a	0.031061906
65	0x3cfd11b4	0.03089223
66	0xbd106b29	-0.035258446
67	0x3d4046bb	0.046942454
68	0xbc0be625	-0.008538757
69	0xbdda50d5	-0.10659949
70	0x3d48e519	0.04904661
71	0xbd31fb21	-0.043452386
72	0x3c4d3ad7	0.012526236
73	0x3ccf812a	0.025330145
74	0x3b0a23da	0.0021078498
75	0x3c7868f7	0.015161744
76	0xbd280f44	-0.041030183
77	0xbb1a4f25	-0.002354571
78	0xbce68458	-0.028139278
79	0x39eb2c43	0.0004485567
80	0x3d2de9b8	0.04245922
81	0x3d0bb53d	0.03410839
82	0x3d79b50f	0.060963687
83	0xbd482ecd	-0.048872758
84	0xbbf69f36	-0.0075263036
85	0xbcc0d9da	-0.02354138
86	0xbd11a969	-0.035561953
87	0x3c655121	0.013996393
88	0xbc9734b1	-0.018457742
89	0xbc97a212	-0.018509898
90	0xbd610904	-0.05494024
91	0x3d08ae8c	0.033369586
92	0xbd3f6f2e	-0.04673689
93	0xbae17a2b	-0.0017202547
94	0xbc7c51bc	-0.015400346
95	0x3d160ed3	0.03663523
96	0xbd18d69c	-0.037314042
97	0x3d5b11b2	0.053483672
98	0xbd51be1b	-0.05120669
99	0x3d2b6ce0	0.04185188
100	0xbd239ef7	-0.039946523
101	0x3d0cbf43	0.03436209
102	0x3c167274	0.009182561
103	0x3d836d1b	0.064172946
104	0x3ccfc254	0.025361218
105	0xbd293918	-0.041314214
106	0xbcb0ac7c	-0.021566622
107	0x3b15b98b	0.0022846188
108	0xbca10e34	-0.019660093
109	0xbd1c1342	-0.038104303
110	0x3cc448c5	0.02396048
111	0xbd243cff	-0.040097233
112	0x3d6e52e1	0.05818451
113	0xbd13b549	-0.03606156
114	0x3be995e5	0.0071284645
115	0xbbff656a	-0.007794072
116	0x3d37bb5f	0.044856425
117	0x3ca6f2e4	0.020379491
118	0x3d081d37	0.033230986
119	0x3c68294c	0.014170002
120	0xbc2b8bda	-0.010470355
121	0x3cc114b8	0.02356945
122	0xbc56e1d1	-0.013115362
123	0xbc92e19b	-0.017929843
124	0x3cb6f76e	0.02233478
125	0xbcf5c353	-0.030000364
126	0xbb9223d0	-0.0044598356
127	0xbd27662c	-0.040868923
128	0xbcf4902e	-0.029853906
129	0xbcf42692	-0.029803548
130	0xbd890fb3	-0.066924475
131	0xbcbfd3b4	-0.023416378
132	0xbb10c27e	-0.0022088583
133	0x3d254bcb	0.040355485
134	0xbd8f89cf	-0.07008707
135	0x3d1b794d	0.03795748
136	0xbd8ca531	-0.06867445
137	0xbd43ca32	-0.04780025
138	0xbcd22f5f	-0.025657354
139	0x3d159a3b	0.03652404
140	0x3cc5fe10	0.024168998
141	0xbca1b8e4	-0.019741483
142	0xbd0b60e7	-0.03402796
143	0xbd5b8d6e	-0.053601675
144	0x3ce5abbd	0.028035993
145	0x3d9306cf	0.07179033
146	0x3d20289c	0.039101228
147	0x3cc52627	0.024066044
148	0xbabf228e	-0.0014582442
149	0xbd5e5fb9	-0.054290507
150	0xbd82087f	-0.06349277
151	0xbcdcf939	-0.026974307
152	0xbc52bc42	-0.012862267
153	0xbccfd323	-0.025369233
154	0x3cea1aa3	0.028577155
155	0x3cd601dc	0.026123933
156	0x39c20dae	0.00037012756
157	0x3cbf7a9c	0.023373894
158	0xbd0ffd8c	-0.03515391
159	0x3d0eb22e	0.034837894
160	0x3cefce2f	0.02927312
161	0xbc91b1fa	-0.017785061
162	0x3d25b0d2	0.040451832
163	0x3c9f30a4	0.019432373
164	0xbd351b86	-0.0442157
165	0x3cebc4a5	0.02878029
166	0xbd15df32	-0.03658981
167	0x3d3f9bea	0.04677955
168	0x3d115c56	0.03548845
169	0xbd0551f3	-0.032548856
170	0xbd5511af	-0.052018818
171	0xbd26a694	-0.040686205
172	0x3d2c3378	0.042041272
173	0xbd528e2b	-0.051405113
174	0x3d388534	0.045048907
175	0xbc6f4d96	-0.0146059
176	0xbcf99380	-0.030465841
177	0xbde0c0cb	-0.10974272
178	0xbcb34969	-0.02188559
179	0x3d5f9533	0.054585647
180	0xbc935dca	-0.017989058
181	0x3d054a49	0.032541547
182	0xb755ffe0	-1.2755365e-05
183	0xbd0cff42	-0.03442312
184	0x3d758749	0.05994347
185	0xbc82f679	-0.015986668
186	0xbc3c5a48	-0.011496134
187	0x3b1e8c70	0.0024192594
188	0xbc170b93	-0.009219068
189	0xbcc2bdcf	-0.023772148
190	0x3cb67002	0.022270206
191	0x3cc31239	0.0238124
192	0xbcb87d43	-0.022520667
193	0x3cc1354e	0.023584988
194	0x3d80689c	0.06269953
195	0xbca2e6fd	-0.019885534
196	0x3ce7a104	0.02827502
197	0xbd0f936e	-0.03505271
198	0xbd5f6c50	-0.054546654
199	0x3d19e07a	0.037567593
200	0xbc9dcc0d	-0.019262338
201	0xbcb5a5c6	-0.022173773
202	0x3d59de20	0.05319035
203	0x3b988186	0.0046541123
204	0xbd371dfe	-0.044706337
205	0x3d307664	0.043081656
206	0x3b9673c0	0.004591435
207	0x3cafe3fe	0.02147102
208	0xbcbdb16c	-0.02315589
209	0xbc4a913a	-0.012363726
210	0x3c9642be	0.018342372
211	0x3c2ef871	0.01067935
212	0x3bf3d480	0.0074411035
213	0xbd55f247	-0.052233007
214	0x3bc42808	0.0059862174
215	0xbc58bd71	-0.01322876
216	0x3c34afbc	0.011028226
217	0x3d77bfd1	0.060485665
218	0x3cbd94d4	0.023142256
219	0x3dac2121	0.08404756
220	0xbd3e4946	-0.046456598
221	0x3d183d96	0.037168108
222	0x3d1eeecc	0.038801953
223	0xbb9dff91	-0.0048217257
224	0xbc467bca	-0.012114475
225	0x3d069b32	0.03286285
226	0xbd3d65c2	-0.046239622
227	0x3ba71b15	0.005099664
228	0xbd3f0a46	-0.046640657
229	0xbd255cd3	-0.040371727
230	0x3c1a6a6d	0.009424788
231	0xbd27b305	-0.04094221
232	0x3d4ad6fe	0.04952144
233	0xbb104127	-0.002201149
234	0xbd5ed9fb	-0.0544071
235	0x3d35c5ad	0.04437797
236	0x3c904186	0.017609369
237	0xbceb2179	-0.028702484
238	0xbc791ac0	-0.015204132
239	0xbbc6907b	-0.006059704
240	0xbc8f724d	-0.017510558
241	0x3c08a6d4	0.008340556
242	0xba3f5d22	-0.00072999496
243	0x3c3aa081	0.011390806
244	0x3971d096	0.00023061255
245	0x3bb29b8e	0.0054506725
246	0xbd104114	-0.035218313
247	0x3d14d6d3	0.036337685
248	0xbbc0e122	-0.005886213
249	0xbc24275c	-0.01001915
250	0x3b4b8799	0.0031056164
251	0xbcb59caf	-0.02216944
252	0xbd026d90	-0.03184277
253	0x3c9e44a3	0.019319838
254	0x3ce8b53c	0.028406732
255	0xbd0683cb	-0.03284053

l3.weight f4 [2, 300]
0	0x3d5e7f8b	0.054320853
1	0x3dd60cc8	0.104516566
2	0x3cf6c28b	0.030122062
3	0x3d7d6fa2	0.06187404
4	0x3d5a962c	0.05336587
5	0xbd56e772	-0.052466817
6	0x3cadf94a	0.021237034
7	0x3a9f3a30	0.0012148079
8	0x3ce9fee2	0.02856392
9	0x3e0e18de	0.13876674
10	0x3d580e9b	0.052748304
11	0xbcedb0c0	-0.029014945
12	0x3b1e0f1a	0.0024117888
13	0xbd151f27	-0.036406662
14	0x3d82e732	0.06391753
15	0x3c5f21fd	0.013618943
16	0xbd5baa8a	-0.053629436
17	0x3da450bb	0.080232106
18	0xbd878e80	-0.066189766
19	0xbcbe1e91	-0.023207935
20	0x3e0993a7	0.13435231
21	0xbe3e82f0	-0.18604636
22	0xbd99417a	-0.07483192
23	0x3d81e4d7	0.06342476
24	0xbe194e83	-0.14971356
25	0xbe9d7917	-0.30756447
26	0x3c949cc9	0.018141167
27	0x3cb51a48	0.022107258
28	0x3d190cf1	0.037365858
29	0x3ccb4b28	0.02481611
30	0xbb1b5375	-0.0023700867
31	0xbdb9e93b	-0.09077688
32	0x3de140df	0.10998701
33	0xbda5954a	-0.08085115
34	0xbbcd2987	-0.006261054
35	0x3e17e5dd	0.1483378
36	0xbe84a67c	-0.25908267
37	0x3de6e648	0.112743914
38	0xbd1de108	-0.038544685
39	0x3cc2243f	0.023698924
40	0xbe17a396	-0.14808497
41	0x3d25a131	0.040436927
42	0x3e3e8243	0.18604378
43	0xbd2a9da1	-0.041654233
44	0xbdd44769	-0.10365183
45	0x3a73784b	0.00092876394
46	0x3d866318	0.065618694
47	0x3cea317a	0.028588045
48	0x3cb2661c	0.021777205
49	0xbe1d06ac	-0.15334576
50	0x3dc3ad6b	0.09554561
51	0xbd2b58f5	-0.041832883
52	0xbd5237ca	-0.051322736
53	0x3c665be2	0.0140599925
54	0xbd2b873e	-0.041877024
55	0xbdbab64d	-0.09116802
56	0xbcf2f611	-0.02965835
57	0xbdc1695b	-0.09443923
58	0x3c3f7200	0.011684895
59	0xbdbcdb3f	-0.092215054
60	0x3da25dff	0.079280846
61	0x3be3cf92	0.0069522345
62	0x3d060667	0.03272095
63	0x3cadcce7	0.02121587
64	0x3e3999d8	0.18125093
65	0xbdbe4ed7	-0.09292381
66	0xbe15abcd	-0.14616318
67	0x3df679d2	0.12034954
68	0xbe546d34	-0.20744783
69	0x3e30bc3f	0.1725931
70	0x3c906536	0.017626386
71	0xbc57bc71	-0.0131674865
72	0x3dc9e179	0.098574586
73	0x3db5fbf0	0.08885944
74	0x3d11334a	0.035449304
75	0x3c99963a	0.018748391
76	0xbd5356a9	-0.051596317
77	0x3dd67c82	0.10472967
78	0xbd70d5ee	-0.05879777
79	0xbd4243ac	-0.04742782
80	0xbdd92373	-0.106024645
81	0x3d23b03b	0.03996299
82	0xbd5651c7	-0.052324083
83	0xbcb009cc	-0.021489047
84	0x3cd6e3be	0.026231643
85	0x3d151960	0.036401153
86	0x3d04a55d	0.032384265
87	0xbe061bb0	-0.130965
88	0x3ea77a87	0.32710668
89	0x3e2cf98c	0.1689207
90	0xbd1b8326	-0.03796687
91	0x3de89f04	0.11358455
92	0xbd19c2bf	-0.03753924
93	0x3cfbd1b3	0.03073964
94	0xbdd69c6d	-0.104790546
95	0xbc9585ca	-0.018252272
96	0x3dcbc5d4	0.09949842
97	0xbd514c98	-0.051098436
98	0xbb3ef027	-0.0029134841
99	0xbdc93732	-0.09824981
100	0x3d0c9edb	0.034331184
101	0x3c38924d	0.01126535
102	0x3d1fbe6a	0.038999952
103	0xbbb2ae80	-0.005452931
104	0xbc989723	-0.018626755
105	0xbe15acb7	-0.14616667
106	0xbc582b9f	-0.013193994
107	0x3d3120ac	0.04324405
108	0x3dd8fb05	0.10594753
109	0x3cc3f41a	0.023920108
110	0x3dfebb16	0.124380276
111	0xbc365af9	-0.011130088
112	0x3cd96458	0.026537105
113	0xbd17f2cc	-0.037096784
114	0xbc3dcf56	-0.011585077
115	0xbdcf8848	-0.101334155
116	0x3ddcf795	0.1078941
117	0xbd69c8fb	-0.057076436
118	0xbd49efc4	-0.049300924
119	0x3e660ff9	0.2246703
120	0xbd80b93d	-0.062853314
121	0xbe1f0513	-0.1552928
122	0xbd215410	-0.03938681
123	0xbde7de34	-0.11321679
124	0x3d0842f0	0.03326696
125	0x3d7f4620	0.062322736
126	0xbd16f7ed	-0.036857534
127	0x3ce8de19	0.028426217
128	0x3c22ae9a	0.009929324
129	0xbcb6698a	-0.022267122
130	0x3e1dcca2	0.15410092
131	0xbd84ecf7	-0.0649051
132	0x3deeb5ec	0.116557926
133	0xbd34ccbb	-0.04414056
134	0x3ec389ea	0.38191158
135	0x3dbe8c77	0.09304135
136	0x3d93e993	0.07222285
137	0x3ca6340d	0.020288492
138	0xb94f2f3d	-0.00019758656
139	0x3d02bcd8	0.031918377
140	0xbd79fdab	-0.061032932
141	0x3d056c99	0.03257427
142	0x3d11a206	0.03555491
143	0x3e624abc	0.22098821
144	0xbd800d63	-0.06252553
145	0x3d1532cf	0.036425408
146	0x3dd486c7	0.10377269
147	0x3dc5a952	0.09651436
148	0xbe2cf68c	-0.16890925
149	0x3e5895c8	0.21150887
150	0x3e0036ef	0.12520956
151	0xbe1c8645	-0.15285595
152	0x3c0a4133	0.008438396
153	0xbb312796	-0.0027031652
154	0x3cac2fbd	0.021018857
155	0xbbbf89f9	-0.005845305
156	0xbe8d3c56	-0.27585095
157	0x3e5a107d	0.21295352
158	0x3c537028	0.012905158
159	0xbbba2fcf	-0.0056819688
160	0x3d236faf	0.03990143
161	0x3c87a9cd	0.01656046
162	0xbccfaa03	-0.025349623
163	0xbb13c154	-0.0022545652
164	0xbdcf9d2e	-0.101374015
165	0xbda017e9	-0.078170605
166	0xbe53856f	-0.2065637
167	0x3c267dd7	0.0101618385
168	0xbd1408f5	-0.036141355
169	0xbe347338	-0.17622077
170	0xbd45b869	-0.04827157
171	0xbd8ec654	-0.06971422
172	0x3cf1baac	0.029507957
173	0xbb36a84e	-0.0027871314
174	0xbd947168	-0.07248193
175	0xbc5fe9a4	-0.013666544
176	0x3d585c2e	0.052822284
177	0xbdb77e50	-0.08959639
178	0xbbb922c5	-0.005649897
179	0x3dcd184c	0.100144
180	0x3e544c73	0.20732288
181	0x3cba6995	0.022755424
182	0x3ce73f9d	0.028228575
183	0xbca8bd30	-0.020598024
184	0x3d8d57b5	0.069014944
185	0xbd1d184a	-0.038353242
186	0xbd335cf4	-0.04378982
187	0xbd472f08	-0.048628837
188	0xbe0cf0d5	-0.13763745
189	0xbcec7777	-0.028865559
190	0x3d8c053f	0.06836938
191	0x3cda4e05	0.02664853
192	0xbd1f9ffc	-0.038970932
193	0xbd74ec42	-0.059795626
194	0x3cbff472	0.02343199
195	0x3d244288	0.04010251
196	0x3d1efc0f	0.0388146
197	0xbcb2b6de	-0.021815713
198	0xbce50979	-0.027958618
199	0x3cb894c0	0.022531867
200	0x3d258cf2	0.04041762
201	0xbd36ae01	-0.044599537
202	0x3e2db4f1	0.16963555
203	0xbd3cf2d6	-0.046130024
204	0x3cdceef2	0.026969407
205	0x3d28db04	0.041224495
206	0x3c90fef3	0.017699694
207	0x3d4d0b76	0.050059758
208	0x3e225de5	0.1585613
209	0xbea084da	-0.31351358
210	0xbe1910c7	-0.14947806
211	0x3db85854	0.09001222
212	0x3e0672bd	0.13129707
213	0xbc06aef5	-0.008220424
214	0xbd4f776e	-0.050651006
215	0xbe79a409	-0.2437898
216	0xbdce4c7c	-0.10073182
217	0x3e81ba61	0.25337508
218	0x3caae752	0.020862255
219	0xbcf72785	-0.030170212
220	0x3dd696b8	0.10477966
221	0x3cc69479	0.02424072
222	0x3c514e59	0.012775027
223	0xbcc01c9d	-0.023451144
224	0xbc253dbf	-0.010085522
225	0xbd6e953f	-0.0582478
226	0xbe159c8e	-0.14610502
227	0x3c4027f1	0.011728273
228	0x3c7b2aac	0.015329998
229	0x3cebedbf	0.02879989
230	0xbd4dbc9f	-0.05022871
231	0x3cec9be1	0.028882923
232	0x3d204993	0.039132666
233	0xbd38a4f6	-0.045079194
234	0xbe13a2e4	-0.14417607
235	0xbd6d6e76	-0.057966672
236	0xbda5e196	-0.08099668
237	0xbe05d776	-0.13070473
238	0xbcb2e3ba	-0.021837104
239	0xbe464fce	-0.1936638
240	0xbe3ccdc7	-0.18437873
241	0x3c924f44	0.017860062
242	0x3d6f0be4	0.05836095
243	0x3d96c7cc	0.07362327
244	0x3c12444d	0.008927417
245	0xbc475f67	-0.012168742
246	0x3d3fcb7b	0.046824913
247	0x3d8c0d2c	0.0683845
248	0x3d6633a5	0.056201596
249	0xbd3263ea	-0.043552317
250	0x3d4487c4	0.04798104
251	0x3e69f01c	0.228455
252	0x3d8032c9	0.062596865
253	0xbd3fbc01	-0.046810154
254	0x3cecd3ce	0.02890959
255	0x3d28a420	0.041172147

l3.bias f4 [2]
0	0xbca03507	-0.019556535
1	0x3c10da37	0.008841089
