actor.pkl (torch, 139287 bytes, 6 tensors)

weight f4 [128, 4]
0.5328789 0.44658628 0.039267596 0.3725619 -0.27472165 0.2852611 -0.116853796 0.14529105
0.4103022 0.26297224 -0.44474998 -0.041444823 0.39184684 -0.40436608 -0.3923422 -0.2224001
-0.16385972 0.022540225 0.10193361 0.560402 -0.1656838 0.31085187 0.4576063 0.7732849
0.36599782 -0.11304855 0.53404784 0.3651566 0.39827824 0.41321266 0.31032658 0.015979018
0.21788025 -0.25065145 -0.3716928 -0.16403607 -0.18239127 0.11496841 -0.40308127 -0.62115943
-0.16049999 0.36881614 -0.34940946 0.253087 -0.15108995 0.35514253 -0.44896773 0.03742692
0.19692868 0.25540793 0.2484047 -0.43739548 0.011690787 -0.3873858 -0.41213468 0.37059757
-0.47620466 -0.45558468 -0.40173036 0.40700397 -0.31014618 -0.060385328 -0.26782325 -0.6481509
-0.21128532 0.24459372 -0.2251017 -0.3879131 0.08427145 -0.18724214 0.30826712 0.362384
-0.039353605 0.42024115 -0.36764336 -0.37607816 0.24652575 0.03932466 0.32869342 -0.16655448
0.07570433 0.13691151 0.31443006 0.4971767 -0.27964067 0.38466853 0.40620777 -0.023655128
-0.25075 0.2072729 -0.06609244 0.15273044 -0.23120384 0.39475697 0.22587042 -0.08768229
-0.03825454 -0.13236469 -0.18808597 -0.21110876 0.2347711 -0.4486867 -0.4054829 -0.14344941
-0.07766397 -0.102722116 0.034228522 0.318738 0.3541405 -0.25612894 0.035456102 0.32423896
-0.27844644 -0.06431577 0.2644978 0.010809117 0.34990954 -0.007521391 -0.12669304 0.11960579
0.6738217 0.31807792 0.028936483 -0.12251679 0.08978585 0.5185697 -0.31063607 0.2231524
0.27847165 -0.41033033 0.015921475 0.2934848 0.010834001 0.36660048 -0.13431922 -0.35461682
0.4594231 0.18871936 -0.45581368 -0.22310898 -0.30709016 0.08236121 -0.41162714 -0.21054062
-0.04611312 0.10550412 0.09225603 -0.23869255 0.15015137 0.012691432 0.31747133 -0.5354878
0.41643193 -0.14060873 0.35221243 -0.20465392 0.114254154 0.06493335 -0.008903915 0.4917128
0.51020205 -0.22623889 0.09333764 -0.15666054 0.11869826 -0.1250909 0.60166645 0.50568897
0.30536094 0.1378542 0.24242379 -0.14058511 -0.108998545 -0.013231402 0.39528462 0.589756
-0.34413344 0.45234835 0.15297523 -0.3025916 -0.26740268 -0.015945747 0.3724426 0.1262951
0.026722452 0.27396306 0.21783176 -0.39136064 0.115860805 -0.38619232 -0.31698027 -0.08088941
0.23180427 -0.07922825 -0.41811594 0.57112527 0.5760421 -0.10535113 -0.06722539 -0.13501225
0.37908408 -0.17105928 0.5979304 0.38862222 -0.35582104 -0.32049933 -0.07628798 -0.28502253
-0.11498211 -0.17955855 0.01870374 -0.03308199 -0.28126 -0.3227554 0.004949164 0.03375004
0.13097523 -0.06407133 -0.1587332 0.35584366 0.3299352 0.34165296 0.14462802 -0.2391453
-0.31051996 -0.24159846 -0.25827205 0.17527944 0.17253754 0.43615374 0.031247819 -0.38469088
0.14371267 -0.30958095 0.122259445 0.35253772 0.3669194 0.36114183 0.28177735 0.3561652
0.53003544 -0.45310408 0.38844696 0.33913174 -0.27211377 0.484646 -0.32235625 -0.12804013
0.05196583 0.42797178 0.12696062 0.02848632 -0.07279064 0.0034285958 -0.5805593 -0.37428412
00000000: c06a 083f f5a6 e43e 0fd7 203d 6fc0 be3e
00000010: 51a8 8cbe be0d 923e 0b51 efbd 2dc7 143e
00000020: 2113 d23e 4ca4 863e 45b6 e3be 0cc2 29bd
00000030: 26a0 c83e 1209 cfbe 14e1 c8be dabc 63be
00000040: d8ca 27be 47a6 b83c 92c2 d03d 8176 0f3f
00000050: 04a9 29be fa27 9f3e 5f4b ea3e 00f6 453f
00000060: 1164 bb3e 0086 e7bd 5cb7 083f cef5 ba3e
00000070: 20eb cb3e 9c90 d33e 20e3 9e3e 6ee6 823c
00000080: 001c 5f3e 6355 80be 854e bebe 12f9 27be
00000090: c7c4 3abe 8f74 eb3d ab60 cebe 4e04 1fbf
000000a0: 1c5a 24be 78d5 bc3e cce5 b2be 9f94 813e
000000b0: 53b7 1abe 3ed5 b53e 19df e5be f84c 193d
000000c0: aca7 493e d4c4 823e cd5d 7e3e 4df2 dfbe
000000d0: b78a 3f3c 6e57 c6be 5103 d3be f7be bd3e
000000e0: 19d1 f3be 6542 e9be 9aaf cdbe d362 d03e
000000f0: 7bcb 9ebe 9b56 77bd 2120 89be 38ed 25bf
00000100: 2e5b 58be c776 7a3e 0f81 66be 8c9c c6be
00000110: 8396 ac3d 67bc 3fbe 30d5 9d3e 658a b93e
00000120: 3f31 21bd d929 d73e c03b bcbe 518d c0be
00000130: 3f71 7c3e e512 213d 814a a83e 428d 2abe
00000140: df0a 9b3d 8832 0c3e fafc a03e f28d fe3e
00000150: 102d 8fbe 46f3 c43e 77fa cf3e 66c8 c1bc
00000160: 4e62 80be 593f 543e 795b 87bd 5e65 1c3e
00000170: b3c0 6cbe 961d ca3e 934a 673e c692 b3bd
00000180: cbb0 1cbd 9c8a 07be 9c99 40be e52c 58be
00000190: d667 703e 43ba e5be 749b cfbe 67e4 12be
000001a0: 4a0e 9fbd f95f d2bd 3533 0c3d a131 a33e
000001b0: e751 b53e 5523 83be 6b3a 113d a602 a63e
000001c0: 8890 8ebe fdb7 83bd 416c 873e b918 313c
000001d0: 5827 b33e 0076 f6bb d2bb 01be e1f3 f43d
000001e0: 947f 2c3f 1cdb a23e 340c ed3c 15ea fabd
000001f0: a5e1 b73d fcc0 043f b10b 9fbe 1082 643e
00000200: d693 8e3e d116 d2be c16d 823c a443 963e
00000210: 1881 313c 0fb3 bb3e fa8a 09be 5690 b5be
00000220: 8139 eb3e a63f 413e 6960 e9be ae76 64be
00000230: ec3a 9dbe feac a83d cbc0 d2be f697 57be
00000240: 1ce1 3cbd 8b12 d83d bbf0 bc3d d26b 74be
00000250: 48c1 193e b9ef 4f3c 9a8b a23e ba15 09bf
00000260: 9136 d53e bcfb 0fbe 3055 b43e cc90 51be
00000270: 15fe e93d c7fb 843d bae1 11bc c8c1 fb3e
00000280: 9a9c 023f 2bab 67be ce27 bf3d 9f6b 20be
00000290: 1318 f33d d417 00be d006 1a3f d574 013f
000002a0: 4558 9c3e a729 0d3e f13d 783e 8bf5 0fbe
000002b0: a13a dfbd 86c8 58bc bf62 ca3e 40fa 163f
000002c0: 4232 b0be 349a e73e 8aa5 1c3e 49ed 9abe
000002d0: 01e9 88be a8a0 82bc ccb0 be3e 8153 013e
000002e0: 0be9 da3c e344 8c3e 4a0f 5f3e 6c60 c8be
000002f0: 6e48 ed3d 00bb c5be 3d4b a2be 59a9 a5bd
00000300: 195e 6d3e 6c42 a2bd 4b13 d6be 4435 123f
00000310: 7f77 133f 55c2 d7bd 77ad 89bd a740 0abe
00000320: 4f17 c23e 2a2a 2fbe f711 193f 7ef9 c63e
00000330: 2d2e b6be 7d18 a4be df3c 9cbd 79ee 91be
00000340: be7b ebbd 32de 37be 9638 993c fb80 07bd
00000350: 5001 90be 3240 a5be 992c a23b 7b3d 0a3d
00000360: 5f1e 063e d437 83bd f58a 22be 2431 b63e
00000370: 44ed a83e 23ed ae3e 5e19 143e 81e2 74be
00000380: 79fc 9ebe 9665 77be 3c3c 84be 747c 333e
00000390: aead 303e 8b4f df3e 6dfb ff3c 34f6 c4be
000003a0: 6a29 133e 6581 9ebe 2963 fa3d d37f b43e
000003b0: dcdc bb3e 95e7 b83e 1f45 903e 495b b63e
000003c0: 67b0 073f 42fd e7be 85e2 c63e ada2 ad3e
000003d0: 7f52 8bbe 8523 f83e e10b a5be f41c 03be
000003e0: 1fda 543d 1e1f db3e f701 023e 255c e93c
000003f0: 4213 95bd 4bb2 603b 899f 14bf 2ba2 bfbe

bias f4 [128]
0.5034706 -0.1514088 -0.097538695 -0.3014839 0.21587358 0.15738001 0.2222695 0.2533395
-0.15778841 0.13477965 -0.27296075 0.5160863 0.08024884 0.40077862 -0.15563159 0.06824639
-0.42593804 0.16592988 0.30496028 0.4330057 0.20024621 0.016415741 0.4088627 -0.09115174
-0.083857045 -0.121952064 -0.3862591 -0.46716237 0.54467565 0.47816953 0.36482722 0.42404458
0.19650112 0.2530522 -0.057524383 0.16387369 -0.39154032 0.1799353 0.044482008 0.1491744
-0.31098816 0.20634335 -0.4209163 0.24249521 0.37823585 0.63126993 0.062053338 -0.5418585
0.23983161 0.43337527 0.20592695 -0.35499197 -0.1505037 -0.018826488 -0.30081522 -0.121662475
0.2637023 0.0065557617 -0.21026167 0.59981805 0.27426273 0.26518026 -0.42754695 0.022742985
-0.2523138 0.38779005 -0.20236827 -0.42932782 -0.39412835 -0.13197961 0.16490327 0.017575672
0.67120504 0.56445444 0.3520022 -0.13324162 0.53680444 0.45708874 0.07283551 0.06499603
-0.1940894 0.241185 -0.19665807 0.12621449 -0.031141896 0.1392971 0.11085403 -0.5142339
-0.24039288 -0.003981246 0.14761883 -0.4260087 0.13233958 0.14987022 0.040133767 0.101863906
-0.6021743 -0.38331243 -0.47300127 0.269618 -0.10139319 -0.36765155 0.033433687 -0.081336446
0.6043789 -0.2765277 -0.08109723 -0.22489978 0.29105738 -0.24663277 0.52742463 0.35110968
-0.21055163 0.47832286 0.3336478 -0.009084155 -0.53312165 0.08620166 0.52276903 -0.08885176
0.36387378 -0.29199642 0.01884657 0.08186047 0.40912265 0.24818961 0.15279639 0.25356364
00000000: 73e3 003f e90a 1bbe 5ec2 c7bd 195c 9abe
00000010: f70d 5d3e 3a28 213e 9e9a 633e b7b5 813e
00000020: 4993 21be ad03 0a3e 83c1 8bbe 3b1e 043f
00000030: 8159 a43d db32 cd3e e35d 1fbe c3c4 8b3d
00000040: 8d14 dabe 86e9 293e c123 9c3e ecb2 dd3e
00000050: 580d 4d3e 4e7a 863c 7456 d13e c3ad babd
00000060: 3ebd abbd 01c2 f9bd c1c3 c5be e82f efbe
00000070: dd6f 0b3f a3d2 f43e a2ca ba3e 5f1c d93e
00000080: 9737 493e 0f90 813e b09e 6bbd 81ce 273e
00000090: f977 c8be f640 383e c432 363d 2dc1 183e
000000a0: d739 9fbe ac4b 533e 5782 d7be aa50 783e
000000b0: 21a8 c13e e89a 213f a42b 7e3d 3db7 0abf
000000c0: 6b96 753e 5de3 dd3e 84de 523e 82c1 b5be
000000d0: a41d 1abe 023a 9abc 7404 9abe 2d2a f9bd
000000e0: fd03 873e b7d1 d63b d64e 57be ad8d 193f
000000f0: 2a6c 8c3e b5c5 873e 6fe7 dabe 7f4f ba3c
00000100: 462f 81be 6b8c c63e a139 4fbe dbd0 dbbe
00000110: 31cb c9be aa25 07be 67dc 283e dbfa 8f3c
00000120: 18d4 2b3f 1680 103f a239 b43e 7e70 08be
00000130: 046c 093f 8907 ea3e c92a 953d a31c 853d
00000140: 5fbf 46be 33f9 763e bc60 49be 5f3e 013e
00000150: 4a1d ffbc e6a3 0e3e 7007 e33d d5a4 03bf
00000160: 8d29 76be 1d75 82bb 6429 173e d01d dabe
00000170: 0784 073e 9477 193e 4e63 243d 069e d03d
00000180: 1828 1abf 8741 c4be 392d f2be 5f0b 8a3e
00000190: 3ca7 cfbd d33c bcbe c3f1 083d b993 a6bd
000001a0: 93b8 1a3f 0a95 8dbe 4e16 a6bd 214c 66be
000001b0: 7905 953e 4d8d 7cbe 4d05 073f a6c4 b33e
000001c0: d99a 57be bce6 f43e e2d3 aa3e b5d5 14bc
000001d0: a97a 08bf 7f8a b03d 31d4 053f e9f7 b5bd
000001e0: aa4d ba3e 8e80 95be 1f64 9a3c 76a6 a73d
000001f0: 8678 d13e 6b25 7e3e a876 1c3e 18d3 813e

weight f4 [256, 128]
0.049656447 0.07600436 0.13101818 0.09548646 -0.030556085 -0.08395731 -0.014374575 0.06957589
-0.005474522 -0.024098216 -0.07281986 0.05794061 -0.026733086 0.043537613 -0.10942854 -0.08929808
0.06355635 0.048187427 -0.06053469 -0.035871647 -0.005877789 -0.012786136 -0.12117606 0.0131955715
0.06503689 0.100067 0.027663948 0.052983083 -0.05473739 0.031998646 -0.05938188 -0.007571476
-0.005558879 -0.031059334 0.10341882 0.0045029284 0.07151716 0.10720345 0.048098154 0.09533319
0.060846046 0.0032708906 0.04022332 -0.014653706 -0.086491674 -0.0728876 0.04745827 0.039919898
-0.06615305 0.104659565 -0.06369675 -0.10818796 -0.042224567 -0.049995005 -0.043545824 0.041176144
-0.041355766 -0.0072347135 0.043348663 0.062632784 0.08607346 0.022191694 -0.09023121 -0.022492234
0.068998195 0.0014842039 -0.04077698 -0.05885388 -0.022576863 -0.10520116 -0.040974844 -0.016075185
-0.0634697 -0.054268014 -0.07599876 0.01582276 -0.09175991 -0.046821967 0.021900227 -0.0716749
0.014775171 -0.16690315 -0.03892296 0.022703405 -0.021683516 0.03502777 -0.1122649 0.03119769
-0.10170527 0.022495799 0.054249994 0.027112598 0.0870485 -0.0038938273 -0.0632788 -0.04508918
-0.04313366 -0.028504789 -0.030054778 -0.027584309 0.08713278 -0.082490675 -0.07948551 -0.04563293
0.066948526 -0.051621404 -0.12705159 -0.08983726 0.069034964 -0.033067465 -0.053378504 0.038659025
0.07259841 0.09912769 -0.00958472 -0.100846715 -0.02271994 -0.048566435 -0.046424225 -0.113838345
-0.097699076 0.016412204 0.02786162 0.08076853 -0.058386024 -0.011032795 0.06455657 -0.12222815
0.04962305 0.027964748 -0.011408158 -0.03776134 -0.026831802 -0.04080797 0.016526103 0.00023670495
0.06160126 -0.02649219 0.07699486 0.006767817 -0.054192122 0.0029908642 -0.001379624 -0.00082710385
-0.0070170388 -0.05741647 -0.081996575 0.07937006 0.04359082 -0.028456867 0.046574242 0.005251795
-0.033231124 -0.0149397105 -0.061371837 0.025463432 -0.06621685 0.07100689 -0.06412947 0.043272726
0.06570464 -0.050387535 -0.07906323 -0.07253127 0.0039366633 -0.040293895 0.01530607 -0.03392976
0.054870747 -0.0575729 0.079874 -5.6147575e-05 0.03789743 0.037955098 0.010364182 0.027633369
0.017761871 0.07998688 -0.062390767 -0.063245684 0.034905314 0.01937268 0.075013496 0.0017284304
0.031152114 0.03519907 0.0052592233 0.0041841194 0.0025621727 0.0015975982 -0.066584446 0.03257037
-0.08185807 0.033297002 0.06680561 -0.04815819 0.020490378 -0.08315204 -0.03672321 0.022860996
-0.037152648 -0.057408087 0.022526376 0.013036497 0.0073781535 0.034233533 -0.05738856 0.06859628
0.08703519 0.01760117 -0.05235453 -0.017934538 -0.0015163273 -0.07754466 -0.07906997 -0.028876923
-0.005791314 -0.08204855 0.013390169 -0.042254534 -0.07733029 -0.04460713 0.08817879 0.001099959
-0.028074361 -0.06335355 -0.009704247 0.02975756 -0.05422332 0.010020211 -0.06066884 0.02349589
-0.011392117 -0.04156262 0.07770895 0.021929197 -0.0622237 -0.05691955 -0.06161073 -0.020245016
-0.035195738 -0.0053377077 -0.034109876 0.012586631 -0.06599759 -0.060801253 -0.0038930625 -0.030701187
-0.071174964 -0.04114962 -0.057025656 -0.0070774704 -0.022951648 0.032301858 0.004846737 -0.07991832
00000000: 8f64 4b3d 2da8 9b3d a129 063e 688e c33d
00000010: c150 fabc cff1 abbd 5683 6bbc ce7d 8e3d
00000020: 9e63 b3bb 9f69 c5bc 9422 95bd 2253 6d3d
00000030: 58ff dabc 7f54 323d 121c e0bd e9e1 b6bd
00000040: d529 823d 2e60 453d 39f3 77bd 26ee 12bd
00000050: 789a c0bb f17c 51bc 272b f8bd 3d32 583c
00000060: 1032 853d edef cc3d 819f e23c ca04 593d
00000070: 5034 60bd 0311 033d 6a3a 73bd 251a f8bb
00000080: 4227 b6bb 2570 febc 3fcd d33d 4d8d 933b
00000090: 9777 923d 7b8d db3d 9202 453d 0c3e c33d
000000a0: b439 793d 705c 563b 35c1 243d 1916 70bc
000000b0: 8c22 b1bd 1846 95bd 9a63 423d 0c83 233d
000000c0: 407b 87bd c157 d63d 7173 82bd a691 ddbd
000000d0: abf3 2cbd 90c7 4cbd 1b5d 32bd 51a8 283d
000000e0: aa64 29bd 2d11 edbb 5e8e 313d 9e45 803d
000000f0: 4847 b03d 5bcb b53c 24cb b8bd a241 b8bc
00000100: ed4e 8d3d 9e89 c23a c305 27bd c410 71bd
00000110: 1df3 b8bc b573 d7bd 3dd5 27bd 1bb0 83bc
00000120: 67fc 81bd 2348 5ebd 3da5 9bbd bc9e 813c
00000130: 9fec bbbd 64c8 3fbd 1b68 b33c 4aca 92bd
00000140: 8f13 723c a9e8 2abe af6d 1fbd 7efc b93c
00000150: a1a1 b1bc 4779 0f3d 24eb e5bd 4c92 ff3c
00000160: da4a d0bd 1c49 b83c 3e35 5e3d 3d1b de3c
00000170: 7c46 b23d 952f 7fbb 5198 81bd 6faf 38bd
00000180: ecac 30bd e082 e9bc 7035 f6bc 7df8 e1bc
00000190: ac72 b23d dff0 a8bd 4dc9 a2bd 98e9 3abd
000001a0: 4f1c 893d f770 53bd d019 02be 99fc b7bd
000001b0: 3462 8d3d c071 07bd 6ba3 5abd ed58 1e3d
000001c0: 7aae 943d 7503 cb3d 3b09 1dbc b988 cebd
000001d0: 2b1f babc 99ed 46bd 5427 3ebd 1424 e9bd
000001e0: 7416 c8bd e372 863c 0d3e e43c f969 a53d
000001f0: 2f26 6fbd e5c2 34bc 3c36 843d c152 fabd
00000200: 8a41 4b3d 5416 e53c 48e9 3abc a3ab 1abd
00000210: 5ece dbbc 4226 27bd c061 873c 0034 7839
00000220: 9a51 7c3d 2606 d9bc 7baf 9d3d 90c4 dd3b
00000230: 8ff8 5dbd 6002 443b 80d4 b4ba 00d2 58ba
00000240: 30ef e5bb 882d 6bbd d2ed a7bd c58c a23d
00000250: 4a8c 323d 601e e9bc a2c4 3e3d 4017 ac3b
00000260: 5c1d 08bd b0c5 74bc 0961 7bbd b098 d03c
00000270: b39c 87bd 0f6c 913d 5056 83bd be3e 313d
00000280: 2790 863d 2963 4ebd e7eb a1bd 468b 94bd
00000290: 20ff 803b 360b 25bd 50c6 7a3c eff9 0abd
000002a0: 26c0 603d 90d1 6bbd fb94 a33d 0080 6bb8
000002b0: 563a 1b3d ce76 1b3d 88ce 293c 605f e23c
000002c0: 5881 913c 29d0 a33d 768d 7fbd f486 81bd
000002d0: e0f8 0e3d 74b3 9e3c ada0 993d 808c e23a
000002e0: b832 ff3c e62c 103d 9055 ac3b f01a 893b
000002f0: 20ea 273b 8066 d13a 6d5d 88bd 8268 053d
00000300: 34a5 a7bd 7062 083d 61d1 883d 8641 45bd
00000310: 70db a73c 9e4b aabd 146b 16bd fc46 bb3c
00000320: 602d 18bd be24 6bbd 3c89 b83c 0897 553c
00000330: 70c4 f13b 7638 0c3d 4410 6bbd 357c 8c3d
00000340: 813f b23d 5430 903c b471 56bd 74eb 92bc
00000350: 80bf c6ba bccf 9ebd 70ef a1bd 4c8f ecbc
00000360: 10c5 bdbb 1209 a8bd 7062 5b3c 1713 2dbd
00000370: 585f 9ebd f7b5 36bd 1597 b43d 802c 903a
00000380: 34fc e5bc 82bf 81bd 90fe 1ebc 20c6 f33c
00000390: 4619 5ebd d02b 243c e47f 78bd 747a c03c
000003a0: 00a6 3abc 913d 2abd df25 9f3d dca4 b33c
000003b0: 47de 7ebd 7924 69bd 885b 7cbd e0d8 a5bc
000003c0: 6829 10bd f0e7 aebb ccb6 0bbd 2838 4e3c
000003d0: bf29 87bd bc0a 79bd c022 7fbb 0e81 fbbc
000003e0: 2ec4 91bd 818c 28bd bc93 69bd 20ea e7bb
000003f0: 1805 bcbc f44e 043d 60d1 9e3b 37ac a3bd

bias f4 [256]
0.038458966 -0.0164247 -0.04291911 0.029747602 0.013538219 0.072009295 0.0017654127 -0.049212288
0.07658295 0.020853555 0.030970756 0.053586952 0.04598382 0.04657128 -0.057135865 0.11030272
-0.057710346 0.0052373484 0.04568985 -0.07517737 0.015351292 0.017767824 -0.0007031453 -0.063381284
-0.05690934 -0.037956286 0.011082228 -0.039449904 0.00925348 -0.0024163607 -0.003674613 -0.08045492
0.027761126 -0.050215166 0.025508335 -0.032906212 -0.0750639 -0.007940085 0.007934834 -0.013071981
-0.099429674 -0.098826274 -0.06789614 -0.08456005 0.022963345 0.19106503 -0.08542705 0.018921118
0.10365086 0.056551103 0.30547285 -0.026350945 -0.015372565 -0.068142556 -0.08664515 -0.0026667456
-0.0820675 0.057573847 -0.00356748 -0.00659544 0.014805947 0.025137825 -0.046697445 -0.064942755
-0.056591194 -0.011050409 -0.11256296 -0.005282767 -0.08081756 0.03821671 -0.07975899 -0.09717255
0.1296922 -0.07790719 -0.052606113 -0.0863957 0.11770049 0.06437831 -0.043654144 -0.081742
0.19687647 -0.0957136 0.08009969 0.01138991 0.09125505 0.012491905 0.06551118 0.020461835
-0.09218555 -0.00571347 0.001576968 0.04564463 -0.078879416 0.088990085 0.030417021 -0.019330768
-0.08871809 -0.080423735 -0.06503652 0.007431861 0.18843205 0.0059493077 0.17044811 0.027778735
-0.08761853 -0.029371856 -0.013132547 -0.044404972 -0.09452629 -0.052837707 0.010960809 0.035177846
0.026629156 -0.0775929 -0.0044733733 0.0306555 -0.12188084 -0.061140236 -0.0053390986 0.17292297
0.05068564 -0.11008813 0.016194882 0.058775194 0.022504514 -0.07325193 -0.075961046 -0.059961926
-0.0048241643 0.038566247 0.032388024 0.04458502 -0.065198064 -0.023449957 -0.09703601 -0.017024014
0.012127274 0.07458099 -0.06531865 -0.00853053 0.11654431 0.052934207 0.028016208 0.054600436
-0.06809656 -0.10101792 -0.033597764 -0.061303128 -0.09584037 0.0045264727 0.0057391315 -0.013414383
-0.03568629 0.030111378 0.19533947 -0.0732214 0.054180235 0.06429666 -0.063004345 0.04191106
-0.02263222 -0.029372208 0.0804061 0.0017037696 0.06725834 -0.046244193 0.23860821 0.18968503
-0.005471354 -0.04275688 -0.088231 0.041727483 0.10597007 -0.00395328 0.12344312 0.057861194
-0.09737317 -0.032497257 0.0014913008 -0.013599029 0.047207158 -0.07435277 0.013038896 0.17114615
-0.023436395 -0.07501666 -0.09570054 -0.07876329 -0.068558715 -0.01395943 0.14803925 0.022432743
-0.0858834 -0.037517156 -0.0013563297 -0.008631174 0.013853816 -0.00061202055 0.024691775 0.08865566
0.045865875 -0.0855488 -0.07851907 -0.08941414 -0.031406086 0.040810503 0.18779184 -0.03490962
-0.031376965 0.04957296 0.010883822 -0.03246913 -0.06650081 -0.052038986 -0.015408612 -0.030228395
-0.07437652 0.21959475 -0.06749281 -0.056612495 -0.072964855 -0.079277836 -0.050918955 -0.078512296
-0.07517468 -0.0010019486 -0.022393193 -0.04502506 0.033186138 -0.077004775 0.015182609 0.055715457
-0.060698766 -0.050700314 -0.06955259 -0.098494865 0.035101086 0.10123272 -0.00030592084 -0.10811566
0.032145668 0.03292042 0.0326677 -0.073343664 -0.024899147 0.062210713 0.03156817 0.03736851
0.01358087 -0.1464261 -0.07033924 0.022472197 0.11515213 -0.0895803 0.040588476 -0.06652157
00000000: 2687 1d3d 188d 86bc f3cb 2fbd 3eb1 f33c
00000010: 68cf 5d3c 9c79 933d 6c65 e73a d392 49bd
00000020: 86d7 9c3d 13d5 aa3c 62b6 fd3c fe7d 5b3d
00000030: 8859 3c3d 87c1 3e3d 4c07 6abd 64e6 e13d
00000040: af61 6cbd 109e ab3b 4825 3b3d 98f6 99bd
00000050: fc83 7b3c d48d 913c 4853 38ba 0cce 81bd
00000060: c519 69bd 0d78 1bbd 3c92 353c 3996 21bd
00000070: e89b 173c ce5b 1ebb c7d1 70bb 8dc5 a4bd
00000080: 4d6b e33c 6bae 4dbd dbf6 d03c aac8 06bd
00000090: 1abb 99bd 2117 02bc 1b01 023c dd2b 56bc
000000a0: c9a1 cbbd 6e65 cabd 220d 8bbd d22d adbd
000000b0: a01d bc3c 8da6 433e 61f4 aebd 7600 9b3c
000000c0: e746 d43d 21a2 673d f066 9c3e f0dd d7bc
000000d0: 36dd 7bbc 538e 8bbd 0373 b1bd 91c4 2ebb
000000e0: 0113 a8bd 8ed2 6b3d 62cc 69bb 901e d8bb
000000f0: a594 723c d7ed cd3c d245 3fbd b500 85bd
00000100: 2bcc 67bd c60c 35bc 6987 e6bd 101b adbb
00000110: ad83 a5bd 2089 1c3d ae58 a3bd 6702 c7bd
00000120: 08ce 043e ce8d 9fbd 8279 57bd 3bf0 b0bd
00000130: f40c f13d c7d8 833d b0ce 32bd 5a68 a7bd
00000140: fc99 493e 7e05 c4bd 4e0b a43d bf9c 3a3c
00000150: ede3 ba3d d9aa 4c3c ba2a 863d 949f a73c
00000160: c7cb bcbd 0f38 bbbb 44b2 ce3a ddf5 3a3d
00000170: 888b a1bd 6f40 b63d 1e2d f93c 8f5b 9ebc
00000180: d4b1 b5bd 33b5 a4bd de31 85bd f886 f33b
00000190: 55f4 403e 69f2 c23b f389 2e3e 3b90 e33c
000001a0: 5871 b3bd 3f9d f0bc e529 57bc fde1 35bd
000001b0: 0097 c1bd 5a6c 58bd f794 333c a516 103d
000001c0: 6325 da3c 07e9 9ebd 6095 92bb 3e21 fb3c
000001d0: a99c f9bd 2f6e 7abd 9bf3 aebb b812 313e
000001e0: bf9b 4f3d e375 e1bd 21ab 843c 42be 703d
000001f0: 635b b83c 1c05 96bd 7791 9bbd a39a 75bd
00000200: 0614 9ebb a4f7 1d3d 4ea9 043d c89e 363d
00000210: 9086 85bd 201a c0bc d1ba c6bd f275 8bbc
00000220: 79b1 463c ebbd 983d c9c5 85bd a3c3 0bbc
00000230: c8ae ee3d 8ad1 583d 3f82 e53c b5a4 5f3d
00000240: 3676 8bbd 7ce2 cebd cf9d 09bd fd18 7bbd
00000250: f547 c4bd ce52 943b 530f bc3b 00c8 5bbc
00000260: ca2b 12bd 23ac f63c 1207 483e 1af5 95bd
00000270: 18ec 5d3d f8ad 833d 6c08 81bd efaa 2b3d
00000280: 3567 b9bc fc9d f0bc f4ab a43d 0551 df3a
00000290: bebe 893d 8d6a 3dbd b655 743e cb3c 423e
000002a0: 0b49 b3bb d721 2fbd 74b2 b4bd 70ea 2a3d
000002b0: d606 d93d 848a 81bb bfcf fc3d dcff 6c3d
000002c0: 966b c7bd d81b 05bd c077 c33a 76ce 5ebc
000002d0: 4b5c 413d 4446 98bd 18a1 553c f040 2f3e
000002e0: affd bfbc 56a2 99bd a5fe c3bd a64e a1bd
000002f0: 8368 8cbd 18b6 64bc 9a97 173e dfc4 b73c
00000300: a3e3 afbd 97ab 19bd dfc6 b1ba c569 0dbc
00000310: 1efb 623c 0170 20ba 6846 ca3c 1991 b53d
00000320: dbdd 3b3d 3634 afbd 9bce a0bd c31e b7bd
00000330: aba3 00bd ea28 273d 814c 403e 64fd 0ebd
00000340: 2285 00bd 040d 4b3d 0f52 323c 5afe 04bd
00000350: 9431 88bd d526 55bd 6774 7cbc 8aa1 f7bc
00000360: b852 98bd 72dd 603e ac39 8abd 81e2 67bd
00000370: 996e 95bd 6b5c a2bd 6590 50bd 0ecb a0bd
00000380: 2ff5 99bd d153 83ba ee71 b7bc 336c 38bd
00000390: 30ee 073d aeb4 9dbd 7ac0 783c e435 643d
000003a0: 459f 78bd 22ab 4fbd 9771 8ebd adb7 c9bd
000003b0: 28c6 0f3d 1a53 cf3d 0064 a0b9 be6b ddbd
000003c0: 2dab 033d 90d7 063d 91ce 053d 3435 96bd
000003d0: 4cf9 cbbc a9d0 7e3d a04d 013d b90f 193d
000003e0: 4c82 5e3c b9f0 15be 050e 90bd 9d17 b83c
000003f0: e1d4 eb3d e075 b7bd 1a40 263d 763c 88bd

weight f4 [2, 256]
0.0790242 -0.052974857 -0.04663694 0.040409695 0.057134412 0.016886415 0.02107979 0.024797972
-0.034812883 0.022670921 -0.039993282 0.049085513 -0.015780505 -0.03130391 0.035953343 -0.12501428
-0.00062007806 0.0138971275 -0.12006054 0.0010439926 0.005031556 -0.01836346 -0.029444654 -0.048977118
-0.017519861 -0.022997575 -0.021881655 -0.0073930873 0.029610246 -0.024527965 0.02194643 0.02475272
0.015448863 0.018354105 -0.004705192 -0.022495402 -0.010207845 -0.008939991 0.024583794 0.0013029444
0.011885311 0.019390931 0.033186127 0.00576586 0.021019133 -0.2357344 -0.008348409 -0.028939541
-0.2658861 0.04556024 -0.31933904 0.032402724 0.12347424 -0.045485917 0.036630027 0.03058115
0.0009918958 -0.0066059823 0.032136507 0.00024528525 0.01518689 -0.0117431125 0.045044277 -0.012814292
0.021476977 0.013255403 0.025615867 -0.01638831 0.03494746 -0.041539874 -0.025122019 0.026463592
-0.34498227 -0.03931553 0.008578487 -0.013337371 -0.23732284 0.017437551 -0.0052862824 0.024185259
-0.09531943 0.023702221 -0.063756496 -0.038494065 -0.16256562 -0.040036287 0.013309432 0.035792198
-0.032014072 -0.047659047 0.037911985 -0.06343507 -0.041504018 0.22139926 -0.05468738 0.00025182345
-0.019806849 0.0068624844 0.025128383 -0.24924546 -0.0702555 -0.019243892 -0.40739572 -0.041213382
0.038574476 -0.002614524 -0.0347526 -0.03985153 -0.0443374 -0.028734436 0.027928943 0.050824378
0.01285122 -0.0052732304 0.05903116 -0.02202893 0.016037308 0.040121034 -0.047918532 -0.10465359
0.0001172608 -0.006451628 -0.018374015 0.031866666 -0.0021653601 -0.041453082 -0.027984928 0.017451268
0.08860852 -0.029917846 -0.04513348 0.03956722 0.011819794 0.04579858 -0.035415787 -0.010575003
-0.0027247537 0.022237558 0.044165097 0.034015838 -0.11326704 0.03012035 0.035616506 -0.027591111
-0.009555081 -0.020816486 -0.0238375 -0.013911921 -0.00921584 0.009371606 0.04262292 0.023132393
0.020545594 0.037659574 -0.24063508 0.021246623 -0.011802642 -0.010347206 0.016170409 0.0497739
0.09129931 -0.03722219 -0.23791908 0.008750754 0.015740974 0.033536006 -0.29396984 -0.21039271
0.037448563 -0.03329604 0.016778212 0.04215598 -0.04906186 -0.020439632 -0.11820462 0.034632552
0.026109584 0.015924169 -0.013358988 -0.017672941 -0.007512015 -0.04687515 -0.017506313 -0.36483973
0.0073800953 -0.01814069 -0.024211252 -0.022375062 0.017762765 0.011223294 -0.20411932 -0.008668377
-0.015184714 0.02859802 -0.0011531136 -0.030394765 -0.016655976 0.050186016 0.008554897 -0.35644233
0.04357723 0.123588145 0.08843168 -0.03437066 0.052861463 0.032170165 -0.18260981 -0.01611917
0.014691886 -0.039046153 -0.045043025 -0.022277238 -0.025746867 0.026204959 0.045512337 -0.04241448
-0.01706574 -0.19581999 -0.056903116 0.032939196 0.031913407 -0.03136608 0.032605544 -0.046588678
0.02119642 -0.010684258 -0.046387427 -0.011535497 0.027986344 0.018042134 0.028152827 -0.013771457
-0.018254343 -0.020729125 0.043602712 -0.0053959917 -0.03852562 -0.18577074 0.023519047 0.027530897
0.034290556 -0.028195813 -0.041218184 -0.01010861 -0.041882463 -0.05512774 -0.021797197 -0.02410055
-0.042984832 0.020352267 -0.027917543 0.027546111 -0.3051827 0.027782653 -0.045455113 -0.034590874
00000000: 71d7 a13d 2afc 58bd 6006 3fbd a384 253d
00000010: c605 6a3d 6155 8a3c 86af ac3c 1e25 cb3c
00000020: f497 0ebd 5eb8 b93c ffcf 23bd e40d 493d
00000030: 1e46 81bc 8738 00bd d043 133d be03 00be
00000040: bc8c 22ba c7b0 633c 4de2 f5bd 94d6 883a
00000050: c0df a43b f86e 96bc ea35 f1bc 3b9c 48bd
00000060: d085 8fbc 6965 bcbc 2841 b3bc b641 f2bb
00000070: 3091 f23c dfee c8bc 00c9 b33c 37c6 ca3c
00000080: 3a1d 7d3c 595b 963c 032e 9abb 4748 b8bc
00000090: ce3e 27bc 0a79 12bc f463 c93c 8fc7 aa3a
000000a0: 9cba 423c bbd9 9e3c 2dee 073d 8aef bc3b
000000b0: 5130 ac3c 5c64 71be c4c7 08bc 9e12 edbc
000000c0: 3922 88be 609d 3a3d 6880 a3be b8b8 043d
000000d0: 10e0 fc3d 714f 3abd 5e09 163d 5285 fa3c
000000e0: 8002 823a ff76 d8bb 92a1 033d a199 8039
000000f0: 6fd2 783c 2f66 40bc 5980 383d 09f3 51bc
00000100: 7cf0 af3c 312d 593c 5ed8 d13c c740 86bc
00000110: 1125 0f3d b725 2abd b1cc cdbc 2dca d83c
00000120: 84a1 b0be 5209 21bd c88c 0c3c fd84 5abc
00000130: c204 73be 32d9 8e3c 8d38 adbb 2a20 c63c
00000140: d536 c3bd 292b c23c c492 82bd f4ab 1dbd
00000150: 9a77 26be 17fd 23bd ce0f 5a3c d79a 123d
00000160: 3021 03bd 2236 43bd 9949 1b3d 3fea 81bd
00000170: 1e00 2abd 7db6 623e e0ff 5fbd 2c07 8439
00000180: f941 a2bc b1de e03b 0ada cd3c 343a 7fbe
00000190: 1ee2 8fbd 5ea5 9dbc 2c96 d0be 5dcf 28bd
000001a0: 4500 1e3d 6f58 2bbb be58 0ebd 5c3b 23bd
000001b0: 229b 35bd 7b64 ebbc 3dcb e43c 392d 503d
000001c0: ec8d 523c 10cb acbb a8ca 713d 0476 b4bc
000001d0: ac60 833c f455 243d 3946 44bd 9f54 d6bd
000001e0: eae9 f538 2e68 d3bb 1a85 96bc 9f86 023d
000001f0: b7e8 0dbb b5ca 29bd a640 e5bc f6f5 8e3c
00000200: 6278 b53d 4516 f5bc e2dd 38bd 3d11 223d
00000210: cfa7 413c 4b97 3b3d 2510 11bd c742 2dbc
00000220: c891 32bb 8a2b b63c 76e6 343d 3154 0b3d
00000230: 8df8 e7bd f4be f63c 9de2 113d c106 e2bc
00000240: ea8c 1cbc 5687 aabc dc46 c3bc d3ee 63bc
00000250: 09fe 16bc 5d8b 193c 5f95 2e3d 2580 bd3c
00000260: 3c4f a83c ed40 1a3d 0b69 76be 660d ae3c
00000270: de5f 41bc 5487 29bc ce77 843c b8df 4b3d
00000280: 22fb ba3d 4c76 18bd 0fa1 73be 535f 0f3c
00000290: 37f3 803c 0d5d 093d 3783 96be 3071 57be
000002a0: aa63 193d 6e61 08bd 7672 893c c0ab 2c3d
000002b0: 17f5 48bd 0471 a7bc 4415 f2bd ddda 0d3d
000002c0: c4e3 d53c 6773 823c a8df 5abc d8c6 90bc
000002d0: 5927 f6bb 2800 40bd 6669 8fbc 46cc babe
000002e0: bad4 f13b c99b 94bc ad56 c6bc e84b b7bc
000002f0: 3883 913c e8e1 373c a804 51be cf05 0ebc
00000300: 4fc9 78bc 6546 ea3c 1224 97ba 71fe f8bc
00000310: 1d72 88bc da8f 4d3d d729 0c3c 9c7f b6be
00000320: 0a7e 323d c81b fd3d ab1b b53d 40c8 0cbd
00000330: 4385 583d ddc4 033d 11fe 3abe 590c 84bc
00000340: 3cb6 703c dcee 1fbd 097f 38bd c17e b6bc
00000350: 18eb d2bc c8ab d63c 256b 3a3d ceba 2dbd
00000360: 73cd 8bbc 0985 48be 3e13 69bd 40eb 063d
00000370: a2b7 023d b879 00bd 648d 053d c5d3 3ebd
00000380: 1da4 ad3c 070d 2fbc be00 3ebd 62ff 3cbc
00000390: 9e43 e53c 19cd 933c c2a0 e63c ada1 61bc
000003a0: 228a 95bc 20d0 a9bc c298 323d dcd0 b0bb
000003b0: 0acd 1dbd af3a 3ebe 04ab c03c 7a88 e13c
000003c0: 4174 0c3d e8fa e6bc 66d4 28bd 959e 25bc
000003d0: f28c 2bbd a0cd 61bd 0990 b2bc 846e c5bc
000003e0: dd10 30bd ccb9 a63c 55b3 e4bc 62a8 e13c
000003f0: e840 9cbe 7298 e33c 242f 3abd 29af 0dbd

bias f4 [2]
-0.11349094 0.1316488
00000000: f06d e8bd f1ce 063e
