Cartpole_net.pth (torch, 5791 bytes, 4 tensors)

weight f4 [128, 4]
00000000: bdf1 d73e 77d8 adbd d272 1bbc fa54 4e3e
00000010: 1e44 1dbe 7400 0fbd 34a6 723c f0a1 c03e
00000020: 8d22 dabe fd2b b53c a055 8f3e 8f01 c73e
00000030: 630b 603d 94f4 f7be 3def e4be 22cd 523d
00000040: 4860 bbbe fe2d 4c3e bf9d ba3e 4a5b 82be
00000050: 8322 bfbe 84aa 8a3d 9714 d4be c5c9 163e
00000060: c08a 443e 435f b7be e5bb de3c dca9 ccbd
00000070: 0e01 a3be 103c 37be b437 c23e 8c5d 02be
00000080: 9ea2 663e e4ff a43b ff7b c63e 6fe2 813e
00000090: 7c62 f43c c8ae d9be 3274 153c 6916 9dbe
000000a0: d8dc 81be 6c5f bbbe 3f5a f23d fd57 213d
000000b0: 486a 77bd 4255 00bf 41f8 b9be 87a4 b4be
000000c0: 6c5d cabe b880 b9be 0045 cabe 5695 d7be
000000d0: f1d2 683e a846 933e 662c f9bd 888a 463e
000000e0: 80a3 a33b 3ef8 ba3c f3b1 d73e 4179 a73e
000000f0: ba35 5d3e be6f 333e 840e a8be c39a 5ebe
00000100: 9b10 ce3e b440 55be 64fb ddbc 039d 3bbe
00000110: f2e7 893e a012 a33e a6bf 70be cc1a dd3e
00000120: c574 ef39 77f9 01be 6acd edbe 144d e9bd
00000130: ee1a 083f 920e 033e 572e 853e ad3c e1be
00000140: f0d5 bf3e 2988 49be 2b13 3abe 4c81 0cbe
00000150: 2f74 80be aec1 f8bc eca9 053e 9370 ff3e
00000160: dff5 94be da2b 9fbe ac39 ca3e 085e a33d
00000170: 720d 803e 4071 243e 7451 a73e b3b6 a1bc
00000180: b6ea d2bd fbc9 f43e 4712 20be 3163 f1be
00000190: 0e10 f8be 429d cfbe c4b4 353e 9197 873d
000001a0: 64df c33e c6c9 893e a9d5 92be 062b d23e
000001b0: e6c7 cc3c 25cf f1bd 10fc b7be 2b4c c7be
000001c0: b756 063d c5cc 68be aac1 fabe 4d79 e1be
000001d0: d86b 86bd d63e 823e c81f da3d 38bf f33d
000001e0: 7b1a 093e cca5 70bd d943 983e 1a54 d43d
000001f0: 4ad7 733e d946 4a3d 8eae eb3e 1505 e63d
00000200: a33c b33d 73cc 003f 62bf c9bd 95d5 7cbe
00000210: 0fa4 debe 9c75 f6be e248 003f 9613 c53e
00000220: 8c25 fcbd 9658 9ebe e1a9 4cbe bf89 d73e
00000230: 7c7d f0be 720e 02bf 1b6b 9dbe 7cb2 923e
00000240: 4c25 eebe 07a3 043f 1df8 46be 0964 84be
00000250: 6f10 993e 266c 8dbe 05b4 94be 5108 dabe
00000260: 9604 b23e a5b8 fc3e a30c 19bd da81 b13e
00000270: b228 dc3d 0ec8 b33e 2e47 e13e e6c7 08bf
00000280: 8f6e d3be 86b9 f53e 3ddb dcbe 7738 ef3e
00000290: 559e c4be 0a9e 98be 717f 293e 91a0 f23e
000002a0: e7de bdbd f64f a43e 33fd d53e 9d7f 34be
000002b0: 4749 a13e 7d7a 283d edba 973e 7457 853e
000002c0: cbbd 15be b0ff e73e bc3b c93e 8497 d7bc
000002d0: 81dc b7be 35e8 09be 91ce ab3e f8d9 b5bd
000002e0: ca6d 1a3e 3a88 80bd 93d5 863e a26f cebe
000002f0: 82fd 323e 82e4 cf3e 31f8 263e 87f8 ddbe
00000300: 4fae 1b3e ef4d b8bd 1682 09be 702a f93e
00000310: 251b a23d 42fb bd3e 8307 863d a83d ed3e
00000320: feef a5be cba5 623e e9de ce3c 5285 8dbe
00000330: e7e5 c9bd 9842 953e 523d c33d 4c95 03be
00000340: 70fb 2e3e 6d6a adbe 6a0c 6bbe 7249 afbe
00000350: a946 c1be 3408 96be 7ae7 613e e404 d03e
00000360: 9212 cc3d 7822 afb9 6ad7 f9be 491b 01bf
00000370: 7a59 683e a07d c53e 2ef5 b9be add1 463e
00000380: 8f44 4f3c 2590 62bc bfbb a0be 1e6d 03bf
00000390: fa93 9a3d 85aa c5be 10f2 9e3c 11b8 98be
000003a0: c706 ef3e bf85 e43e 7f25 633e 5504 7a3e
000003b0: a8b7 183e 3f3b 6d3e 4eaf f13e 6a16 30be
000003c0: 6738 a9be f488 8cbd 1eeb dbbe da51 013f
000003d0: a367 40bd 627b a33c 6259 943e f15e f73e
000003e0: f74b ea3e 6fa6 b03e a423 5a3c ee4d 0a3f
000003f0: 47ef 95be 533a 85be db2f 03be de83 393e
0.4217662 -0.08488553 -0.0094878245 0.20149603 -0.15358016 -0.03491254 0.014810134 0.37623549
-0.42604485 0.022115702 0.27995014 0.38868377 0.05469836 -0.48428786 -0.44713774 0.05146516
-0.36596894 0.1993942 0.36448476 -0.25460273 -0.37331018 0.067708045 -0.4142196 0.14725406
0.19193554 -0.35814866 0.027189204 -0.099933356 -0.31836742 -0.17894006 0.37933123 -0.12730998
0.22522971 0.0050353874 0.38766477 0.25368068 0.029832117 -0.4251616 0.009121941 -0.3068116
-0.25363803 -0.3659624 0.11833619 0.039390553 -0.060404092 -0.50130093 -0.36322215 -0.35281774
-0.395244 -0.36231017 -0.39505768 -0.42106122 0.22736718 0.28764844 -0.121666715 0.19388783
0.004993856 0.02282345 0.42127952 0.32709697 0.21602526 0.17523095 -0.32823575 -0.21738724
0.40247044 -0.20825464 -0.027097411 -0.18321614 0.26934773 0.31850147 -0.23510608 0.43184507
0.00045672632 -0.1269282 -0.4644578 -0.113916546 0.5316609 0.12798527 0.26011917 -0.43991604
0.3746791 -0.19680847 -0.18171374 -0.13721198 -0.2508864 -0.030365791 0.13053101 0.49890575
-0.29093835 -0.31088144 0.39497125 0.079769194 0.25010258 0.16058826 0.3267933 -0.019740438
-0.10298674 0.4781035 -0.15631972 -0.4714599 -0.4844975 -0.40549666 0.17744738 0.06620706
0.3825637 0.26911753 -0.28678635 0.4104845 0.024997663 -0.11807088 -0.35934496 -0.389253
0.03279754 -0.22734363 -0.4897588 -0.44037858 -0.06563538 0.25438565 0.10650593 0.119017065
0.13389008 -0.058751866 0.29739264 0.103676036 0.23812595 0.04938397 0.46031612 0.11231438
0.087518 0.50311965 -0.098509565 -0.2469085 -0.43484542 -0.48136604 0.5011121 0.38491505
-0.12311849 -0.3092696 -0.19986679 0.4209728 -0.46970737 -0.5080329 -0.30745777 0.28651798
-0.4651283 0.5181126 -0.19430585 -0.2585757 0.2989535 -0.27621573 -0.29043594 -0.4258447
0.34769124 0.49359623 -0.037365567 0.3466938 0.107499495 0.35113567 0.43999618 -0.5343002
-0.41295287 0.47993106 -0.43136016 0.46722767 -0.38402048 -0.29808074 0.16552521 0.47388127
-0.09271031 0.32092255 0.41794738 -0.17626806 0.3150122 0.04113244 0.296348 0.26043284
-0.14623182 0.45312262 0.39303386 -0.026317365 -0.3591042 -0.13467486 0.33556035 -0.08879465
0.15080944 -0.06275983 0.2633482 -0.40319544 0.17479518 0.40604025 0.16305615 -0.43353674
0.15203212 -0.0899924 -0.1342853 0.4866519 0.07915334 0.37105757 0.065444015 0.46336102
-0.32409662 0.22133557 0.025252776 -0.27640778 -0.098583035 0.2915237 0.0953318 -0.12849921
0.17088103 -0.3387026 -0.22953954 -0.34235722 -0.37749222 -0.29303133 0.22060958 0.4062873
0.099644795 -0.00033404282 -0.4879716 -0.5043226 0.22690383 0.38572407 -0.3631987 0.19415922
0.012650623 -0.013828312 -0.3139324 -0.51338375 0.075477555 -0.3860666 0.019402534 -0.29827932
0.46684858 0.4463329 0.22182272 0.24415715 0.1491381 0.23167132 0.4720406 -0.1719605
-0.33050844 -0.06862059 -0.42952818 0.5051552 -0.046973836 0.019956294 0.28974444 0.48314622
0.45761082 0.3450198 0.013314161 0.5402516 -0.29284117 -0.2602106 -0.12811224 0.1811671

bias f4 [128]
00000000: fb88 b03e b0ca 89bd f0be dfbc fea2 e83e
00000010: 7882 d6bd 2115 a13d b1d0 cabe b6da fdbe
00000020: b3da debe d5f7 ebbd 97f3 cc3e 0010 953e
00000030: 0f49 803e 1a80 8ebd b9c9 fcbd ee2d 60be
00000040: cf78 a5be 5923 4d3e ad91 56be 2d05 f43b
00000050: 4864 a83e c143 40bd a3e1 75be 57b8 aabd
00000060: 6b71 23bc 5cb8 a33e d905 dabd ec64 f23e
00000070: 8de7 49be 36f3 d1be 1b0f 103e c34c 273e
00000080: a195 623e d690 32bd 1205 a4bb 6834 2ebd
00000090: 8789 bc3e 4740 d3be f212 e1be c698 103f
000000a0: 3bda debe f7d3 e3bb f462 073e 1932 ed3e
000000b0: f381 18bd cbe3 96bd 7873 323e 1f33 9dbe
000000c0: 46a2 ef3d 340d d2bd 5fe9 e13e 156d 1f3e
000000d0: bf22 5cbe 7e2d 303e fb26 b9be 2dc9 9cbe
000000e0: 0aad a93e b88f 9b3c 74b4 57be 7507 98be
000000f0: 1fea b7be 3ab5 e03e adbe 763e 2a33 153e
00000100: 8ad1 d1be c117 913e fbe4 34be 0605 313e
00000110: 0b54 d53e 69e8 f53e 13d5 0dbe 5df7 00ba
00000120: e43e d7be 2fce a4be 9bf0 f5be ffd7 6bbc
00000130: d656 983e 7cb4 ca3e 2715 03bf 783b e2bd
00000140: c4db a83e 414a 00be c80f c43e f0c7 4ebd
00000150: ae73 a33e 6816 5bbe 250f 073f 2e54 8e3e
00000160: 7095 973e b18e 74be c3d8 fb3e 40cd 07be
00000170: 9e87 e2be 759b f0be 2eb3 b6bd 9f7c d83e
00000180: f3e8 9c3e f221 123f f97e c43e e3ba d53e
00000190: 67ad a43d 3db2 e9bd bce5 c63e 0db4 5e3e
000001a0: 0464 bb3e ad71 4ebe b2e7 e4be 20d8 a2bd
000001b0: c5a9 0bbe 1a9d d1be c00a d7be ee18 c5be
000001c0: 968a 023f 51f1 e13d 5c20 18bd c60c f53e
000001d0: 3ee2 babe 2398 0c3f 2360 aa3c 559d 003e
000001e0: b7ca d03e ff11 1c3e f209 8ebd 938f 0cbe
000001f0: db32 61be bf68 cbbd e511 353e 6782 a5be
0.34479508 -0.06728113 -0.027312726 0.45436853 -0.10474104 0.07865358 -0.39612344 -0.49580926
-0.4352623 -0.115218796 0.40029594 0.2911377 0.2505574 -0.06958027 -0.12343163 -0.21892521
-0.32318732 0.20033015 -0.20954008 0.007446906 0.3288901 -0.046939615 -0.24011855 -0.08335941
-0.009975771 0.31976593 -0.106456466 0.47342622 -0.19717236 -0.41005868 0.14068262 0.16337876
0.22127391 -0.043595158 -0.0050054872 -0.042530447 0.36823675 -0.41259977 -0.43959767 0.56483114
-0.43525872 -0.0069527584 0.13221341 0.46327284 -0.037233304 -0.07367667 0.1742686 -0.30703065
0.11700873 -0.102564245 0.4412336 0.15568955 -0.2149763 0.17204854 -0.36162552 -0.30622235
0.3313983 0.018989429 -0.21064931 -0.2969319 -0.35920808 0.43888265 0.24096175 0.14570299
-0.40980178 0.28338435 -0.17665474 0.17287073 0.41665682 0.48028877 -0.13850813 -0.00049196725
-0.4204017 -0.32188556 -0.4803513 -0.014394759 0.2975375 0.39590824 -0.5120415 -0.11046499
0.32980168 -0.12528326 0.3829329 -0.050483644 0.31924194 -0.21395266 0.52757484 0.277986
0.296062 -0.23882557 0.49188814 -0.1326189 -0.44244093 -0.46993604 -0.089208946 0.42282578
0.30646476 0.57083046 0.38378122 0.41744146 0.08040886 -0.114109494 0.38847148 0.21748371
0.36599743 -0.20160551 -0.4470802 -0.07951379 -0.1363898 -0.4094017 -0.4200039 -0.38495582
0.50992715 0.110323556 -0.037140235 0.47861308 -0.36500734 0.5491964 0.020797795 0.12560017
0.4077966 0.1524124 -0.06935491 -0.13726644 -0.21992056 -0.09932088 0.17682607 -0.32326052

weight f4 [2, 128]
00000000: 9d4e 753d 2cdf a93c 81dc e13d 9f48 6a3d
00000010: d795 9abd b293 b2bc 27ba eabc 641b 90bd
00000020: ddc1 d53b 4382 9c3d 1286 02bb bda8 2d3d
00000030: 2150 cfbc 0107 593d ec7d 0a3a 8951 e4bc
00000040: de94 57bc 8e7b 0c3e 5723 383d 0605 1bbc
00000050: fd16 813d 7662 9a3d d343 043d d014 83bb
00000060: cd66 babd dae1 273e f1de 52bd 4669 bebd
00000070: 3f7c f6bd e1b2 8d3d b396 eabc 21a9 a83b
00000080: 4775 0cbe 2f1d 333d d8d9 803d 4b75 623c
00000090: c6de fcbc beaf ccba e294 2f3d a77b e7bd
000000a0: d3e5 473d e447 823d f2f6 9b3c 91bc e63c
000000b0: cfe3 97bd f4a4 24bd e9b8 14bd 368b 573c
000000c0: 5716 f83d e16a 863d 4443 26bb dccf 91bd
000000d0: 8eba 833d 90ec b23d 07ac e63c 1275 633c
000000e0: 6c46 e2bd 19e5 99bd 582d bf3d 4074 c6bd
000000f0: 0422 cf3d a7ae 043e 9739 793d c62e 8fbc
00000100: f9ca cf3d 7f24 03bd 8c7e c5bd 7b3b 193d
00000110: ee05 3c3c edda 0f3e 21f1 e93d 16a3 d3bd
00000120: 8268 8ebd 44a3 b13a 8676 0e3d 6f06 0b3e
00000130: 77c2 8d3d 7f95 013e ebbb 75bd 4fc1 1fbd
00000140: a6bf 53bc 1355 c1bb 3985 2d3d 3a31 d5bd
00000150: 7e08 1b3e 58db 72bc 93ae 1f3e 9df0 dc3d
00000160: e75d b1bd fa5f 10bd ecb9 c1bd 4018 fa3d
00000170: 05ff 83bd 5e14 4abb a3b7 d13c 20ab 18be
00000180: 691f 243d 9ea3 fcbc b886 bebd f6a2 e8bd
00000190: eec7 6abd 183b 2b3d f081 4d3b 2257 f9bd
000001a0: c176 9fbd 791d d03d fce7 33bb 5702 2e3c
000001b0: 8b1c 513d d476 c8bb def1 3b3d 7d87 cebd
000001c0: bb70 2c3e 6c64 d8bc 962d fabc b444 73ba
000001d0: c8be 093d 027b 373d 63cc 4bbc 0628 4c3c
000001e0: 3a48 cebd ef23 d1bc 0697 19bd 8208 82bd
000001f0: 5dd7 3c3d 78bd 433d a478 dfbd 1fd8 9a3d
00000200: 6051 09bd 7518 843a 05b4 be3b 99a9 b1bc
00000210: 2b28 13bc 31b9 8fbd 0e28 19bd 0cf5 8fbd
00000220: e93d ae3c 0b86 7b3d 0772 c6bd f21a 35bd
00000230: 3200 45bd be5e a0bd 517a e9bc 2037 103e
00000240: 47d4 f0bc 1980 ebbd 0f84 1a3d 9a3c ca3d
00000250: 26ae 65bc 43bb 17be 03a7 c63a ddcb bbbb
00000260: 6d3b 0bbd 7af9 23be 69a5 aabd 4a4d 13bc
00000270: dc57 ba3d 8016 69bb 78f4 39bd ae3e 66bd
00000280: 84d7 e33d 8aff 68bd 203a ecbd ca1c d3bd
00000290: 0a61 573d c55d d9bc 39cc 09bd be66 363e
000002a0: 730f 58bd ab49 0abe 2baf 2a3c 030e e0bc
000002b0: b8aa 5e3d 9075 adbc 4054 643d e4de 2c3c
000002c0: 95e6 993b b259 ae3c d39b fd3d b891 7d3d
000002d0: 7650 543d 22f3 96bd 798e ac3d bc8b 42bd
000002e0: 3a2c 03bd 120b 773d 0c83 273d 570b 773d
000002f0: ac39 80bd 872d fabc 30b0 76bd 6654 e8bd
00000300: d03c 283c 0cc7 833d a695 10bd 6423 633d
00000310: 5a8d a4bc f918 08be fa31 efbd 7086 2f3e
00000320: 6534 63bd a4db 9fbd 7e49 953b b05f d7bd
00000330: d0d0 1a3c 2321 04bd 1896 16bd b48c bebc
00000340: 8772 d13d 7ea4 ccbc adcf bb3c 566a b53c
00000350: bf04 04be 5831 2a3d 18ae 33bd 8187 b3bd
00000360: e4c6 b33d c965 1f3d 05be 0c3e 885b 8dbd
00000370: 781d c33c a244 13bd b592 9b3d 647d 293d
00000380: 0776 c8bd e8a1 d73d d2d5 dc3d a37c adbc
00000390: 4976 a13b 07ce b8bd 8882 e93b 031c ed3d
000003a0: ab2e a13d ffe5 92bd 9a61 983d 36a2 12bd
000003b0: 8a1e d83c 21f6 a13d a26e 353d aa28 4b3d
000003c0: 10fb 4cbd 1832 f33c 5817 7abd 28df d73d
000003d0: a59c 983d c7e4 4ebe dc4e f63b 069d e33c
000003e0: d190 843d bccd 03bd 9b98 57bd 56b6 8f3d
000003f0: e70f 85bd a87c 09bd f5af 3b3d 413d a0bd
0.059889425 0.0207363 0.11028386 0.057198163 -0.07548111 -0.021798942 -0.028653217 -0.07036474
0.0065233544 0.07642033 -0.0019916338 0.04239725 -0.025306763 0.052985195 0.0005283046 -0.02787091
-0.013158051 0.13719007 0.044955578 -0.009461647 0.06303213 0.07538311 0.032291245 -0.004000284
-0.09101639 0.1639475 -0.051482145 -0.09297423 -0.12035417 0.06918884 -0.028636312 0.005147115
-0.13716613 0.043729004 0.062915504 0.01382191 -0.030867945 -0.001561634 0.042866595 -0.11302882
0.04880316 0.06361368 0.019038651 0.028166087 -0.07416498 -0.040196374 -0.036309157 0.013155749
0.12113636 0.06563354 -0.0025369683 -0.07119724 0.06432067 0.08736527 0.0281582 0.013882892
-0.11048588 -0.075144 0.093348205 -0.09690142 0.1011391 0.1295725 0.060845938 -0.017478358
0.10146136 -0.032017227 -0.096432775 0.03741024 0.011476023 0.14048357 0.11422945 -0.103338405
-0.06953527 0.0013552685 0.034781 0.13576673 0.06921857 0.12654684 -0.059993666 -0.039002713
-0.0129241105 -0.005900034 0.04236338 -0.1040978 0.15139958 -0.014822803 0.15593939 0.10788081
-0.086604886 -0.03524778 -0.0945929 0.122116566 -0.064451255 -0.0030834894 0.02560026 -0.14909029
0.040069018 -0.030839738 -0.09303039 -0.11359207 -0.057319574 0.041804403 0.0031357966 -0.121748224
-0.077863224 0.101618715 -0.0027451506 0.010620675 0.05105261 -0.006117681 0.04588496 -0.10084436
0.16839878 -0.026415072 -0.030539315 -0.0009279952 0.03362921 0.044795044 -0.012438866 0.012460714
-0.1007237 -0.02552983 -0.037497543 -0.06349279 0.046103824 0.047788113 -0.10911682 0.07560753
-0.03352487 0.001007809 0.0058198 -0.021687316 -0.008981745 -0.07017744 -0.037391715 -0.07029161
0.021269755 0.06140713 -0.09689718 -0.04421515 -0.04809589 -0.07830571 -0.028500708 0.14083529
-0.029398097 -0.11499042 0.037723597 0.0987484 -0.014018571 -0.14817528 0.0015155975 -0.0057310895
-0.03399222 -0.16013137 -0.08332331 -0.008990595 0.09098789 -0.003556639 -0.04539916 -0.05621212
0.11125091 -0.056884326 -0.11534524 -0.103082255 0.052582778 -0.02653397 -0.033642028 0.1781263
-0.05274911 -0.13504665 0.01041774 -0.027350431 0.05436203 -0.021174222 0.05574441 0.010551188
0.004696677 0.021283004 0.12383237 0.061906546 0.051834546 -0.07370593 0.08425612 -0.047496542
-0.0320246 0.06031329 0.04089646 0.06031355 -0.06261 -0.030539287 -0.06022662 -0.11344223
0.010268405 0.064344496 -0.035298966 0.055453673 -0.020086933 -0.13290776 -0.11679454 0.17141128
-0.05546989 -0.07805565 0.00455588 -0.10516298 0.009449199 -0.032258164 -0.036764234 -0.023260452
0.102269225 -0.02498078 0.022926176 0.022145431 -0.12892435 0.041550964 -0.0438672 -0.0876608
0.0877817 0.03891543 0.13744362 -0.06902224 0.023817763 -0.035954125 0.075963415 0.041379347
-0.09788137 0.10528928 0.107829705 -0.021177595 0.004927431 -0.090236716 0.0071261562 0.115776084
0.07870229 -0.071727745 0.07440491 -0.035799228 0.02638175 0.079082735 0.04429496 0.049599327
-0.05004412 0.029686972 -0.06105742 0.105406106 0.074517526 -0.20204459 0.007516725 0.027784836
0.06472934 -0.032178625 -0.05263577 0.070172 -0.06497174 -0.033566147 0.045822103 -0.07824183

bias f4 [2]
00000000: c1f1 a93d 03da 9d3d
0.08298064 0.07707598
