Cartpole_net.pth (torch, 5791 bytes, 4 tensors)

weight f4 [128, 4]
00000000: c66c a5be c0a7 45bc 46dc 85be 92b2 b7be
00000010: 5236 a23e a066 5fbe a445 d33e c4da e33e
00000020: fc99 993e d8d7 cc3e 4851 87be 24f1 d93e
00000030: d4a0 1e3e 4c10 00be 808c dd3c 20ea ba3c
00000040: 52c4 edbe 8078 1fbc a818 bc3e d0f1 5f3e
00000050: dc80 d53e c6d3 f7be 4057 e0be 0883 f0bd
00000060: a0d2 fdbd d097 0d3e 04dd 2e3e 4c8f f63e
00000070: e080 d3bd 846c ecbe 6a22 b4be 007f eabd
00000080: e0e3 f33c 8090 5b3d 4861 90bd a0a1 c6be
00000090: ec14 be3e 0252 b83e e88d ea3d 14a9 d4be
000000a0: 0cd4 56be 4c6f 6bbe d441 1abe f060 d93d
000000b0: 08ea 613e a003 a43e e097 023d 3efe d73e
000000c0: 800b afbc 06b0 f13e 64d2 6a3e 5c56 70be
000000d0: e032 bc3d 4832 d73d 2e70 b93e f042 27bd
000000e0: b005 20be 1470 5ebe 6036 1dbd c041 7f3d
000000f0: 6ede 93be 54ed b03e ac17 573e 245e 1a3e
00000100: 30e5 3abe cc99 22be 00a3 debd 943f 89be
00000110: 7861 5ebe 1c19 be3e 20e6 f9be bcd8 aebe
00000120: fab1 d53e 6cf3 0c3e 4a0c 883e e02b b7be
00000130: 08ec cf3e 9005 1bbd 8c8e c3be 00c1 f63b
00000140: c887 27be 601a 873e c0d8 07be a811 0a3e
00000150: 408d 163d e49b 003e b8ce a0bd 401a ffbd
00000160: aceb 54be 109f 0fbd 981e e23e 6051 0fbd
00000170: d43a a03e 0064 45be 58c6 a3bd 5038 35bd
00000180: 00bc 0fbc 80d9 08bd c6e9 fa3e 007c eb3a
00000190: 0041 a53d 6845 d1be 200b 6cbe 3cbe 6d3e
000001a0: 18f3 f7bd 80b8 ef3b a01e ecbd 50fd ac3d
000001b0: d668 cbbe 00b0 6b3a 5ccf 86be c008 ca3e
000001c0: 80fa 843c 3cb0 923e 2831 1dbe d041 debd
000001d0: aa3c b3be e09b 023d a00f d33d 28ba 43be
000001e0: 5cbd c63e e0dd 97bc 1879 abbe 0018 403b
000001f0: a0ac 29bd b4dd 513e 701b 553d 2e3c c73e
00000200: 4416 26be 4018 483c 488a 16be 28b4 5dbe
00000210: 48b3 57be ac81 5b3e 1038 0c3d aced 433e
00000220: 5c27 1ebe 32c2 9f3e f2cf 89be 0c02 3b3e
00000230: bc43 9ebe 0090 48be 842c 20be fc05 ef3e
00000240: b4b9 c63e e87e cb3d 8c5c 553e dcff bdbe
00000250: d0ba 89bd fc69 6fbe 2869 c1bd b0a3 56be
00000260: 1c6a cabe a81e 81bd 1048 8ebe 3c66 1f3e
00000270: a0f4 e4bd 1e04 f33e bc67 55be 3cc7 5bbe
00000280: 0e7c b13e d072 3c3e b83e 2bbe 169d 97be
00000290: 5297 a0be acfd 3f3e f88d 773e 7025 763e
000002a0: d83d ff3d cc7f ea3e 6467 8d3e c6c1 a53e
000002b0: c0bf 6ebe 607b 063d b0a2 0abd a0fa 933c
000002c0: c0cc a03e 7014 f93e 60dd 333d 3c75 a8be
000002d0: c042 62bd 70ef df3e 40e5 da3d f6f9 88be
000002e0: a8aa b1bd 0431 32be a07d af3c 2829 c13e
000002f0: 786b 083e cc3e 32be 300d 9abd 00a7 183c
00000300: 2c1f fbbe 763b f3be d080 f8be 8e53 973e
00000310: ee93 a7be d6ce d9be 2ee4 b9be 523c 9cbe
00000320: a012 20bd 10e1 e23e c866 26be 8a9a f03e
00000330: 40d2 063e ea85 febe 381e b9bd a8c6 823d
00000340: c81d 37be 8295 de3e 0040 1dba aa67 e1be
00000350: 4203 c4be 6e09 a83e 76c9 e33e 52c4 fa3e
00000360: ccb2 08be 50a4 853d 9823 76be 103d 933e
00000370: eed1 a0be d858 4b3e 328c 8d3e 80bd dcbd
00000380: 04a4 acbe 4012 713d 905c a5be 5229 d2be
00000390: 5616 c7be 4063 e73e 1891 cbbd f666 f0be
000003a0: c0e7 04be 1004 213e 04d2 50be a0fc 9c3e
000003b0: 3cbf b9be aca3 d53e 2cce 5c3e 5ac7 b23e
000003c0: acfc 78be 4451 273e 4485 e43e b078 ea3e
000003d0: 321d ff3e 4832 b43e 5c49 c1be a24e 9e3e
000003e0: 80ed f9bd 0886 b9be 9896 65be 58fb 3bbe
000003f0: 60d2 10be 0092 b7bc ec94 213e 0cf8 6cbe
-0.3230955 -0.0120639205 -0.26144618 -0.35878426 0.31682068 -0.21816492 0.4126407 0.44502842
0.30000293 0.40008426 -0.264292 0.42566788 0.15491039 -0.12506217 0.027044535 0.022816718
-0.46438843 -0.009733319 0.3673756 0.21869588 0.41699874 -0.48403758 -0.43816566 -0.11743742
-0.12393689 0.13827443 0.17076498 0.48156202 -0.10327315 -0.4617654 -0.35182506 -0.114500046
0.029771745 0.053604603 -0.07049805 -0.38795185 0.37125337 0.36000067 0.11452848 -0.41535246
-0.20979327 -0.22991675 -0.15064174 0.106141925 0.22061932 0.32034016 0.03188312 0.4218616
-0.021367788 0.47204608 0.2293182 -0.23470443 0.09189391 0.10507637 0.362184 -0.04083532
-0.1562717 -0.21722442 -0.038381934 0.062318563 -0.28880638 0.34556067 0.21005124 0.15074974
-0.1825149 -0.15878981 -0.108709335 -0.2680632 -0.21716869 0.37128532 -0.48808384 -0.3414973
0.41737348 0.13764733 0.26571876 -0.3577566 0.40609765 -0.0378471 -0.38194692 0.0075303316
-0.1636039 0.2638731 -0.13266277 0.13483298 0.0367558 0.12559468 -0.078519285 -0.12456179
-0.20793027 -0.035063803 0.44163966 -0.034989715 0.31294882 -0.19276428 -0.079968154 -0.044243157
-0.00877285 -0.03341055 0.4900648 0.0017966032 0.080690384 -0.40873265 -0.23051119 0.232171
-0.12106913 0.0073156953 -0.11529279 0.08446753 -0.3972842 0.00089907646 -0.26330078 0.394598
0.016232729 0.2865008 -0.15350783 -0.108523965 -0.3500722 0.031886935 0.103057146 -0.19113982
0.38816345 -0.018538415 -0.33490825 0.002931118 -0.041424394 0.2049473 0.05202812 0.389131
-0.16219431 0.012212813 -0.14701188 -0.21650755 -0.21064484 0.21436185 0.034233153 0.19133633
-0.15444702 0.31202847 -0.26916462 0.182625 -0.30911052 -0.19586182 -0.15641981 0.46684253
0.38813555 0.09936315 0.20836085 -0.37109268 -0.06725085 -0.23380274 -0.09443885 -0.2096088
-0.3953408 -0.06304675 -0.27789354 0.15566343 -0.11179471 0.4746408 -0.20840353 -0.2146272
0.3466496 0.18403172 -0.16723144 -0.29612035 -0.31365448 0.18749112 0.2417525 0.24037719
0.12462968 0.45800626 0.27617943 0.323744 -0.23315334 0.032832503 -0.033846557 0.018063843
0.31406212 0.48648405 0.04391229 -0.32901943 -0.05523944 0.43737364 0.10688257 -0.26753205
-0.08675128 -0.1740151 0.021422207 0.37726712 0.13322246 -0.17406768 -0.075220466 0.00931716
-0.4904722 -0.47506303 -0.48535776 0.29555935 -0.3273005 -0.42540616 -0.363069 -0.3051477
-0.039080262 0.44312334 -0.16250145 0.46992904 0.13166142 -0.49711543 -0.09038967 0.06385547
-0.17882454 0.4347344 -0.00059986115 -0.44024402 -0.38283736 0.32819694 0.4448964 0.48977906
-0.13349456 0.06525481 -0.24037015 0.28757524 -0.31410164 0.1985811 0.27646023 -0.10778332
-0.33718884 0.058855295 -0.32297182 -0.4104715 -0.38884228 0.4519291 -0.09939784 -0.46953553
-0.1297903 0.15724206 -0.20392615 0.30661488 -0.36278713 0.41726434 0.21563023 0.34917718
-0.24315137 0.16339594 0.44632924 0.45795202 0.49826962 0.35194612 -0.3775128 0.30919367
-0.12203503 -0.3623507 -0.22420728 -0.18357599 -0.14142752 -0.022408485 0.15779465 -0.23141497

bias f4 [128]
00000000: c2d0 c43e 288b f73d 2a55 ccbe 5ce4 1d3e
00000010: 2c85 9b3e 42d0 d83e fa4c 9a3e 945f 7f3e
00000020: 56c8 913e ccf2 0bbe de88 813e fc39 08be
00000030: fc47 a83e 202c 683d 9214 a63e bcb1 48be
00000040: 0ce4 7e3e 1ee6 fa3e 7837 efbd f8c8 8b3d
00000050: ba48 80be f8d4 1bbe 6885 6f3e 449f ec3e
00000060: 629f 93be 9007 aabd c4f9 373e 00a8 373b
00000070: c4f9 f1be 0ea3 fcbe e8c4 7abe 2855 3ebe
00000080: f448 53be ac11 fcbe 40bc 7a3d 2cdd 24be
00000090: 523e ed3e 086f 7dbe fa84 f03e 52a4 aa3e
000000a0: 1675 ddbe 24e8 ff3e c004 b6bd 94c4 263e
000000b0: 8cb3 a13e aca2 9bbe 34ef 073e 08fc eabe
000000c0: f8b5 9d3e 5059 c4bd 3a4d 84be 4072 4c3c
000000d0: ce9f a93e c6a9 9c3e 00f0 45be 949e dabe
000000e0: fc17 d33e 3497 543e 683f ddbe 1215 84be
000000f0: acaf af3e c049 c3be 9eec a03e 2006 8c3e
00000100: 2015 de3e 6c0e 31be ec49 c5be 184f 1f3e
00000110: bc56 79be 0088 ae3d 081b 92bd b01e e2be
00000120: 40cb 1bbc dee3 f8be 288e c63e 04a9 7bbe
00000130: a8c5 d6bd f8f7 0f3e 04d5 3b3e 606a 813e
00000140: a0a0 47be 3209 f0be 803e f1bd 70e5 753e
00000150: 16a7 843e 505a 773e 48c5 72be 04b1 d43e
00000160: caaf 88be 4870 42be 22fb e43e e0a3 7d3d
00000170: 281f 6b3e 76ba e33e 686a ca3d b015 49be
00000180: 8465 f5be 20f5 eebc b475 44be 18b7 d13e
00000190: a435 433e 9c57 103e 8c60 14be 7065 4a3e
000001a0: 1807 cabe 46f2 88be 508f 72bd 34ec 0fbe
000001b0: 68bd e93e 9a4c bd3e ac75 f33e 281c 913e
000001c0: 54bd f93e 0e06 d3be 58c8 ba3d da65 b93e
000001d0: d496 303e 98cd 683e d087 fcbe 56a4 f3be
000001e0: 3029 8bbe 0883 883e 4803 afbd 5c26 f3be
000001f0: a475 173e 643c 5cbe 2c72 4a3e 3c9a a03e
0.3844052 0.12087089 -0.39908725 0.15419143 0.3037504 0.42346388 0.30136853 0.24938804
0.28473157 -0.13666838 0.25299734 -0.1330337 0.3286742 0.056682706 0.3243757 -0.1959905
0.2489168 0.4900369 -0.11680502 0.06825441 -0.25055486 -0.1521796 0.23390734 0.4621526
-0.28832537 -0.08302224 0.17966372 0.002802372 -0.4726087 -0.4934315 -0.24489176 -0.18587172
-0.20633298 -0.49232233 0.061214685 -0.16099995 0.4633661 -0.24749386 0.46976453 0.3332849
-0.43253392 0.49981797 -0.08887625 0.16285926 0.31582296 -0.30397546 0.13274843 -0.4589541
0.30802894 -0.095873475 -0.2584017 0.012478411 0.33129734 0.30598277 -0.19329834 -0.4269911
0.41229236 0.20760804 -0.43212438 -0.25797325 0.34313715 -0.38142204 0.31430525 0.27348423
0.43375492 -0.17290658 -0.3853296 0.15557516 -0.24349493 0.08522034 -0.07134062 -0.44164038
-0.009508908 -0.4861135 0.38780332 -0.24576193 -0.10486919 0.14059436 0.18342978 0.2527647
-0.19494867 -0.46882015 -0.11779499 0.24013305 0.25908726 0.24155545 -0.2370807 0.41541302
-0.26696616 -0.18988144 0.4472285 0.06192386 0.22961104 0.44478196 0.09883577 -0.1963718
-0.47929013 -0.02916962 -0.19185525 0.40960002 0.19063431 0.1409592 -0.14489955 0.19765258
-0.39458537 -0.2674734 -0.059218705 -0.14054948 0.45652318 0.36972505 0.47550714 0.28341794
0.48777258 -0.41215557 0.09120244 0.3621052 0.17245036 0.22734678 -0.49322367 -0.47586316
-0.2717986 0.2666247 -0.08545548 -0.47490203 0.1479097 -0.21507412 0.19770116 0.3136767

weight f4 [2, 128]
00000000: 1e26 013d 1806 96bd 2000 c33c 9fb0 4abd
00000010: 951d ac3d c592 8fbd 00fb 6bba 2781 9a3d
00000020: 3ec8 733d 8efd 8dbd 05fa b43d a11f adbd
00000030: a462 31bd e23d 793d 200c 84bb 1605 7cbd
00000040: aa24 e6bc 941c 03bd ee23 0dbd a035 a4bc
00000050: 1bb6 45bd deab a7bd ba56 dbbc c604 8bbd
00000060: 93da 993d 1ae2 533d b0b6 bfbb ae01 713d
00000070: 37c7 b03d 20f5 303b 71ed a43d c8e3 42bc
00000080: 60a8 05bb 755f 8f3d 078d 953d e9b6 43bd
00000090: 2ffe a8bd 72c8 06bd d241 77bd 1e34 0fbd
000000a0: 8067 33ba 6064 d0bb b163 15bd badc 40bd
000000b0: 88c9 e23c d82f 9e3c a60e 673d 3b0a 823d
000000c0: f589 973d aee0 693d b8fb 70bc 89f8 a33d
000000d0: c565 a23d a4e7 c73c a881 4ebc da50 213d
000000e0: 2dca b23d 1a52 213d 78e1 4abc 8642 063d
000000f0: 0dd6 8f3d 38fd 703c 332c 853d 38e1 0c3c
00000100: 3fda 5abd 83f0 a7bd c1ae 9b3d 4ff2 1bbd
00000110: 503f 98bc aca7 35bd 5daa 14bd 20b1 c43c
00000120: b42d 97bd 6eb0 503d c70f a5bd 2889 54bc
00000130: 475b 973d ca42 fabc 9f6d 88bd 6ae6 98bd
00000140: 8373 0bbd 8592 23bd d1e8 ae3d d22b 093d
00000150: cd4a a33d 5645 743d d05b 563c 7b8b 813d
00000160: 389e 063c 311f 9e3d eb24 af3d 75c0 87bd
00000170: 698e 9e3d 6d4c 56bd e03a 8e3b 5cf7 85bd
00000180: b859 8fbd e76f a23d 30d8 1abc a4ee 75bd
00000190: 4814 4cbc e0fd c73b a0d4 4a3c f8d3 68bc
000001a0: 36b5 83bd 6070 6a3b 5132 ac3d 59c2 45bd
000001b0: 809a e73a f088 abbd 535d ad3d 264e 153d
000001c0: d942 923d a8ae d6bc 6eae 763d 965c 253d
000001d0: dd81 2dbd 54bf 9fbc bae7 4bbd 33ab 15bd
000001e0: 71a7 973d c888 ed3c 6eeb 82bd 7058 e7bc
000001f0: 848f 9ebd a317 a43d 221d 0b3d d860 81bd
00000200: 3ca4 813c d847 54bc 0ed4 a2bd 609b 68bc
00000210: cb2c 69bd 6641 fabc 201d b93c c679 6b3d
00000220: d857 43bc f43a 903c 38c2 78bc ec3f 36bd
00000230: 093b 9dbd f7f9 84bd 84e7 8bbc e68d 253d
00000240: 82a4 7bbd 0538 883d 0b6f 58bd 4c05 f9bc
00000250: 4cc1 8bbd f49c 05bd 4bed aebd 1e3e 7ebd
00000260: 9e66 693d c7bd ac3d b3d2 5ebd 7242 733d
00000270: 1c9a ebbc 38f3 823c 40fa 20bd 4629 173d
00000280: 40e7 6fbd 6d93 4dbd 33e2 b23d 6184 873d
00000290: af41 983d 3404 123d ffa6 33bd 92fe 423d
000002a0: 0b00 b03d 46c7 6dbd db40 843d a513 8a3d
000002b0: 7039 123d 07a9 9f3d 6c67 053d cc84 bf3c
000002c0: 48d8 793c 0c07 81bd bfab 92bd 608c a1bd
000002d0: 9217 36bd 00b0 eeb8 a462 9dbc 9e45 333d
000002e0: 7554 883d 4eff 81bd 4230 01bd 2274 00bd
000002f0: ee3c 2d3d f0aa 66bd fabd f7bc 8c2f 88bc
00000300: 829b e1bc 7e27 4b3d 80e2 e3bb 03a1 acbd
00000310: 01d7 b33d 327c 3c3d 1446 8ebc cf12 b23d
00000320: e020 773b 84f4 bf3c 4c3e 4bbd 26a7 3c3d
00000330: 0ecb 213d 885d 233c 80b4 0cbc ee33 443d
00000340: 0e47 783d d6a6 abbd b0ed ef3c fc7a 7cbd
00000350: 7096 3bbc de01 3dbd 8ca6 19bd 60e9 76bc
00000360: 0282 323d afed 91bd 0e47 8ebd 808a 92ba
00000370: 1660 88bd 1d01 8f3d d864 6b3c 6cc6 fa3c
00000380: 060d 733d 7dd1 42bd a08c d83b aee4 6abd
00000390: 94b5 8e3c 4213 1c3d c811 7abd e4ad 2fbd
000003a0: b022 bb3c 5418 61bd ec7d 843c 744e 9cbd
000003b0: 2ff2 873d 7cb7 61bd 6f9c 59bd 92b8 6fbd
000003c0: 6a94 88bd c43b 2cbd 0074 8eba 09ea 89bd
000003d0: e02e 153c 121b 503d aa7d 733d 88b1 d23c
000003e0: 0002 d73b ca22 3b3d 047d 813c 6472 afbd
000003f0: 8d46 b13d 28ee babc 68c9 17bd e83b 71bc
0.031530492 -0.07325381 0.02380377 -0.049484845 0.0840408 -0.07010416 -0.00090019405 0.07544165
0.059517138 -0.06933127 0.0883675 -0.08453298 -0.04330696 0.06085003 -0.0040297657 -0.061528288
-0.028093655 -0.032009676 -0.034458093 -0.020045102 -0.048269372 -0.08187078 -0.026774753 -0.0678802
0.07512393 0.0517293 -0.0058506355 0.058839492 0.08631747 0.0027001575 0.08053101 -0.011895128
-0.0020394549 0.07000629 0.073022895 -0.04778186 -0.08251607 -0.032906003 -0.060365506 -0.034961812
-0.0006843731 -0.006359622 -0.036472026 -0.0470855 0.027683988 0.019309923 0.056410454 0.063496076
0.0739936 0.057099037 -0.014708452 0.08006389 0.07929567 0.024402447 -0.012604155 0.039383747
0.08729968 0.03938494 -0.0123828575 0.032778285 0.07023249 0.01470881 0.06502571 0.008598618
-0.053430792 -0.08200171 0.07601691 -0.03807288 -0.018584877 -0.044349357 -0.036295284 0.024010241
-0.07381764 0.050949506 -0.0805965 -0.012972154 0.07390457 -0.030549426 -0.066615336 -0.07465823
-0.034045707 -0.039934654 0.085405 0.033489056 0.079732515 0.059636436 0.013083413 0.06325432
0.008216433 0.07720793 0.085519634 -0.06628505 0.07742006 -0.05231898 0.0043405145 -0.06541321
-0.06999534 0.079315 -0.009450957 -0.06004204 -0.012456007 0.0061032623 0.012379795 -0.014210694
-0.064310476 0.0035772547 0.084080346 -0.048281047 0.0017669946 -0.08375728 0.08465066 0.03645148
0.071416564 -0.02620633 0.060224943 0.0403715 -0.042360175 -0.019500412 -0.04978154 -0.03654022
0.07404984 0.028995886 -0.06392561 -0.028240412 -0.07742217 0.08012321 0.03396333 -0.063172996
0.015825383 -0.012956582 -0.079506025 -0.014197201 -0.056927484 -0.030548763 0.022596896 0.05748918
-0.011922799 0.017606236 -0.015183024 -0.044494554 -0.07677276 -0.064929895 -0.017078169 0.040418528
-0.061436184 0.0665131 -0.052840274 -0.030398034 -0.06823978 -0.032620385 -0.08541354 -0.06207096
0.05698263 0.08434635 -0.054400157 0.05938954 -0.028760009 0.015985116 -0.039301157 0.036904596
-0.058570147 -0.050189424 0.0873455 0.06617046 0.07434403 0.03564854 -0.04386043 0.04760606
0.08593758 -0.05805137 0.06457683 0.06742028 0.035699308 0.07795911 0.032569334 0.023378752
0.015249319 -0.06300172 -0.07161664 -0.078881025 -0.044456072 -0.00011381507 -0.019212075 0.043767564
0.06656734 -0.06347524 -0.031540163 -0.031360753 0.042294435 -0.056315362 -0.030241955 -0.016624235
-0.027539972 0.04959821 -0.006954491 -0.08429148 0.08781243 0.04601688 -0.0173674 0.08694994
0.0037708804 0.023432024 -0.049619958 0.046057843 0.03950029 0.00997103 -0.008587956 0.047901087
0.060614638 -0.08381431 0.029288143 -0.061640725 -0.011449441 -0.04614436 -0.037512347 -0.015070289
0.043581016 -0.07125413 -0.06947146 -0.0011180192 -0.06658952 0.06982634 0.014367305 0.030612193
0.059338592 -0.047563065 0.0066085607 -0.057346992 0.017420568 0.038104303 -0.061052114 -0.042890444
0.022843689 -0.05495484 0.016173325 -0.07632151 0.0663799 -0.055106625 -0.053127702 -0.05852563
-0.06668933 -0.042049184 -0.0010868311 -0.06734092 0.009105414 0.050807066 0.059446014 0.02571942
0.0065615177 0.045687474 0.015806682 -0.0856674 0.086560346 -0.02281864 -0.03705731 -0.014723755

bias f4 [2]
00000000: be0e 473d 942f ebbc
0.048598044 -0.02870921
