critic.pkl (torch, 140311 bytes, 5 tensors)

weight f4 [128, 8]
0	0x3eb360a6	0.35034674
1	0x3e69b1ac	0.22821683
2	0x3eaa5a26	0.33271903
3	0xbea6f4f9	-0.32608774
4	0x3e074492	0.13209751
5	0xbe0ee4fe	-0.13954541
6	0x3ebbd351	0.3668466
7	0x3da897d0	0.08232081
8	0x3d27df90	0.04098469
9	0x3e00abb9	0.12565507
10	0xbe0d1b3c	-0.1377992
11	0x3c4a87f9	0.01236152
12	0xbe9148a0	-0.2837572
13	0xbe8a8ed6	-0.270621
14	0xbe4407c5	-0.19143589
15	0x3ef513d9	0.47866705
16	0x3e6207da	0.22073308
17	0x3ccf7601	0.025324823
18	0x3e3d30d8	0.18475664
19	0xbe9e4ab5	-0.30916372
20	0xbd692c97	-0.05692729
21	0xbeca39d8	-0.39497256
22	0xbe2d36c1	-0.16915418
23	0x3f01c502	0.50691235
24	0x3e6989ef	0.22806524
25	0xbd152d21	-0.03641999
26	0x3e9b4f0b	0.30333742
27	0xbdba5f66	-0.09100227
28	0xbed3d694	-0.41374648
29	0xbe7df042	-0.24798682
30	0x3e9548ed	0.291572
31	0xbe320a4a	-0.17386737
32	0xbeba09fb	-0.3633574
33	0xbeb3dd3f	-0.35129735
34	0xbebcfe92	-0.36912972
35	0xbe32978f	-0.17440628
36	0xbeb95a92	-0.36201912
37	0xbf04cc9d	-0.51874715
38	0x3e4d5f4e	0.20055887
39	0x3cc34ade	0.02383941
40	0xbe8a45fd	-0.27006522
41	0x3e968766	0.29400176
42	0xbe895313	-0.26821193
43	0xbeb19b79	-0.3468893
44	0x3db42af9	0.08797259
45	0xbe1146fc	-0.14187235
46	0x3d483b5d	0.04888474
47	0x3edb7dc0	0.42869377
48	0xbe589861	-0.21151878
49	0x3e3dc543	0.1853228
50	0xbdb7f370	-0.08981979
51	0xbe910b1c	-0.28328788
52	0xbeb1a2aa	-0.34694415
53	0xbe876336	-0.2644288
54	0xbb8f325a	-0.004370016
55	0x3e5336e3	0.20626406
56	0x3d846739	0.06465001
57	0x38009b8d	3.0662446e-05
58	0xbb27919f	-0.0025568975
59	0x3d955ac1	0.072927006
60	0xbd609795	-0.05483206
61	0xbd91d1f5	-0.07120124
62	0x3db695be	0.0891528
63	0x3e420c50	0.1895001
64	0xbe053ef7	-0.130123
65	0x3e94bc42	0.2904988
66	0x3e83c53c	0.25736415
67	0x3d0c06cf	0.03418618
68	0x3e87672c	0.264459
69	0x3e7dcab7	0.24784361
70	0x3d2daf33	0.04240341
71	0x3e860754	0.26177466
72	0x3e39ef05	0.18157585
73	0x3e120beb	0.14262359
74	0x3e49a906	0.19693384
75	0xbe9f331c	-0.3109368
76	0x3d5a014d	0.053223897
77	0xbecf2948	-0.40461183
78	0x3ddc202b	0.10748323
79	0x3ea1e4f8	0.31620002
80	0xbcf37765	-0.029720018
81	0xbeb628e9	-0.35578087
82	0x3e9b3db3	0.3032051
83	0x3e7457a9	0.23861565
84	0xbe44c4cc	-0.19215697
85	0xbec525b7	-0.38505337
86	0x3e3716fd	0.17879863
87	0x3e8ee046	0.27905482
88	0x3e1f6417	0.15565525
89	0xbe9e14d2	-0.3087526
90	0x3eabfe3b	0.335924
91	0x3d998750	0.07496512
92	0x3e9ff932	0.31244808
93	0x3eaeb88b	0.3412517
94	0x3effb058	0.49939227
95	0x3edd28e9	0.43195274
96	0xbe88cd49	-0.2671912
97	0x3ebab32e	0.36464828
98	0xbe6ffe35	-0.23436816
99	0xbe9af3f9	-0.3026426
100	0xbd035eba	-0.03207276
101	0x3e1b2120	0.15149355
102	0x3e940807	0.28912374
103	0xbe403e1a	-0.1877369
104	0xbc638a5c	-0.013887968
105	0xbc18436d	-0.009293419
106	0x3d4e1069	0.05030862
107	0x3b30587c	0.002690821
108	0xbead1e5a	-0.3381222
109	0xbe09a160	-0.13440466
110	0x3eb2ede6	0.34947127
111	0x3efdac0e	0.4954533
112	0xbdf3b9de	-0.11900686
113	0x3ec84cd3	0.39121112
114	0x3eb51bf4	0.3537289
115	0xbeb64970	-0.35602903
116	0x3e4388cc	0.19095153
117	0xbeab82aa	-0.33498126
118	0x3e33c7e0	0.17556715
119	0x3e53d71e	0.2068753
120	0xbeb6d342	-0.35708052
121	0x3ebd7510	0.37003374
122	0xbc255d2c	-0.010093015
123	0x3da510c3	0.08059838
124	0xbe2395aa	-0.15975061
125	0x3e9628f3	0.29328117
126	0x3d82d823	0.06388881
127	0x3eaf9b61	0.34298232
128	0xbe03c168	-0.12866747
129	0xbedce435	-0.43142858
130	0xbe22f000	-0.15911865
131	0xbeb94e0c	-0.36192358
132	0x3e36a159	0.17834987
133	0xbd9abb63	-0.075552724
134	0xbdb35c6f	-0.08757865
135	0xbe4d472a	-0.20046678
136	0x3e9c1841	0.30487254
137	0x3ea006b5	0.31255117
138	0xbd8b0c74	-0.067894846
139	0xbe8efa3b	-0.27925286
140	0xbe1193ab	-0.14216487
141	0xbdbab38e	-0.091162786
142	0x3e91e1aa	0.2849248
143	0xbe14200c	-0.1446535
144	0xbe6e7e6a	-0.2329041
145	0xbea21820	-0.3165903
146	0x3e3b7373	0.18305759
147	0xbedae72f	-0.42754504
148	0xbe5f1d8c	-0.21788615
149	0xbef0ee17	-0.47056648
150	0xbd722415	-0.05911644
151	0x3dc269bb	0.09492823
152	0x3e163fb9	0.14672746
153	0xbe6b6a9c	-0.22989887
154	0x3e9f6ba0	0.311368
155	0x3e947099	0.28992155
156	0xbeb35ef5	-0.35033384
157	0x3d4ea7bf	0.050452944
158	0x3c7998ed	0.015234214
159	0x3e19d32e	0.15021965
160	0x3d5079c1	0.050897364
161	0xbd427634	-0.04747601
162	0xbe05a78c	-0.13052195
163	0xbd1cfb0f	-0.038325366
164	0x3e0abd1e	0.13548705
165	0x3be95f68	0.007121969
166	0xbd643257	-0.05571207
167	0x3e9d4f67	0.30724642
168	0x3e18591f	0.14877747
169	0xbeb1434f	-0.34621665
170	0xbd5ffc4b	-0.054683965
171	0xbe5a365f	-0.21309803
172	0x3d5c1381	0.053729538
173	0xbecfb097	-0.40564415
174	0x3e039080	0.12848091
175	0xbe3d60a3	-0.18493895
176	0x3e66e7bd	0.22549339
177	0x3ec14eb7	0.37755367
178	0x3d8834d3	0.066507004
179	0xbdd7f2a9	-0.105443306
180	0xbd1cbf48	-0.038268358
181	0x3d1939cd	0.03740864
182	0xbe9fca4d	-0.3120903
183	0x3e1ebb73	0.15501194
184	0xbd8d99b8	-0.06914085
185	0x3eb88ce2	0.36044985
186	0xbe80ae72	-0.2513309
187	0x3e997b36	0.29976815
188	0xbe9089c1	-0.28230098
189	0xbe40b5e7	-0.1881939
190	0xbdd6a984	-0.10481551
191	0xbe31df11	-0.1737025
192	0xbc0658ee	-0.008199913
193	0xbe7a6dfa	-0.24456015
194	0x3c149f28	0.009071149
195	0xbdd19d59	-0.1023509
196	0x3ce719f1	0.028210612
197	0xbd8e046c	-0.06934437
198	0x3ea1073e	0.31450838
199	0xbdbbf224	-0.09177044
200	0xbeb6df4d	-0.3571724
201	0xbe0faa67	-0.14029847
202	0x3eaadc3e	0.33371156
203	0xbe978f6a	-0.29601604
204	0xbe18db7d	-0.14927478
205	0xbeae631a	-0.34059983
206	0xbe19a82d	-0.1500556
207	0x3e1a60bd	0.15075965
208	0xbed907eb	-0.42388853
209	0xbdba8a02	-0.09108354
210	0xbdad6a78	-0.08467573
211	0xbd7dbe9b	-0.061949354
212	0xbe62f424	-0.22163445
213	0xbec76d49	-0.38950565
214	0x3e9fec6a	0.31235057
215	0x3ed0a480	0.40750504
216	0xbef8c1a5	-0.4858524
217	0xbe215404	-0.15754706
218	0x3def8190	0.11694634
219	0xbb635cb6	-0.0034692711
220	0x3e8561a5	0.2605106
221	0xbd90078d	-0.0703269
222	0x3eabe3f9	0.33572367
223	0x3eebb100	0.46033478
224	0x3e0200bd	0.12695594
225	0x3ec27941	0.37983134
226	0xbe4ffa4b	-0.20310323
227	0xbe4681f4	-0.1938551
228	0x3e412830	0.18862987
229	0x3dc5609c	0.096375674
230	0xbe650a89	-0.223673
231	0xbe558eee	-0.20855305
232	0x3dfb1290	0.122594
233	0xbe9bfe2b	-0.30467352
234	0xbe9196ee	-0.28435463
235	0xbd284952	-0.04108555
236	0x3e7dfef0	0.24804282
237	0xbe725e1e	-0.23668715
238	0x3dcb52a8	0.09927875
239	0xbca5f38a	-0.02025773
240	0xbe8c2bac	-0.2737707
241	0xbec4edfd	-0.3846282
242	0xbeb1fff7	-0.34765598
243	0xbe55850d	-0.20851536
244	0xbdda0b05	-0.10646633
245	0x3ed55d9c	0.4167298
246	0x3eaa22e5	0.33229747
247	0x3cc76513	0.024340188
248	0x3d4675aa	0.048452057
249	0x3e1c70df	0.15277432
250	0x3ce7b7ad	0.028285826
251	0x39d51ac3	0.00040646465
252	0xbe90a551	-0.28251126
253	0xbc323fb8	-0.01087945
254	0x3e92bf9c	0.2866181
255	0x3d4e8120	0.050416112

bias f4 [128]
0	0x3d958b5b	0.073019706
1	0x3da7aaa4	0.08186844
2	0x3eb2ae15	0.3489844
3	0xbe1ca11f	-0.15295838
4	0xbe459d47	-0.19298278
5	0x3ea8b48f	0.32950255
6	0x3e961e4a	0.29319984
7	0x3eb51c95	0.3537337
8	0x3e2597e7	0.16171227
9	0x3e4a4d0e	0.19755957
10	0x3ecd3946	0.4008276
11	0x3e396fb7	0.18109022
12	0xbe715146	-0.2356616
13	0x3df089ed	0.11745057
14	0xbd63ae01	-0.055585865
15	0xbe66187f	-0.22470282
16	0x3e6d6af7	0.23185335
17	0x3dbecd3c	0.09316489
18	0xbde00318	-0.1093809
19	0x3ea1d09b	0.31604466
20	0x3eb87a2d	0.36030713
21	0x3e17e314	0.14832717
22	0xbe579976	-0.21054634
23	0xbd52e5ff	-0.051488873
24	0x3e6d4e65	0.23174436
25	0xbe404a3f	-0.18778323
26	0xbe8010b4	-0.25012743
27	0x3db9b919	0.09068508
28	0x3c907b18	0.01763682
29	0x3ea4188b	0.32049975
30	0xbd16826b	-0.03674547
31	0x3ecd829e	0.40138716
32	0x3e8c139d	0.27358714
33	0xbe636fc4	-0.22210604
34	0x3ebec491	0.37259343
35	0xbe279b34	-0.16367799
36	0x3e8c1d27	0.2736599
37	0xbe4e0236	-0.20118031
38	0xbe8b53de	-0.27212423
39	0xbe96c772	-0.2944904
40	0xbe85b030	-0.26110983
41	0xbe754152	-0.23950699
42	0xbd668c84	-0.05628635
43	0x3e90225b	0.2815121
44	0x3e750e02	0.23931125
45	0x3d80b089	0.062836714
46	0x3e38ebe7	0.1805874
47	0xbb95b93f	-0.004569202
48	0x3ea09f46	0.31371516
49	0x3e258afb	0.16166298
50	0xbdaf6040	-0.0856328
51	0x3ebe74fd	0.3719863
52	0x3eb41358	0.35171008
53	0x3d3f626d	0.046724726
54	0x3d6b13f0	0.05739206
55	0xbe537c75	-0.20652945
56	0x3e273460	0.16328573
57	0xbe810725	-0.25200763
58	0xbe1190b2	-0.14215353
59	0x3c690c96	0.014224192
60	0xbe30aed9	-0.17254199
61	0x3e330478	0.17482173
62	0x3e288e54	0.16460544
63	0xbe9e0b98	-0.3086822
64	0xbd82b6a1	-0.0638249
65	0x3eb0bbd6	0.34518307
66	0x3d1e51d1	0.038652245
67	0x3e72c39b	0.2370743
68	0x3e7de524	0.24794441
69	0x3ea45512	0.32096153
70	0x3e92c063	0.28662404
71	0xbd707b47	-0.058711316
72	0xbd8bc836	-0.068252966
73	0xbb6d3be7	-0.0036199035
74	0x3c40750f	0.011746659
75	0xbc3de17a	-0.011589402
76	0x3d8054b6	0.06266157
77	0x3eca7227	0.39540216
78	0x3e9ba8b4	0.30402148
79	0x3ec48e09	0.38389614
80	0x3de0f20c	0.10983667
81	0x3eb547c7	0.35406324
82	0xbda98c25	-0.082786836
83	0xbd14659c	-0.036229715
84	0x3d3fbf0d	0.04681306
85	0xbd89d0b1	-0.06729258
86	0x3e0f4560	0.13991308
87	0x3d733dcb	0.059385102
88	0xbe05c511	-0.13063456
89	0xbe9c51de	-0.3053121
90	0xbe87fb2f	-0.26558825
91	0x3e7868c1	0.2425871
92	0x3d923b61	0.07140232
93	0x3e49dc15	0.19712861
94	0xbe3db293	-0.18525152
95	0x3e5f3177	0.21796213
96	0xbd472ae7	-0.0486249
97	0xbe94402b	-0.28955206
98	0x3e986da7	0.29771158
99	0x3dc12fec	0.094329685
100	0xbe35c233	-0.17749862
101	0x3e8edbd6	0.27902097
102	0xbe831b6f	-0.25606868
103	0x3afe37c6	0.0019395284
104	0xbe5375fd	-0.20650478
105	0xbc0e671d	-0.008691576
106	0x3d6f7afa	0.05846689
107	0x3c30032d	0.010742945
108	0xbd283b92	-0.041072436
109	0xbddd97c7	-0.10819965
110	0xbd4830fa	-0.048874833
111	0x3e4ce1d2	0.20008019
112	0x3eb69128	0.3565762
113	0x3eae7150	0.34070826
114	0x3d559536	0.05214425
115	0x3e040a2b	0.12894504
116	0xbc5d8f94	-0.013523001
117	0x3dfee253	0.12445512
118	0x3d871a4d	0.06596813
119	0x3e5a949b	0.21345751
120	0xbdf710df	-0.12063765
121	0x3e9e9441	0.30972484
122	0x3e377c20	0.17918444
123	0xbe478412	-0.19483975
124	0x3e1a4a4c	0.15067405
125	0xbe1ad962	-0.15121987
126	0xbe974c49	-0.29550388
127	0xbd9adbb0	-0.07561433

weight f4 [256, 128]
0	0xbd8a707d	-0.06759737
1	0xbd8149f8	-0.063129365
2	0x3d5d3bf4	0.054012254
3	0x3e4e9576	0.20174202
4	0x3e5fb14b	0.21844976
5	0xbd36f3a8	-0.044665962
6	0x3c47fedf	0.012206762
7	0xbc4d34d3	-0.012524801
8	0xbd85881d	-0.06520102
9	0xbb035e48	-0.002004521
10	0x3e023dee	0.12718937
11	0x3dc3a992	0.09553827
12	0xbdae8c8e	-0.085229024
13	0xbd4debdc	-0.05027376
14	0xbd9c99d5	-0.07646529
15	0xbd8c464d	-0.06849346
16	0x3d54f409	0.051990543
17	0xbc4d3083	-0.012523773
18	0x3e439bdb	0.19102423
19	0xbb1d725c	-0.0024024462
20	0x3d9782cd	0.07397995
21	0x3e2b1a50	0.16709256
22	0xbb7ed22e	-0.00388826
23	0xbd042501	-0.032261852
24	0x3ca31f87	0.019912494
25	0x3e2174ad	0.15767165
26	0x3e0ec272	0.13941363
27	0x3e91145d	0.28335848
28	0xbb9c83a1	-0.0047764336
29	0x3e0d3e86	0.13793382
30	0x3e3270ab	0.17425792
31	0x3c3be316	0.011467716
32	0xbd638b73	-0.05555291
33	0x38ba39ec	8.87996e-05
34	0xbdbc1df7	-0.09185403
35	0x3da4d4c2	0.08048393
36	0xbc8d5134	-0.017250635
37	0x3e15009b	0.14551012
38	0x3d39743b	0.04527686
39	0x3dde2e55	0.10848681
40	0xbce9f386	-0.028558504
41	0x3d8500e9	0.06494314
42	0x3e4cfb4a	0.20017734
43	0x3ba87aeb	0.005141606
44	0x3d89a37c	0.06720635
45	0x3d24d34b	0.040240567
46	0x3d05e52c	0.03268926
47	0x3e20fa88	0.1572057
48	0x3c9a092c	0.018803202
49	0x3d747d50	0.05968982
50	0x3e501613	0.2032092
51	0x3e3b5b59	0.18296565
52	0xbde42765	-0.111403264
53	0x3e542dcc	0.20720595
54	0x3e06f2de	0.13178584
55	0x3d2e10e6	0.042496584
56	0x3c8949e9	0.016758876
57	0xbd524191	-0.05133206
58	0x3d6d6d39	0.05796549
59	0x3d0fa17d	0.035066117
60	0x3de7834a	0.11304338
61	0x3da0bedf	0.07848906
62	0x3e30b317	0.17255817
63	0x3db7884a	0.08961542
64	0x3d95d4e1	0.07315994
65	0x3d280b62	0.04102648
66	0xbc9a2e89	-0.018821018
67	0x3dee150e	0.116251096
68	0xbbd64ca6	-0.006539899
69	0x3d384c64	0.044994727
70	0x3d6f8b09	0.058482204
71	0xbd911a5c	-0.07085106
72	0x3e376e5c	0.17913193
73	0x3e7ba9f6	0.24576554
74	0x3d8f159c	0.069865435
75	0x3c8eccd6	0.017431658
76	0xbd6fff3f	-0.05859303
77	0x3b200d77	0.0024422088
78	0xbd038463	-0.032108676
79	0x3b8c7ad8	0.004287105
80	0xbdac60b4	-0.08416882
81	0x3d8d520e	0.06900416
82	0x3d9a7950	0.0754267
83	0xbd93d1d2	-0.072177544
84	0xbba399ec	-0.004992714
85	0x3daea7ed	0.08528123
86	0x3e21a09a	0.15783921
87	0xbd8befbf	-0.06832837
88	0x3e5d5696	0.21615061
89	0x3d979229	0.07400925
90	0x3d24b55a	0.040212013
91	0xbdb7533d	-0.08951423
92	0x3e384453	0.17994814
93	0x3e830acc	0.25594175
94	0xbd5c6062	-0.053802855
95	0x3dcbdb85	0.099539794
96	0x3d950103	0.072755836
97	0xbda99d3b	-0.082819425
98	0x3e0e1ee7	0.13878976
99	0x3de375ea	0.11106475
100	0xbd625d70	-0.05526489
101	0xbce2ac25	-0.027669976
102	0x3ccc7e2b	0.024962505
103	0x3c7d8706	0.015474087
104	0x3ca5a85c	0.020221882
105	0x3d2d0052	0.042236634
106	0x3d9cfe21	0.07665659
107	0xbc571e65	-0.013129805
108	0xbc4cfe18	-0.012511753
109	0x3d928967	0.07155114
110	0x3dfa8427	0.12232237
111	0x3d1bfb46	0.03808143
112	0x3cc919a3	0.024548357
113	0x3e26e80a	0.16299453
114	0x3d8b9e6a	0.068173245
115	0x3c330984	0.010927562
116	0x3d711ad8	0.05886349
117	0x3e3ccd8f	0.1843779
118	0x3e5dde7d	0.21666904
119	0x3bd366ec	0.006451478
120	0x3e817e5d	0.2529172
121	0x3e2c4d34	0.16826326
122	0x3e04ddbb	0.12975208
123	0xb9afb4f2	-0.00033513416
124	0x3e312f4f	0.17303203
125	0x3e1fab95	0.15592797
126	0xbd634ca6	-0.05549302
127	0xbca79846	-0.020458352
128	0x3c2c25f7	0.010507098
129	0x3d60abce	0.054851346
130	0xbd3f551f	-0.046712037
131	0xbd4e3e18	-0.050352186
132	0xbdb1b7f5	-0.08677665
133	0xbd114955	-0.035470325
134	0xbdb44f83	-0.08804228
135	0x3d41158d	0.047139693
136	0xbd12c144	-0.035828844
137	0xbd936725	-0.07197408
138	0xbd3d4856	-0.046211563
139	0xbda634c4	-0.08115533
140	0x3cee6d03	0.029104715
141	0xbc43317a	-0.011913652
142	0xbc8546d9	-0.016269134
143	0x3b41f0ce	0.0029592994
144	0xbd0b29fb	-0.033975583
145	0x3a141add	0.0005649755
146	0xbda9c538	-0.082895696
147	0xbd5dc042	-0.05413843
148	0xba8a80d7	-0.0010566962
149	0xbc4ee6de	-0.012628285
150	0x3d20adcc	0.039228246
151	0x3c503f74	0.012710441
152	0xbda269f4	-0.07930365
153	0x3d302218	0.043001264
154	0x3d8e573f	0.069502346
155	0x3d278dee	0.04090684
156	0xbcb518ae	-0.022106495
157	0xbc12dbd6	-0.008963546
158	0x3d73cd0e	0.059521727
159	0x3d0291ce	0.03187733
160	0xbcf79fce	-0.030227568
161	0xbdbd4933	-0.09242477
162	0xbd3b8792	-0.045783587
163	0xbdb43ecb	-0.08801039
164	0xbd0f9ecc	-0.03506355
165	0xbc923a58	-0.017850086
166	0x3d33695a	0.043801643
167	0x3c677bb3	0.014128613
168	0xbd97af2a	-0.07406457
169	0x3ae3bc80	0.0017374903
170	0x3c0315a8	0.008000769
171	0x3c791884	0.015203599
172	0x3c1180c7	0.008880801
173	0xbcd6bb58	-0.02621238
174	0xbd696a6c	-0.056986257
175	0xbcc78128	-0.024353579
176	0xbd2017af	-0.039085086
177	0x3d934719	0.07191295
178	0x3d53d2b1	0.051714603
179	0x3d3b7c8d	0.045773078
180	0xbcf9e201	-0.030503275
181	0x3c9827e1	0.018573703
182	0xbc7877e3	-0.015165302
183	0xbdbd3e32	-0.092403784
184	0x3b93946f	0.0045037786
185	0x3d7b173d	0.06130146
186	0xbb650d6d	-0.003495063
187	0xbd979559	-0.07401533
188	0xbc60ea7d	-0.013727781
189	0x3d7aa418	0.06119165
190	0xbd20678c	-0.03916125
191	0xbdb01af4	-0.08598891
192	0xbcb83b0d	-0.022489095
193	0x3ca8c58c	0.02060201
194	0x3d8b4986	0.06801133
195	0xbd586515	-0.052830774
196	0x3d0e2028	0.034698635
197	0xbda26349	-0.079290934
198	0x3d8786f9	0.06617541
199	0xbd4d1bad	-0.05007522
200	0xbd49b808	-0.04924777
201	0xbd836943	-0.064165615
202	0xbd8d38ae	-0.068955764
203	0x3cc84eec	0.024451695
204	0xbd874830	-0.066055655
205	0xbd96e2b6	-0.073674604
206	0x3da01f13	0.07818427
207	0xbd07955c	-0.033101425
208	0x3b76c04c	0.003765124
209	0xbd78be51	-0.060728375
210	0x3d6da3da	0.05801759
211	0x3ab0cd1f	0.0013488865
212	0xbd5cae44	-0.05387713
213	0x3d254e54	0.040357903
214	0xbc1a2fac	-0.00941078
215	0xbd0121b7	-0.031526294
216	0xbdb220c2	-0.08697654
217	0x3d467891	0.048454825
218	0xbbfd4bc8	-0.007729981
219	0xbd75bef1	-0.05999655
220	0x3c78f275	0.015194525
221	0x3cfcdefb	0.030868044
222	0x3d75d64f	0.060018834
223	0x3ceefe90	0.02917412
224	0x3d2abec2	0.041685827
225	0x3d4290f9	0.047501538
226	0xbd84651b	-0.06464597
227	0xbc503f68	-0.01271043
228	0x3c98e48f	0.018663673
229	0x3d1cb5fd	0.038259495
230	0x3d1638fb	0.036675435
231	0xbca74950	-0.0204207
232	0x3d65baeb	0.056086462
233	0x3c61ceb9	0.013782197
234	0xbda57b46	-0.08080153
235	0xbd4c04ac	-0.049809143
236	0xbd5fb5e2	-0.054616816
237	0xbd04b591	-0.032399718
238	0xbd38400f	-0.044982966
239	0xbc090734	-0.008363534
240	0xbd82c1d4	-0.06384626
241	0x3d30f58d	0.043202925
242	0x3d7b5a4d	0.061365414
243	0x3cea3393	0.028589046
244	0xbdac7775	-0.08421222
245	0x3d39afb6	0.045333587
246	0x3c3d4cd8	0.0115539655
247	0xbc951362	-0.018197719
248	0x3bd00d6e	0.006349257
249	0x3d6f395e	0.05840432
250	0x3d1067b7	0.03525516
251	0x3ccc5c78	0.024946436
252	0xbb29353d	-0.0025819086
253	0xbcf0e16e	-0.029404368
254	0x3cb605ca	0.022219557
255	0xbdb31074	-0.087433726

bias f4 [256]
0	0x3c92ccff	0.017920015
1	0x3d69ff2a	0.05712811
2	0x3ce3d1bc	0.02780997
3	0xbd9e3830	-0.07725561
4	0xbccb481c	-0.024814658
5	0xbd9d5f81	-0.076842315
6	0x3ca46046	0.020065438
7	0x3d83e6db	0.064405166
8	0xbbe74c6a	-0.00705867
9	0xbd934082	-0.07190038
10	0xbbf54ae9	-0.0074857366
11	0xbc787062	-0.015163513
12	0xbb8fdf1f	-0.004390612
13	0xbdbbfa70	-0.091786265
14	0xbd00b449	-0.031421933
15	0xbd27dac1	-0.040980104
16	0x3d32e716	0.043677412
17	0xbd88b704	-0.066755325
18	0xbd4a6041	-0.0494082
19	0xbdbce2dd	-0.09222958
20	0x3d11f8f1	0.0356378
21	0xbb1ea70d	-0.0024208457
22	0xbd4c51c0	-0.04988265
23	0xbc44d743	-0.012014213
24	0x3d3abf0c	0.045592353
25	0x3b0564b5	0.0020354216
26	0x3d47bdcb	0.048764985
27	0xbb02bda9	-0.0019949472
28	0xbd3e5d1c	-0.046475515
29	0x3d38506c	0.04499857
30	0x3ce84d19	0.028357076
31	0xbbc8c967	-0.0061275247
32	0xbd83988b	-0.0642558
33	0xbce17e15	-0.02752594
34	0xbd982317	-0.07428568
35	0x3d5fa42a	0.05459992
36	0x3d76001f	0.06005871
37	0x3d5077b5	0.05089541
38	0x3d7c89f0	0.061654985
39	0xbbcaab8c	-0.0061850008
40	0xbda7c613	-0.081920765
41	0xbd98665c	-0.074413985
42	0xbd8d7970	-0.06907928
43	0xbd79292c	-0.06083028
44	0xbd5b3bb9	-0.053523753
45	0x3d6f9d77	0.05849978
46	0xbd3c3a00	-0.04595375
47	0x3d0363e8	0.0320777
48	0x3b0d6357	0.0021574104
49	0xbd855854	-0.06510988
50	0x3bd5e60b	0.0065276674
51	0xbdb7d9c5	-0.08977083
52	0xbc106673	-0.008813488
53	0x3da01909	0.07817275
54	0xbb9cbe4c	-0.0047834273
55	0xbdb2d366	-0.08731727
56	0x3d1e1318	0.038592428
57	0xbd969c4a	-0.073540285
58	0xbc8c7fb7	-0.017150743
59	0xbd8b9ec0	-0.068173885
60	0xbbe10fb4	-0.006868327
61	0xbdab9f4f	-0.08379995
62	0xbd0096fb	-0.031393986
63	0xbd846da7	-0.06466227
64	0x3c3afa3f	0.011412202
65	0xbcb6ba74	-0.022305705
66	0xbb748d37	-0.0037315616
67	0xbd936728	-0.0719741
68	0x3e02cf94	0.12774497
69	0xbdaf7af0	-0.0856837
70	0x3c9d49e1	0.019200267
71	0xbd4ae920	-0.04953873
72	0xbd6d789f	-0.05797636
73	0x3d816223	0.06317546
74	0x3caba639	0.020953285
75	0x3cf44afd	0.029820913
76	0x3d95d4b2	0.07315959
77	0xbccc3d50	-0.02493158
78	0xbd51f99c	-0.051263437
79	0x3ccc6d54	0.024954475
80	0xbca6c7de	-0.020358976
81	0xbda061e9	-0.07831175
82	0xbd4e0636	-0.050298892
83	0xbd65bdb2	-0.05608911
84	0x3d4a995e	0.04946267
85	0x3d52b7aa	0.051444687
86	0x3d371c1c	0.04470454
87	0xbda4fe97	-0.08056372
88	0x3cf315dc	0.02967351
89	0x3d813b6c	0.06310162
90	0xbd729701	-0.05922604
91	0x3d5ac230	0.053407848
92	0x3c57e23a	0.013176495
93	0xbc2aef9a	-0.010433102
94	0x3d6d5e98	0.05795154
95	0xbcc30c63	-0.023809617
96	0xbd948cf3	-0.072534464
97	0x3c136c17	0.008997939
98	0xbd9d1b70	-0.07671249
99	0xbdbfe839	-0.09370465
100	0x3d36f9bd	0.044671763
101	0xbda762b2	-0.081731215
102	0x3cae393f	0.021267531
103	0x3cd18ec1	0.025580766
104	0xb9c0c427	-0.0003676724
105	0xbd6aea1a	-0.057352163
106	0xbdd62235	-0.10455743
107	0x3cf99525	0.030466625
108	0xbc6adce9	-0.014334896
109	0xbcbc6c99	-0.023001002
110	0xbd91aace	-0.071126565
111	0x3c8d4d3e	0.017248746
112	0xbd4a22a6	-0.04934945
113	0xbd40d212	-0.04707534
114	0x3d81dba3	0.063407205
115	0x3d1a854c	0.037724778
116	0x3d786717	0.06064519
117	0xbd48d6d5	-0.049033005
118	0xba6cadb3	-0.0009028569
119	0x3d96f17e	0.0737028
120	0x3c79ab33	0.015238571
121	0xbd826fc1	-0.063689716
122	0x3c8c40af	0.017120687
123	0x3d82514d	0.06363163
124	0x3d218354	0.039431885
125	0x3d73c747	0.059516218
126	0xbd963f39	-0.073362775
127	0x3d9cf2dd	0.0766351
128	0xbda06796	-0.078322574
129	0x3cc63ee6	0.024199914
130	0xbb7ee895	-0.0038895954
131	0x3d6b5e4e	0.057462983
132	0x3d505e80	0.050871372
133	0xbd38a78f	-0.04508167
134	0xbd8287f4	-0.06373587
135	0xbd0a538e	-0.03377109
136	0x3d3902ea	0.045168795
137	0xbd810b53	-0.06300988
138	0x3c528175	0.012848248
139	0x3c22c825	0.0099354135
140	0xbda51fe0	-0.0806272
141	0xbdcb8b6a	-0.099387005
142	0xbd3e5550	-0.04646808
143	0xbca42aca	-0.020039935
144	0x3c634124	0.013870511
145	0xbca0f858	-0.01964967
146	0x3a878a50	0.0010340903
147	0xbd2436e3	-0.040091407
148	0x3d4edb77	0.050502267
149	0xbd5b331e	-0.053515546
150	0xbd8ad54c	-0.067789644
151	0x3d0aec4f	0.033916768
152	0xbccf090f	-0.025272874
153	0xbb8d6a6c	-0.004315665
154	0x3c89cd5f	0.016821561
155	0xbc80f9e2	-0.015744153
156	0xbcb4c404	-0.022066124
157	0xbc16e422	-0.009209665
158	0xbdb8a73c	-0.090162724
159	0xbdbb721f	-0.09152626
160	0xbd884d1c	-0.066553324
161	0xbd4e2659	-0.05032954
162	0xbd38aeed	-0.045088697
163	0xbc8b21d1	-0.016983898
164	0x3b33b3c1	0.0027420374
165	0xbd8b45c8	-0.06800419
166	0x3d805a3b	0.0626721
167	0xbd8b69e4	-0.068073064
168	0x3d2dc3ed	0.042423178
169	0xbc6dcbe6	-0.014513945
170	0x3d828770	0.06373489
171	0xbd7b36e0	-0.06133163
172	0xbdb3bf93	-0.08776774
173	0xbd94f9ea	-0.0727423
174	0xbd454e21	-0.048170213
175	0xbd8761ee	-0.066104755
176	0xbdb0daf6	-0.086355135
177	0xbc734209	-0.014847287
178	0x3d9134b7	0.07090133
179	0xbbec74fc	-0.007216094
180	0x3d242949	0.040078435
181	0x3d8ee339	0.06976933
182	0x3d3e73d0	0.046497166
183	0x3d6c49bc	0.057687506
184	0x3e0dd822	0.1385198
185	0xbcee1f36	-0.029067617
186	0xbd46af3b	-0.048506957
187	0xbd8e9617	-0.06962221
188	0xbd6bae3b	-0.057539206
189	0x3d224dad	0.03962486
190	0xbc189ec2	-0.009315195
191	0x3ccfe6c9	0.025378602
192	0x3e12692a	0.1429793
193	0xbd9c4952	-0.07631172
194	0xbd68466c	-0.056707785
195	0xbc4fd581	-0.012685181
196	0xbd010710	-0.031500876
197	0xbd66cb6d	-0.056346346
198	0xbd425304	-0.04744245
199	0xbd9511f2	-0.072788134
200	0x38a5faad	7.914505e-05
201	0x3d6a6285	0.05722286
202	0x3c4d7cf2	0.012541996
203	0x3d780084	0.060547367
204	0x3c13f9b8	0.009031706
205	0xbcc9d026	-0.024635386
206	0xbd5b342e	-0.05351656
207	0x3cafea32	0.021473978
208	0x3d6f5314	0.05842884
209	0x3ccaa16b	0.024735173
210	0xbd981ed7	-0.07427757
211	0xbd3830f3	-0.044968557
212	0xbcb309b5	-0.021855215
213	0xbd60778a	-0.0548015
214	0x3d683e81	0.056700233
215	0xbc828e44	-0.015936978
216	0x3d23b265	0.039965052
217	0xbd85a62b	-0.06525835
218	0xba901a8e	-0.0010994242
219	0xbb1fefcc	-0.0024404405
220	0xbdc5150f	-0.09623157
221	0x38e6817e	0.000109913744
222	0xbdd73d8f	-0.10509788
223	0x3d3f6009	0.046722446
224	0xbd03b590	-0.032155573
225	0xbd4c3be5	-0.049861807
226	0x3d29303e	0.041305773
227	0xbd60188a	-0.054710902
228	0xbd7437c0	-0.05962348
229	0xbd7ea714	-0.062171057
230	0xbb69c18e	-0.0035668346
231	0x3c4d8a51	0.012545184
232	0xbca9c5f1	-0.020724269
233	0x3d994539	0.07483906
234	0xbc77d38e	-0.015126122
235	0x3d09e290	0.033663332
236	0x3b872362	0.004124091
237	0x3b03efa4	0.002013185
238	0x3d42f776	0.04759928
239	0x3d18fd21	0.037350778
240	0xbd95b02c	-0.07308993
241	0xbdbaf19a	-0.09128113
242	0x3d2c9ad1	0.042139832
243	0xbd234542	-0.03986097
244	0x3cef8989	0.029240387
245	0xbcc3d1f9	-0.023903834
246	0x3cc35610	0.023844749
247	0x3d8584a6	0.06519441
248	0xbd20ff09	-0.03930572
249	0x3d861bc2	0.06548263
250	0x3d9f9e2a	0.07793839
251	0xbcf33d38	-0.029692277
252	0x3cd1d869	0.025615888
253	0xbdd7c1fd	-0.10535047
254	0xbd0e9241	-0.034807447
255	0xbd70fa31	-0.05883235

weight f4 [1, 256]
0	0xbddfa0d3	-0.10919347
1	0x3d491d07	0.04909995
2	0xbd53fd51	-0.051755253
3	0x3b9f0714	0.0048531387
4	0x3a208187	0.00061228167
5	0xbd8380ec	-0.06421074
6	0x3cc63559	0.02419536
7	0xbd7d9f3d	-0.06191944
8	0xbd604b97	-0.054759588
9	0xbd8e0e36	-0.06936304
10	0xbda767ff	-0.081741326
11	0xbdb5fba0	-0.08885884
12	0x3cb882e2	0.022523347
13	0xbdba181d	-0.090866305
14	0x3bb84756	0.0056237383
15	0xbdfa8744	-0.12232831
16	0x3c74ee69	0.01494942
17	0x3cb70605	0.022341738
18	0x3be93293	0.0071166246
19	0x3d502041	0.05081201
20	0xbd183062	-0.037155516
21	0xbdaa8414	-0.08325973
22	0xbda4c8b3	-0.08046093
23	0x3cac8b01	0.021062376
24	0xbdb1b965	-0.08677939
25	0x3d1038ea	0.035210527
26	0xbdb1c13c	-0.08679435
27	0xbdbd0f68	-0.09231454
28	0xbdb6c4ac	-0.08924231
29	0x3cdae9f8	0.026722893
30	0xbdd6650a	-0.104684904
31	0xbd5f248d	-0.054478217
32	0x3d47f200	0.048814774
33	0x3c1aab60	0.009440273
34	0xbdc875f5	-0.097881235
35	0xbdc19805	-0.094528235
36	0x3d142e39	0.036176894
37	0x3c8b256f	0.016985623
38	0x3ccaa148	0.024735108
39	0xbdf4cfe3	-0.11953714
40	0xbcd939a8	-0.02651675
41	0xbe00bac9	-0.12571253
42	0xbdc1cbfe	-0.094627365
43	0xbdb2fdaf	-0.087397926
44	0x3d2045fb	0.03912924
45	0xbdefd758	-0.117109954
46	0xbdf03051	-0.117279656
47	0xbe1c50fe	-0.15265271
48	0x3c0d6305	0.008629565
49	0x3c38b394	0.0112732835
50	0xbe01fe5e	-0.1269469
51	0x3d307760	0.043082595
52	0xbddc37a4	-0.107528
53	0xbdf86c87	-0.12130075
54	0x3d2b3860	0.04180181
55	0x3d034a23	0.032053124
56	0xbdf4e6a2	-0.11958052
57	0xbdfdcd8b	-0.1239272
58	0xbd76c4d4	-0.060246304
59	0xbd8dd2eb	-0.06924995
60	0x3ce05c1c	0.027387671
61	0xbde859b9	-0.11345238
62	0xbdc454ec	-0.0958651
63	0x3cad918a	0.021187562
64	0x3d4735c3	0.048635256
65	0x3c217d1f	0.009856491
66	0xbd549e16	-0.051908575
67	0xbdf3a8f8	-0.118974626
68	0xbe824899	-0.25446013
69	0xbd257b7e	-0.040400974
70	0xbdffda49	-0.124928065
71	0xbb76a633	-0.0037635684
72	0x3d01ac17	0.03165826
73	0xbb56f8ef	-0.0032802185
74	0xbe5672d7	-0.20942245
75	0xbda454a5	-0.08023957
76	0xbdfc2abb	-0.12312838
77	0xbdd3912b	-0.10330423
78	0xbdf3df41	-0.11907817
79	0x3cb63f97	0.022247119
80	0xbdd11e81	-0.10210896
81	0x3cbf5964	0.023358054
82	0xbd848f7e	-0.064726815
83	0xbde326cf	-0.110913865
84	0xbdae706e	-0.08517538
85	0xbdbbb9f8	-0.0916633
86	0x3cfb082b	0.030643543
87	0xbda0b6a6	-0.078473374
88	0xbdcc3dab	-0.099727
89	0xbdef8641	-0.11695529
90	0x3cc4cfe3	0.02402491
91	0x3ced3cce	0.028959658
92	0x3bb82aa8	0.0056203194
93	0xbd95aebf	-0.07308721
94	0xbe0b0b8f	-0.13578628
95	0x3d1388f4	0.03601928
96	0xbbc1b2c1	-0.0059112017
97	0xbd7462e1	-0.05966461
98	0xbb7d2f00	-0.003863275
99	0x3ce14202	0.027497295
100	0xbdbc8438	-0.09204906
101	0x3b8421f7	0.0040323692
102	0xbdefc2c1	-0.11707068
103	0xbd7a957d	-0.06117772
104	0x3b5186e1	0.0031971263
105	0x3d357d60	0.04430902
106	0xbdd0f2a3	-0.10202529
107	0xbd408014	-0.046997145
108	0x3d313608	0.04326442
109	0x3cb0f680	0.021601915
110	0xbd510319	-0.051028345
111	0xbdea3768	-0.11436349
112	0x3cd74cad	0.026281679
113	0x3b92e037	0.004482295
114	0x3ca07e72	0.019591544
115	0xbd5ea68e	-0.054358058
116	0x3d337e19	0.043821428
117	0xbe04c4ef	-0.12965749
118	0x3c00aa18	0.0078530535
119	0xbd76dea4	-0.06027092
120	0xbe015a95	-0.1263221
121	0xbd940c32	-0.072288886
122	0xbd747d5d	-0.05968987
123	0xbdfa46df	-0.12220549
124	0xbdc24d7d	-0.09487436
125	0xbe039e0b	-0.12853257
126	0x3d22ea2d	0.03977411
127	0xbdd485fa	-0.103771165
128	0x3d141758	0.036155075
129	0x3baf1b2d	0.005343816
130	0x3d2c68fb	0.042092305
131	0xbdbde2ff	-0.09271812
132	0xbe24d381	-0.16096307
133	0x3cb844b3	0.022493696
134	0xbd4baf1e	-0.04972755
135	0xbdd43b42	-0.10362865
136	0xbdafc711	-0.08582891
137	0xbd52472c	-0.051337406
138	0xbd8727e6	-0.06599407
139	0xbdae4035	-0.0850834
140	0x3d492561	0.049107913
141	0x3d3a13c2	0.045429
142	0xbdc460b3	-0.095887564
143	0xbd925444	-0.07144979
144	0x3d143ba7	0.0361897
145	0x3cf4a487	0.029863609
146	0xbd529a06	-0.05141642
147	0xbcb87b1b	-0.022519639
148	0xbdf86369	-0.12128336
149	0xbd81320b	-0.06308373
150	0xbdfdb327	-0.12387686
151	0x3d433799	0.047660444
152	0xbdbbf9b4	-0.091784865
153	0xbdcfa077	-0.10138028
154	0xbd9ed985	-0.07756332
155	0xbdedc1b7	-0.11609214
156	0x3cef4f51	0.029212626
157	0x3c8bf98b	0.017086765
158	0xbd85f4f1	-0.065408595
159	0xbe0248e4	-0.12723118
160	0xbe065d84	-0.13121611
161	0x3cd397a8	0.025829151
162	0xbdf3192b	-0.11870035
163	0xbdf0ab4c	-0.11751422
164	0x3cd76d3b	0.026297202
165	0xbc472ce5	-0.0121567
166	0x3d2411fb	0.04005621
167	0xbd7fbe55	-0.062437374
168	0xbe044b5c	-0.12919372
169	0xbe02006c	-0.12695473
170	0xbd94f3b8	-0.07273048
171	0xbdf0ae43	-0.11751988
172	0xbdc554fb	-0.09635349
173	0xbdab3f69	-0.08361704
174	0xbd8a7f42	-0.06762554
175	0xbde38354	-0.11109033
176	0x3a1af611	0.00059113005
177	0xbd8f0546	-0.06983428
178	0xbdc56e01	-0.09640122
179	0xbde09500	-0.109659195
180	0xbdda8e73	-0.10671701
181	0x3d3e1ded	0.04641526
182	0x3d2f1a8e	0.042749934
183	0x3b90f436	0.0044236435
184	0xbe38a454	-0.18031436
185	0xbddeb3cb	-0.108741365
186	0xbd62a623	-0.05533422
187	0xbdb3bdd5	-0.08776442
188	0xbc06dde8	-0.0082316175
189	0xbca9749e	-0.02068549
190	0xbddf9302	-0.109167114
191	0xbddce36c	-0.10785565
192	0xbe4ba597	-0.19887386
193	0x3c99cf30	0.018775553
194	0x3d7532ea	0.05986301
195	0xbde7ad32	-0.11312331
196	0x3d35fe76	0.044432126
197	0x3cfd2408	0.03090097
198	0x3cce289a	0.025165845
199	0x3c248366	0.010041093
200	0xbaa7aba7	-0.0012792245
201	0x3d122d8f	0.03568798
202	0xbd601d2a	-0.054715313
203	0xbd7a22bc	-0.06106828
204	0x3cc699b0	0.024243206
205	0xbdefba95	-0.117055096
206	0x3bedda4c	0.007258689
207	0x3ab24909	0.0013602088
208	0xbde6d106	-0.11270337
209	0x3d0478a1	0.032341603
210	0x3d3ed63e	0.046591036
211	0xbdd68340	-0.10474253
212	0xbda786e2	-0.08180024
213	0x3d34288c	0.04398398
214	0x3d071ba8	0.03298536
215	0xbdad91a0	-0.084750414
216	0xbe53d9cf	-0.20688556
217	0xbd8e4bbe	-0.069480404
218	0x3c1b7f61	0.009490819
219	0xbd977de0	-0.073970556
220	0xbd690f71	-0.05689949
221	0x3d0fcf4d	0.035109807
222	0xbd675607	-0.056478526
223	0x3b060ebb	0.0020455557
224	0x3b848ce4	0.004045116
225	0x3bff51d8	0.007791739
226	0x3c3ce760	0.0115297735
227	0x3cb05347	0.021524085
228	0xbdc38c0f	-0.095481984
229	0x3d4108ce	0.047127537
230	0xbd9df6f5	-0.07713119
231	0xbd8860d1	-0.06659091
232	0xbdb5b905	-0.0887318
233	0xbdedbd43	-0.116083644
234	0xbdfd0509	-0.12354476
235	0x3d1c12eb	0.03810398
236	0xbdf2c44e	-0.118538484
237	0xbb212d8a	-0.0024593794
238	0xbda43bf0	-0.08019245
239	0x3c0b9d28	0.008521356
240	0xbdaeec19	-0.08541126
241	0xbd9ab046	-0.07553153
242	0xbd8b227e	-0.06793688
243	0xbdfc425e	-0.12317346
244	0xbdb73333	-0.08945312
245	0x3d34e331	0.04416198
246	0xbdb65a51	-0.08903945
247	0x3d1cc12b	0.038270157
248	0x3d3c7f3b	0.046019774
249	0x3d2cad7c	0.042157635
250	0xbe021d8e	-0.12706587
251	0x3ca42606	0.020037662
252	0xb98a1f1c	-0.0002634459
253	0xbd629f8a	-0.05532793
254	0xbdb03b45	-0.08605055
255	0x3c1dbb74	0.009627212
