critic.pkl (torch, 138263 bytes, 5 tensors)

weight f4 [128, 4]
0.47614402 0.3099712 0.7020483 0.1494588 -0.36796653 0.069410615 0.17231306 0.021234833
0.14753994 -0.11176588 0.12214897 -0.15954831 0.4231943 -0.48500544 -0.10948033 0.1597562
-0.20482929 -0.3563824 -0.98843056 -0.3547057 0.62332165 0.4308971 0.6652124 0.12671347
0.44591966 -0.18304248 -0.22526191 -0.12515272 -0.33987638 0.07280309 -0.12357064 0.04544213
0.5748431 0.51043946 -0.20917277 0.008007877 0.11655521 -0.22163661 0.5834518 -0.09566414
0.3726644 0.57499105 0.25222299 0.33175734 0.024128161 -0.02115681 -0.13004087 -0.2829014
-0.28582358 -0.11794463 -0.936701 0.49201834 0.06997556 -0.43689838 0.06974398 -0.33366832
0.4285047 -0.22901313 -0.18673092 0.36221975 -0.48470688 -0.38972223 -0.38248494 0.36509937
0.28004926 0.068473816 -0.3078844 0.22106738 -0.27565342 0.19192715 -0.091423534 0.44504422
-0.31749544 0.3228837 -0.4044922 0.34071028 -0.36462098 -0.29786605 -0.4907403 -0.2687221
0.44321758 0.6209415 0.35389906 0.039476525 0.5692784 -0.38763052 -0.09378552 -0.12893753
0.15735316 -0.37582237 0.10670534 -0.33250883 0.10901326 0.6174851 0.68503785 0.34088075
-0.38314897 -0.21924007 -0.28285602 -0.39285365 -0.4384033 0.03285509 0.4909592 0.388039
0.1198362 -0.29791436 0.15362966 -0.13802464 0.08443828 -0.38657117 0.2294839 0.43229535
-0.60352147 -0.4305504 -0.6502984 0.13217825 -0.37899488 0.4164996 -0.32758904 -0.09168586
-0.4994655 0.25449398 -0.3361611 0.47412837 -0.23170385 -0.27589408 -0.20709044 0.039324123
0.21864316 -0.12870939 0.522398 0.011542598 0.032301627 -0.0893792 -0.034925222 -0.11077976
-0.13314614 -0.0595908 0.4976155 -0.29538658 -0.680673 -0.025601752 -0.6828184 -0.30337337
0.26250014 -0.05444588 -0.19648091 0.109426565 -0.32778823 0.5911958 -0.17221314 -0.45126426
-0.3253142 0.3796785 0.5687179 -0.35984412 0.056613553 -0.39138597 -0.28892475 -0.0035844198
0.46434933 -0.2422781 0.9147724 -0.1550852 0.313551 0.3529467 0.3364587 -0.25514242
-0.27352118 -0.20902552 0.5696285 -0.1290688 0.35631865 0.31926656 0.42125717 -0.46248555
0.40491897 -0.44277486 0.1045942 -0.10093028 -0.41288057 -0.42191657 0.5108325 -0.015335229
-0.39467737 -0.21545397 -0.37422982 0.0671372 -0.21868443 -0.3590494 0.036642313 -0.48662177
0.22514156 0.20172113 -0.10610424 0.2453605 0.29383746 0.27582735 0.7492696 -0.042905536
-0.53887826 -0.19294792 -0.93280655 -0.17867583 -0.32333234 0.23337086 0.19926627 -0.48568803
0.6307346 -0.296009 0.4533912 -0.1340529 0.42361528 -0.4327277 0.30820087 0.20872875
0.1714674 0.2942868 0.36925018 -0.18919496 0.30916452 0.28848094 0.12626296 0.1710367
0.074359894 0.3477042 0.42520636 -0.4248062 -0.20713848 0.32017213 0.17767122 0.06330695
-0.27839035 -0.38843632 -0.49081305 0.21482462 0.4938329 -0.20643455 0.8914601 -0.1062299
-0.09104789 -0.37697318 -0.08537386 0.18730508 -0.23509192 0.30800036 0.052262925 -0.08211906
0.11528599 0.2962985 -0.013925801 0.34094977 -0.05149541 -0.24824554 0.049341936 -0.3372255
00000000: 26c9 f33e 8cb4 9e3e 70b9 333f ba0b 193e
00000010: 1c66 bcbe 2727 8e3d d672 303e acf4 ad3c
00000020: b614 173e 82e5 e4bd 3d29 fa3d a260 23be
00000030: ecac d83e a252 f8be 3937 e0bd 2197 233e
00000040: c5be 51be c177 b6be c909 7dbf fc9b b5be
00000050: 0292 1f3f 8b9e dc3e 5c4b 2a3f 2dc1 013e
00000060: 954f e43e 7d6f 3bbe 0fab 66be 0928 00be
00000070: 4704 aebe c919 953d 9b12 fdbd 8721 3a3d
00000080: eb28 133f 29ac 023f 6331 56be 7833 033c
00000090: 7fb4 ee3d b5f4 62be 195d 153f 90eb c3bd
000000a0: decd be3e 9d32 133f 5f23 813e 19dc a93e
000000b0: 6ca8 c53c 0c51 adbc 6f29 05be 74d8 90be
000000c0: 7857 92be f48c f1bd a3cb 6fbf d4e9 fb3e
000000d0: 594f 8f3d 25b1 dfbe efd5 8e3d 93d6 aabe
000000e0: f864 db3e 6b82 6abe 6436 3fbe de74 b93e
000000f0: 802b f8be ac89 c7be 11d5 c3be 4eee ba3e
00000100: 9e62 8f3e 003c 8c3d 06a3 9dbe 7d5f 623e
00000110: 7222 8dbe 8d88 443e 433c bbbd d6dc e33e
00000120: c38e a2be 0351 a53e 9a19 cfbe 9471 ae3e
00000130: 9aaf babe e681 98be 5042 fbbe f195 89be
00000140: 6aed e23e 06f6 1e3f 4232 b53e 23b2 213d
00000150: 3bbc 113f 8277 c6be 9f12 c0bd 3308 04be
00000160: 3021 213e ca6b c0be 5488 da3d 993e aabe
00000170: 5842 df3d 8113 1e3f a45e 2f3f ec87 ae3e
00000180: 1a2c c4be 7880 60be 81d2 90be 1d24 c9be
00000190: 6676 e0be 0f93 063d 015f fb3e 0cad c63e
000001a0: ae6c f53d 3b88 98be 1851 1d3e 5556 0dbe
000001b0: faed ac3d a8ec c5be d4fd 6a3e d155 dd3e
000001c0: 6280 1abf 1a71 dcbe f579 26bf bc59 073e
000001d0: 9e0b c2be 703f d53e c0b9 a7be ccc5 bbbd
000001e0: f1b9 ffbe 094d 823e 4f1d acbe f4c0 f23e
000001f0: c643 6dbe fd41 8dbe 840f 54be 5512 213d
00000200: fee3 5f3e 65cc 03be e0bb 053f 2a1d 3d3c
00000210: b64e 043d 710c b7bd c00d 0fbd 80e0 e2bd
00000220: 7657 08be 7c15 74bd 75c7 fe3e e93c 97be
00000230: 9640 2ebf c4ba d1bc 30cd 2ebf c153 9bbe
00000240: 6b66 863e a502 5fbd 4b32 49be 091b e03d
00000250: dcd3 a7be 9c58 173f a458 30be 1c0c e7be
00000260: 958f a6be 3865 c23e 7f97 113f 7d3d b8be
00000270: 9de3 673d be63 c8be f2ed 93be 96e8 6abb
00000280: 32bf ed3e c017 78be 862e 6a3f a8ce 1ebe
00000290: c289 a03e 6eb5 b43e 5144 ac3e 07a2 82be
000002a0: f80a 8cbe c90a 56be 2cd3 113f 9d2a 04be
000002b0: 666f b63e e876 a33e 05af d73e e8ca ecbe
000002c0: 8a51 cf3e 63b3 e2be 7c35 d63d 89b4 cebd
000002d0: 1565 d3be 7305 d8be ebc5 023f 9d40 7bbc
000002e0: 2713 cabe f79f 5cbe 0d9b bfbe 3a7f 893d
000002f0: d0ee 5fbe 53d5 b7be 4016 163d 7d26 f9be
00000300: 828b 663e fc8f 4e3e 2e4d d9bd c83f 7b3e
00000310: dd71 963e 3e39 8d3e 22d0 3f3f b7bd 2fbd
00000320: edf3 09bf 2494 45be 69cc 6ebf ccf6 36be
00000330: d18b a5be c5f8 6e3e 750c 4c3e 1aac f8be
00000340: d377 213f 7e8e 97be e422 e83e 2a45 09be
00000350: 1ae4 d83e 7c8e ddbe 81cc 9d3e fdbc 553e
00000360: 2695 2f3e c2ac 963e 5c0e bd3e 53bc 41be
00000370: d04a 9e3e c6b3 933e 144b 013e 3f24 2f3e
00000380: 004a 983d 4906 b23e a6b4 d93e 3380 d9be
00000390: 1c1c 54be 9aed a33e 72ef 353e 13a7 813d
000003a0: 2e89 8ebe 20e1 c6be d94b fbbe fcfa 5b3e
000003b0: aad7 fc3e 9463 53be bb36 643f 108f d9bd
000003c0: 5177 babd a102 c1be 7ed8 aebd e7cc 3f3e
000003d0: f0bb 70be 39b2 9d3e a611 563d 0a2e a8bd
000003e0: 101b ec3d 70b4 973e 0b29 64bc f890 ae3e
000003f0: daec 52bd 1434 7ebe c51a 4a3d d2a8 acbe

bias f4 [128]
-0.26923442 0.26255506 0.39820042 0.56712663 -0.0109375175 -0.034874402 -0.0039888606 0.20154215
-0.08526805 0.36592206 -0.3056869 0.2926546 -0.18340175 -0.3140756 -0.051299065 -0.27559027
0.65688604 0.578777 0.25904584 -0.034218993 -0.2431934 -0.015226289 0.32491434 -0.35336316
-0.028984413 0.56294066 0.41097528 0.6311298 -0.23691224 0.5284141 0.6279156 0.37813723
0.48024797 0.29648694 0.3500028 -0.031037733 0.6128705 -0.326497 0.51479614 0.24817568
-0.011469728 0.16524467 0.25104886 0.481311 0.38852954 0.5063435 0.20893508 0.18251488
0.41656023 -0.0088548735 -0.18342519 0.15917787 -0.008064844 -0.12793641 -0.2876408 0.533493
-0.2856971 0.6226137 -0.21077067 -0.007740687 -0.17069419 0.4009096 0.6141764 0.4573955
0.17951533 0.26780328 -0.108410805 0.56725574 0.5718684 -0.022271773 0.26828519 0.075876296
-0.049377948 0.47700462 -0.0060188994 -0.044917632 -0.28598723 -0.0597682 0.5811166 0.2114517
-0.23954423 0.30056173 0.15375185 0.20959704 -0.2581484 0.44112363 -0.04697405 -0.20447998
0.24264023 -0.2565878 -0.37375984 -0.0811436 -0.014650848 0.44925964 -0.4529938 -0.15619907
0.2664863 0.0005670844 0.41490358 0.43451384 -0.007635379 0.39826095 0.4958147 -0.1649669
0.33591413 0.12734641 -0.021125242 0.082940064 0.24224305 0.46135718 0.28524423 0.33259484
0.6196405 0.3189211 0.1466086 0.56969345 -0.094815396 0.4338065 0.54053295 0.37880412
-0.020254854 0.33245182 -0.098821074 -0.12931655 -0.02810925 0.0028871433 0.18865052 0.6216151
00000000: 18d9 89be 9e6d 863e ede0 cb3e 362f 113f
00000010: 4633 33bc 76d8 0ebd fdb4 82bb 1161 4e3e
00000020: 04a1 aebd 235a bb3e fe82 9cbe d3d6 953e
00000030: abcd 3bbe 84ce a0be f81e 52bd 2b1a 8dbe
00000040: af29 283f bb2a 143f a8a1 843e 3729 0cbd
00000050: b107 79be af77 79bc 2c5b a63e 04ec b4be
00000060: b870 edbc e11c 103f 5a6b d23e b991 213f
00000070: 1f99 72be 2546 073f 14bf 203f 349b c13e
00000080: 10e3 f53e 23cd 973e 9133 b33e d842 febc
00000090: 15e5 1c3f 9d2a a7be aec9 033f c421 7e3e
000000a0: 87eb 3bbc e635 293e 7a89 803e 656e f63e
000000b0: 58ed c63e ba9f 013f 14f3 553e 2ee5 3a3e
000000c0: 6247 d53e 0814 11bc d0d3 3bbe 86ff 223e
000000d0: 6822 04bc c301 03be a845 93be ff92 083f
000000e0: e446 92be 9d63 1f3f 44d4 57be 97a5 fdbb
000000f0: 75ca 2ebe 0644 cd3e aa3a 1d3f be2f ea3e
00000100: ded2 373e 831d 893e 7c06 debd ac37 113f
00000110: f865 123f 4b73 b6bc ad5c 893e 0865 9b3d
00000120: 8840 4abd f339 f43e 303a c5bb 8dfb 37bd
00000130: eb6c 92be 80cf 74bd 0fc4 143f cb86 583e
00000140: 154b 75be 3ae3 993e 2071 1d3e 9ba0 563e
00000150: 072c 84be f5da e13e dd67 40bd 3363 51be
00000160: ae76 783e 7a5f 83be 735d bfbe 9e2e a6bd
00000170: 1c0a 70bc 5c05 e63e ceee e7be a6f2 1fbe
00000180: e470 883e 64a8 143a 3e6e d43e 9978 de3e
00000190: 3432 fabb dce8 cb3e 6ddb fd3e 15ed 28be
000001a0: f0fc ab3e 1967 023e d80e adbc 7bdc a93d
000001b0: 900e 783e 0237 ec3e 880b 923e df49 aa3e
000001c0: c3a0 1e3f a049 a33e 9120 163e 6ed7 113f
000001d0: 932e c2bd e31b de3e 5e60 0a3f 9df2 c13e
000001e0: 82ed a5bc 2037 aa3e b462 cabd 8f6b 04be
000001f0: 5f45 e6bc 3a36 3d3b 9a2d 413e 2b22 1f3f

weight f4 [256, 128]
-0.20886213 0.20349865 0.086649805 0.13337658 -0.13141325 -0.15500307 -0.35175273 0.053178806
-0.18320884 0.21851179 -0.1621796 0.15251541 -0.26268226 -0.12884495 -0.15505794 -0.094993204
0.100161724 0.19147684 0.08276296 -0.07645609 -0.060558666 -0.08904243 0.07211164 -0.100291096
-0.12416176 0.11939131 0.07310409 0.12223256 -0.16041853 0.113674946 0.21530059 0.0757815
0.052881584 0.10117906 0.14446168 -0.1401387 0.14214449 -0.054779775 0.18512508 0.0007120317
-0.37780043 -0.08307427 0.14444645 0.008080542 0.17954627 0.0983607 -0.020419322 0.020552007
0.0917076 -0.0774544 -0.23846537 0.057616357 -0.22177634 -0.14780141 -0.055226862 0.12932132
-0.06796927 0.05929211 -0.12626806 -0.2807228 -0.12586705 0.20403993 0.040624116 0.10887372
0.022611082 0.14498734 -0.07534478 0.14711295 0.14710017 -0.17911525 0.1039968 -0.049848214
-0.24233507 0.15268715 -0.1467011 -0.27040464 -0.14993037 -0.14625289 0.1383368 0.16450648
-0.15716366 0.15799007 0.13338356 0.07784317 -0.13596006 0.15218884 -0.12205201 -0.12952927
0.1654093 -0.09371391 -0.04918817 -0.22712725 -0.04824597 0.20604195 -0.06379084 -0.13891856
0.1792155 -0.0012786418 0.051543977 0.16607761 -0.26286772 0.18313459 0.18667856 -0.16465071
0.18572485 0.014786082 -0.20235913 0.051981173 0.12398499 0.08848759 0.08819373 0.04918962
0.1912951 0.09282153 -0.047776744 0.1940562 -0.16966696 0.07738103 0.11966891 0.08971991
-0.24890365 0.18943205 -0.1506088 -0.13777322 -0.08081224 -0.068911314 0.059406318 0.17019896
-0.19787335 0.15504077 0.064597555 0.088569246 -0.071945794 -0.12461388 -0.31198138 0.09875402
-0.0961048 0.13512611 -0.07323226 0.07302265 -0.3084585 -0.09793037 -0.016856793 -0.1436687
0.1419876 0.16164425 0.20802864 -0.104038976 -0.17592129 -0.077610545 0.19013774 -0.18854064
-0.1020776 0.16806094 0.040900428 0.12191554 -0.14934324 0.06460006 0.120586514 0.10757956
0.15399937 0.1331921 0.17577262 -0.1695451 0.11748595 -0.15439719 0.17698613 0.12524359
-0.35784236 -0.00028702212 0.05075797 0.12572782 0.16985884 0.15944514 -0.00051881484 0.12725574
0.13936839 -0.07830851 -0.12713256 0.05914283 -0.2397263 -0.28813556 -0.10980274 0.09974212
-0.092052706 0.20500387 -0.17119831 -0.21183494 -0.072863616 0.06660665 0.16793382 0.115223214
0.111469544 -0.01920365 -0.18473908 0.1651916 0.21256287 -0.21144047 0.091565475 0.057154868
-0.26694387 0.04204887 -0.2802143 -0.15758035 -0.051531278 -0.15922873 0.04397778 0.16032083
-0.22771522 0.02979992 0.041769132 0.091794334 -0.11896201 0.04659978 -0.14735395 -0.11176619
0.050072435 -0.08719766 -0.07109666 -0.09642576 -0.0973599 0.10977439 -0.033337947 -0.23874941
0.024512768 -0.10526954 0.11821288 0.08748164 -0.27278557 0.08123316 0.11414594 -0.16419286
0.046158608 0.023304712 -0.13259545 -0.026451245 0.13402922 0.1686989 0.075486355 0.17527479
0.23233579 0.1288314 0.017065184 0.114848 -0.3411387 0.03866817 0.20091018 0.07806218
-0.15822451 0.04112915 -0.22503635 -0.199877 -0.076078676 0.005259827 0.16670145 0.1436351
00000000: f4df 55be f361 503e 7475 b13d df93 083e
00000010: 3291 06be 20b9 1ebe ef18 b4be 05d2 593d
00000020: 199b 3bbe 8ec1 5f3e 6912 26be 002d 1c3e
00000030: 4a7e 86be eeef 03be 82c7 1ebe cc8b c2bd
00000040: 9721 cd3d 8112 443e a07f a93d 0395 9cbd
00000050: 5d0c 78bd e15b b6bd 44af 933d 6b65 cdbd
00000060: 8548 febd 6e83 f43d 99b7 953d 1055 fa3d
00000070: c144 24be 69ce e83d c277 5c3e 5533 9b3d
00000080: 5c9a 583d f836 cf3d c3ed 133e 8580 0fbe
00000090: 538e 113e c260 60bd 6e91 3d3e a3a7 3a3a
000000a0: 0f6f c1be d822 aabd c5e9 133e 4064 043c
000000b0: fada 373e 5671 c93d 6c46 a7bc af5c a83c
000000c0: 32d1 bb3d 6aa0 9ebd 4430 74be 21ff 6b3d
000000d0: 5619 63be 4159 17be 9035 62bd cf6c 043e
000000e0: 7933 8bbd 49dc 723d 6a4c 01be e6ba 8fbe
000000f0: 4be3 00be d8ef 503e 7965 263d 2ff9 de3d
00000100: e03a b93c 9077 143e 5d4e 9abd c7a4 163e
00000110: 6da1 163e fd69 37be 46fc d43d a42d 4cbd
00000120: af26 78be 055a 1c3e d038 16be 7a72 8abe
00000130: 5987 19be 51c3 15be 29a8 0d3e 6374 283e
00000140: 83ef 20be 26c8 213e b395 083e 3d6c 9f3d
00000150: 1d39 0bbe 64d7 1b3e 67f6 f9bd 52a3 04be
00000160: 0e61 293e 14ed bfbd 8979 49bd 0c94 68be
00000170: 919d 45bd a9fc 523e c6a4 82bd ab40 0ebe
00000180: 4584 373e 1998 a7ba c71f 533d 4010 2a3e
00000190: 9996 86be a287 3b3e aa28 3f3e 329a 28be
000001a0: a82e 3e3e 5341 723c 3b37 4fbe 36ea 543d
000001b0: d8eb fd3d fb38 b53d ea9e b43d 0e7b 493d
000001c0: dde2 433e 3719 be3d 8cb1 43bd abb6 463e
000001d0: 2dbd 2dbe f279 9e3d f914 f53d 12bf b73d
000001e0: 99e0 7ebe 7afa 413e 3139 1abe 6c14 0dbe
000001f0: e380 a5bd 6021 8dbd 0a54 733d a348 2e3e
00000200: 509f 4abe 02c3 1e3e b94b 843d cb63 b53d
00000210: 5158 93bd 9035 ffbd 06bc 9fbe 8c3f ca3d
00000220: 98d2 c4bd 805e 0a3e ccfa 95bd e68c 953d
00000230: 46ee 9dbe b88f c8bd 4217 8abc e31d 13be
00000240: 3365 113e 1286 253e 7605 553e 6312 d5bd
00000250: b624 34be 47f2 9ebd 78b3 423e cc10 41be
00000260: 100e d1bd 2b18 2c3e 3587 273d dbae f93d
00000270: 6fed 18be 094d 843d 10f6 f63d ac52 dc3d
00000280: 03b2 1d3e 8363 083e bdfd 333e 3b9d 2dbe
00000290: 799c f03d 4c1a 1ebe da3b 353e db3f 003e
000002a0: 1d37 b7be 757b 96b9 97e7 4f3d cbbe 003e
000002b0: 7aef 2d3e 9645 233e 1301 08ba 544f 023e
000002c0: 96b6 0e3e 3660 a0bd 0a2f 02be c13f 723d
000002d0: d07a 75be 8186 93be 42e0 e0bd 9945 cc3d
000002e0: 2186 bcbd 89ec 513e 9c4e 2fbe 42eb 58be
000002f0: 8539 95bd 1169 883d d8f6 2b3e 26fa eb3d
00000300: 254a e43d f950 9dbc 3e2c 3dbe fd27 293e
00000310: 15aa 593e da83 58be ae86 bb3d 391b 6a3d
00000320: deac 88be 703b 2c3d 4078 8fbe be5c 21be
00000330: 7612 53bd db0c 23be 0b22 343d 252b 243e
00000340: 2e2e 69be f61e f43c 1c16 2b3d abfe bb3d
00000350: 5ba2 f3bd 69df 3e3d f4e3 16be ace5 e4bd
00000360: c118 4d3d b094 b2bd 209b 91bd de7a c5bd
00000370: a164 c7bd 65d1 e03d 5f8d 08bd ba7a 74be
00000380: 00cf c83c 8e97 d7bd 9819 f23d 9329 b33d
00000390: 8daa 8bbe 925d a63d 59c5 e93d 2c22 28be
000003a0: cf10 3d3d 86e9 be3c 1ac7 07be 48b0 d8bc
000003b0: f53e 093e 68bf 2c3e 9798 9a3d 3c7b 333e
000003c0: 6fe9 6d3e 61ec 033e 49cc 8b3c 6e35 eb3d
000003d0: bba9 aebe 8462 1e3d 66bb 4d3e 10df 9f3d
000003e0: 9b05 22be 0a77 283d ee6f 66be 8eac 4cbe
000003f0: 23cf 9bbd a05a ac3b c9b3 2a3e 1415 133e

bias f4 [256]
0.2267171 0.07136007 -0.021466896 0.21529256 0.015209661 -0.07750229 -0.08667568 0.1359974
0.08412279 0.15499727 -0.00017101318 -0.06237808 0.18676513 0.059370913 0.20236744 0.19485725
-0.084812365 0.072787285 0.17873755 0.04928246 0.0921306 0.21890055 0.1553176 -0.018449992
-0.043720193 0.2103175 -0.07736502 -0.06698552 -0.022927765 0.11300412 -0.028847136 -0.06342314
0.14478174 0.10210279 0.01854777 -0.08074484 0.2000242 0.1371375 -0.034746155 0.13961826
0.19267981 0.018074142 0.030798424 0.06716715 -0.008647896 -0.02068061 0.18776442 0.105820194
0.08877407 0.20145556 0.1852815 0.036745463 0.064500295 -0.0648633 0.03394558 0.028095558
0.07646327 0.064775765 0.089717865 0.11956245 -0.027828278 0.061979525 -0.043880045 0.18820778
0.17187299 0.07941354 0.1575277 0.15449683 0.14147875 0.050318424 0.009714606 0.06608856
0.08778674 0.2222921 0.21143647 0.008691542 0.056222662 -0.086362235 -0.06644857 0.13178304
-0.06526385 -0.09343798 -0.056792066 0.07993128 0.07763228 -0.049679827 -0.035516214 -0.097666524
-0.10168817 0.22007822 -0.009811071 0.074115716 -0.008746685 0.09878486 -0.0026312652 -0.019334514
-0.12383784 0.034800436 -0.012402869 -0.060682554 0.05169112 0.042939145 -0.02179995 0.22261861
0.2165266 0.104986176 0.10077455 -0.07687886 0.17892095 0.1360801 -0.087182134 0.09369528
0.037197627 0.21000513 -0.037255935 0.13136072 0.1013059 0.17373319 0.12437174 -0.0862716
-0.09322479 -0.00045925734 0.124428414 0.1518518 0.14716206 0.17984669 0.059053257 -0.0046412684
0.11878402 -0.07719185 0.1469515 0.23400062 -0.009405849 0.18461324 0.11575561 0.08775469
0.0747691 0.17929548 0.07294991 0.036601767 0.0852413 0.12868734 -0.06651853 0.17805119
-0.00070203433 0.16144988 0.08019017 -0.07187102 -0.056999832 0.18202612 0.15946491 -0.032031067
0.044335566 -0.013545058 0.20514826 0.074706905 0.20469165 0.032309912 -0.088651165 0.01093006
-0.084579684 0.032318007 0.020687282 0.050955977 0.07754595 0.033311702 -0.017736621 -0.032656953
0.21005596 0.034188837 0.21264622 0.12992957 -0.00018093735 0.14887524 0.09755846 0.13026409
0.20567016 0.040716257 0.20830458 0.1603212 -0.05231911 -0.08284689 0.14382619 -0.068746194
-0.060355194 0.20139281 0.05567976 0.06316713 0.043368503 -0.05814976 0.19243273 0.104224354
0.08019978 0.0057649026 0.044876996 0.16326463 0.122907996 0.012171203 -0.04278464 0.106818035
0.013019262 0.010242078 0.17881964 0.22392681 0.210019 -0.07928811 -0.06985081 0.09807058
0.039416876 0.18557905 -0.038022522 0.17169897 -0.04886288 0.17154042 0.028289555 0.0048782416
0.016185855 -0.025238648 0.0584254 -0.04665876 -0.061552014 0.016325189 0.20909072 0.0725197
0.15991607 0.023727272 0.14908041 -0.05477796 -0.100538455 0.03486698 0.08801218 0.016673492
0.0021533058 0.22330326 0.058527004 -0.070672184 0.04940859 0.15774412 0.10953844 -0.022216633
0.15975612 -0.00015100666 0.22072615 0.07365986 -0.08622333 0.009080794 0.022383528 -0.06562511
-0.07175422 -0.02108311 0.20378271 0.050992724 0.19953702 -0.054331005 -0.040079053 0.15989527
00000000: 8728 683e 3a25 923d 58db afbc a775 5c3e
00000010: f131 793c 85b9 9ebd 0583 b1bd e742 0b3e
00000020: 9248 ac3d 9bb7 1e3e 0052 33b9 2880 7fbd
00000030: 5c3f 3f3e ea2e 733d 6939 4f3e a988 473e
00000040: 1bb2 adbd 8011 953d fa06 373e 68dc 493d
00000050: f8ae bc3d 7727 603e 940b 1f3e 7024 97bc
00000060: f213 33bd 795d 573e 8d71 9ebd b42f 89bd
00000070: 02d3 bbbc b46e e73d d450 ecbc fee3 81bd
00000080: aa41 143e 441b d13d 7ef1 973c 8d5d a5bd
00000090: 25d3 4c3e c66d 0c3e fc51 0ebd 17f8 0e3e
000000a0: db4d 453e 3910 943c fa4c fc3c ee8e 893d
000000b0: e8af 0dbc 626a a9bc 5145 403e 42b8 d83d
000000c0: 2ecf b53d 5e4a 4e3e 6fba 3d3e 6982 163d
000000d0: bb18 843d 0dd7 84bd 850a 0b3d a828 e63c
000000e0: c698 9c3d 28a9 843d 00be b73d 28dd f43d
000000f0: 21f8 e3bc 3ede 7d3d 90bb 33bd 8ab9 403e
00000100: 79ff 2f3e 91a3 a23d f14e 213e 6b34 1e3e
00000110: cedf 103e b11a 4e3d 032a 1f3c 7059 873d
00000120: 89c9 b33d 8aa0 633e cd82 583e f866 0e3c
00000130: bc49 663d afde b0bd 3016 88bd 22f2 063e
00000140: 0ea9 85bd 695c bfbd cc9e 68bd 03b3 a33d
00000150: acfd 9e3d 137d 4bbd 7379 11bd 6305 c8bd
00000160: e341 d0bd 2f5c 613e 9dbe 20bc fbc9 973d
00000170: 424e 0fbc b74f ca3d 4e71 2cbb 6a63 9ebc
00000180: b29e fdbd e78a 0e3d 6735 4bbc 458e 78bd
00000190: 11ba 533d f5e0 2f3d cf95 b2bc 22f6 633e
000001a0: 26b9 5d3e fe02 d73d e362 ce3d aa72 9dbd
000001b0: 0e37 373e 9558 0b3e 8c8c b2bd 50e3 bf3d
000001c0: 8a5c 183d 960b 573e ae99 18bd 6d83 063e
000001d0: 7879 cf3d 1de7 313e 9cb6 fe3d 2aaf b0bd
000001e0: a4ec bebd 7ac8 f0b9 53d4 fe3d 0a7f 1b3e
000001f0: a7b1 163e bb29 383e d4e1 713d c815 98bb
00000200: 0945 f33d c316 9ebd 747a 163e dc9d 6f3e
00000210: fd1a 1abc 410b 3d3e 4711 ed3d bbb8 b33d
00000220: 8b20 993d 3c99 373e c366 953d bceb 153d
00000230: fe92 ae3d 9dc6 033e de3a 88bd 0d53 363e
00000240: ba08 38ba 1e53 253e be3a a43d 1d31 93bd
00000250: a878 69bd 0e65 3a3e c54a 233e 0233 03bd
00000260: 3699 353d 17ec 5dbc 6312 523e efff 983d
00000270: b09a 513e 6657 043d be8e b5bd ff13 333c
00000280: 1d38 adbd e35f 043d 6078 a93c 37b7 503d
00000290: 69d0 9e3d da71 083d 644c 91bc 4cc3 05bd
000002a0: e918 573e 9809 0c3d eebf 593e 420c 053e
000002b0: 00ba 3db9 c072 183e bbcc c73d f363 053e
000002c0: 339b 523e 17c6 263d cc4d 553e 3e2b 243e
000002d0: 904c 56bd a1ab a9bd 2c47 133e ceca 8cbd
000002e0: 0237 77bd eb39 4e3e 7610 643d c55d 813d
000002f0: 2ca3 313d 712e 6ebd 160d 453e 9473 d53d
00000300: c83f a43d 82e7 bc3b f1d0 373d d82e 273e
00000310: 30b7 fb3d ba69 473c f23e 2fbd 6ac3 da3d
00000320: be4e 553c 64ce 273c 7f1c 373e 124d 653e
00000330: 390f 573e ce61 a2bd f10d 8fbd 3ad9 c83d
00000340: 9773 213d 6f08 3e3e 81bd 1bbd dbd1 2f3e
00000350: 7124 48bd 4ba8 2f3e 7fbf e73c a8d9 9f3b
00000360: 3398 843c 48c1 cebc 794f 6f3d 421d 3fbd
00000370: f71d 7cbd 67bc 853c e11b 563e 3585 943d
00000380: 0ac1 233e b25f c23c 89a8 183e db5e 60bd
00000390: 1be7 cdbd aed0 0e3d bb3f b43d d996 883c
000003a0: 7a1e 0d3b 9ca9 643e 03ba 6f3d 94bc 90bd
000003b0: a960 4a3d ad87 213e b155 e03d a8ff b5bc
000003c0: 1c97 233e 8b57 1eb9 0906 623e fbda 963d
000003d0: db95 b0bd 9cc7 143c a95d b73c 7566 86bd
000003e0: e0f3 92bd 7cb6 acbc 6aac 503e bfdd 503d
000003f0: 6f53 4c3e 308a 5ebd ef29 24bd 96bb 233e

weight f4 [1, 256]
0.15478471 0.16690326 -0.0076430887 0.19811764 0.020654874 -0.021842698 -0.15878169 0.16765589
0.19585277 0.14578298 0.046480678 -0.0070437035 0.13985841 -0.048108935 0.13785279 0.15172864
-0.19463538 0.16128519 0.13826548 -0.0086625675 0.16306488 0.17132007 0.18010396 -0.15645109
-0.010964437 0.16103978 -0.053898666 -0.16316979 -0.042742014 0.17907979 0.009154341 -0.1228355
0.19166279 0.17585677 -0.030088212 -0.001405263 0.1361259 0.16332783 -0.13243955 0.17023265
0.14259252 -0.09754151 -0.12741908 0.1589987 -0.028853226 -0.012505258 0.20822063 -0.08141709
-0.116291955 0.18104123 0.14506459 -0.16255674 -0.017733166 0.00059199845 -0.09823147 0.0038790214
-0.011928698 -0.04125625 0.17866296 0.13114664 0.011353071 -0.172788 -0.13014093 0.1571174
0.12720484 0.1585253 0.13897611 0.1665287 0.17842326 -0.038053196 -0.17994909 -0.05741925
0.17735527 0.18039103 0.14311333 0.04661256 -0.03410188 -0.0483803 -0.0055902046 0.13570286
0.038853407 -0.048749704 -0.0710332 0.19406438 0.19039512 -0.057904862 -0.02921592 -0.1794469
-0.13238683 0.16867332 -0.010099614 -0.028071199 0.030794494 0.16407627 0.002673258 -0.09829918
-0.0055854577 -0.1881472 0.044309244 -0.11875866 0.17693573 -0.02022874 -0.03221159 0.19504148
0.18851732 0.19990988 0.127844 0.049244944 0.13430738 0.16968894 -0.15897135 0.20572014
0.0026553094 0.17166102 0.053639047 0.16953833 0.14514716 0.17216426 0.17710397 -0.15959254
-0.041959353 0.004553405 0.190837 0.15129882 0.15160288 0.15624762 0.1531917 0.0058119753
0.13458773 -0.17559183 0.16024625 0.14753571 -0.1502588 0.18515082 0.14539964 0.13278094
0.16271093 0.18868507 0.1948376 -0.024863971 0.16703701 0.17571262 -0.031498455 0.14898539
-0.030822482 0.17308731 0.15861665 -0.15619414 0.0033417584 0.14905457 0.165823 -0.042672325
0.011078924 -0.026792012 0.15979965 0.00597013 0.13890016 -0.017207777 0.03965884 -0.028102815
-0.013461636 -0.011904152 0.0014246085 -0.020544425 -0.053543948 -0.0068077105 -0.11422624 -0.024322316
0.15090013 -0.019381091 0.19023313 0.1544715 0.03226064 0.1783537 0.18769269 0.17909665
0.16301118 -0.0047642402 0.16291009 0.16075693 -0.16938643 -0.007905039 0.17039378 -0.008318818
-0.019147588 0.19715631 -0.029656984 0.16947465 0.004430367 -0.1609325 0.16451262 0.15498385
0.17583841 -0.189125 -0.010041367 0.21248403 0.18884897 0.003973934 -0.0528487 0.16087809
-0.013489828 -0.036963783 0.17086586 0.19508277 0.15321116 0.006081408 -0.14336124 0.20509541
-0.019803971 0.19370659 0.021065718 0.14179352 -0.20700267 0.1415116 0.010513167 -0.0065444973
-0.16179846 0.036758304 -0.16766179 -0.055194337 -0.2083471 -0.056627974 0.14065202 0.18196093
0.14342263 -0.1808092 0.16487578 -0.010082676 -0.021582818 -0.16688581 -0.058135025 -0.2065495
-0.16195685 0.14606944 0.17576116 -0.050989 -0.015278866 0.14439319 0.17054673 -0.00038742603
0.18837608 -0.0063615744 0.16102001 0.1708515 0.011455499 -0.0011733932 -0.0022624661 -0.013980268
-0.15614468 -0.03650898 0.17198002 0.1845241 0.18157493 -0.16514537 -0.17285275 0.14987326
00000000: e27f 1e3e b0e8 2a3e e072 fabb 5adf 4a3e
00000010: 6934 a93c 75ef b2bc ab97 22be fcad 2b3e
00000020: a18d 483e 2248 153e 8662 3e3d dece e6bb
00000030: 0b37 0f3e e00d 45bd 4829 0d3e c15e 1b3e
00000040: 7f4e 47be f227 253e 7795 0d3e 71ed 0dbc
00000050: 7bfa 263e 876e 2f3e 2c6d 383e b734 20be
00000060: 2fa4 33bc 9de7 243e d9c4 5cbd fb15 27be
00000070: 4012 2fbd b160 373e 17fc 153c 2e91 fbbd
00000080: 4043 443e cc13 343e 8e7b f6bc cd30 b8ba
00000090: 9764 0b3e 693f 273e 3c9e 07be 7851 2e3e
000000a0: c603 123e d8c3 c7bd 267a 02be 8ed0 223e
000000b0: 9a5d ecbc dbe2 4cbc ca37 553e 01be a6bd
000000c0: 7a2a eebd df62 393e d08b 143e 4675 26be
000000d0: 2545 91bc 5830 1b3a 952d c9bd 2e37 7e3b
000000e0: 9670 43bc 50fc 28bd 6cf3 363e 4e4b 063e
000000f0: 3b02 3a3c 56ef 30be aa43 05be 62e3 203e
00000100: fc41 023e 7554 223e c14f 0e3e 8086 2a3e
00000110: 96b4 363e abdd 1bbd 9344 38be 7330 6bbd
00000120: 9f9c 353e 6db8 383e 4d8c 123e d0ec 3e3d
00000130: 6aae 0bbd 6c2a 46bd 092e b7bb b1f5 0a3e
00000140: c024 1f3d c5ad 47bd db79 91bd d0b8 463e
00000150: f0f6 423e a62d 6dbd 3a56 efbc eec0 37be
00000160: 6a90 07be b3b8 2c3e da78 25bc 92f5 e5bc
00000170: bc44 fc3c 9c03 283e d431 2f3b 1551 c9bd
00000180: 3706 b7bb a9a9 40be 9c7d 353d be37 f3bd
00000190: a42e 353e beb6 a5bc 4df0 03bd f4b8 473e
000001a0: af0a 413e 2db5 4c3e 8ae9 023e 11b5 493d
000001b0: e087 093e f0c2 2d3e 63c9 22be 4da8 523e
000001c0: b304 2e3b e8c7 2f3e 9eb4 5b3d 759b 2d3e
000001d0: 75a1 143e d44b 303e be5a 353e 3a6c 23be
000001e0: 92dd 2bbd bb34 953b c66a 433e 14ee 1a3e
000001f0: c93d 1b3e 60ff 1f3e 49de 1c3e 6272 be3b
00000200: 5ed1 093e 58ce 33be 9817 243e 9a13 173e
00000210: 71dd 19be 2d98 3d3e a5e3 143e baf7 073e
00000220: b29d 263e a936 413e 8283 473e 87af cbbc
00000230: c00b 2b3e 02ee 333e 8604 01bd a08f 183e
00000240: 6e7f fcbc cd3d 313e 676c 223e 5bf1 1fbe
00000250: 6701 5b3b c3a1 183e 81cd 293e 2dc9 2ebd
00000260: 6084 353c ec7a dbbc 85a2 233e 15a1 c33b
00000270: d83b 0e3e 53f7 8cbc 4f71 223d e037 e6bc
00000280: 328e 5cbc a209 43bc eeb9 ba3a c84c a8bc
00000290: e650 5bbd 3713 dfbb 72ef e9bd 983f c7bc
000002a0: 9085 1a3e 18c5 9ebc 79cc 423e c72d 1e3e
000002b0: bc23 043d 5aa2 363e 8332 403e 1d65 373e
000002c0: 67ec 263e 581d 9cbb e7d1 263e 779d 243e
000002d0: a373 2dbe 2384 01bc b57b 2e3e a74b 08bc
000002e0: 67db 9cbc 58e3 493e 34f3 f2bc c38a 2d3e
000002f0: 9d2c 913b 7dcb 24be ff75 283e 16b4 1e3e
00000300: fc0e 343e fca9 41be 8c84 24bc 6a95 593e
00000310: a061 413e c637 823b e177 58bd 3abd 243e
00000320: 7104 5dbc 5667 17bd 76f7 2e3e c7c3 473e
00000330: 63e3 1c3e 8c46 c73b 4acd 12be 8804 523e
00000340: f03b a2bc 055b 463e 0392 ac3c 5232 113e
00000350: 82f8 53be 6be8 103e 6b3f 2c3c 3973 d6bb
00000360: 7fae 25be e08f 163d 88af 2bbe 7513 62bd
00000370: f158 55be bcf2 67bd 1507 103e f753 3a3e
00000380: 62dd 123e 0c26 39be 32d5 283e cf31 25bc
00000390: 73ce b0bc 1de4 2abe fe1e 6ebd b681 53be
000003a0: 04d8 25be 3a93 153e bcfa 333e d7d9 50bd
000003b0: 3554 7abc cfdb 133e cda3 2e3e 711f cbb9
000003c0: a9e5 403e c174 d0bb 6ee2 243e b2f3 2e3e
000003d0: d8af 3b3c 8bcc 99ba e245 14bb 7e0d 65bc
000003e0: 64e4 1fbe 718a 15bd 881b 303e e3f3 3c3e
000003f0: c7ee 393e de1b 29be 5000 31be 6078 193e
