critic.pkl (torch, 137751 bytes, 5 tensors)

weight f4 [128, 3]
000000 31 f0 6f bc f5 e6 3c 3f 2d 7d 63 be da 7e a7 3e
       -0.014644668 0.7378991 -0.2221572 0.32713968
000010 0a a4 58 3f fb dd e0 3d a7 83 b9 be df 50 e3 be
       0.84625304 0.109798394 -0.36233255 -0.44397637
000020 78 b4 c7 be b5 9d 1f bf ea ee 3e bf aa 68 1b 3e
       -0.39004874 -0.62350017 -0.74583304 0.15176645
000030 8c d2 09 3e 03 98 3f bf 19 e8 30 be eb 10 45 bf
       0.13459224 -0.74841326 -0.17276038 -0.7697894
000040 db df ae 3e db 65 ca bd 9f 45 52 3f 00 5b ac 3e
       0.34155163 -0.09882709 0.82137483 0.33663177
000050 fe f5 1f bc d2 64 f0 be 27 0f 3e 3f 19 c9 1f 3f
       -0.009763239 -0.4695192 0.7424187 0.62416226
000060 76 2a 97 3e fc cc 4a 3f e2 0b d7 3d 0f dd 14 3e
       0.29524583 0.7921903 0.10500313 0.14537452
000070 d8 cd bd 3d 70 bd b8 bd fa c4 09 bf 07 cb 19 bf
       0.09267777 -0.09020507 -0.5381619 -0.6007542
000080 48 2f 01 bf fe 17 cf be 11 0b ba bd 9c 7b e5 3e
       -0.5046277 -0.40447992 -0.09084142 0.4482087
000090 73 3f c5 be 90 47 09 bf a2 33 2d be e1 1b 62 3f
       -0.3852497 -0.5362482 -0.16914228 0.8832379
0000a0 a4 63 dc be 2a cc 3e 3c d1 c0 4b bf f4 28 1c bf
       -0.4304477 0.011645356 -0.7959109 -0.6099999
0000b0 8d 7f 2e 3e 18 e1 55 bf 3e ab eb 3e 6f d3 4a 3e
       0.17040844 -0.8354659 0.46029085 0.19807218
0000c0 a9 8a 23 bf 83 b6 b0 3e 4a 36 41 b9 fe 77 fb 3c
       -0.63883454 0.34514245 -0.00018426139 0.030696865
0000d0 66 0d e3 be 5b 62 0c 3f ba 02 74 bd 9f 8e 22 3f
       -0.4434616 0.5483758 -0.059572913 0.6349887
0000e0 86 84 66 3e 85 6f 6a 3e cd 67 20 bf e8 d2 16 3c
       0.22511491 0.22894104 -0.6265839 0.009205557
0000f0 16 52 d8 be ec 10 07 be 16 3b 9c be 25 7a 3c bf
       -0.42250127 -0.13190049 -0.3051383 -0.7362388
000100 93 01 1b 3e c3 49 12 3e fd 06 7c 3e ee 6e 40 3f
       0.1513732 0.1428595 0.24612041 0.75169265
000110 2c 3d e1 bd bc b7 93 3e f9 43 04 3f 7c 1f 58 bd
       -0.10997996 0.28851116 0.5166622 -0.0527644
000120 a3 79 8b be a0 fb 5e 3f 52 5a f6 3e 5d ca 1e bf
       -0.2724124 0.871027 0.48115784 -0.6202753
000130 a3 a3 d8 bc d7 7c 1f 3e 4f 41 d6 bd 1f 5a 3d bf
       -0.026445216 0.15574966 -0.104616754 -0.7396564
000140 87 e2 63 3e ab 32 d1 3e 2f a6 33 bf d6 17 0e bf
       0.22254382 0.4085897 -0.7017545 -0.5550512
000150 b8 b1 2d bf 3e b5 3a 3f 2f 4b 41 bd 36 3d 2f bf
       -0.678493 0.72932804 -0.04719084 -0.68452775
000160 e4 6a 15 bf 90 b7 84 bd 74 aa 1d 3f 32 b7 25 3f
       -0.5836623 -0.06480324 0.61588216 0.6473266
000170 c8 93 13 bc f5 05 89 bd 70 de 20 bf 68 7e 05 3f
       -0.009007402 -0.06690589 -0.6283941 0.52146006
000180 e1 40 a5 3e 23 99 c0 bd f3 7f 43 bf 9d 65 46 3e
       0.3227606 -0.094042085 -0.7636711 0.193747
000190 24 64 09 bf 70 c6 d4 3b ed 28 91 be 95 65 0d 3f
       -0.5366843 0.006493382 -0.28351536 0.55233127
0001a0 2e 08 1d bf 67 a2 1e be 0d f7 92 bd a9 50 ab 3e
       -0.61340606 -0.15491639 -0.071760274 0.33459976
0001b0 21 36 aa be b1 48 8f bd 55 5e ed 3d 07 c4 81 3e
       -0.33244422 -0.06996287 0.11590258 0.2534487
0001c0 41 14 5d 3f 0d 86 d0 3e db fe e3 bd 8d ba 55 bf
       0.8635903 0.40727273 -0.11132594 -0.8348778
0001d0 14 2d d0 3e bc 33 09 3e 8f 72 28 bf c4 82 ee 3d
       0.40659392 0.13398641 -0.657998 0.11646035
0001e0 2a 6d f9 bd bb ce 13 3f d1 dc e0 3e c5 13 11 bf
       -0.121790245 0.5773732 0.4391847 -0.5667079
0001f0 7c 92 9a b9 73 5d b8 3d 57 57 37 bf 5f 33 65 3f
       -0.00029482308 0.09002199 -0.71617645 0.8953151
000200 0e 73 b1 3e 0c 55 79 bb 4e 6d e5 3e 4f aa 01 3e
       0.34658092 -0.0038045077 0.44809955 0.12662624
000210 6b f3 40 3e 55 11 73 be eb 85 a0 bd 76 48 d2 be
       0.18842857 -0.2373708 -0.07838043 -0.41070908
000220 4f 04 51 bd 8a 02 d6 be 40 85 2b bf c7 84 8a 3e
       -0.0510295 -0.41798812 -0.670002 0.27054426
000230 ac f9 03 bf 93 fa c1 be e2 06 31 bf b9 3f dc be
       -0.51552844 -0.37886485 -0.6915113 -0.43017367
000240 23 ad 40 bf f0 39 c3 be 13 60 4e be 8d 69 10 bf
       -0.75264186 -0.3813014 -0.20153837 -0.5641106
000250 df 61 2b 3f a9 b8 db be dc 87 33 3e b6 8a 79 be
       0.66946214 -0.42914322 0.17532295 -0.2436932
000260 d2 db 20 3f b6 9f f0 be e2 a4 2b bd d7 b9 d1 3d
       0.6283542 -0.4699685 -0.04190529 0.10240524
000270 cd 63 5f be 9b 55 57 bf 51 f6 e8 3e 71 da 95 be
       -0.21815415 -0.84115 0.45500425 -0.2926822
000280 6a 0e 5b bf 05 58 1e be 4d c8 2a be 35 01 0e 3f
       -0.8556887 -0.15463264 -0.16677971 0.5547059
000290 8c 19 e9 3e 78 5a ad be 13 7d 21 3f c4 36 c5 3e
       0.45527303 -0.33858085 0.63081473 0.38518345
0002a0 fc 7f 4f bf 98 6b 4c bf a8 c6 aa 3c a3 f8 44 bf
       -0.81054664 -0.79851675 0.02084668 -0.7694189
0002b0 0c 15 95 3d 0d ef 00 3e e6 0b ae be 1f d5 07 bf
       0.07279405 0.1259119 -0.33993453 -0.5305957
0002c0 c1 c7 be bd cd c9 2a bf 96 3f 82 3d 6b 43 7b be
       -0.09315444 -0.66714174 0.06359784 -0.24537437
0002d0 d1 c7 1c 3e 8d 47 e0 3e 46 91 c0 3d 8e 05 06 bc
       0.15310599 0.4380459 0.09402709 -0.008180035
0002e0 60 2a b3 be 4f 62 e6 3c 5b 1d 4f 3e 35 bd 21 3f
       -0.34993267 0.028123049 0.20226042 0.6317933
0002f0 26 38 91 3c ff c7 2d be f3 6d 4f bf 8c 1a 87 bd
       0.017726969 -0.16970824 -0.81027144 -0.0659686
000300 e7 48 8a be e5 3a 61 3e ca 79 e3 be 1b 8d 4b bf
       -0.27008745 0.21995123 -0.44428855 -0.79512185
000310 88 ea ad be 97 90 c4 be 81 9d 9e be db 54 28 be
       -0.33967996 -0.38391563 -0.3097954 -0.1643862
000320 8b d7 a3 3c a6 fb 1f bf c1 a7 05 be 72 0a 87 3e
       0.02000024 -0.6249336 -0.13052274 0.26375157
000330 3f e9 62 3e c1 28 46 bf d5 4d 0e bf 56 5a bd bd
       0.22159289 -0.77405936 -0.5558751 -0.09245746
000340 ab 6d 77 3f 8f b0 88 3e df 73 85 be 18 2a ec 3e
       0.96651715 0.26697204 -0.26064965 0.46125865
000350 31 0b f3 be 30 01 ac be d4 ad 4d 3f 0d 2c 09 3c
       -0.47469476 -0.33594656 0.80343366 0.008372319
000360 ea c1 1c bd 88 08 54 3f 19 f5 23 bf 76 7d 1f 3e
       -0.03827087 0.8282552 -0.64045864 0.15575203
000370 c2 9f 49 3f 5b d2 22 bf de 88 46 bf 52 2c 1d bf
       0.78759396 -0.63602227 -0.7755259 -0.6139575
000380 9f 17 4d be a5 f6 74 be 38 12 25 bf 66 95 97 bb
       -0.20028542 -0.23922212 -0.64480925 -0.004625964
000390 fe d9 65 3e e9 5a a0 be cc 2d 06 bf 40 ec 8c 3e
       0.22446439 -0.3131936 -0.5241363 0.27523994
0003a0 bd f7 84 be fa fa 1d bf dd 99 04 3e 84 cf 69 bf
       -0.2597026 -0.61711085 0.12949319 -0.9133227
0003b0 09 4e 02 bf bc 55 83 3e f9 e1 76 be 77 dc 01 3f
       -0.5090032 0.25651348 -0.24109639 0.5072703
0003c0 1b 85 18 bf cb ad 47 3f b4 9e 98 3d b2 79 3d 3e
       -0.595781 0.7799956 0.07452145 0.18503454
0003d0 93 a9 2d bd 92 40 b2 be d7 6f e7 3e af 52 8b 3e
       -0.042398047 -0.34814888 0.45202515 0.2721152
0003e0 73 1a c2 3e c5 d7 23 bf a8 4f 3e 3e 1c a1 5a 3e
       0.37910804 -0.64001113 0.18585074 0.21350521
0003f0 3c 53 b4 be db 45 1e bf 89 e1 83 be b8 fe 69 bf
       -0.35219753 -0.6182534 -0.25758007 -0.91404295

bias f4 [128]
000000 e9 a2 41 3f c8 4e 84 3f 58 96 15 3f 75 21 08 3f
       0.75639206 1.0336542 0.5843253 0.5317605
000010 6a 46 7e 3f 06 ec 67 3f e9 bc 4f 3e c7 86 aa be
       0.99326193 0.9059452 0.20286907 -0.33305952
000020 7c 3c 77 3f 83 9d 71 3f fa 05 ff 3d a4 0a b8 be
       0.96576667 0.9438097 0.12452312 -0.35945618
000030 8e 18 66 be 4b 9c fa 3e cf 47 09 3f 47 c4 53 3f
       -0.22470304 0.48947367 0.53625196 0.8272137
000040 f8 2c 69 be 9c 11 a8 be a1 f9 22 3f 7f 6d 25 3f
       -0.2277106 -0.32825935 0.63662153 0.646202
000050 76 7e f4 3e e5 42 57 3f 31 2b 32 3f 73 38 6f 3f
       0.47752732 0.8408645 0.69597155 0.9344551
000060 68 3c df bd dd 52 5a 3f c6 ae 8e bc 1d 75 f6 3d
       -0.109001935 0.8528269 -0.017417323 0.12034056
000070 5c 48 e3 bd eb 08 23 3e 67 a5 49 3e f9 56 37 be
       -0.11097786 0.1592137 0.19692002 -0.17904271
000080 91 0f 9f be 45 7b 0e 3f 65 92 d6 be 8e cb 34 3f
       -0.31066564 0.55656844 -0.41908565 0.706231
000090 a4 3b 11 3f 17 79 c7 3d 4f 5d 6a be 22 7c 65 3f
       0.5673163 0.09739893 -0.22887157 0.89642537
0000a0 ea 41 2e 3f b3 be c9 3e 22 81 c7 be 12 44 59 3f
       0.68069327 0.39403304 -0.38965708 0.8486949
0000b0 79 40 65 3f 37 18 6d bd 7e 31 ca be b3 af 69 3f
       0.895515 -0.05788442 -0.39490885 0.9128372
0000c0 ae f2 0a 3f 1f a4 10 be c4 17 94 be f5 89 c4 3e
       0.5427655 -0.14125107 -0.28924382 0.38386503
0000d0 75 25 ab bd d5 68 5b 3f ff af 14 3e 40 5c ee be
       -0.08356754 0.85706836 0.14520262 -0.46554756
0000e0 f3 33 a0 3c 75 4e 35 3f 85 33 b8 3e a6 0d 62 3e
       0.019556021 0.7082284 0.35976806 0.22075519
0000f0 b1 fe 4f 3f 98 b3 9c 3e d2 a9 27 3f 58 bb 0a 3f
       0.81248003 0.3060577 0.654935 0.54192114
000100 51 3e 21 3f c1 0b 6c 3f 96 e5 24 3f 2d 6a d3 3e
       0.6298571 0.92205435 0.6441282 0.41291943
000110 a7 7f 82 3e be f8 1d be 22 11 6e bd ba 46 7d 3e
       0.25488016 -0.15426919 -0.058121808 0.24734011
000120 be d3 e3 bd bc 0a ba be 28 29 38 3f 7f 88 48 3f
       -0.11124371 -0.36336315 0.719378 0.78333277
000130 10 90 1a 3f 1a 2e 89 3e 8b 92 4f 3e 96 b1 49 3f
       0.6037607 0.26792985 0.20270745 0.787866
000140 bf 77 0f 3f 97 06 b2 3e e6 54 e4 3e 81 bd 3a 3f
       0.56042093 0.34770653 0.44596022 0.7294541
000150 ba 00 06 3f bf 61 04 3e 0a 2b 8c bd ff 6f 67 3f
       0.5234486 0.12927912 -0.068441465 0.9040527
000160 ab 28 d5 be 45 fc 16 3c 6d cd 8d be 41 a2 83 be
       -0.4163259 0.009215419 -0.2769579 -0.25709727
000170 29 9c 85 3e 4e 4c cf 3e 93 9c eb 3d d7 41 fb 3e
       0.26095703 0.40487903 0.115044735 0.4907367
000180 38 21 c9 3e d1 49 79 3d f1 84 04 3f 70 5c a3 ba
       0.39283156 0.060861412 0.5176535 -0.0012463462
000190 fe 16 be 3e 9e 18 60 be 0e 48 0d 3d 97 5e aa be
       0.37126917 -0.2188439 0.034492545 -0.3327529
0001a0 dc 62 b2 3e ab a9 e8 3e cc 07 f7 ba d1 69 64 3d
       0.3484105 0.45441946 -0.0018846928 0.055764977
0001b0 fb 14 41 3f 60 06 12 bf 38 15 05 3f 16 6a 60 3e
       0.7542264 -0.5704098 0.519855 0.21915469
0001c0 99 6e 50 3e 02 a3 71 bd 34 68 fc 3e a1 e9 5a 3d
       0.2035469 -0.058993347 0.4929825 0.053445462
0001d0 18 c1 43 3f 55 e7 36 3f f1 10 c8 be 2b dd 86 3e
       0.7646651 0.71446735 -0.39075425 0.26340613
0001e0 c2 b7 42 3f 2a 35 d7 bd 25 d3 51 3f df ce 58 3f
       0.7606164 -0.10508187 0.81962806 0.8469066
0001f0 4d 05 07 3f b9 d3 87 bd 76 fc 6f 3f dc 92 54 3f
       0.52742463 -0.0663218 0.937446 0.8303659

weight f4 [256, 128]
000000 0d a3 13 3d 8f 61 e6 bb cb 2a c9 bd c3 1b e7 bc
       0.03604417 -0.007030673 -0.09822615 -0.02821148
000010 2c 5c de bc dc e0 a7 bd a6 cb 8c 3d f7 e7 3b bd
       -0.02714356 -0.081971854 0.0687478 -0.045875516
000020 80 3a 71 3d 3e da 31 bb a2 5a 57 3c 8c 5c bb 3b
       0.05889368 -0.002713814 0.013144167 0.0057178196
000030 ec 5d 89 3d de 47 d4 bc 22 16 0f 3d 70 0e 23 3d
       0.06707367 -0.025913175 0.034933217 0.03980869
000040 5b 5c 8a 3d ea e2 9a bd b9 e3 5c 3c 40 e7 ff bc
       0.06755897 -0.07562812 0.013482028 -0.031238198
000050 f8 06 ad bd 80 f9 c3 bc 4c 2f ad bd b5 fc aa bd
       -0.08448595 -0.023922682 -0.08456287 -0.08348981
000060 01 6d b1 bd 1e ac 36 3d e5 08 17 bd 11 ea f8 3b
       -0.08663369 0.044597737 -0.036873717 0.0075962623
000070 04 96 a8 bc ac 3f 8d bd 2e cd 01 bd 05 8e 31 bb
       -0.020579346 -0.0689691 -0.031689815 -0.0027092707
000080 74 df 9a bd 06 97 4b 3c 1d 69 1e 3d cf 6d 33 3c
       -0.075621516 0.0124261435 0.038674463 0.010951473
000090 ea 87 8c 3c 00 dd 47 bc 7c ce b2 3c cd 5f 75 bd
       0.017154653 -0.012198687 0.021826975 -0.059905816
0000a0 86 0a 76 3d 5c 88 d6 3b 28 d9 89 3d 97 59 76 3c
       0.06006863 0.006547017 0.067308724 0.015036008
0000b0 0d fa 6e bd ea ec a4 bc f7 a3 a0 3c ef 44 69 bd
       -0.058343936 -0.0201325 0.019609435 -0.056950506
0000c0 67 c8 18 3d fc 4b b8 bd 21 c6 42 3c bd 70 90 3c
       0.037300494 -0.08998868 0.011888058 0.017631883
0000d0 54 e9 c3 bd 9f be 31 3c 49 48 34 bd ab 69 65 bd
       -0.09565988 0.01084867 -0.04401425 -0.056008976
0000e0 73 dc 32 3d b2 a1 17 3d 30 16 af bd b8 8c 8c bd
       0.043667268 0.03701944 -0.08549154 -0.068627775
0000f0 f3 2b 03 bd 8e a6 24 3c 5d c4 da bc 3e b9 65 bc
       -0.032024335 0.010049475 -0.026704961 -0.014021216
000100 f1 51 8e 3d 77 5c 63 bc 88 4a 85 3c 99 13 9c 3d
       0.06949223 -0.013877026 0.01627089 0.076209255
000110 90 09 7f bc 1e ad 82 bd 8e 10 47 3d 74 19 c8 bd
       -0.015566245 -0.06380676 0.048599772 -0.0977048
000120 44 31 1d 3d 6a 34 91 bd 1c c3 5c 3d df e7 6e bd
       0.03837706 -0.07090075 0.05389701 -0.0583266
000130 ea 7b 8f 3d 8b c1 f5 ba c8 fd 9a bd 47 f7 d5 b9
       0.070060566 -0.0018749697 -0.07567936 -0.00040810762
000140 64 80 be bd 78 33 53 bd d5 16 d8 3b 93 6b 4c bd
       -0.09301832 -0.051562756 0.0065945187 -0.04990728
000150 84 d5 59 3d 58 b8 24 3d 16 42 1f 3d 2d b0 96 bd
       0.05318214 0.040214866 0.038881384 -0.073578216
000160 77 10 e0 bc 3c 74 b9 bc a3 e6 44 bd f5 68 a4 bc
       -0.027351601 -0.022638433 -0.048071515 -0.020069579
000170 56 a2 10 3d da fa c0 3c 97 9e cf 3c 9e 5c a1 bd
       0.035311066 0.023557115 0.025344176 -0.078789935
000180 0d 39 e3 bb 1f 8a 05 3d 9c e1 d0 bc 88 a6 55 3d
       -0.006934291 0.032602426 -0.025498204 0.05216077
000190 ab ae a6 bd 59 47 60 3c e3 ee 0a bd 7b e4 80 3c
       -0.08138784 0.013688886 -0.033919226 0.015733948
0001a0 29 a0 99 bd 48 01 98 bd 0d eb 29 3c f3 90 12 bc
       -0.07501251 -0.074221194 0.010370982 -0.008945691
0001b0 8a 31 52 bd 20 6a 8b 3b b8 02 a0 3c 54 af c5 bd
       -0.051316775 0.0042545944 0.019532546 -0.09652582
0001c0 5c a4 87 bc 9d b0 94 3d a7 a6 4a bd e0 4c cf 3c
       -0.016557865 0.07260249 -0.04947534 0.025305212
0001d0 37 58 91 3d 59 9f 07 bc 90 8c 96 3a 92 96 a0 bd
       0.07096904 -0.008277738 0.0011485983 -0.07841219
0001e0 49 67 06 bd ba 54 f7 3c a8 72 99 bd 60 39 2d 3d
       -0.032813344 0.030191768 -0.07492572 0.042291045
0001f0 c2 ce 2e bd 92 73 a7 3c bf 78 c2 bd da 38 7d 3d
       -0.04267765 0.02044085 -0.09495687 0.061821796
000200 d8 35 43 bd bf ed b7 bc d7 c6 8a bc 9a 7c 0a 3c
       -0.04765877 -0.022452233 -0.016940517 0.008452559
000210 12 4a 28 bd f9 e0 50 3d e4 5e ba bc ab 63 b4 bd
       -0.041086264 0.0509958 -0.022750326 -0.08808073
000220 96 40 c7 bd f2 14 9b bd 80 b9 2e 3a 90 0e d5 bd
       -0.09729116 -0.075723544 0.0006665215 -0.10403168
000230 62 af 74 bd df d2 42 3c 07 8b 44 3d f3 1f 01 bb
       -0.05973757 0.011891096 0.04798415 -0.001970288
000240 6e 7c 82 bd 06 43 90 bd 18 60 05 bd 55 64 8f 3d
       -0.06371389 -0.07044034 -0.032562345 0.07001559
000250 5e d1 76 3d 25 7c c1 bd 7d 4a d7 3c fa d9 05 bd
       0.06025826 -0.09447507 0.026280636 -0.03267858
000260 14 c6 32 bc 7c d8 0c 3c 90 81 e7 3c 58 c1 91 3d
       -0.010911483 0.008596536 0.028260022 0.071169555
000270 0b ba 9c 3d 71 f3 5b bd 8b 53 1b bd fb ab 80 3d
       0.076526724 -0.05369896 -0.03792147 0.06282803
000280 c0 84 54 bd dc 03 32 bd 82 bc 67 3d 1e 89 89 bd
       -0.051884413 -0.04346071 0.05657626 -0.06715606
000290 ee 35 d9 bc 92 b3 e0 3c 4e e4 4e bd 6a 23 36 bd
       -0.026514973 0.027429376 -0.050510697 -0.044467367
0002a0 2e f6 19 bd 9e af 2f bb c1 c5 60 3b e3 b1 83 3d
       -0.03758829 -0.0026807557 0.0034297558 0.064304136
0002b0 b0 9c 21 bd d0 cb 80 bc de d5 a4 bd 66 ea 6c bd
       -0.03945607 -0.015722185 -0.080486044 -0.057840727
0002c0 d4 cd a6 3c af 9e 06 bd 01 01 92 3d 0e b4 ae bd
       0.020361818 -0.032866176 0.07129098 -0.085304365
0002d0 d1 65 2a bc 95 4b 00 bd 4a 8d c9 bb fc f4 c8 bc
       -0.0104002515 -0.03132208 -0.006150876 -0.02453088
0002e0 58 b8 b3 bd 0f 1d 9f bd cc 2f d6 3d 14 a0 9f 3c
       -0.08775395 -0.07769214 0.10458335 0.01948551
0002f0 6d 6d 3a bd 9b f6 27 3d 6f 20 ce bd d7 3d a4 bd
       -0.045514513 0.041006666 -0.1006478 -0.080196075
000300 52 a1 3e 3d 32 98 89 bc c3 cc bf bd 7d 1f 7f bd
       0.046540566 -0.016796205 -0.09365227 -0.06228589
000310 74 c7 d1 bc 7d b5 8a bd a7 b7 85 bd 5e 3d 41 bd
       -0.025607802 -0.067728974 -0.065291695 -0.047177665
000320 28 c2 bf bc df 60 94 bd 71 3a f2 bb bd be 89 bd
       -0.02340801 -0.07245039 -0.0073922207 -0.067258336
000330 82 9c be bc 9a 4a 84 3d 58 d3 71 bd 28 43 07 3d
       -0.023267988 0.064595416 -0.059039444 0.03302303
000340 7f 2c 8e 3d 0e 89 ba 3c 80 35 98 bd ea b2 c6 bd
       0.06942081 0.02277043 -0.07432079 -0.09702094
000350 7d cb b3 3d a4 2d 8c bc 78 6d 4f bc 53 e6 dd bc
       0.08779047 -0.017111607 -0.012660377 -0.027087366
000360 f0 bc 47 3c 96 73 7c 3d af 3c 04 3d 7c 0b f1 3c
       0.012191042 0.06163367 0.032284435 0.029424421
000370 90 b0 6c 3c 68 8a 2b bc 40 08 0a bd ab 23 09 bd
       0.014446393 -0.01047001 -0.033699274 -0.03348128
000380 7f 13 39 3d a5 98 e5 3c d9 2f 9f 3d ea 1c 8a bd
       0.04518461 0.028026888 0.07772798 -0.06743796
000390 fb 0c 0a bc fb 42 45 3c e6 71 c3 bd 2e 60 1d bd
       -0.008425946 0.012039895 -0.09543209 -0.038421802
0003a0 fc 7d 88 3d 0c 93 97 3d 55 bf 69 bd c8 62 b8 3c
       0.066646546 0.07401094 -0.057067234 0.02250804
0003b0 a9 63 6d bd 90 f4 f9 3b 14 67 90 bd 25 7d 8a bc
       -0.05795637 0.007628031 -0.070509106 -0.016905377
0003c0 f0 2d 22 bd 03 47 46 bc 51 81 a8 3b ee c6 63 3d
       -0.03959459 -0.012101891 0.005142369 0.055609636
0003d0 d6 23 2c 3d a2 a0 cb 3d a0 e7 4b bc 5c 92 59 3d
       0.042026363 0.09942748 -0.01244536 0.053118095
0003e0 4e e7 2a 3d 06 55 51 3d f0 9a 92 3d 36 81 51 3c
       0.041724496 0.051106475 0.07158458 0.012787154
0003f0 0e 93 23 3d ec d7 9f 3c 35 f0 73 3d ce 02 b1 3b
       0.039935164 0.01951214 0.05955525 0.0054019457

bias f4 [256]
000000 89 1e b5 3c cb f8 af bd 2d 0f be bd 8b c4 9c bd
       0.022109287 -0.08592375 -0.09280238 -0.07654675
000010 8a 23 7d 3d d1 a4 90 3d 77 95 67 3d d7 31 9c 3e
       0.06180147 0.07062686 0.056539025 0.30506775
000020 66 17 86 bd 0b e2 23 bd e2 43 9a 3e 6d 8c c6 3e
       -0.06547432 -0.040010493 0.30129915 0.3877901
000030 e5 b6 9f 3e 39 61 71 3d 55 19 95 3e 4c 92 98 bb
       0.31194225 0.05893061 0.2912089 -0.004656112
000040 40 6b ed bc c2 00 74 3e 02 ea c4 3e 8b 46 a6 3e
       -0.028981805 0.23828414 0.38459784 0.32475695
000050 7f 56 c6 bd ef 19 7f 3e 6f 83 c5 bd a1 cd 24 3c
       -0.096844666 0.24912237 -0.096442096 0.010058791
000060 af af 9c 3e f3 91 65 bd cf bd d2 3e a6 2b 68 bd
       0.30602786 -0.05604739 0.41160437 -0.05668225
000070 5e 28 8d 3d a8 f5 a5 3e ae 9d a7 3e bc 90 3a bd
       0.06892465 0.32413983 0.32737488 -0.045548186
000080 56 6f a5 bd 4b 0d c2 3e 45 cb 9b 3e 44 84 b4 3e
       -0.08077876 0.37900767 0.3042852 0.3525716
000090 85 05 98 3c 91 b3 47 3b b9 9b 8f bd eb 11 7b 3e
       0.01855732 0.003047202 -0.070121236 0.24518554
0000a0 45 cb 6b 3e 10 b3 85 3e ea f2 b7 3e f5 b4 bc 3e
       0.2302676 0.26113176 0.35927516 0.3685681
0000b0 8c ee 7a 3e 7d 5e 74 3d a1 cf 9f 3e ab ec b7 3e
       0.24505061 0.059660424 0.31213096 0.3592275
0000c0 0e 12 c2 3e 34 84 c6 3e af 84 d0 bd ef 95 9b 3e
       0.379044 0.38772738 -0.101815574 0.30387828
0000d0 d0 59 56 3d 7e 10 a3 bd 0c 1b a8 bd 31 2a c6 bc
       0.052331746 -0.0796213 -0.08208284 -0.02419004
0000e0 b7 43 23 3d aa 49 cc 3e 01 5e b5 3e 87 28 83 3d
       0.0398595 0.3989995 0.35423282 0.06404214
0000f0 42 46 af 3e 02 72 83 3e 60 04 9e bd f7 3e ba 3e
       0.3423329 0.2567292 -0.07715678 0.36376163
000100 a4 a3 a4 3e 9b c0 bf 3c db 66 b0 3e b6 5e b5 3e
       0.32156098 0.023407271 0.34453472 0.3542382
000110 67 51 81 3e 7d e6 13 3d 1c 05 8f 3e 49 03 be 3e
       0.25257418 0.036108483 0.27933586 0.3711188
000120 a6 56 ad 3e e2 11 89 3e 12 4f a1 3c db b5 91 3e
       0.3385517 0.26771456 0.019691024 0.28459057
000130 e6 aa 89 3e 61 6d 90 3e fa 46 c1 3e b6 8f b1 3e
       0.26888198 0.2820845 0.37749463 0.34679955
000140 93 1e 85 3c 75 61 85 bd 71 67 34 3d 65 73 55 bc
       0.01624993 -0.06512729 0.044043962 -0.0130280005
000150 11 aa 9c bd ab 6f 81 3e cb b2 9a bd 60 b8 af 3e
       -0.07649625 0.25280508 -0.07553633 0.34320354
000160 4d 83 68 3d 84 54 c3 3c f2 cb c0 3e a7 16 83 3e
       0.056765843 0.023844011 0.37655598 0.2560322
000170 2f 35 ba 3e 45 36 84 3e c2 c5 9d 3d b0 25 59 bd
       0.363687 0.25822654 0.07703735 -0.053014457
000180 38 fc bf 3e 08 59 74 3d 8c 1d d6 bd 31 f4 a6 bd
       0.37497115 0.05965522 -0.10454854 -0.081520446
000190 69 3f 0e bd 73 b0 ba 3e e2 6b b4 3e 5c e8 88 3e
       -0.03472844 0.36462745 0.35238558 0.26739776
0001a0 5f 8c 08 bd f7 6b f8 3b 21 0a 68 3e b6 92 97 3e
       -0.033336993 0.00758123 0.22660114 0.2960412
0001b0 16 5e 9d 3e e0 e5 9a 3e 50 95 ab 3e 95 4a 93 3c
       0.30735844 0.30253506 0.33512354 0.0179799
0001c0 03 b8 b0 3e 3b 77 65 bc d6 b4 cb 3e 5c 20 bd 3e
       0.3451539 -0.014005478 0.39786404 0.3693875
0001d0 19 5a 89 3d 57 51 9a 3e fe e1 1d 3c 52 7b 4d 3d
       0.06706638 0.30140182 0.0096364 0.050166436
0001e0 d6 8a a3 3e 5f 56 7e 3e b3 dd 80 3e b9 21 a9 bd
       0.3194186 0.24837635 0.25169143 -0.08258385
0001f0 63 a7 84 bd 8e c9 82 bd 6c 42 a1 3e 6c e4 a5 3e
       -0.06477239 -0.063861 0.31495988 0.32400835
000200 1f 78 a2 3e 59 cf ea bc e3 76 b3 3e 4b f9 ae 3e
       0.3173227 -0.028663324 0.3505164 0.3417457
000210 97 bf 87 3d fa de 5c 3e 36 9a a8 3e e8 b7 7a 3e
       0.0662834 0.21569434 0.32930154 0.24484217
000220 66 03 6a bd 9b 0c ad 3e 1b 27 92 3e bc 03 a5 3e
       -0.057132147 0.3379868 0.2854546 0.32229412
000230 ea f1 2c 3d 0c 69 82 3e a9 fe 8a 3d d5 db 5e 3e
       0.042222895 0.2547077 0.06786854 0.21763547
000240 d0 ee 75 3e 71 15 8d 3e 6e b6 aa 3e 25 eb 6e bd
       0.24016881 0.2755542 0.33342308 -0.05832972
000250 20 78 4f 3e ba d3 80 3e 6e f9 8b bd 67 6b be 3e
       0.20260668 0.25161535 -0.06834684 0.37191316
000260 83 96 68 3e 8a 2d 8e 3e 13 94 c3 3e 78 a9 5d bc
       0.22713666 0.2776912 0.3819891 -0.013529174
000270 a0 0d c7 bc f6 e3 a9 3e 0e 53 3b 3d 77 06 bf bd
       -0.02429849 0.33181733 0.045733504 -0.09327405
000280 0b 7e c1 bd 64 d7 70 3e 1b 9d fe bc 5e fd 10 bb
       -0.09447869 0.23519665 -0.031080773 -0.0022123675
000290 ad d1 9d 3e b3 cb cb 3c 2c 4e c0 3e 2b 79 a2 3e
       0.30824032 0.024877405 0.3755964 0.3173307
0002a0 ad ef 77 3e b1 13 84 3e d4 80 9e bd 15 b7 8c 3e
       0.24212523 0.25796273 -0.07739416 0.2748343
0002b0 a9 c1 8e 3d 91 1b 94 3e 2c 72 b8 3e cb 64 46 3d
       0.069705315 0.28927281 0.36024606 0.048435967
0002c0 7a c8 6b 3d 27 fb a8 3e c1 34 7d bc 08 9c 08 bd
       0.057564236 0.33004114 -0.015454472 -0.033351928
0002d0 da 54 c6 3e f3 60 c1 3e 8e 85 6b 3e 67 c4 b6 3e
       0.38736612 0.3776928 0.23000166 0.35696718
0002e0 0e 7e c3 3e 18 1e 8b 3e 46 6f 93 3e 16 af 06 3d
       0.3818211 0.27171397 0.28795832 0.03288182
0002f0 56 a5 2b 3d f6 f6 b5 3e 46 4d c6 bc 07 40 9f 3e
       0.041905724 0.3553998 -0.024206769 0.31103536
000300 3b cc d0 3e 48 e3 04 bc de 0e a6 3e 0b d6 6d bc
       0.40780815 -0.008110829 0.32433218 -0.014516364
000310 cd b3 8b 3e 91 e2 2c bc 10 8e 98 bd df 99 94 3e
       0.27285615 -0.0105520645 -0.07448971 0.29023644
000320 2b ff c7 3e ed ba cd 3e b2 6a 87 bc 21 ef ba 3e
       0.39061865 0.40181676 -0.016530368 0.36510566
000330 b6 78 a6 3e 6f 19 80 3d ec 5a a4 bc c8 0f ac bd
       0.3251397 0.06254851 -0.020062886 -0.084014475
000340 b5 3f 5a 3d 7b a2 85 3e 64 ee 9b 3e 25 a8 dd bb
       0.053283412 0.26100525 0.30455315 -0.006764429
000350 bd 06 a2 3e e7 32 aa 3e e4 98 8e 3e 06 c2 99 3e
       0.31645766 0.3324196 0.2785102 0.3003084
000360 33 18 93 bd 6a cc 8f bd 36 29 62 3d 9a 28 c8 3e
       -0.0718235 -0.07021411 0.055215083 0.39093477
000370 8d 10 ba 3e 4b 18 c5 3e 72 c8 ac bd 22 db b6 3e
       0.36340752 0.38495097 -0.084366694 0.3571406
000380 90 20 5a bc ef e4 37 bd 76 eb c4 3e fb cb a0 3e
       -0.013313428 -0.044896062 0.38460892 0.31405625
000390 0c 92 bd bd 88 ee c3 3e d7 0e 5b 3e 44 e7 89 3e
       -0.09256372 0.38267922 0.2139238 0.26934254
0003a0 f3 cb a5 3e 5d 36 72 bd 01 1b 8b 3e 94 18 84 3e
       0.32382163 -0.059133876 0.2716904 0.25800002
0003b0 0a 91 bd 3e 85 0c 90 3e 6c ca 8b 3e 48 70 60 3e
       0.3702472 0.28134552 0.27302873 0.21917832
0003c0 34 18 4a bc cc ee a3 3e 46 b0 bb 3e f7 e0 ad bd
       -0.012334872 0.32018125 0.36657923 -0.08490174
0003d0 90 6a b0 bd 54 b3 48 3e 65 38 b0 3e 84 b7 ae 3e
       -0.08614075 0.19599658 0.34418026 0.34124386
0003e0 f0 b4 64 bc c5 5c 37 bd 78 c2 39 bd b9 c8 c3 3e
       -0.0139591545 -0.044766206 -0.045351475 0.38239077
0003f0 4d 9f 95 bd 4e a1 a9 bd c6 da a7 3e cd b9 a8 3e
       -0.07305775 -0.082827196 0.32784098 0.32954255

weight f4 [1, 256]
000000 c7 05 22 3d cb dd 3e bd c5 fe 1d 3c 15 37 e6 3a
       0.03955629 -0.046598237 0.009643261 0.0017564023
000010 37 8e 6c 3a 5d 73 7a 3c 61 cd cf 3c f6 9c 70 be
       0.0009023877 0.015286294 0.025366487 -0.23497376
000020 4f 4e ff 3c 4e 31 9a bb 6a b2 7e be 0a 11 62 be
       0.03116527 -0.0047055846 -0.24872747 -0.22076812
000030 b6 53 64 be d0 30 04 3d 82 93 59 be 15 cb 0a 3d
       -0.22297558 0.032273114 -0.21247676 0.03388508
000040 e2 b2 d1 3c 63 09 87 be 91 de 61 be b3 06 84 be
       0.025597993 -0.2637435 -0.22057559 -0.2578636
000050 be aa e5 3c e6 68 6f be 5d a9 4b 3b 37 c7 37 3d
       0.028035518 -0.2337986 0.003107629 0.04486772
000060 e8 c5 81 be 47 4e 71 3b 2d 79 67 be 56 c5 24 3d
       -0.25346303 0.0036820339 -0.22604819 0.040227257
000070 9f 4d cf 3c a2 0d 56 be 92 78 81 be 87 c5 a8 3c
       0.025305567 -0.20903638 -0.252873 0.020602
000080 3d c7 c7 3c d2 af 5c be bf 9f 90 be 90 32 87 be
       0.024386996 -0.21551445 -0.28246877 -0.26405764
000090 27 19 8e 3c a2 05 86 3c 29 d5 ea 3c 7c 19 61 be
       0.017345978 0.016360108 0.028666096 -0.21982378
0000a0 6f a5 79 be bb a1 8a be de 71 60 be b8 04 6e be
       -0.24379514 -0.27076516 -0.21918437 -0.23243988
0000b0 0c cb 87 be 5f 6f d3 3c 42 ea 82 be 86 03 7e be
       -0.265221 0.025809942 -0.2556935 -0.24806032
0000c0 b4 57 4d be f4 0e 60 be 0c 1f 87 3b 56 4a 64 be
       -0.20052987 -0.21880704 0.004123574 -0.22293982
0000d0 7f eb 30 3d 86 a8 3b 3c 5d 66 36 3d 89 b2 e0 bb
       0.043193337 0.011453753 0.044531215 -0.0068572205
0000e0 c8 cf 90 3c 0e b9 5c be f6 bb 85 be ef f4 48 3c
       0.017677203 -0.21554968 -0.26119965 0.012265428
0000f0 6b 3c 5d be c3 60 90 be f0 17 13 bd 74 0d 66 be
       -0.21605079 -0.28198823 -0.0359115 -0.2246607
000100 b4 49 8a be 4c f7 69 3c 30 b3 81 be 65 30 78 be
       -0.27009356 0.014280152 -0.25332022 -0.24237211
000110 ba d9 77 be d2 27 12 3d 1a 0a 6a be 69 4b 67 be
       -0.2420415 0.035682507 -0.22855416 -0.2258736
000120 1f 28 5a be b9 45 80 be 02 6b 17 3d c5 4f 67 be
       -0.21304367 -0.25053194 0.036967285 -0.22589023
000130 8c e1 75 be 62 60 64 be e9 54 85 be 5b f3 81 be
       -0.2401182 -0.22302392 -0.26041344 -0.25380978
000140 63 2a bb bb f3 1b 1d 3d 19 4a 4f 3c fa ff 42 3c
       -0.00571184 0.038356733 0.012651944 0.01190185
000150 82 64 b7 3b 11 9a 82 be 86 c2 7e bb 1b 56 66 be
       0.0055966983 -0.25508168 -0.003887327 -0.22493784
000160 b6 bb bb 3c 38 e8 18 3c ae e8 91 be e3 e3 65 be
       0.022916656 0.009332709 -0.28497833 -0.22450213
000170 dc 9e 70 be b2 27 4f be 7e 98 a6 3c e0 1c 5d 3b
       -0.234981 -0.20229986 0.020336386 0.0033739135
000180 e4 43 6f be 5b c1 9d 3c c2 b0 1a 3d 7a 10 02 ba
       -0.23365742 0.019257238 0.037766226 -0.00049615616
000190 f6 a8 2f bb 87 a1 60 be a4 5e 6a be cd 3e 76 be
       -0.002680359 -0.21936618 -0.22887665 -0.24047394
0001a0 0b 70 51 3c 58 13 e7 3c bc 9a 64 be b8 9d 82 be
       0.012783061 0.028207466 -0.22324651 -0.25510955
0001b0 6e 23 8f be 45 f7 82 be 84 ff 69 be f5 f0 14 3d
       -0.27956718 -0.25579277 -0.22851378 0.036362607
0001c0 1e b0 5e be 62 66 45 3c 3b 5a 56 be b2 57 7e be
       -0.21746871 0.012048336 -0.20932858 -0.2483814
0001d0 6e a7 77 bb 80 61 87 be 68 39 33 bb 4f 5d 3b 3d
       -0.0037789005 -0.26441574 -0.002734745 0.045743283
0001e0 2d e6 7f be 77 5a 7f be e8 bb 69 be 12 59 28 3d
       -0.24990149 -0.24936853 -0.22825587 0.04110057
0001f0 a3 09 45 3d d5 ec 35 3d d9 ef 6c be f3 ff 74 be
       0.048104893 0.044415314 -0.2313837 -0.23925762
000200 53 a5 78 be ba 8d 10 3c d3 9e 7e be 8f 17 73 be
       -0.24281816 0.008822853 -0.24865274 -0.23739456
000210 55 33 96 3c 5c ed 7d be 80 b6 89 be 24 6b 86 be
       0.018335024 -0.24797577 -0.2689705 -0.26253617
000220 56 63 f2 3c cf ec 5d be 43 f0 80 be b8 ad 8c be
       0.029588383 -0.21672367 -0.25183305 -0.27476287
000230 e0 59 1d 3b 85 b0 59 be 91 7b 06 3c e6 0e 93 be
       0.0024009869 -0.21258743 0.008208171 -0.28722304
000240 45 16 79 be 8c 89 92 be a9 13 68 be 26 92 0e 3d
       -0.24324901 -0.28620565 -0.2266375 0.034807347
000250 7e 05 8a be 98 33 69 be 9a 5b 40 3d 92 2f 63 be
       -0.26957315 -0.22773588 0.046962358 -0.22186115
000260 09 c0 8c be 30 be 8b be 93 c6 67 be 57 ee 31 3d
       -0.2749026 -0.2729354 -0.22634344 0.04344019
000270 92 72 24 3d 36 8d 80 be ce 2d b0 3c d2 74 2b 3d
       0.040148325 -0.25107735 0.021506216 0.041859455
000280 7f 1f a6 b8 a6 9a 7a be ad 1d 3f 3b 2b d2 f4 3b
       -7.9213634e-05 -0.24473056 0.0029161975 0.007471343
000290 cf 81 80 be ea cb 14 3d eb 7c 57 be 77 45 7a be
       -0.25099036 0.03632728 -0.21043746 -0.24440561
0002a0 6d 41 8d be a1 32 83 be 40 cc 30 bd 55 25 6a be
       -0.27588978 -0.25624564 -0.043163538 -0.22865804
0002b0 e5 49 a7 3c 44 6d 6f be a0 04 8e be 8d 5c 5e 3c
       0.020420978 -0.23381525 -0.27737904 0.0135718705
0002c0 a5 38 1e 3d a9 b3 67 be 31 b4 0d 3d 7a c8 66 3d
       0.03862824 -0.22627129 0.034595672 0.056343533
0002d0 e2 90 65 be 4d d4 5d be e2 17 8a be 8f b9 74 be
       -0.2241855 -0.21663018 -0.26971346 -0.2389891
0002e0 2f d0 52 be ee a3 8a be ff 49 59 be 64 62 87 3c
       -0.20587228 -0.27078193 -0.21219634 0.016526408
0002f0 84 af a2 3c a1 77 81 be d0 af 45 3c 3d 23 76 be
       0.019859083 -0.25286582 0.012065843 -0.2403688
000300 c8 30 7d be 9c d2 ee 3c fc 9f 92 be 0c 1c 87 3c
       -0.2472564 0.02915316 -0.28637683 0.016492866
000310 12 93 82 be 89 cf cf bb 00 f5 15 3d 0e 71 77 be
       -0.2550283 -0.006341879 0.036610603 -0.2416422
000320 6b 6f 6c be 82 3c 69 be 27 65 95 b9 ab 90 7c be
       -0.23089378 -0.22776988 -0.0002849486 -0.24664561
000330 28 e1 8b be c6 25 08 3d fa 1d 3e 3d c8 23 f1 3c
       -0.27320218 0.03323915 0.046415307 0.029436007
000340 f2 41 53 3c 90 0f 6a be 85 c4 83 be da ae 25 3d
       0.012894141 -0.22857499 -0.2573587 0.040449955
000350 a2 11 1d bf ce ba 6c be 21 6e 82 be ec 47 87 be
       -0.6135503 -0.23118135 -0.25474647 -0.2642206
000360 c1 ea 49 3d 9f b5 03 3d bc fe 6a bd e9 bf 75 be
       0.049296144 0.03215563 -0.05737184 -0.23998989
000370 33 cf 83 be 35 6e 5b be 10 36 69 bc 52 e1 8a be
       -0.25744018 -0.2142876 -0.014234081 -0.2712503
000380 20 07 8d bc cc fb f3 3b ab 32 69 be 58 c0 73 be
       -0.017215312 0.007445788 -0.22773235 -0.23803842
000390 cc 3a 41 3d ff de 76 be 6d 4e 72 be 9e 3b 67 be
       0.047175214 -0.24108504 -0.2366273 -0.22581336
0003a0 69 43 72 be 60 cc 0e bb f5 78 4a be 44 89 61 be
       -0.23658527 -0.0021789297 -0.19772704 -0.22025019
0003b0 f4 de 87 be 2d af 62 be e5 ad 69 be 26 9d 85 be
       -0.26537287 -0.22137137 -0.22820242 -0.26096457
0003c0 96 75 de ba 81 75 63 be 5c 57 7e be c3 31 ab 3b
       -0.0016972299 -0.22212793 -0.24838012 0.005224438
0003d0 93 c2 2e 3d 79 15 80 be 78 fd 83 be 4a a4 5f be
       0.04266603 -0.25016382 -0.2577932 -0.21840015
0003e0 e4 6f 75 bd 9f 4a 48 3d 94 be ff 3c 57 2a 8b be
       -0.05992116 0.04889929 0.031218804 -0.2718074
0003f0 4a 71 55 bb 20 3d 02 3d a5 8e 83 be bc ec 66 be
       -0.0032568746 0.031796575 -0.25694767 -0.22551244
