critic.pkl (torch, 138263 bytes, 5 tensors)

weight f4 [128, 4]
1.4985518 1.7790762 -1.3137215 -1.7252507 0.6817592 -0.32841983 -0.6523499 -0.16508977
1.3137567 0.9711754 -2.0512822 -2.049523 0.8496966 1.5574936 -1.9436151 -2.002883
-0.08688148 0.017129533 0.100979924 0.0019386485 1.5348535 1.9620154 -1.4202602 -1.5245211
1.7407889 1.7257657 -1.579169 -1.3514011 1.5265352 0.81020164 -1.8910755 -1.9360623
1.8186467 2.0513778 -1.3509961 -1.5107255 1.4548779 1.2251737 -2.2705915 -1.9244121
1.3509928 1.7699883 -0.40175268 -1.5189515 -0.61548793 0.27963898 1.2300615 0.42096564
1.075252 1.7461833 -1.3344033 -1.7927729 -0.12224198 1.1663444 0.15692702 -0.13096978
0.33757555 -0.09219119 -0.6769898 -0.8819961 0.6513666 1.0011245 0.8511944 -0.17358388
1.4691375 1.5573838 -1.9451478 -1.8635631 1.3321648 0.92034894 -2.198041 -2.2043662
1.5959746 1.2578151 -1.9696466 -1.7997016 1.0485365 0.8916268 -1.813239 -1.8997898
1.1428357 1.7392342 -1.6961194 -2.161043 1.2272435 0.98887336 -1.9152038 -1.7996827
-0.34548128 -0.4880552 0.048361536 0.3143756 -1.0307934 0.3123381 1.8114923 1.103659
0.10420062 -0.38018936 -0.3292496 -0.18147556 -0.26129806 -0.47529772 -0.2375703 -0.2048788
0.24508785 -0.37520203 -0.4527826 -0.104768105 0.4415035 -0.09214082 -0.6913353 -0.026657794
0.58875054 0.9446508 0.2226406 -0.26383355 1.3466711 1.0963997 -2.3740308 -2.0266812
1.3971775 1.4809041 -2.440465 -1.5887234 0.94550747 1.3940212 -1.8287983 -1.6949713
-0.5300425 0.2928286 -0.105448656 0.15466966 1.7361383 1.898799 -1.519372 -1.7372648
0.5764767 0.62551284 0.43926308 0.41144508 1.6375325 1.3081651 -1.686845 -1.8411982
1.8272867 0.92163205 -1.672288 -1.5685713 2.0125647 1.8640101 -1.2825463 -1.7029297
1.560399 1.7316002 -2.1633248 -2.138342 1.712355 1.7313305 -1.6305547 -2.0108576
1.072901 1.4526862 -2.0406327 -1.7890528 0.8850227 1.1969187 -1.5701543 -2.1798532
1.6871986 0.8083493 -1.7209779 -2.1156416 1.6472577 0.96991706 -1.7528976 -2.042494
-0.10270176 -0.26421195 0.25467518 0.37726676 0.37005597 -0.188887 0.6300651 0.15922876
-0.31971142 -0.07760249 1.1802787 0.9406134 0.10160968 0.18763398 0.5646178 -0.027288806
1.4038589 1.0517273 -2.2706783 -2.1314578 1.1564156 1.0603858 -1.7609196 -2.1436908
-0.4187595 0.46376202 0.0156240305 0.19021784 0.8982526 1.7161458 -1.3887665 -1.6707628
-0.3340254 -0.4022131 0.1521146 0.15471445 1.3847728 1.3075192 -1.6131209 -1.6679393
1.6834505 1.2357424 -2.346078 -1.6288747 1.7572974 1.0296885 -1.9634498 -1.7264701
1.7835554 1.1382607 -2.159832 -2.3311074 1.6561011 0.9110475 -1.528512 -2.0520325
-0.0045004105 1.185903 0.2540194 -0.055443153 1.3146987 0.9824466 -1.5703932 -2.1656294
1.1287237 1.617169 -2.1411855 -2.2758975 0.6141231 -0.018073162 -0.5725769 -0.818756
0.36101687 -0.3507946 0.31689042 0.30915695 1.195983 1.4537932 -1.702873 -2.008077
00000000: 8cd0 bf3f c5b8 e33f 0728 a8bf 04d5 dcbf
00000010: c587 2e3f a526 a8be 6700 27bf 4b0d 29be
00000020: 2e29 a83f f39e 783f 3548 03c0 632b 03c0
00000030: b785 593f f35b c73f 61c8 f8bf 3c2f 00c0
00000040: ebee b1bd 3c53 8c3c 90ce ce3d 401a fe3a
00000050: 1476 c43f 5223 fb3f 16cb b5bf 8223 c3bf
00000060: 2cd2 de3f e4e5 dc3f 3622 cabf b6fa acbf
00000070: 8165 c33f 6069 4f3f c30e f2bf e4d0 f7bf
00000080: 6ac9 e83f c649 0340 71ed acbf 745f c1bf
00000090: 7039 ba3f 7ed2 9c3f 5f51 11c0 2353 f6bf
000000a0: 55ed ac3f fa8e e23f 87b2 cdbe 016d c2bf
000000b0: 9e90 1dbf d72c 8f3e a872 9d3f cf88 d73e
000000c0: dca1 893f ef82 df3f bacd aabf 9579 e5bf
000000d0: 015a fabd c64a 953f 7ab1 203e f11c 06be
000000e0: b4d6 ac3e bcce bcbd 344f 2dbf 7fca 61bf
000000f0: f6bf 263f d924 803f e0e7 593f f9bf 31be
00000100: b30c bc3f 5a58 c73f 9afa f8bf 3c89 eebf
00000110: 6084 aa3f fd9b 6b3f b4ac 0cc0 5614 0dc0
00000120: e548 cc3f 1600 a13f 611d fcbf 9f5c e6bf
00000130: 7236 863f a741 643f 3718 e8bf 502c f3bf
00000140: 7148 923f 3a9f de3f 711a d9bf 874e 0ac0
00000150: 5116 9d3f ce26 7d3f 6625 f5bf 015c e6bf
00000160: ece2 b0be 5fe2 f9be bf16 463d d7f5 a03e
00000170: 0af1 83bf c8ea 9f3e fbde e73f b344 8d3f
00000180: 2267 d53d 2ea8 c2be 6793 a8be bbd4 39be
00000190: dcc8 85be 395a f3be a145 73be c0cb 51be
000001a0: 4ff8 7a3e 7b1a c0be 1fd3 e7be a990 d6bd
000001b0: bf0c e23e 54b4 bcbd 5afb 30bf 7261 dabc
000001c0: 5bb8 163f a3d4 713f e6fb 633e 3115 87be
000001d0: b85f ac3f d356 8c3f 1ff0 17c0 25b5 01c0
000001e0: b6d6 b23f 448e bd3f 9430 1cc0 4a5b cbbf
000001f0: c70c 723f 496f b23f 1016 eabf d2f4 d8bf
00000200: deb0 07bf a1ed 953e 77f5 d7bd b961 1e3e
00000210: c839 de3f d80b f33f c87a c2bf b15e debf
00000220: fa93 133f 9c21 203f 17e7 e03e eea8 d23e
00000230: aa9a d13f f471 a73f 89ea d7bf 62ac ebbf
00000240: 88e4 e93f 14f0 6b3f 880d d6bf f2c6 c8bf
00000250: dccd 0040 e297 ee3f 7a2a a4bf 9af9 d9bf
00000260: 28bb c73f 13a5 dd3f ea73 0ac0 98da 08c0
00000270: 732e db3f 3d9c dd3f 04b6 d0bf e4b1 00c0
00000280: d254 893f 9ff1 b93f ba99 02c0 afff e4bf
00000290: d990 623f a234 993f d1fa c8bf b782 0bc0
000002a0: 20f6 d73f fbef 4e3f 0149 dcbf ac66 07c0
000002b0: 57d9 d23f 7c4c 783f f35e e0bf 39b8 02c0
000002c0: 4d55 d2bd ca46 87be c964 823e 1c29 c13e
000002d0: fa77 bd3e 986b 41be f24b 213f dd0c 233e
000002e0: 37b1 a3be 0eee 9ebd 5f13 973f 0acc 703f
000002f0: bc18 d03d 1f23 403e cb8a 103f c68c dfbc
00000300: a6b1 b33f 009f 863f cb52 11c0 ce69 08c0
00000310: 6d05 943f b9ba 873f d065 e1bf 3b32 09c0
00000320: a567 d6be 3772 ed3e effb 7f3c 77c8 423e
00000330: e2f3 653f aaaa db3f 1ac3 b1bf 8edb d5bf
00000340: 6105 abbe e0ee cdbe eec3 1b3e 776d 1e3e
00000350: 3c40 b13f ca5c a73f bf7a cebf 097f d5bf
00000360: 4e7b d73f cf2c 9e3f 2426 16c0 f77e d0bf
00000370: 1fef e03f d5cc 833f 5352 fbbf f9fc dcbf
00000380: 8b4b e43f 87b2 913f b03a 0ac0 dd30 15c0
00000390: 1ffb d33f 693a 693f 48a6 c3bf 8054 03c0
000003a0: 2e78 93bb abcb 973f d50e 823e 5c18 63bd
000003b0: 0c48 a83f 9f81 7b3f a502 c9bf ac99 0ac0
000003c0: 057a 903f 65ff ce3f 2f09 09c0 4ea8 11c0
000003d0: 2c37 1d3f 2b0e 94bc 6694 12bf fe99 51bf
000003e0: 34d7 b83e 5a9b b3be 763f a23e d249 9e3e
000003f0: f915 993f e515 ba3f bef7 d9bf 5584 00c0

bias f4 [128]
0.9879629 -0.36484966 2.4408908 2.2643666 -0.2403583 1.0736809 0.81568986 2.5131598
1.083436 2.2673755 1.1726654 0.0104931835 0.9703481 2.010994 2.2386374 1.8767732
2.4128065 2.5051956 2.081359 2.5373774 2.1006172 2.4502149 -0.3496648 0.8096928
-0.35933244 -0.36584535 -0.33628196 -0.25046298 1.8507916 2.5546453 2.1924253 2.520368
-0.13080846 1.0735718 -0.11509452 1.211724 2.4079833 0.83352214 2.1850934 2.125952
2.2589989 1.7314427 2.3737779 2.3536906 -0.32177395 -0.15687342 0.96718323 -0.40460408
1.7648895 2.2950003 -0.32693958 1.0290204 -0.2991439 2.2259998 2.4289567 2.4005451
2.1018052 2.229464 1.9610656 2.3895051 2.5254676 2.2725415 -0.33029193 2.4595037
2.403301 2.5083635 0.5660689 -0.21696232 -0.1930446 0.4057703 2.2462416 1.0709356
2.3512201 -0.18426466 2.0083525 -0.23241298 -0.21865469 2.472124 1.0753503 -0.35646343
2.3954673 2.1088915 2.5532641 -0.30023527 2.3206222 2.1233962 -0.31916156 -0.15051903
2.2963738 -0.30248407 1.0466369 2.2472806 2.1600025 2.2999809 2.3139307 -0.1512255
2.3350039 -0.40382606 2.1681352 2.2884595 1.0361032 2.551162 1.294337 2.2024899
1.8978428 2.2723372 2.2606833 -0.4313007 2.2284198 0.9486793 -0.08819516 1.1504076
2.5363455 2.2661505 2.4275901 2.1079812 2.4026883 2.4646773 -0.36233115 0.8727385
1.8685343 2.5451634 2.428902 -0.2017681 -0.29988405 2.4939895 0.105198696 1.9479455
00000000: 23eb 7c3f 93cd babe 8e37 1c40 62eb 1040
00000010: 7c20 76be 606e 893f 0dd1 503f 9cd7 2040
00000020: 08ae 8a3f ae1c 1140 e619 963f 9aeb 2b3c
00000030: bc68 783f 20b4 0040 d645 0f40 1b3a f03f
00000040: 6c6b 1a40 2055 2040 fc34 0540 6464 2240
00000050: 8370 0640 52d0 1c40 4407 b3be 0748 4f3f
00000060: 6cfa b7be 1550 bbbe 262d acbe af3c 80be
00000070: bde6 ec3f 4f7f 2340 b250 0c40 b64d 2140
00000080: a7f2 05be cd6a 893f adb6 ebbd c619 9b3f
00000090: 661c 1a40 b561 553f 92d8 0b40 990f 0840
000000a0: 7093 1040 ea9f dd3f faeb 1740 dea2 1640
000000b0: 8ebf a4be 6da3 20be 5299 773f 4428 cfbe
000000c0: e6e7 e13f 49e1 1240 a064 a7be f1b6 833f
000000d0: 6429 99be c876 0e40 0774 1b40 88a2 1940
000000e0: fa83 0640 8aaf 0e40 3304 fb3f a7ed 1840
000000f0: 43a1 2140 5271 1140 061c a9be 8268 1d40
00000100: afcf 1940 0789 2040 e4e9 103f 5f2b 5ebe
00000110: 7cad 45be 20c1 cf3e 6cc2 0f40 6b14 893f
00000120: 647a 1640 e0af 3cbe d988 0040 abfd 6dbe
00000130: 04e7 5fbe 4837 1e40 14a5 893f 6082 b6be
00000140: 564f 1940 14f8 0640 ae68 2340 70b8 99be
00000150: 1385 1440 b9e5 0740 2569 a3be a921 1abe
00000160: caf7 1240 31df 9abe 33f8 853f 72d3 0f40
00000170: 7b3d 0a40 e332 1340 7117 1440 dcda 1abe
00000180: b470 1540 4ac2 cebe bac2 0a40 1f76 1240
00000190: 089f 843f 3d46 2340 d6ac a53f 98f5 0c40
000001a0: 83ec f23f f96d 1140 09af 1040 72d3 dcbe
000001b0: 6e9e 0e40 a6dc 723f aa9f b4bd 8e40 933f
000001c0: 7c53 2240 9c08 1140 a35d 1b40 2ae9 0640
000001d0: a5c5 1940 46bd 1d40 7883 b9be ca6b 5f3f
000001e0: 222c ef3f f5e3 2240 2173 1b40 4c9c 4ebe
000001f0: 678a 99be 869d 1f40 6a72 d73d 4756 f93f

weight f4 [256, 128]
1.4687133 -0.20445271 1.9694537 1.8911812 -0.055579405 1.5057235 1.2737472 2.028298
1.447071 1.9341952 1.3441306 -0.8041865 1.476523 -3.4861147 -2.6174493 -3.231679
2.0149317 1.9822904 1.973909 2.0459085 1.8653207 2.0642633 -0.07029239 -2.3155596
-0.045068063 -0.073058754 -0.098782845 -0.26606697 -3.0709915 1.9040759 1.9641107 2.1054187
-0.0034912757 1.329604 -0.2716321 1.4795835 1.9700563 1.3380833 1.835324 1.7792554
2.0806334 2.0757294 2.028426 1.9253553 -0.018570287 0.00078152394 -2.0389407 -0.05046249
1.8709104 2.0566826 -0.1429819 1.343492 -0.043309074 1.9952782 2.0761762 1.8712219
1.9571044 1.9694467 -3.3971732 1.9123865 1.8146049 -2.6183565 -0.00416434 1.9626373
2.055291 2.1214173 -1.7448729 0.016544785 -0.18061636 -1.7107323 2.0018437 1.4651648
1.9571619 -0.11597969 1.97361 -0.22355416 -0.09562035 2.0264614 1.4699223 -0.13246395
2.011568 1.9766794 2.0396874 -0.27899453 2.025904 1.9821774 -0.122229636 -0.18197678
2.094649 -0.14468543 1.4733933 1.8864158 1.8819934 2.0142148 1.9184883 -0.2653765
1.9769378 -0.011344426 1.9023356 1.8938167 1.5058202 1.9495666 1.5573858 1.8988905
-3.140909 2.0164073 2.0503137 -0.02668566 2.0012255 1.393844 0.21531563 1.5515232
2.0036502 2.0991676 1.8713721 1.9000183 2.0855808 2.011 -0.16851798 -2.3155844
-3.2524917 2.0395644 2.0884905 0.0069484874 -0.1607551 2.0096636 0.5970659 1.9499472
1.3112372 -0.18329027 1.9885185 1.9366473 -0.063837975 1.4657451 1.33861 2.0026374
1.3955214 1.9523542 1.4241583 -0.7942937 1.4937836 -3.3670826 -2.5312452 -3.2746906
1.9317791 2.0546825 2.0397556 1.9797505 1.9297624 1.9938669 -0.06569702 -2.2734303
-0.04340956 -0.22887307 -0.05982678 -0.09507956 -3.0944834 1.9881966 2.034236 2.0405116
-0.111594975 1.4454143 -0.2419867 1.5705053 1.8854886 1.3566597 1.7916117 1.8471718
2.0836012 1.970118 2.0165794 1.9282806 -0.095507 -0.057123747 -1.989513 -0.060489085
1.9320297 1.9852797 -0.026481349 1.4254858 0.06114959 1.9340811 1.9792542 1.9625554
1.8975763 1.9021764 -3.4375958 2.0282297 1.8849872 -2.6336758 -0.04481332 1.9902313
1.9876688 2.0331993 -1.6805998 -0.0113724 -0.116388395 -1.725104 1.9061335 1.5789998
1.9676876 -0.11805724 1.9806867 -0.089205004 -0.031071492 1.9730041 1.4352503 -0.123594016
2.048114 2.0185 2.0167055 -0.20690653 1.9687921 2.014792 -0.13379298 -0.14877747
1.9570425 -0.17823952 1.3624517 2.0500646 1.9389457 2.0781183 1.9749434 -0.2331898
1.9378012 -0.020087667 1.9259489 1.818412 1.471287 1.9117963 1.5314692 2.0213883
-3.0971358 1.9930038 2.0231197 -0.06950899 1.9951937 1.3273839 0.19376133 1.6004033
2.037134 1.9542187 1.9008411 1.9193493 2.0027552 2.0863063 -0.092842914 -2.3165748
-3.2525165 1.9606106 1.986462 -0.02628819 -0.011768003 1.9673629 0.6043135 2.0354977
00000000: ccfe bb3f 0d5c 51be 0f17 fc3f 3a12 f23f
00000010: 3ba7 63bd 8cbb c03f 260a a33f a2cf 0140
00000020: 9f39 b93f b593 f73f 790c ac3f 2bdf 4dbf
00000030: b5fe bc3f 811c 5fc0 4a84 27c0 d4d3 4ec0
00000040: a4f4 0040 b1bb fd3f 0da9 fc3f 2af0 0240
00000050: d4c2 ee3f e41c 0440 75f5 8fbd 2132 14c0
00000060: 4a99 38bd d49f 95bd a94e cabd ee39 88be
00000070: 208b 44c0 c2b8 f33f fb67 fb3f 2ebf 0640
00000080: e3cd 64bb 7730 aa3f 5d13 8bbe fe62 bd3f
00000090: ce2a fc3f 5046 ab3f e6eb ea3f a4be e33f
000000a0: 1929 0540 c0d8 0440 bbd1 0140 0b72 f63f
000000b0: b720 98bc 2fdf 4c3a 017e 02c0 c2b1 4ebd
000000c0: fe79 ef3f b0a0 0340 d969 12be 8cf7 ab3f
000000d0: db64 31bd 4765 ff3f 12e0 0440 3384 ef3f
000000e0: 6682 fa3f d416 fc3f 496b 59c0 15c9 f43f
000000f0: f944 e83f 2793 27c0 0475 88bb b337 fb3f
00000100: e389 0340 4dc5 0740 ff57 dfbf ee88 873c
00000110: 7ff3 38be 47f9 dabf 351e 0040 858a bb3f
00000120: 4884 fa3f c286 edbd 419f fc3f 62eb 64be
00000130: 9ad4 c3bd 8bb1 0140 6a26 bc3f a1a4 07be
00000140: 88bd 0040 d503 fd3f 3d8a 0240 5fd8 8ebe
00000150: 69a8 0140 fdb7 fd3f 8853 fabd 1f58 3abe
00000160: bb0e 0640 6b28 14be 2798 bc3f 1376 f13f
00000170: 29e5 f03f e5e8 0040 0691 f53f 6edf 87be
00000180: 4c0c fd3f f9dd 39bc bc7f f33f 9668 f23f
00000190: b7be c03f 668b f93f 6b58 c73f d80e f33f
000001a0: a704 49c0 d10c 0140 5738 0340 e39b dabc
000001b0: 1414 0040 7b69 b23f b37b 5c3e 5098 c63f
000001c0: ce3b 0040 c358 0640 1f89 ef3f cd33 f33f
000001d0: 287a 0540 39b4 0040 fa8f 2cbe 8932 14c0
000001e0: d328 50c0 3988 0240 d4a9 0540 23b0 e33b
000001f0: fc9c 24be 549e 0040 50d9 183f df97 f93f
00000200: 9fd6 a73f 72b0 3bbe c687 fe3f 0fe4 f73f
00000210: 7cbd 82bd 899d bb3f 9357 ab3f 362b 0040
00000220: 72a0 b23f bee6 f93f d24a b63f d556 4bbf
00000230: 4d34 bf3f 487e 57c0 ecff 21c0 8894 51c0
00000240: 8a44 f73f eb7f 0340 5b8b 0240 7768 fd3f
00000250: 7402 f73f 0837 ff3f 298c 86bd e27f 11c0
00000260: 39ce 31bd b45d 6abe ed0c 75bd 13b9 c2bd
00000270: 040c 46c0 3a7d fe3f ec30 0240 be97 0240
00000280: e88b e4bd 5603 b93f 5dcb 77be 5106 c93f
00000290: b157 f13f 06a7 ad3f 8853 e53f 2070 ec3f
000002a0: b959 0540 d42c fc3f a30f 0140 e6d1 f63f
000002b0: 2d99 c3bd 97fa 69bd 5da8 febf 67c3 77bd
000002c0: c04c f73f a51d fe3f 6aef d8bc 5276 b63f
000002d0: fe77 7a3d f88f f73f 3458 fd3f 0435 fb3f
000002e0: c8e3 f23f 847a f33f 9201 5cc0 84ce 0140
000002f0: 4347 f13f 258e 28c0 2c8e 37bd e6bf fe3f
00000300: ee6b fe3f f01f 0240 e51d d7bf 4e53 3abc
00000310: 0a5d eebd 35d0 dcbf 2ffc f33f aa1c ca3f
00000320: 30dd fb3f ffc7 f1bd 2487 fd3f 1db1 b6bd
00000330: a489 febc 668b fc3f 48b6 b73f dc1e fdbd
00000340: 4d14 0340 1b2f 0140 b411 0140 4edf 53be
00000350: 6101 fc3f 5af2 0040 0701 09be 1f59 18be
00000360: 5e80 fa3f 6c84 36be d164 ae3f 4234 0340
00000370: 5f2f f83f e4ff 0440 f2ca fc3f 4fc9 6ebe
00000380: df09 f83f e48e a4bc 7e85 f63f b9c1 e83f
00000390: 2253 bc3f beb5 f43f 2f07 c43f 6d5e 0140
000003a0: 7937 46c0 c01a ff3f cb7a 0140 bb5a 8ebd
000003b0: 8262 ff3f b7e7 a93f 5f69 463e 04da cc3f
000003c0: 6760 0240 d723 fa3f c34e f33f 3dad f53f
000003d0: 242d 0040 0b86 0540 6d24 bebd c342 14c0
000003e0: 3b29 50c0 4af5 fa3f 6344 fe3f 555a d7bc
000003f0: 95ce 40bc 8cd2 fb3f 4ab4 1a3f 9845 0240

bias f4 [256]
1.6126692 1.668128 0.030474076 -0.056602933 -0.10022565 0.004274636 1.8822497 -0.05153838
0.009416649 -0.033619687 1.8294446 -0.06358137 0.0047038784 1.724249 1.797112 -0.03867155
1.7460043 -0.007312674 2.0751796 0.034955237 2.0278976 0.050239757 -0.061224557 1.7011724
0.020175263 1.7188855 1.7742491 0.05320819 -0.034850847 0.009376988 -0.06560095 1.6922519
-0.021324793 0.016572258 1.8527262 -0.062033407 -0.050648995 -0.03271181 -0.06352258 0.042411532
1.9870064 1.8123431 -0.03361443 -0.081789665 1.6827226 1.8063776 -0.027486464 1.614499
0.037502773 1.7222471 0.06615137 -0.09145458 0.071621776 1.9012408 0.043003656 -0.08477247
1.6497291 0.043943524 1.983846 0.062372904 1.7223941 -0.024270942 1.9016984 1.6805499
1.6592282 0.07074289 -0.08475553 1.7026398 0.053994235 1.6442271 1.744823 0.011189037
1.7193639 -0.057911295 1.6233315 0.03152741 -0.0020567842 0.050934866 1.8260862 -0.06266913
1.6788363 0.020811936 1.925053 1.7546333 1.3623952 1.8033558 -0.06621344 1.7941867
-0.0071936282 -0.07478219 0.0093947165 -0.040580742 -0.026303891 -0.09174663 -0.072152756 1.8946579
1.6291211 0.0039213384 -0.044925526 1.7011696 0.058067832 -0.0559964 -0.007817245 1.7634262
1.6893686 1.6930014 1.6207907 1.7122533 1.7758397 -0.0060042217 1.7027487 -0.0058015324
1.6281108 1.8176402 1.642521 1.65298 -0.05564453 1.7735802 0.011473474 1.8235085
-0.06553601 -0.10592305 1.682877 -0.083576545 0.029873164 -0.06738734 0.0004439539 -0.03077504
-0.032481115 -0.045127682 0.04289674 0.0029637557 -0.08249985 1.6867061 1.7994263 -0.04015305
1.646042 0.00029087503 1.6512756 0.061880164 1.759056 0.04208231 1.6519736 0.06480024
-0.08775037 -0.08479024 -0.020067908 -0.09613854 -0.018038727 1.689231 -0.057405975 -0.06868886
1.7213268 -2.0012989e-05 0.031209687 1.9014294 0.0468404 0.0036972992 0.0027119962 1.668402
-0.026950318 1.758923 -0.04355571 -0.020073557 1.7183754 0.054938056 0.021424608 -0.024273839
1.664323 1.7796899 -0.0033686068 -0.011327579 1.6769842 1.0135459 1.5878911 1.754063
1.7573502 -0.070264705 1.8703781 1.6139467 -0.017703248 0.037704565 -0.018339822 -0.08012714
0.044037893 0.010975511 1.7440326 -0.01214193 0.069008835 0.01419114 1.7221726 -0.035253827
-0.13824725 -0.024876552 1.829706 1.6103461 1.7566153 1.935396 -0.065260105 1.5884384
1.6293349 0.018258821 1.6405183 1.6228031 1.5940126 1.7494329 1.7039177 0.035005
1.7195641 0.033869345 1.8374822 1.875567 2.0100925 1.9199511 0.060808305 0.05802277
1.8689369 0.009715194 1.6077317 0.06583412 -0.05573124 -0.022741847 1.7243727 1.7809949
0.053861313 -0.032046467 0.003040685 -0.016275994 0.06748176 1.8637905 -0.03120525 -0.0043357927
1.6831832 0.038662784 1.7364076 -0.010941798 0.05233006 -0.06500045 -0.03383347 1.640141
1.9256014 1.5915192 -0.15543887 -0.058278967 -0.049333293 1.660959 -0.002628364 1.7230718
-0.04637202 -0.17222004 0.06641913 1.7279688 1.7277681 1.6423786 -0.0034597027 1.6885891
00000000: f26b ce3f 3885 d53f c5a4 f93c 7ad8 67bd
00000010: 1b43 cdbd 3f12 8c3b 8fed f03f e919 53bd
00000020: 4a48 1a3c ccb4 09bd 3e2b ea3f f336 82bd
00000030: fe22 9a3b 31b4 dc3f c407 e63f 0f66 1ebd
00000040: 127d df3f 289f efbb becf 0440 392d 0f3d
00000050: 13c9 0140 34c8 4d3d 9ac6 7abd 04c0 d93f
00000060: 9846 a53c 7104 dc3f 981a e33f d5f0 593d
00000070: c3bf 0ebd f0a1 193c ca59 86bd b69b d83f
00000080: 55b1 aebc 8bc2 873c 2226 ed3f be16 7ebd
00000090: 5275 4fbd d2fc 05bd 2018 82bd b7b7 2d3d
000000a0: 3a56 fe3f dcfa e73f 49af 09bd 5781 a7bd
000000b0: 7463 d73f 6237 e73f 4b2b e1bc e7a7 ce3f
000000c0: 829c 193d 9872 dc3f 5f7a 873d 8a4c bbbd
000000d0: 70ae 923d dc5b f33f 9a24 303d 309d adbd
000000e0: 532a d33f 20fe 333d aaee fd3f bb7a 7f3d
000000f0: 6977 dc3f dbd3 c6bc da6a f33f 421c d73f
00000100: 9761 d43f a6e1 903d 4f94 adbd 1af0 d93f
00000110: 0f29 5d3d 0976 d23f 5c56 df3f 3952 373c
00000120: 1e14 dc3f 6534 6dbd 54c9 cf3f e322 013d
00000130: 1dcb 06bb 14a1 503d 31bd e93f ac58 80bd
00000140: 1ce4 d63f cb7d aa3c 2368 f63f d397 e03f
00000150: f762 ae3f 5dd4 e63f e99a 87bd e9a7 e53f
00000160: 87b8 ebbb 6827 99bd 4cec 193c fe37 26bd
00000170: 427b d7bc a8e5 bbbd d3c4 93bd 2684 f23f
00000180: 0a87 d03f 927e 803b d403 38bd edbf d93f
00000190: 89d8 6d3d 7b5c 65bd e713 00bc f3b7 e13f
000001a0: 3b3d d83f 45b4 d83f 1276 cf3f 1e2b db3f
000001b0: b74e e33f 10bf c4bb abf3 d93f c81a bebb
000001c0: ef65 d03f 6fa8 e83f 213e d23f d994 d33f
000001d0: 85eb 63bd ad04 e33f 3dfb 3b3c ba68 e93f
000001e0: be37 86bd 2fee d8bd 8368 d73f 2e2a abbd
000001f0: 91b8 f43c 6002 8abd 7cc2 e839 f01b fcbc
00000200: eb0a 05bd ced7 38bd 7eb4 2f3d 923b 423b
00000210: aef5 a8bd fce5 d73f 9a53 e63f 8677 24bd
00000220: 81b1 d23f 9680 9839 005d d33f 0e76 7d3d
00000230: bf28 e13f 805e 2c3d df73 d33f fdb5 843d
00000240: 77b6 b3bd 81a6 adbd 7465 a4bc 48e4 c4bd
00000250: f4c5 93bc b938 d83f 8722 6bbd bfac 8cbd
00000260: 7054 dc3f 91e1 a7b7 75ab ff3c 0a62 f33f
00000270: b8db 3f3d 634e 723b bfbb 313b 328e d53f
00000280: eac6 dcbc 6424 e13f 7967 32bd 4d71 a4bc
00000290: baf3 db3f ba06 613d a982 af3c eed9 c6bc
000002a0: 8908 d53f e1cc e33f d8c3 5cbb 4f97 39bc
000002b0: 6ba7 d63f dfbb 813f 0440 cb3f 2385 e03f
000002c0: daf0 e03f f1e6 8fbd 8d68 ef3f ce95 ce3f
000002d0: 6706 91bc 1a70 1a3d 653d 96bc b319 a4bd
000002e0: 1461 343d a1d2 333c 763c df3f f2ee 46bc
000002f0: 8154 8d3d f581 683c 2770 dc3f 5166 10bd
00000300: b090 0dbe e9c9 cbbc ce33 ea3f d21f ce3f
00000310: c5d8 e03f 0ebb f73f 17a7 85bd f351 cb3f
00000320: 0c8e d03f 8693 953c 81fc d13f 03b8 cf3f
00000330: 9b08 cc3f 6bed df3f fa19 da3f 6761 0f3d
00000340: ad1a dc3f 95ba 0a3d 9e32 eb3f 9412 f03f
00000350: 5ba5 0040 f5c0 f53f 2112 793d 49a9 6d3d
00000360: 5339 ef3f 7a2c 1f3c 27ca cd3f 0ad4 863d
00000370: 7146 64bd 1c4d babc 3fb8 dc3f a4f7 e33f
00000380: ae9d 5c3d 2843 03bd 3b46 473b 3c55 85bc
00000390: e133 8a3d b090 ee3f 27a2 ffbc 4413 8ebb
000003a0: 8c72 d73f de5c 1e3d 9b42 de3f 3a45 33bc
000003b0: 0c58 563d f51e 85bd f794 0abd 24f0 d13f
000003c0: 1b7a f63f e7b6 cb3f 5e2b 1fbe edb5 6ebd
000003d0: b511 4abd 4e9a d43f a140 2cbb 9e8d dc3f
000003e0: 96f0 3dbd 735a 30be c106 883d 152e dd3f
000003f0: 8127 dd3f 7639 d23f 2ebc 62bb b023 d83f

weight f4 [1, 256]
2.219642 2.221779 0.023767276 -0.034115437 -0.0279062 -0.015855685 2.2355084 -0.010291608
-0.29263303 -0.009005864 2.2599654 -0.01818473 -0.0003287311 2.2530172 2.2551985 -0.0050571263
2.2875464 0.001889782 2.2630227 -0.0033349178 2.2619221 -0.006927971 -0.0715877 2.2722435
-0.022235293 2.2713804 2.298377 -0.016944088 -0.039941724 -0.015046209 -0.040239356 2.2795198
-0.05161893 -0.06615116 2.248725 0.042239852 -0.036002763 -0.0090352595 -0.0016344717 0.005964339
2.2214096 2.2381217 0.05693578 -0.01450035 2.249411 2.1875496 -0.036939394 2.2216477
-0.008101927 2.28982 0.0066908626 -0.008418592 -0.019926302 2.3097486 -0.000926233 -0.001404664
2.2633169 -0.07544223 2.2754307 -0.03743973 2.2197793 -0.012767025 2.2690759 2.2518284
2.3121288 -0.034933574 -0.042394612 2.242078 -0.11955709 2.249664 2.2637632 -0.01599347
2.3284073 -0.12506755 2.1980796 0.07144504 -0.0046388754 -0.001675499 2.223761 -0.0113216
2.2829673 -0.010776087 2.2120392 2.2700336 1.6744201 2.238641 -0.043736484 2.2387097
0.0060305167 -0.04152659 -0.00598945 -0.092829876 -0.04884745 -0.017496888 -0.06791427 2.2613728
2.262387 -0.04197117 -0.0077316654 2.248046 -0.0011693154 -0.029797666 -0.053915348 2.1780336
2.229592 2.2583075 2.3125086 2.2524712 2.2176576 -0.012751033 2.3019466 -0.021099875
2.1680453 2.2051792 2.317986 2.24914 -0.04017778 2.2088034 -0.08778858 2.2434168
0.006638371 -0.18367021 2.2457998 -0.01142671 -0.005783325 0.012577519 -0.017965205 -0.039046526
-0.18267255 -0.013796176 -0.018639825 -0.0097618075 0.005452062 2.3274336 2.220371 0.009907232
2.2209616 -0.033540584 2.3024166 0.05854723 2.2902703 -0.11423193 2.2906904 -0.010749611
-0.15613338 -0.025695082 -0.016249336 -0.14628512 -0.042315044 2.213696 -0.027586944 -0.02639978
2.2058017 -0.0063454444 -0.045151196 2.2685454 -0.0351065 -0.009678457 -0.030978587 2.2721334
-0.0020686819 2.2311053 0.0047556357 -0.12783092 2.279271 -0.024179582 -0.07854239 -0.0032611715
2.283156 2.2232811 -0.08919625 0.011870508 2.321081 -1.113969 2.0221207 2.242792
2.2212284 -0.08149582 2.2407408 2.2943912 0.01596114 0.010741091 0.0075983177 -0.076978214
-0.009261538 -0.1324984 2.214626 -0.027237438 -0.040588424 -0.004205284 2.2690978 0.0032896097
-0.09181515 -0.043637555 2.2871118 2.2287252 2.299323 2.2385664 -0.0026863737 2.277557
2.201018 -0.026839478 2.045033 2.2861626 2.26244 2.279875 2.22475 -0.03808257
2.2737982 -0.022198033 2.201574 2.2207303 2.260832 2.2151883 -0.021756688 -0.016847078
2.2218804 -0.002743073 2.2042027 -0.034486726 -0.11824218 0.0044790134 2.2991316 2.261763
-0.020340059 0.0117282495 -0.014921162 -0.018318798 -0.019270232 2.260124 -0.00011384172 -0.03673403
2.2769685 0.031534128 2.218364 -0.026125656 -0.034431428 -0.01888265 0.0006805963 2.2712002
2.208978 2.2710752 -0.08480809 -0.067189865 -0.03413859 2.275484 -0.11992736 2.2337902
-0.050603624 -0.058710925 0.0069674775 2.2556767 2.1822321 2.166088 -0.028461916 2.2733626
00000000: 9d0e 0e40 a131 0e40 97b3 c23c a1bc 0bbd
00000010: 8b9b e4bc c8e3 81bc 9212 0f40 229e 28bc
00000020: ffd3 95be 558d 13bc 46a3 1040 25f8 94bc
00000030: 8b59 acb9 6f31 1040 2c55 1040 40b6 a5bb
00000040: 2967 1240 90b2 f73a 5dd5 1040 a38e 5abb
00000050: 55c3 1040 0804 e3bb 929c 92bd 706c 1140
00000060: ca26 b6bc 4c5e 1140 9c18 1340 54ce 8abc
00000070: ef99 23bd 6084 76bc 06d2 24bd a7e3 1140
00000080: 5f6e 53bd 427a 87bd 1ceb 0f40 b203 2d3d
00000090: a277 13bd a008 14bc c53b d6ba 8070 c33b
000000a0: 932b 0e40 633d 0f40 7e35 693d e092 6dbc
000000b0: 5af6 0f40 d000 0c40 c34d 17bd 7a2f 0e40
000000c0: f2bd 04bc 698c 1240 063f db3b 22ee 09bc
000000d0: 7c3c a3bc ecd2 1340 72ce 72ba b41c b8ba
000000e0: 2fda 1040 7581 9abd a8a0 1140 675a 19bd
000000f0: dd10 0e40 c92c 51bc 8a38 1140 f51d 1040
00000100: ebf9 1340 8216 0fbd f9a5 2dbd 357e 0f40
00000110: 59da f4bd 7ffa 0f40 7fe1 1040 bd04 83bc
00000120: a004 1540 b511 00be 56ad 0c40 c751 923d
00000130: b501 98bb 6b9c dbba 1a52 0e40 3b7e 39bc
00000140: 231c 1240 2f8e 30bc 0d92 0d40 3b48 1140
00000150: 6653 d63f e545 0f40 0725 33bd 0547 0f40
00000160: a49b c53b c917 2abd 2643 c4bb 971d bebd
00000170: 4414 48bd a255 8fbc a316 8bbd 55ba 1040
00000180: f3ca 1040 f6e9 2bbd e959 fdbb fcdf 0f40
00000190: b743 99ba 3c1a f4bc 57d6 5cbd e764 0b40
000001a0: a3b1 0e40 1c88 1040 2400 1440 7d28 1040
000001b0: 1aee 0d40 b5e9 50bc 1853 1340 a5d9 acbc
000001c0: 41c1 0a40 a821 0d40 e259 1440 e9f1 0f40
000001d0: 7591 24bd 095d 0d40 80ca b3bd 2494 0f40
000001e0: b186 d93b 0b14 3cbe 2fbb 0f40 1837 3bbc
000001f0: 0c82 bdbb f011 4e3c c42b 93bc 40ef 1fbd
00000200: 830e 3bbe 5b09 62bc 8cb2 98bc fdef 1fbc
00000210: 36a7 b23b acf4 1440 8f1a 0e40 f151 223c
00000220: 3c24 0e40 da61 09bd cb5a 1340 38cf 6f3d
00000230: ca93 1240 6ef2 e9bd ac9a 1240 231f 30bc
00000240: 6ee1 1fbe 7e7e d2bc 541d 85bc c4cb 15be
00000250: 8a52 2dbd 32ad 0d40 04fe e1bc 5a44 d8bc
00000260: db2b 0d40 72ed cfbb 76f0 38bd d92f 1140
00000270: d5cb 0fbd 6492 1ebc cec6 fdbc a26a 1140
00000280: b992 07bb 6eca 0e40 2ad5 9b3b 1ce6 02be
00000290: 93df 1140 4214 c6bc d5da a0bd 61b9 55bb
000002a0: 3a1f 1240 3d4a 0e40 86ac b6bd 857c 423c
000002b0: 978c 1440 8996 8ebf 6d6a 0140 e789 0f40
000002c0: 9b28 0e40 48e7 a6bd 4c68 0f40 4ed7 1240
000002d0: f0c0 823c 67fb 2f3c 4ffb f83b c1a6 9dbd
000002e0: b5bd 17bc a9ad 07be 6fbc 0d40 0c21 dfbc
000002f0: 0c40 26bd 7bcc 89bb e638 1140 7e96 573b
00000300: 9509 bcbd 4bbd 32bd 0a60 1240 6fa3 0e40
00000310: 1c28 1340 ac44 0f40 df0d 30bb 7ec3 1140
00000320: 7bdd 0c40 77de dbbc d2e1 0240 7d50 1240
00000330: d1cb 1040 79e9 1140 4e62 0e40 78fc 1bbd
00000340: e985 1140 a6d8 b5bc 97e6 0c40 7220 0e40
00000350: 79b1 1040 a5c5 0d40 153b b2bc e202 8abc
00000360: 4a33 0e40 21c5 33bb a811 0d40 f441 0dbd
00000370: f528 f2bd b0c4 923b f924 1340 bac0 1040
00000380: 32a0 a6bc d827 403c e477 74bc 4e11 96bc
00000390: 9bdc 9dbc dfa5 1040 4fbe eeb8 6c76 16bd
000003a0: dab9 1140 ee29 013d adf9 0d40 7905 d6bc
000003b0: f807 0dbd caaf 9abc 0b6a 323a 585b 1140
000003c0: e55f 0d40 4c59 1140 ddaf adbd d79a 89bd
000003d0: e8d4 0bbd 88a1 1140 7a9c f5bd 6bf6 0e40
000003e0: bf45 4fbd de7a 70bd 704f e43b 025d 1040
000003f0: b1a9 0b40 30a1 0a40 f728 e9bc c67e 1140
