net_params.pth (torch, 2079 bytes, 4 tensors)

fc1.weight f4 [20, 4]
00000000: de0f 9c3d e520 a23e 883b ecbe bf90 54bc
00000010: 53b4 c33d 993e cabe d948 01bf 3a28 13bf
00000020: 4ca5 09be 9c92 773d a1bb e0bc a7cf a5be
00000030: 15a5 113e dcc6 b7be 2ee6 e7bd c36d e53e
00000040: 7075 14bd 335c dd3d c04d a73d 80f7 1ebf
00000050: de19 9bbe 323e d3be 37a8 913e 31a3 ee3e
00000060: 1a10 cebe d0fb 86be b162 1ebe a7e9 c1be
00000070: d482 9bbe 44f3 8bbe 329e 763e 6019 a6bd
00000080: 9580 233f ae7c 44be 2756 24be 4fe3 fbbe
00000090: 5f5a 063f 20a6 f03e 7505 e0be b05f 24bf
000000a0: 2b43 dabe b43d 3dbe ec26 7f3d 2b41 123f
000000b0: 0581 f7bd 3fa8 2fbe 5458 b7bd 5d8f 32bd
000000c0: 3633 05be 4200 b53e 5784 c3be 7560 e4bd
000000d0: 4704 213d 9fd9 48be ebc3 a4be 99e7 45be
000000e0: fa0f b03e bccb 82be ca3f 983e b641 a1be
000000f0: 2c41 4d3e 1153 c13e 08bd 1fbe 863c 88be
00000100: 955f f9bd 4596 8fbe f498 c7bd 9119 52be
00000110: 1d78 023f ee94 983e af41 c43e a741 e0be
00000120: fe8a 61bc 295d fabe 520f d33e 6058 183f
00000130: 40c7 debe bd8f 7ebd be2a 4f3e 0cdd 4f3d
0.07620214 0.31665722 -0.4613917 -0.012973963 0.095558785 -0.39500883 -0.5050178 -0.57483256
-0.13441962 0.060442552 -0.027433218 -0.3238499 0.1422313 -0.35893905 -0.113232 0.44810304
-0.03624481 0.10808601 0.081691265 -0.62096405 -0.30293173 -0.4125839 0.2844865 0.4660888
-0.4024666 -0.26363993 -0.15467335 -0.37873575 -0.3037325 -0.27334034 0.24083784 -0.08110309
0.63868076 -0.19188187 -0.1604849 -0.4919686 0.52481645 0.47001743 -0.43754163 -0.6420851
-0.4262937 -0.18480569 0.06229298 0.5713069 -0.120851554 -0.17154025 -0.08952394 -0.043593753
-0.13007817 0.3535176 -0.38186905 -0.1115121 0.03931072 -0.19614266 -0.32180724 -0.19326629
0.3438719 -0.25546062 0.29736167 -0.31495446 0.20044392 0.37758687 -0.15599453 -0.26608676
-0.12176434 -0.28044334 -0.0974597 -0.20517565 0.5096453 0.29801124 0.38331363 -0.4380009
-0.0137660485 -0.488992 0.41222626 0.5950985 -0.4351139 -0.0621488 0.20231149 0.050747916

fc1.bias f4 [20]
00000000: 2cc5 b7be 65fc be3e b01e 843e 0702 683e
00000010: 760d 083f 3460 5dbe 8ec6 803d b425 87be
00000020: 0ab0 8e3e 14a1 9e3b 40d4 c83e 776f 7abe
00000030: da0b f1be 6a47 18be 984f fdbe db63 1b3d
00000040: 4dc9 293e 25c9 8abe 81bb 083f f6f8 a83d
-0.35892618 0.37301937 0.25804663 0.22657023 0.5314554 -0.2161873 0.06287871 -0.26395953
0.27868682 0.0048409794 0.39224434 -0.24456583 -0.47079355 -0.14870992 -0.49474788 0.037937026
0.16580696 -0.27106586 0.5341111 0.082506105

fc2.weight f4 [2, 20]
00000000: 9e22 3cbe 7cf3 913d d9fe c6bd da1a 87bd
00000010: 17bf 9b3e 6ab7 d4bd 68c6 94bc d188 ecbd
00000020: 9c1f 8a3e 18dd a23e 2e3f 82be c08b 4c3d
00000030: 70ea da3d 324d 733d 6ee8 103e 2d30 df3d
00000040: 8e69 a5bc 03c7 343e 96c1 95bd 92ed 7ebe
00000050: 97cd 12bd c476 a7be 08fb 433d b188 753e
00000060: 91b6 47be 5b9c 7f3e a315 4bbe 3d41 873d
00000070: 1367 78bd d8a2 013e cde7 b13e 9bef 91bd
00000080: 4616 4f3e ac0e 343e 021e 433e 70c0 92be
00000090: 88ff acbd 4738 64be 23d0 933e adc6 e83d
-0.1837258 0.07126519 -0.09716577 -0.065969184 0.30419227 -0.10386546 -0.018161014 -0.11549533
0.2697724 0.31809306 -0.25438827 0.049937963 0.10689247 0.05939979 0.14151165 0.10897861
-0.020191934 0.17654042 -0.07312314 -0.24895313 -0.035840597 -0.32707798 0.047846824 0.23977925
-0.19503237 0.24961989 -0.19832473 0.0660424 -0.060645174 0.12659776 0.34747162 -0.07125779
0.2022334 0.17583722 0.19054416 -0.28662443 -0.08447176 -0.22287093 0.28869733 0.113660194

fc2.bias f4 [2]
00000000: aecd 093a 4d4b 563d
0.0005256784 0.052317906
