Pendulum_net.pth (torch, 5279 bytes, 4 tensors)

weight f4 [128, 3]
00000000: 766c 0cbe 0031 5abd 98d6 9c3e 7c4a 00bf
00000010: 40ad cebc 66af dabe 6a41 debe 3106 0fbf
00000020: b8b8 50be 909d 333e 3508 bcbe e6a6 0fbe
00000030: 5d23 00bf 321f efbe 8084 663e c4f7 fa3e
00000040: d65a e7be 7e7d 063f 0801 6abe c844 ff3e
00000050: dc6c 6a3e 6cdc 883e ae87 cd3e 5aba 8b3e
00000060: 16c9 38be 5cf8 c6bd 603b b6bc 0091 38bc
00000070: c487 983e 9487 773e 20de dd3e 2c2a 51be
00000080: cc0d bf3e e27d cabe 78ec e03e 18cb 053f
00000090: 3147 edbe 268f cbbe 8427 07be 4e38 0e3f
000000a0: 80a1 09bd 7873 873e 808f 0abc e054 89bc
000000b0: b06f 0c3e 00e7 273d e0b4 f8bc dce4 c0be
000000c0: 04a8 003f e05f 6fbd 008a 3f3c 7e82 f2be
000000d0: 6748 88be bd5a b7be cac7 8b3e 9a68 0bbe
000000e0: b4d6 023f 3c13 bf3e dc0b de3e 285f a43d
000000f0: 0aa1 24be 40dc d23d 4e88 b93e da25 8e3e
00000100: 50b8 d83e 1ec3 a83e 7c5c 0e3f 482f 013f
00000110: 2a43 073f b607 95be 4a4d a93e b8ea dd3e
00000120: 34a0 a5bd 8600 013f a42d eabd 28d8 df3d
00000130: 6cfd f83e 92db f9be 8828 ac3e 849f 1a3e
00000140: 9060 fbbe 4b70 89be c60c 2ebe 80bb 50be
00000150: 6f56 84be d025 81bd a826 f73e f45b 763e
00000160: 66e2 0cbf 005d 0d3f 92ac 0ebf 325d ccbe
00000170: a8c1 003f a0ea ebbe c8f3 abbd c18b d6be
00000180: 6022 673e b955 ddbe f8d7 d6bd 8059 65bd
00000190: e027 69be 144e 5c3e 8940 e2be 3817 c5be
000001a0: 2440 323e d0da 89be 4ca8 2f3e c45c de3e
000001b0: 2e77 dabe b082 04bf 7e59 0d3f 38b8 96be
000001c0: acd0 483e 5457 083e 14a3 dabd 6041 d0bc
000001d0: 20ea 273e e473 e1be 0c8a 6d3e fbbf 80be
000001e0: 1af9 b3be 841e b23e 589c 93bd e4f3 2d3e
000001f0: c062 a0bc 2b54 8fbe c8ba c73e 7878 be3e
00000200: 54e0 0b3e bd6d f8be 98c9 0bbe 7a35 dabe
00000210: 4452 e03e d0f3 4f3e 14a5 113f 757e 97be
00000220: 0073 89bc 68b5 e83d 305b ae3d 76dd 12be
00000230: c081 21bc 00ee e93c 7c85 a8bd 1c02 dd3e
00000240: b638 003f 64e8 f1be 20de f33e 5ec4 d33e
00000250: c01e 2fbd 8c12 c23e 52b2 c33e 2d34 d4be
00000260: 68ae d6be 603d e53e 52fc 01bf 063a 7bbe
00000270: a82c db3d acc6 20be 5229 d53e 8981 d9be
00000280: c23b 983e e638 9a3e 10d1 003f d484 563e
00000290: 106b a73e 4364 e5be e026 5fbd e852 67be
000002a0: 715c 0ebf b0f2 2fbd 7761 b2be f437 cfbe
000002b0: 4009 d33c 96c0 a43e 90c4 1b3d aa2a 09bf
000002c0: 4827 f13e 28aa 393e 40c3 453c 8aad 97be
000002d0: 4eee 863e 2443 9b3e 20e0 dbbc aca9 663e
000002e0: f0d3 563e c0e3 3e3d 50ee 0a3f c033 183e
000002f0: c435 b03e d05f 81bd 08e1 e43e 60ef 613e
00000300: 7cf7 033f 8653 113f 507a e2bd 2cd7 1a3e
00000310: a845 263e 0c03 cabe 4845 a33d e4dc 2cbe
00000320: 47bc a4be 90f8 f83e 0a38 4ebe d7fd 03bf
00000330: 3e80 13bf 5782 f3be 3b29 b7be 28de 99bd
00000340: 984e a7be 05b8 c7be a087 7c3e 102d 03bf
00000350: 285a fe3e 26b7 02be a05c 1d3d 70fc 62bd
00000360: b0ce 3dbd c2bf 093f 7007 d0bd e4f2 96be
00000370: 8048 493c 5287 b53e c42d 0b3f f6fb 893e
00000380: d064 453e 4ccd ee3e a06c 8f3d 0ca3 453e
00000390: a4a6 2c3e 40d0 d73e e0b1 b93d f739 d1be
000003a0: f839 353e 4068 81be 3cd3 4e3e 60c2 3bbd
000003b0: c54b 83be b00b a03e 6490 60be 9ca1 4d3e
000003c0: c6e5 cb3e 3ad0 06be 7884 ca3e 1472 c3bd
000003d0: 4453 a53e 5c26 633e 0066 da3d e08b e93e
000003e0: 571e f2be 6031 b4be 44e5 073f a04e 7d3d
000003f0: bad2 b9be 1ae3 e0be 80d2 f03c 107d 103e
-0.1371325 -0.053269386 0.30632472 -0.50113654 -0.025229096 -0.42711943 -0.43409282 -0.5586882
-0.20382965 0.17540574 -0.3672501 -0.1402851 -0.5005396 -0.46703488 0.22511482 0.49017155
-0.4518649 0.52535236 -0.22851956 0.49857163 0.22893089 0.2673067 0.40142578 0.27290612
-0.18045458 -0.097153395 -0.02224511 -0.011265039 0.2979108 0.24172813 0.4333353 -0.20426244
0.37315214 -0.39549166 0.4393041 0.5226302 -0.46343377 -0.3975765 -0.13198668 0.55554664
-0.033601284 0.26455283 -0.008457065 -0.016764104 0.1371448 0.040991783 -0.030359685 -0.37674606
0.5025637 -0.058441043 0.011690617 -0.47365183 -0.2661774 -0.35811415 0.27300864 -0.13614121
0.5110886 0.37319362 0.43368423 0.08025962 -0.16077057 0.102959156 0.36236805 0.27763253
0.4232812 0.32961363 0.5560987 0.5046277 0.5283686 -0.29107445 0.3306678 0.4334314
-0.08087197 0.50391424 -0.114344865 0.109299004 0.48630846 -0.4880033 0.33624673 0.15099913
-0.4909711 -0.26843485 -0.1699706 -0.20384026 -0.25847194 -0.0630604 0.4827168 0.24058515
-0.55032957 0.5522003 -0.5573207 -0.39914852 0.50295496 -0.46077442 -0.08396107 -0.419035
0.22571707 -0.43229464 -0.104904115 -0.055993557 -0.22769117 0.2151416 -0.4418986 -0.38494277
0.1740728 -0.26924753 0.17154044 0.4343015 -0.42669052 -0.51761913 0.5521468 -0.29437423
0.19610852 0.13314563 -0.10675636 -0.025421798 0.16397905 -0.4403373 0.23197192 -0.2514647
-0.35150987 0.34788907 -0.072075546 0.16987568 -0.019578338 -0.27993903 0.3900969 0.37201285
0.13659793 -0.48521224 -0.1365112 -0.42618924 0.43812764 0.20307851 0.56892514 -0.29588667
-0.01677847 0.113627255 0.085134864 -0.14342293 -0.009857595 0.02855587 -0.08228585 0.43165672
0.50086534 -0.47247612 0.47630405 0.41360754 -0.042753935 0.37904775 0.38221985 -0.41446057
-0.41929936 0.44773388 -0.50775635 -0.24533853 0.10701877 -0.15700787 0.41633087 -0.4248164
0.29733092 0.30121535 0.50319004 0.20949107 0.3269887 -0.44803056 -0.054480433 -0.2259022
-0.55609804 -0.042956054 -0.34839985 -0.40472376 0.025761247 0.3217818 0.038029253 -0.53580725
0.47100282 0.18131316 0.012070477 -0.29624587 0.26353687 0.30324662 -0.02684027 0.22525662
0.20979285 0.046603918 0.54269886 0.14863491 0.3441602 -0.06317103 0.44702935 0.2206397
0.51549506 0.5676807 -0.110584855 0.15121144 0.16237509 -0.3945545 0.07972199 -0.16881138
-0.32174894 0.48627138 -0.20138565 -0.51559204 -0.5761756 -0.4756038 -0.35773644 -0.07513076
-0.3267715 -0.39007583 0.24661112 -0.51240635 0.4967816 -0.12765178 0.038418412 -0.055416524
-0.04633969 0.53808224 -0.101576686 -0.29482186 0.012285352 0.35454804 0.5436671 0.26950043
0.19276738 0.46641004 0.070031404 0.19300479 0.16860443 0.4215107 0.0906713 -0.40864536
0.17697895 -0.2527485 0.20197767 -0.045839667 -0.25643745 0.31258917 -0.2193008 0.2008118
0.3982374 -0.1316537 0.3955419 -0.09543243 0.3229009 0.22182602 0.10663986 0.4561453
-0.47288772 -0.3519392 0.53084207 0.06184256 -0.36293584 -0.43923265 0.02939725 0.14110208

bias f4 [128]
00000000: 8a76 123f 0698 7ebe ac1a 023f 2cf0 abbd
00000010: 9844 00be 4e01 a83e c0a0 26be e020 d5bc
00000020: e499 1e3e 82e3 62be bc12 bdbd a0bb 08be
00000030: f273 063f 4c1f dcbe 0053 a93b 90e5 58be
00000040: 4af2 8e3e 00b2 e83e a0bf a4be 4e8e 08bf
00000050: a838 963d dc57 ce3e 2821 ddbd 3abf c4be
00000060: 905d 4a3e e2cd c5be d231 083f 7c18 033e
00000070: c0ea fdbc b052 5b3e 2a19 86be 74f5 b9be
00000080: 989d cebe 44b6 553e e065 3c3d 28cc 5d3e
00000090: 76f6 c8be cca7 d93e e4c3 fdbd b4d2 d8bd
000000a0: f0bc 10bf 4655 03bf 80a4 f33c 703b 993e
000000b0: 494b 13bf 0015 193e 8a0e 12be c82c a9be
000000c0: 86aa 9e3e 5851 773e c242 e9be 5a0e 87be
000000d0: e496 213e d03e 393d 0675 4abe 58b7 7b3e
000000e0: 2a13 ebbe 9818 e0bd a272 d13e 4cea 033e
000000f0: c891 cdbe 0074 d03c f456 b9be 4453 053f
00000100: fc5e 29be 6898 0ebf bc09 f53e 62e1 f1be
00000110: e060 f8be 10dc bb3d 721d 01bf c859 0dbf
00000120: 244d df3e f866 7dbe d464 3c3e ee52 d8be
00000130: e054 c73d c284 1abe 149c 0e3f d013 94bd
00000140: b279 d43e 8857 2a3e 7c6b f03e 8043 743d
00000150: 64c6 6b3e 8026 253c e48f cd3e 001c 73bc
00000160: bc67 6dbe 42a1 62be 5078 2abd baff 40be
00000170: c0cf 3bbd e02a fcbd 40ab bd3e c000 e53d
00000180: 0c7c b2be 5cf9 383e f478 0c3f 5445 033f
00000190: 9a7f bcbe 5cba dabe a77a 11bf b957 8cbe
000001a0: 28cb c33d 9561 cbbe 88ac cb3d 245a e83e
000001b0: a36d 9dbe a673 9e3e 9286 c53e 0059 89bd
000001c0: d63c d2be 4691 cf3e 10b6 2fbe 9c65 5d3e
000001d0: 2e3c a23e bc5d ba3e b549 b7be 6b33 f8be
000001e0: 0559 02bf d8f7 89bd 4003 24bc 801d b63b
000001f0: 42a6 063f f4d1 d4bd 0659 ddbe 12c7 6ebe
0.57212126 -0.2486268 0.5082195 -0.083954185 -0.12526166 0.32813495 -0.16272259 -0.026016653
0.15488392 -0.221571 -0.09232089 -0.13352823 0.5252067 -0.42992628 0.005167365 -0.21181321
0.27919227 0.45448303 -0.32177448 -0.5334214 0.07335025 0.40301406 -0.1079734 -0.38427144
0.19762254 -0.3863364 0.5320102 0.12802309 -0.030995727 0.21418262 -0.26191074 -0.36320078
-0.4035461 0.2087031 0.045995593 0.2165991 -0.39250535 0.4251083 -0.12390879 -0.105870634
-0.56538296 -0.5130199 0.029741526 0.2992816 -0.5753675 0.14949417 -0.14263359 -0.33041978
0.30989474 0.24152124 -0.45558745 -0.26378137 0.15780216 0.04522592 -0.19771203 0.24581659
-0.4591306 -0.10942191 0.4090777 0.12882346 -0.40150285 0.025445938 -0.36199152 0.5208018
-0.1654014 -0.55701303 0.4785899 -0.47242266 -0.4851141 0.09172833 -0.50435555 -0.5521512
0.4361354 -0.2474631 0.18397838 -0.4225077 0.097329855 -0.15089706 0.55706906 -0.072303414
0.41499096 0.16634953 0.46957004 0.059634686 0.23024899 0.01007998 0.40148842 -0.014838219
-0.23184103 -0.22131827 -0.041618645 -0.18847552 -0.045852423 -0.12312865 0.37044716 0.11181784
-0.34860265 0.18063873 0.5487206 0.5127766 -0.36816102 -0.42720306 -0.5682778 -0.27410677
0.09560233 -0.39722887 0.09945017 0.45381272 -0.3074771 0.30947608 0.38579232 -0.067064285
-0.4106204 0.40540522 -0.17159295 0.21620792 0.31686538 0.3639964 -0.35798422 -0.4847673
-0.50917083 -0.067367256 -0.0100105405 0.005557716 0.5259744 -0.10391608 -0.43231982 -0.23318127

weight f4 [2, 128]
00000000: 0033 ce3b 206c 2c3b 013e 823d ca0d 5c3d
00000010: 6013 f8bb c804 203c 1600 80bd 142a 90bd
00000020: 6c52 8b3c 1cfd 18bd e921 69bd 9923 09bd
00000030: 9fa3 973d 80dc adbd b69a f2bc cd6d 4cbd
00000040: c9a9 54bd 5742 833d 86b5 443d c51d 883d
00000050: 6cfe df3c e417 fbbc 1817 6d3c 304c f2bb
00000060: 1545 a53d 6878 093d acf5 943c 6846 48bc
00000070: 4cfd 7bbd e835 70bd 91b4 803d e4f2 50bd
00000080: cb28 b33d 5307 31bd 2999 b03d d445 91bd
00000090: 1c56 d43c 5a27 b0bd c8dc 70bd 19e1 9a3d
000000a0: cd6d 5dbd d939 9a3d 0fb8 9d3d 6a6f 5d3d
000000b0: 3343 883d 8192 8abd e8b3 1d3c 6302 5dbd
000000c0: 21c6 82bd 2632 24bd a884 6b3c 629f 033d
000000d0: b8e9 aebd 06af 443d b8c3 69bc 3a7f 7abd
000000e0: 12d5 8fbd e4f3 b33c 009c fe3a 2c7f 9ebc
000000f0: ca41 12bd c273 5a3d 54f6 abbd c016 78bb
00000100: 6350 823d 1ece 21bd 30a2 57bc c0ab bebb
00000110: 9b0f ad3d b488 fabc 58a9 45bd d750 803d
00000120: 6051 73bb 71c0 a33d a4ca 8c3c 13bc 0cbd
00000130: 2387 873d f492 efbc 8b0e a23d fe04 4cbd
00000140: cdc3 1cbd 72ac 8dbd e894 3d3c a036 4cbc
00000150: dc5d f6bc e733 ae3d cd62 32bd 14eb b2bd
00000160: 3c45 b4bd 5fe4 afbd 2d9f a63d e0ff 393c
00000170: 588a 5e3c 565c afbd efa2 acbd 1838 42bc
00000180: a9dc b43d 202c cfbc b1e1 82bd 5886 9c3c
00000190: 8031 efbc 2039 d0bb 284e f0bc 44fb 63bd
000001a0: 02a8 5b3d b108 42bd a231 573d f07e 033d
000001b0: 0036 56b9 d0ca a3bd de5f 703d d227 193d
000001c0: d0ec c6bc 8668 6a3d a50e afbd 6988 73bd
000001d0: 1437 943c 3cea c13c b505 10bd 199a 17bd
000001e0: deb4 a7bd d666 6abd f7d0 5ebd 96b1 63bd
000001f0: 3222 89bd dc82 813c 052c a9bd 30ca 25bc
00000200: 04dc ccbc 1b52 af3d bff2 ac3d d38b 8ebd
00000210: 564e 4b3d 9e32 423d 3c31 41bd d633 4d3d
00000220: 36c9 2bbd 3ec1 483d 689f 4abd 08c0 0b3d
00000230: 166c 7a3d 824e 5e3d f8cd 903c 22d5 3b3d
00000240: 3ab4 203d d3e9 b33d f649 19bd 4e90 93bd
00000250: 2021 62bb 007e 163a a36e b23d 5077 ef3b
00000260: 9460 bfbc 772e 993d 1685 a2bd db2e a2bd
00000270: 2aa6 1d3d dc06 8e3c 70e1 acbd c2ad 2a3d
00000280: 1092 573c 804c 393a 040a ce3c d81d b1bc
00000290: 40fb 0ebb 1e0c 7fbd c6b4 77bd f057 5e3c
000002a0: acc6 e03c b44f e8bc ce1c eabc ae98 65bd
000002b0: b080 cf3b e398 b43d 3a66 8cbd 18f6 2bbc
000002c0: 56e4 0cbd 50f7 c23b a4df 013d 080a ec3c
000002d0: 9397 b2bd 27c1 2ebd 18cd 85bd b6d7 073d
000002e0: 8437 70bd 802b 913c 406c b93b d105 a83d
000002f0: 3fbd 97bd bce6 f03c 0352 57bd 907a 8d3b
00000300: 6200 debc 8098 da3c 63ae 3ebd 8082 233a
00000310: aa1d 55bd b04f b4bd d0cc 4dbd a847 4b3c
00000320: acdd 3cbd f825 0ebd b8e7 1ebd 9d3e 15bd
00000330: 9a15 533d ab16 893d bd5b 973d 50ef 063c
00000340: e6d7 6b3d a9bc a5bd b445 8bbd 3ede 0d3d
00000350: b832 9f3c b326 91bd eb62 00bd 508a 91bc
00000360: 52a6 543d 216f aa3d 068e 6c3d 09cb 8d3d
00000370: 2b00 843d 8025 0b3d bbd7 83bd d273 013d
00000380: 4ccb 973c ebb0 803d 783f 48bc f8b8 4ebc
00000390: 3182 a13d 1017 01bc e043 9bbd 4e93 323d
000003a0: f007 473c 1e16 723d 1a10 7d3d 3a50 6e3d
000003b0: 63ac 59bd 5909 4ebd 10b0 a4bc 7edc 6abd
000003c0: 176d 893d 16ba 4b3d 4a8c 283d 6a53 0b3d
000003d0: 3a10 dabc 517c 05bd 2691 6bbd d322 8f3d
000003e0: 9ea6 2f3d 0679 35bd 7f1b 27bd 0225 3a3d
000003f0: 40ef 9c3b d523 19bd d88f e83c 4a69 94bd
0.006292701 0.0026309565 0.063594826 0.053724088 -0.007570669 0.009766765 -0.062500164 -0.07039276
0.017007075 -0.03735076 -0.056917105 -0.033481214 0.07404255 -0.08489323 -0.029614788 -0.0499094
-0.051919732 0.06409138 0.048024677 0.06646303 0.027342997 -0.03065104 0.014470838 -0.007394336
0.08069817 0.033562094 0.018183552 -0.012223817 -0.06152086 -0.05864516 0.0628444 -0.05101289
0.08748015 -0.043219876 0.08622963 -0.07093397 0.025919966 -0.08601256 -0.058804303 0.07562465
-0.054059792 0.07530565 0.07701122 0.05406133 0.06653442 -0.06766225 0.0096254125 -0.053957354
-0.06385446 -0.040086888 0.014374889 0.03213442 -0.08540672 0.048018478 -0.014267854 -0.06115649
-0.07023062 0.021966882 0.0019425154 -0.01934775 -0.035707273 0.05333305 -0.08396593 -0.0037855357
0.06362989 -0.03950321 -0.013161227 -0.005818814 0.08450242 -0.030582763 -0.048257202 0.06265419
-0.003712736 0.0799569 0.01718647 -0.03435905 0.06617572 -0.029244877 0.0791293 -0.04980945
-0.038272668 -0.06917657 0.011571147 -0.0124641955 -0.030074053 0.08505993 -0.043551255 -0.08736244
-0.08802268 -0.0858848 0.08135829 0.011352509 0.013582788 -0.085625336 -0.084295146 -0.011854194
0.0883115 -0.025289595 -0.063907035 0.019107029 -0.029198408 -0.006354466 -0.029334143 -0.055659547
0.05362702 -0.04737157 0.052537568 0.03210348 -0.00020428747 -0.07997668 0.058685176 0.03739149
-0.024282843 0.057228588 -0.08547715 -0.059456263 0.01809267 0.023671262 -0.035161693 -0.037012193
-0.081887946 -0.05722698 -0.054398503 -0.05558928 -0.06695975 0.015809469 -0.08260349 -0.010119006
-0.025007255 0.08560582 0.08444738 -0.06960263 0.049635254 0.047411554 -0.047166094 0.050098263
-0.041939937 0.049012415 -0.049468428 0.034118682 0.061138235 0.05427409 0.017676339 0.045857556
0.039234377 0.08784833 -0.03742405 -0.07205258 -0.0034504607 0.00057408214 0.087125085 0.0073079243
-0.023361482 0.074795656 -0.079355404 -0.07919093 0.038488545 0.017337255 -0.08441436 0.041669615
0.013157383 0.00070685893 0.02515126 -0.021620676 -0.0021817237 -0.062267415 -0.060475133 0.013570771
0.027438484 -0.028358318 -0.028578188 -0.05605381 0.0063324794 0.08818223 -0.06855436 -0.010495685
-0.034397446 0.005949892 0.03170742 0.028813377 -0.08720317 -0.042664673 -0.06533259 0.033164702
-0.058646694 0.017720938 0.0056586564 0.082042344 -0.07409143 0.029406898 -0.052568447 0.004317589
-0.027099792 0.026684046 -0.046553027 0.00062374026 -0.052030243 -0.08804262 -0.050244153 0.012407221
-0.04610984 -0.03470418 -0.038795203 -0.036436666 0.051534273 0.06693777 0.073905446 0.0082357675
0.057578944 -0.08092625 -0.06800404 0.034635775 0.019433364 -0.070874594 -0.031344336 -0.017766148
0.051916428 0.083219774 0.05775263 0.069234915 0.064453445 0.03397131 -0.06437632 0.031604595
0.018529557 0.062837444 -0.012222163 -0.012617342 0.0788616 -0.007879034 -0.075813055 0.043597512
0.012147889 0.059103124 0.061782934 0.05818198 -0.053142916 -0.050301883 -0.020103484 -0.057339184
0.0671026 0.049738012 0.041149415 0.034015097 -0.026619066 -0.03258926 -0.05751147 0.06989064
0.042883508 -0.04430487 -0.040797707 0.04544545 0.004789263 -0.037387688 0.028388903 -0.07246645

bias f4 [2]
00000000: bf67 63bd f072 cdbc
-0.05551886 -0.02507922
