models/ACCartPole-v0/actor.pth (torch, 138583 bytes, 6 tensors)

linear1.weight f4 [128, 4]
-0.2509405 0.17966849 0.12668869 0.55852056 0.26328585 0.051086985 0.26164904 -0.37703207
-0.34894806 0.451232 0.628079 0.362245 -0.13600664 -0.13264894 0.20027977 0.29623243
-0.27632445 -0.30964354 -0.41251576 0.09563851 0.052488375 0.3534574 0.6795286 0.42886955
0.17349696 0.09432619 0.00620125 -0.4340064 -0.20554689 0.4189886 -0.09071289 0.4088807
-0.04919755 -0.45071852 -0.36705887 -0.28519663 -0.3064109 0.36615685 0.31664124 -0.42476234
0.27286217 0.041616783 0.28798783 -0.31121022 0.023191947 0.22270912 0.5083076 0.38138294
-0.54728055 -0.36206535 -0.06393679 -0.21933393 -0.23568842 -0.08179935 -0.6234058 -0.30875814
0.4697177 -0.4529808 -0.15149538 0.38819158 -0.22260149 -0.3892671 0.023458948 -0.6415316
0.3218775 -0.09567911 0.35689634 0.39973325 -0.2856667 -0.37739027 0.22382191 0.02506651
0.37968385 0.05906518 -0.3516855 -0.17097935 -0.2149248 -0.14663061 0.3833662 -0.1116316
0.13658278 0.06377244 0.21060959 -0.00093311735 -0.115789555 0.11696061 0.1889562 -0.6028843
-0.16896477 -0.31647447 0.16098554 -0.1369932 0.099443026 -0.35454798 0.08922638 -0.41508052
0.30571622 -0.14254741 -0.19712839 0.43209487 -0.083709046 -0.38643026 -0.28615505 0.46678022
-0.21090509 -0.2197899 -0.44332755 -0.54077715 -0.28485763 0.46672487 0.49094296 -0.29156342
-0.30566943 0.20378658 0.3043883 -0.32144365 -0.28798658 -0.005374587 -0.04954243 0.36829752
0.38656667 -0.025593784 -0.09346139 0.5428867 0.33621332 -0.15753493 -0.09243968 0.62035555
0.45985025 -0.2580877 -0.4608145 0.39774182 0.32183418 0.15325134 0.59149444 0.6799751
0.3755616 0.17056783 0.6331557 0.5224069 0.41213506 -0.54284024 -0.6355448 0.39112762
0.07523097 0.2701056 -0.38970053 -0.42379296 -0.34137666 0.015376013 -0.47406465 -0.2743436
0.12903488 -0.06481595 0.2992686 0.2577012 0.37310743 -0.44879287 0.36262998 0.28216726
0.47770205 0.46140236 -0.4772662 0.07230968 -0.16072485 -0.2555578 -0.25648993 -0.15721199
-0.4805966 -0.20141688 0.23975708 0.60010326 0.040330578 -0.44901374 -0.41844702 -0.18683665
-0.3884459 -0.28099242 -0.0060740127 0.5943405 0.36229342 0.14849533 -0.3258613 -0.27250642
-0.15150142 -0.107914746 0.27643585 -0.1322218 0.38554242 -0.4484669 -0.41718197 -0.43628517
0.25206837 0.37930956 0.24573109 0.39678383 0.36884665 0.08798249 0.2295642 0.22118765
0.4587928 0.350915 0.32888114 0.38198236 -0.32097763 0.37840378 0.20145129 0.49684393
0.13968724 -0.4132809 -0.4458345 0.16757211 -0.014969406 -0.2765166 -0.118135184 0.557428
0.008862279 0.13026229 -0.20546181 0.1527586 0.3164041 -0.1990776 -0.10351909 -0.2570889
0.13745181 0.17631693 0.20067102 -0.24802142 0.13535102 0.018690635 -0.08510852 -0.31380516
0.078392155 0.4123651 -0.56552756 0.066439904 0.37852937 0.39014322 -0.0285658 -0.5220271
0.025619552 -0.2744716 0.13713752 0.26837087 -0.3727669 0.008077461 0.024743507 -0.15036695
0.0071272785 -0.5032652 -0.16509627 0.49695525 -0.4294925 -0.29695237 -0.4718353 0.08859688
00000000: 467b 80be 04fb 373e aeba 013e 34fb 0e3f
00000010: 67cd 863e 9640 513d ddf6 853e 590a c1be
00000020: 52a9 b2be e107 e73e c9c9 203f 2d78 b93e
00000030: 5345 0bbe 20d5 07be 2416 4d3e c7ab 973e
00000040: 667a 8dbe 9989 9ebe 4435 d3be 20de c33d
00000050: 0dfe 563d 5ef8 b43e 96f5 2d3f ca94 db3e
00000060: 30a9 313e 172e c13d db33 cb3b 1636 debe
00000070: e27a 52be ac85 d63e aec7 b9bd d058 d13e
00000080: 5f83 49bd 94c4 e6be 24ef bbbe 4b05 92be
00000090: e4e1 9cbe e978 bb3e cd1e a23e 737a d9be
000000a0: 97b4 8b3e 5c76 2a3d 2473 933e f256 9fbe
000000b0: 0afd bd3c dc0d 643e 7220 023f a044 c33e
000000c0: 941a 0cbf a160 b9be 4bf1 82bd 1399 60be
000000d0: 4e58 71be 6b86 a7bd 8697 1fbf 8c15 9ebe
000000e0: d77e f03e 19ed e7be 9b21 1bbe 0cc1 c63e
000000f0: a5f1 63be 044e c7be fb2c c03c 6a3b 24bf
00000100: 21cd a43e 69f3 c3bd 1ebb b63e d6a9 cc3e
00000110: e842 92be 4c39 c1be 9231 653e 4858 cd3c
00000120: ec65 c23e 55ee 713d 1f10 b4be 3615 2fbe
00000130: 3f15 5cbe 5626 16be 9348 c43e 1c9f e4bd
00000140: 5bdc 0b3e 209b 823d 0aaa 573e 729c 74ba
00000150: 1323 edbd 0b89 ef3d bc7d 413e a056 1abf
00000160: 1a05 2dbe f108 a2be 65d9 243e f247 0cbe
00000170: c9a8 cb3d 5087 b5be 52bc b63d 6f85 d4be
00000180: d686 9c3e f3f7 11be 06dc 49be 8a3b dd3e
00000190: a66f abbd 30da c5be ea82 92be d1fd ee3e
000001a0: 81f7 57be 9b10 61be d4fb e2be 5f70 0abf
000001b0: dcd8 91be 90f6 ee3e e05c fb3e cd47 95be
000001c0: b480 9cbe 6ead 503e c9d8 9b3e 4394 a4be
000001d0: fa72 93be 4e1d b0bb 01ed 4abd 7e91 bc3e
000001e0: 11ec c53e 0eaa d1bc af68 bfbd 9ffa 0a3f
000001f0: 2724 ac3e d650 21be 0451 bdbd 9fcf 1e3f
00000200: 7e71 eb3e 1224 84be e1ef ebbe d1a4 cb3e
00000210: 73c7 a43e ebed 1c3e 2e6c 173f d912 2e3f
00000220: 9c49 c03e 55a9 2e3e 7e16 223f 75bc 053f
00000230: 5e03 d33e 94f7 0abf 10b3 22bf e141 c83e
00000240: b212 9a3d 484b 8a3e d486 c7be 64fb d8be
00000250: ecc8 aebe aceb 7b3c 9ab8 f2be c476 8cbe
00000260: b821 043e 3abe 84bd bc39 993e 69f1 833e
00000270: f007 bf3e 2ec8 e5be a3aa b93e 3a78 903e
00000280: 5d95 f43e ee3c ec3e 3c5c f4be 1917 943d
00000290: 0e95 24be 79d8 82be a652 83be 2efc 20be
000002a0: c210 f6be 3a40 4ebe e182 753e 5ea0 193f
000002b0: ad31 253d 21e5 e5be b03e d6be 1b52 3fbe
000002c0: 62e2 c6be 3dde 8fbe 8308 c7bb b326 183f
000002d0: 867e b93e 290f 183e 4bd7 a6be f685 8bbe
000002e0: 3023 1bbe 6802 ddbd 0089 8d3e 2765 07be
000002f0: d165 c53e 749d e5be e098 d5be c560 dfbe
00000300: 1b0f 813e dd34 c23e eea0 7b3e 4027 cb3e
00000310: 78d9 bc3e 2a30 b43d e112 6b3e 047f 623e
00000320: e4e6 ea3e 22ab b33e 1c63 a83e 3193 c33e
00000330: 2e57 a4be 24be c13e 3f49 4e3e 5462 fe3e
00000340: 2c0a 0f3e 8e99 d3be 6b44 e4be 0698 2b3e
00000350: 3d42 75bc 9593 8dbe dcf0 f1bd 9ab3 0e3f
00000360: 1833 113c 7a63 053e 9564 52be c06c 1c3e
00000370: b8ff a13e 00db 4bbe d101 d4bd 28a1 83be
00000380: 2bc0 0c3e 6d8c 343e b47c 4d3e 54f9 7dbe
00000390: 7599 0a3e 1a1d 993c 604d aebd 12ab a0be
000003a0: 118c a03d 8521 d33e 6ac6 10bf a511 883d
000003b0: 9ace c13e dac0 c73e d302 eabc 91a3 05bf
000003c0: 18e0 d13c 8b87 8cbe c76d 0c3e e867 893e
000003d0: 4edb bebe 5457 043c e5b2 ca3c cbf9 19be
000003e0: f28b e93b fdd5 00bf ff0e 29be eb70 fe3e
000003f0: 71e6 dbbe 240a 98be 6594 f1be 4872 b53d

linear1.bias f4 [128]
0.10169362 -0.4170743 0.26448327 -0.25397 0.55944294 -0.03669087 0.40914714 0.46060547
-0.24918519 0.16312222 0.09682678 0.17509952 0.0602296 0.19190887 0.22267526 0.35507992
0.17996928 -0.40462968 -0.25135952 0.5169481 0.35541743 0.0067647076 0.5393305 0.32909653
0.33600247 -0.28475487 0.38937807 0.11051359 -0.41691568 0.1938796 0.2835245 0.081773855
-0.3819389 0.4030256 0.25324517 0.5336225 0.0141054345 0.35101986 0.115501635 0.0016870901
-0.3577296 -0.070684016 0.45639318 0.59211034 -0.23536476 0.43344048 -0.39030236 0.16113137
0.016660456 -0.035835892 -0.046690866 0.4202816 0.2690918 0.45466262 0.14487861 -0.33449513
-0.11759757 0.31523353 0.043712772 0.20137562 0.47640672 -0.21273726 -0.17753261 -0.4161836
-0.20602326 0.46647575 -0.040000748 0.18321605 -0.29397362 -0.32212174 0.33064505 0.04143458
0.30909014 0.12822653 0.16783202 -0.16221936 -0.2579614 -0.017972497 0.15641572 -0.17376271
0.32393914 -0.39225143 0.080193415 -0.28377166 0.35610884 -0.3946698 -0.39123598 -0.21466592
0.1086426 -0.4262151 0.13214827 0.19975275 -0.460994 -0.16311514 0.081668474 0.015074187
0.20952253 -0.10440026 0.47968745 0.18710078 -0.19305958 -0.2929557 0.47047225 -0.36925206
0.02063194 -0.34094736 -0.307227 0.35955712 -0.15865222 0.312289 0.27173045 0.19236238
-0.09130979 -0.44410303 0.09111884 -0.15046446 0.17279266 0.2870182 0.2757478 0.40145257
-0.032881163 -0.37108845 0.21925695 -0.48064503 0.20860043 -0.2499016 -0.041845288 0.32522058
00000000: bf44 d03d c38a d5be 5a6a 873e 5b08 82be
00000010: a737 0f3f 2a49 16bd bc7b d13e 7bd4 eb3e
00000020: 672a 7fbe 8309 273e 1e4d c63d 4a4d 333e
00000030: 50b3 763d c283 443e fc04 643e 09cd b53e
00000040: de49 383e 9f2b cfbe 32b2 80be b656 043f
00000050: 46f9 b53e 7baa dd3b 9011 0a3f 577f a83e
00000060: 8408 ac3e 64cb 91be 905c c73e f354 e23d
00000070: f975 d5be 6088 463e 202a 913e 0d79 a73d
00000080: 7f8d c3be 5f59 ce3e 5aa9 813e 7c9b 083f
00000090: 7b1a 673c e0b8 b33e 1f8c ec3d 5a21 dd3a
000000a0: 5628 b7be c8c2 90bd 5eac e93e 8b94 173f
000000b0: 7603 71be e9eb dd3e b6d5 c7be 9fff 243e
000000c0: 827b 883c a8c8 12bd ec3e 3fbd 262f d73e
000000d0: 67c6 893e 8ac9 e83e 0f5b 143e f242 abbe
000000e0: ffd6 f0bd 4a66 a13e 2a0c 333d 6935 4e3e
000000f0: 95eb f33e ccd7 59be 1ccb 35be 0416 d5be
00000100: c3f7 52be e9d5 ee3e d3d7 23bd fd9c 3b3e
00000110: b683 96be 24ed a4be 4f4a a93e 4eb7 293d
00000120: 1041 9e3e d14d 033e 28dc 2b3e d51c 26be
00000130: 8413 84be 0f3b 93bc 712b 203e daee 31be
00000140: 5adb a53e 2ed5 c8be 723c a43d 854a 91be
00000150: e653 b63e 2912 cabe 1550 c8be 62d1 5bbe
00000160: 0380 de3d de38 dabe e051 073e fc8b 4c3e
00000170: 6807 ecbe a807 27be cd41 a73d b9f9 763c
00000180: 138d 563e cecf d5bd 9899 f53e 5997 3f3e
00000190: 69b1 45be 4afe 95be bde1 f03e 9b0e bdbe
000001a0: 5004 a93c a790 aebe db4c 9dbe df17 b83e
000001b0: ba75 22be 58e4 9f3e 4120 8b3e a5fa 443e
000001c0: a100 bbbd 7961 e3be 849c ba3d 5b13 1abe
000001d0: 8ff0 303e 0df4 923e d12e 8d3e 318b cd3e
000001e0: 66ae 06bd 4eff bdbe e584 603e 1b17 f6be
000001f0: 5a9b 553e 34e6 7fbe f765 2bbd 5083 a63e

linear2.weight f4 [256, 128]
-0.016468227 -0.057171967 0.026344331 0.04141278 -0.08718676 0.014062889 -0.04348936 0.08157209
0.0545521 -0.036224484 -0.059316583 0.065857515 -0.06611522 0.026877386 -0.079130456 -0.024452357
-0.0732174 -0.009558864 -0.033819463 -0.035423905 0.052703205 -0.024895258 -0.06293562 -0.013316722
-0.022366669 -0.01330249 -0.05788489 0.017605286 0.0014939234 0.04543301 0.00461211 -0.08890511
0.07199978 0.063635774 0.08533863 0.082707204 0.0012419447 -0.08375921 -0.0155405775 -0.018259294
0.07832853 0.025504775 -0.011944977 0.0785114 0.007082127 -0.03616782 -0.04282382 0.026482007
-0.067935795 0.08435982 -0.08568064 0.01146481 0.04501848 -0.05541212 -0.059386235 -0.036657475
-0.028852288 -0.030046314 -0.07480539 -0.049958773 0.039321166 -0.03534483 -0.020665146 0.04454822
0.004118137 0.023121592 -0.057819653 -0.0022630484 -0.046954453 0.015694335 -0.058055416 -0.03096573
0.06526487 -0.082948126 -0.08505004 -0.0874405 -0.027232416 0.048301205 0.048152465 -0.023953192
0.05508903 -0.06653477 0.058660924 -0.009541288 -0.08422561 0.02089198 -0.065279454 0.00719025
0.014889199 0.035931006 -0.027408294 -0.07759672 -0.020880625 -0.08235428 -0.0147728175 -0.08599824
-0.052947275 0.034812704 -0.084110714 -0.020529183 0.044512294 0.03294518 0.083325766 -0.058992922
-0.082708634 -0.08745803 0.020463362 0.038646385 -0.06751189 0.072394475 -0.08829813 -0.06328535
0.06585152 -0.025961857 -0.0074058142 -0.03275515 0.083204545 0.04696803 -0.06115927 0.015588039
-0.02027236 -0.013735309 -0.07863191 -0.084673494 0.0838167 -0.01249437 -0.005575183 0.078001685
-0.033982504 -0.022539066 -0.06991179 0.021796376 -0.06315341 0.08276412 0.019447105 0.002212654
0.012457507 0.009341889 -0.053004865 0.021290546 0.05593756 0.031227857 -0.05612374 0.0282573
-0.040623017 0.02044173 0.04814243 -0.035310764 -0.048859887 0.028137928 0.07282848 -0.10116585
0.051866524 -0.025511552 -0.024006778 0.0035989562 -0.028321432 0.014530281 0.011069613 0.071211845
-0.019080695 -0.08032088 0.02212925 -0.06921791 0.058948405 0.0062216497 -0.073289156 0.05563176
-0.075759284 -0.032539397 0.052433044 0.064004846 -0.0654986 -0.012277309 0.03172797 -0.08637974
0.053723503 0.07746409 -0.013887942 -0.052121535 0.06722522 -0.047805265 -0.009674376 0.03134767
0.044610523 0.03190863 0.051375598 0.009084906 0.054041136 0.04884097 0.06474782 -0.005982743
-0.060949653 -0.0503677 0.015764927 -0.069491446 -0.069683865 -0.00027840235 0.032372326 0.04536481
0.079234354 -0.03237308 -0.060808953 0.01567698 -0.04226207 -0.05995162 0.029818183 0.0032427714
-0.0020862753 -0.081802115 0.0405832 -0.037871428 -0.07808995 0.06613157 -0.0785032 -0.012369771
-0.04612833 -0.05931583 0.0055735703 -0.055338334 0.04333075 -0.062088437 -0.08120689 0.04581623
-0.037028268 -0.058149993 -0.090508424 -0.045253333 -0.029513603 0.045292847 -0.011022928 0.012198004
0.048345454 0.036121156 0.043139566 0.04576698 0.06480715 0.012939124 0.01143925 0.0018549871
-0.09109173 -0.044837054 -0.072224125 -0.02798015 -0.04132985 -0.0018252106 -0.0070725 -0.06745265
0.02416104 -0.06349733 -0.084643565 0.0629208 -0.06553141 -0.07109389 0.07626908 -0.036383502
00000000: 60e8 86bc 272d 6abd 11d0 d73c 72a0 293d
00000010: f98e b2bd 0868 663c e621 32bd 450f a73d
00000020: 0672 5f3d 2060 14bd f2f5 72bd 4ee0 863d
00000030: 6b67 87bd f72d dc3c 260f a2bd 4f50 c8bc
00000040: 01f3 95bd c89c 1cbc 4786 0abd a818 11bd
00000050: 51df 573d 24f1 cbbc 64e4 80bd 612e 5abc
00000060: 4e3a b7bc b0f2 59bc b518 6dbd f638 903c
00000070: c0cf c33a f717 3a3d 2f21 973b e213 b6bd
00000080: 9f74 933d 7953 823d 05c6 ae3d 6562 a93d
00000090: c0c8 a23a f389 abbd e89d 7ebc 8494 95bc
000000a0: b56a a03d 64ef d03c ddb4 43bc 96ca a03d
000000b0: 3011 e83b b524 14bd 0868 2fbd cbf0 d83c
000000c0: ec21 8bbd d7c4 ac3d 5579 afbd e6d6 3b3c
000000d0: 4c65 383d d2f7 62bd fb3e 73bd 2626 16bd
000000e0: a25b ecbc b023 f6bc 9133 99bd 92a1 4cbd
000000f0: 3b0f 213d bec5 10bd f449 a9bc 3278 363d
00000100: 70f1 863b 7e69 bd3c 4dd4 6cbd a74f 14bb
00000110: 5053 40bd 6891 803c 84cb 6dbd d8ab fdbc
00000120: 97a9 853d b5e0 a9bd b72e aebd 0114 b3bd
00000130: 8416 dfbc 7cd7 453d 853b 453d 7c39 c4bc
00000140: 09a5 613d 6243 88bd 7046 703d 1053 1cbc
00000150: 7a7e acbd a825 ab3c 3cb1 85bd 309c eb3b
00000160: d4f1 733c 642c 133d 5c87 e0bc 07eb 9ebd
00000170: d80d abbc 5ca9 a8bd b009 72bc d81f b0bd
00000180: 3edf 58bd c497 0e3d 3d42 acbd d12c a8bc
00000190: 8652 363d 86f1 063d b3a6 aa3d 90a2 71bd
000001a0: 2563 a9bd 321d b3bd c8a2 a73c ac4b 1e3d
000001b0: ac43 8abd 8e43 943d a6d5 b4bd c09b 81bd
000001c0: 29dd 863d f6ad d4bc 79ac f2bb 442a 06bd
000001d0: 2567 aa3d 8d61 403d 2582 7abd f964 7f3c
000001e0: 3812 a6bc 100a 61bc c409 a1bd 4c69 adbd
000001f0: 17a8 ab3d 30b5 4cbc 06b0 b6bb 59bf 9f3d
00000200: 3d31 0bbd d9a3 b8bc ea2d 8fbd 508e b23c
00000210: 9356 81bd 3c80 a93d 894f 9f3c 2d02 113b
00000220: 921a 4c3c b90e 193c a11b 59bd 8369 ae3c
00000230: c81e 653d 90d1 ff3c 02e2 65bd da7b e73c
00000240: 5264 26bd 6a75 a73c ff30 453d 05a2 10bd
00000250: 4e21 48bd 8381 e63c 1927 953d 0b30 cfbd
00000260: fe71 543d 9afd d0bc dda9 c4bc 77dc 6b3b
00000270: 5902 e8bc 6a10 6e3c 525d 353c 84d7 913d
00000280: 1e4f 9cbc 467f a4bd 6748 b53c 1fc2 8dbd
00000290: e273 713d fbde cb3b a018 96bd 21de 633d
000002a0: af27 9bbd 0848 05bd 08c4 563d f914 833d
000002b0: 2124 86bd c426 49bc 30f5 013d dce7 b0bd
000002c0: 2d0d 5c3d 7ea5 9e3d 408a 63bc 647d 55bd
000002d0: 60ad 893d 74cf 43bd 4681 1ebc 6a66 003d
000002e0: 86b9 363d a0b2 023d 386f 523d dcd8 143c
000002f0: 3d5a 5d3d 780d 483d 819a 843d e30a c4bb
00000300: 58a6 79bd 5d4e 4ebd 7325 813c 8851 8ebd
00000310: 6ab6 8ebd 88f6 91b9 d898 043d 73d0 393d
00000320: 9f45 a23d a299 04bd cf12 79bd 036d 803c
00000330: fe1a 2dbd d48f 75bd 4345 f43c ad84 543b
00000340: e4b9 08bb de87 a7bd 923a 263d 121f 1bbd
00000350: a0ed 9fbd fd6f 873d 49c6 a0bd 94aa 4abc
00000360: 0ff1 3cbd 28f5 72bd 7fa2 b63b 73aa 62bd
00000370: 967b 313d 7250 7ebd cc4f a6bd cda9 3b3d
00000380: f4aa 17bd b02e 6ebd 7b5c b9bd 8f5b 39bd
00000390: 83c6 f1bc fe84 393d 8399 34bc 23da 473c
000003a0: e205 463d c7f3 133d 1db3 303d 2876 3b3d
000003b0: 9cb9 843d 9ffe 533c b16b 3b3c 0a23 f33a
000003c0: 4d8e babd 0fa7 37bd 3eea 93bd a136 e5bc
000003d0: 7d49 29bd e83b efba 6ec0 e7bb 9d24 8abd
000003e0: 60ed c53c e30a 82bd 9b59 adbd 9fdc 803d
000003f0: 5535 86bd ac99 91bd f732 9c3d de06 15bd

linear2.bias f4 [256]
-0.0026007285 0.02861538 0.0072107743 0.13127021 0.0067723296 0.0070452197 -0.070096396 -0.008168252
0.033010036 0.08860197 -0.037226427 -0.010893411 0.029627746 -0.086442046 -0.021344615 -0.049714744
0.063489 -0.02522554 0.04048031 0.022367133 -0.036604945 0.079865344 0.07526042 -0.03084942
0.03757624 0.042825684 0.10001824 0.06335799 0.11284079 0.04602806 0.06378852 0.0044749123
-0.0019593583 -0.031532247 0.049736954 -0.010439564 -0.07038393 -0.058150843 0.06567343 -0.09403153
0.09939457 -0.035942182 -0.057821956 0.05701914 -0.087661445 0.08903607 0.039634805 -0.016438272
-0.021706779 -0.0566924 0.03036094 0.031950165 -0.023087969 0.022142932 0.076152004 0.01629939
-0.011674748 -0.08764787 0.02922229 0.06912599 -0.03458159 0.03591583 -0.0046692034 0.09437704
0.0845943 0.031216396 -0.014087273 0.1234323 -0.012675209 -0.07295735 -0.057515815 0.07505786
0.004116018 -0.022281438 -0.011297832 -0.06811129 0.0060719154 -0.048694927 0.016047832 0.022791658
0.09155067 0.063032664 -0.07770946 -0.09396225 0.03866938 -0.013442995 -0.022698715 -0.025167663
0.04408064 0.057629827 -0.011466949 -0.08846812 0.04084103 0.0013650547 -0.024069563 0.0028731227
-0.04366343 0.04011821 0.06495165 0.058146305 -0.07746727 -0.066314496 0.06080848 0.067702174
0.038128063 0.05659198 -0.07246939 0.055204574 0.041082025 -0.053696062 0.05112865 -0.061856028
-0.0031266105 0.055042803 -0.02118652 -0.029568039 0.07580853 0.072645746 0.094069995 0.014848848
0.086793885 -0.06985827 -0.060194973 -0.049843434 0.012246885 0.027842617 0.052093107 -0.0041078096
0.083216645 0.028264347 0.034838088 -0.017778726 0.011226704 0.07412334 -0.041232187 -0.034968026
-0.021331385 -0.0037760956 -0.10548529 -0.027534856 -0.009165772 -0.06086541 0.02690346 0.032626376
0.09433843 0.03624158 -0.042633355 0.039213475 -0.082450844 0.087933384 0.08007443 0.0034618997
-0.047769606 -0.027798023 0.06718381 0.017724492 -0.014951828 -0.032385033 0.10181334 0.06819498
-0.040955678 0.10169404 0.09414708 0.07754131 0.067548014 0.034761053 0.05595503 0.02627326
0.11066801 -0.06487903 0.1113152 0.029989166 -0.05238912 0.0037847687 -0.08060329 -0.01923583
0.0020442382 0.0032172154 0.014535112 -0.0699094 -0.024764145 0.043961875 -0.060653623 0.06281806
-0.08651281 -0.0848275 -0.023773577 -0.032884784 0.068597876 0.061035585 -0.010262314 -0.031415828
0.015413303 0.11439149 0.080835335 -0.021445174 -0.012273651 0.028409757 -0.05578114 -0.02932235
0.091797136 -0.027920064 0.05822478 0.032374106 0.024949372 -0.06841513 0.037405 0.03962409
0.01847437 0.10713296 -0.09489378 0.118418105 -0.032229345 0.0016067543 0.07719218 0.031493887
-0.07287923 -0.06314396 0.04368812 -0.011293428 -0.007968997 0.078385696 -0.0498813 0.038141217
0.005552308 0.0096911155 -0.02045367 -0.077486865 0.0009374328 0.08939529 -0.05304463 0.08890637
-0.050541468 0.0390158 0.12903638 0.048175137 0.06889229 0.06933546 0.08005695 0.12214771
-0.00043594866 0.009699242 0.092367075 -0.033761065 -0.056397688 -0.031010645 0.04990141 0.04120941
0.010463881 -0.0022448022 -0.027667942 -0.08095844 0.06784 0.02675551 -0.014134345 0.05805361
00000000: fc70 2abb cd6a ea3c 5c48 ec3b b36b 063e
00000010: 6bea dd3b 96db e63b b38e 8fbd 22d4 05bc
00000020: 8835 073d f374 b53d bd7a 18bd 477a 32bc
00000030: e3b5 f23c 8708 b1bd e7da aebc b0a1 4bbd
00000040: 8506 823d cba5 cebc aece 253d 473b b73c
00000050: 11ef 15bd 7190 a33d 2322 9a3d ecb7 fcbc
00000060: 8be9 193d fc69 2f3d 5dd6 cc3d d5c1 813d
00000070: 1219 e73d eb87 3c3d 8ea3 823d 49a2 923b
00000080: 9468 00bb f527 01bd fab8 4b3d b40a 2bbc
00000090: 7325 90bd 942f 6ebd cb7f 863d 9a93 c0bd
000000a0: 618f cb3d 1c38 13bd b7d6 6cbd e78c 693d
000000b0: d887 b3bd 8b58 b63d 1b58 223d 8ea9 86bc
000000c0: 6ad2 b1bc 4a36 68bd 82b7 f83c 2dde 023d
000000d0: fb22 bdbc 1865 b53c 95f5 9b3d 4c86 853c
000000e0: 7147 3fbc ba80 b3bd 9563 ef3c ed91 8d3d
000000f0: 6da5 0dbd 7a1c 133d 1e00 99bb c048 c13d
00000100: c73f ad3d 87b9 ff3c 4ece 66bc 13ca fc3d
00000110: aeab 4fbc aa6a 95bd b495 6bbd efb7 993d
00000120: a9df 863b 9087 b6bc 8b1a 39bc ef7d 8bbd
00000130: ebf6 c63b 5574 47bd be76 833c 92b5 ba3c
00000140: eb7e bb3d 4517 813d 2326 9fbd 486f c0bd
00000150: c963 1e3d 0240 5cbc a8f2 b9bc 6a2c cebc
00000160: e78d 343d 410d 6c3d dfdf 3bbc c62e b5bd
00000170: ed48 273d a3eb b23a 882d c5bc 004b 3c3b
00000180: 6dd8 32bd fe52 243d 5f05 853d d22a 6e3d
00000190: 29a7 9ebd e5cf 87bd 5012 793d 70a7 8a3d
000001a0: 2c2c 1c3d fecc 673d d56a 94bd 311e 623d
000001b0: a045 283d 67f0 5bbd 466c 513d bf5c 7dbd
000001c0: d2e7 4cbb 9074 613d 5a8f adbc ac38 f2bc
000001d0: 8141 9b3d 4bc7 943d c5a7 c03d 9548 733c
000001e0: fec0 b13d da11 8fbd 018f 76bd a128 4cbd
000001f0: 29a7 483c 3316 e43c 955f 553d ce9a 86bb
00000200: 7d6d aa3d a28a e73c 62b2 0e3d b1a4 91bc
00000210: 36f0 373c facd 973d 15e3 28bd a23a 0fbd
00000220: 28bf aebc 5f78 77bb ac08 d8bd c790 e1bc
00000230: 092c 16bc 024e 79bd a564 dc3c 3ca3 053d
00000240: 8234 c13d 0d72 143d 50a0 2ebd 4f9e 203d
00000250: fddb a8bd 6b16 b43d 10fe a33d 0ae1 623b
00000260: 10aa 43bd aeb8 e3bc aa97 893d f432 913c
00000270: 83f8 74bc 2ba6 04bd 8383 d03d cfa9 8b3d
00000280: 24c1 27bd f744 d03d 2fd0 c03d facd 9e3d
00000290: 9d56 8a3d 9b61 0e3d 1a31 653d 053b d73c
000002a0: e9a5 e23d 4cdf 84bd 39f9 e33d d7ab f53c
000002b0: f995 56bd e209 783b 5613 a5bd 7694 9dbc
000002c0: a0f8 053b ebd7 523b ae24 6e3c a92c 8fbd
000002d0: 2dde cabc 5e11 343d ef6f 78bd c1a6 803d
000002e0: a12d b1bd 0aba adbd cec0 c2bc 32b2 06bd
000002f0: 0b7d 8c3d 7300 7a3d 4423 28bc e2ad 00bd
00000300: 1488 7c3c 1646 ea3d ff8c a53d caad afbc
00000310: 6c17 49bc 94bb e83c c47a 64bd 6d35 f0bc
00000320: 2300 bc3d 9eb8 e4bc 1b7d 6e3d b69a 043d
00000330: a062 cc3c 3b1d 8cbd fc35 193d df4c 223d
00000340: 9057 973c 8668 db3d ac57 c2bd 3185 f23d
00000350: eb02 04bd ba99 d23a ef16 9e3d bcff 003d
00000360: b541 95bd 9f51 81bd 50f2 323d 1208 39bc
00000370: 6590 02bc ae88 a03d 5650 4cbd f739 1c3d
00000380: 23f0 b53b 7cc7 1e3c 748e a7bc 6fb1 9ebd
00000390: 0dbe 753a e114 b73d 5345 59bd 8b14 b63d
000003a0: 9204 4fbd 08cf 1f3d 1d22 043e 4b53 453d
000003b0: 6717 8d3d c0ff 8d3d e6f4 a33d 9428 fa3d
000003c0: 0a90 e4b9 92e9 1e3c f32a bd3d 0b49 0abd
000003d0: 4301 67bd 090a febc 6c65 4c3d 33cb 283d
000003e0: b370 2b3c 881d 13bb e1a7 e2bc 8acd a5bd
000003f0: b3ef 8a3d 5f2e db3c bd93 67bc 9fc9 6d3d

linear3.weight f4 [2, 256]
-0.029596131 0.013054646 -0.06999601 0.16557437 0.086509205 -0.10129884 -0.048675716 0.11521094
0.038313963 0.17946286 -0.05565427 -0.0054910453 0.2406344 -0.051468946 0.20423561 0.1389016
-0.02634625 0.014867766 -0.028914727 -0.062271662 -0.0028260818 -0.069054164 -0.029110067 -0.09343829
0.13547301 -0.0072432924 0.10319195 -0.016993802 0.15498544 -0.08668008 0.19483164 0.109371744
-0.07805948 0.13941535 -0.03403288 0.0069668056 0.05100033 0.112632714 -0.056416523 -0.0739537
0.12221706 0.14132869 0.00664532 0.20733672 0.06384478 -0.100720234 0.16287328 -0.031159537
0.09571485 -0.076696 -0.060034808 0.2235116 0.14305304 -0.025898717 -0.10015583 0.01979653
0.14549914 0.0054470547 0.12217341 -0.027256712 -0.0035805134 -0.074644186 -0.006648877 -0.11940944
-0.038557876 -0.13386944 0.15623058 0.14976493 -0.051146396 -0.0262416 -0.099890314 -0.0051639345
0.114461884 0.1605895 -0.030600721 0.053736135 -0.092008494 0.0023552112 -0.08320606 -0.062064093
0.12062299 0.0017341857 0.039741937 0.021054614 -0.1029901 -8.771528e-05 -0.100534506 -0.018734844
-0.002600952 0.17918544 0.005219431 0.041601732 -0.03479496 -0.009743436 0.008898944 -0.04539063
-0.01635842 0.15944539 -0.020204866 -0.043566313 0.008406041 -0.09868546 -0.056375 -0.082877636
0.13510111 0.14130943 -0.10647948 -0.06670931 -0.15860184 0.040587038 -0.1067 0.029077532
-0.036191404 0.13300179 0.12613185 0.20411633 0.137333 0.28185987 0.17401473 -0.18210024
0.1904903 0.06902352 -0.029829081 0.045840222 0.23426577 -0.05156934 -0.08239257 -0.0025502169
-0.063335076 -0.119801864 0.0820881 -0.09101963 0.045249287 0.1285634 -0.057366125 0.031696003
-0.04422866 0.1538641 0.00064386125 0.12353454 -0.03979414 0.013864911 -0.03498168 -0.11293506
0.2116363 0.12864318 0.12351407 -0.06393903 -0.05917903 0.1394317 -0.08058555 0.11792774
-0.13945232 -0.10440401 -0.02668472 0.031015448 -0.1061003 -0.053402938 0.15713522 -0.0770958
0.12956882 -0.08853607 0.17696092 0.24896148 0.05844994 -0.03549101 0.117314816 -0.09143327
-0.102428496 0.022449082 0.13737218 0.070094615 -0.02138087 -0.059880584 0.056461427 -0.0057577533
0.05525346 0.012374777 0.097792916 -0.059223447 -0.107491545 0.01632674 0.031082029 0.21469747
-0.08483183 -0.050705202 0.100961804 -0.022556076 0.077720836 -0.059544988 -0.07975941 -0.027207518
-0.053845085 0.20621192 -0.07031165 0.05758576 0.16070057 0.21800391 -0.07582713 0.09950302
-0.10680483 -0.061744273 0.13339983 0.17848335 0.21333005 0.0026317681 0.17157711 -0.03250019
-0.025758931 -0.080992475 -0.04302427 0.10625098 0.004729554 0.019350287 -0.071981564 -0.053426355
0.02752366 0.1898055 0.019303 -0.10289563 -0.1359491 -0.056266602 0.07119378 0.029492732
-0.06397687 -0.05467005 0.14745668 0.009554431 0.13494603 -0.02102883 0.001491559 0.19754007
0.11582781 -0.028141575 0.11133893 0.14890797 -0.060567006 -0.01805519 0.16135304 0.24499619
-0.076858744 0.12294801 -0.10867242 -0.022058189 -0.024905356 0.122959845 -0.085276164 -0.054377224
-0.09642425 0.058112532 -0.022921855 0.040539976 -0.0038208368 0.062927336 0.10581543 -0.027487315
00000000: 9673 f2bc 27e3 553c 115a 8fbd 548c 293e
00000010: bd2b b13d c475 cfbd 3060 47bd b7f3 eb3d
00000020: 1aef 1c3d 1dc5 373e bbf5 63bd 3aee b3bb
00000030: dd68 763e 1ad1 52bd 2423 513e 393c 0e3e
00000040: 17d4 d7bc ee97 733c 94de ecbc 9210 7fbd
00000050: c935 39bb 456c 8dbd 3c78 eebc 935c bfbd
00000060: 70b9 0a3e 2459 edbb 4d56 d33d 9636 8bbc
00000070: 81b4 1e3e 5385 b1bd f281 473e 4bfe df3d
00000080: a6dd 9fbd e6c2 0e3e 1066 0bbd cd49 e43b
00000090: b9e5 503d fbab e63d 0315 67bd 0a75 97bd
000000a0: f04c fa3d 78b8 103e fcc0 d93b 1450 543e
000000b0: 0dc1 823d 6946 cebd 41c8 263e 4942 ffbc
000000c0: 2606 c43d cb12 9dbd 0fe7 75bd 3ae0 643e
000000d0: 7f7c 123e 8c29 d4bc 801e cdbd 552c a23c
000000e0: bafd 143e 357d b23b 0e36 fa3d 7849 dfbc
000000f0: 0ca7 6abb 0ddf 98bd d3de d9bb f08c f4bd
00000100: ddee 1dbd 1215 09be e9fa 1f3e fa5b 193e
00000110: e27e 51bd a0f8 d6bc 4b93 ccbd 3936 a9bb
00000120: fe6a ea3d 9371 243e 5dae fabc 6c1a 5c3d
00000130: f36e bcbd e359 1a3b f067 aabd eb36 7ebd
00000140: 3009 f73d 9e4d e33a 71c8 223d ba7a ac3c
00000150: 79ec d2bd c8f3 b7b8 09e5 cdbd d179 99bc
00000160: bc74 2abb 637c 373e c307 ab3b 9466 2a3d
00000170: 2985 0ebd efa2 1fbc e0cc 113c 86eb 39bd
00000180: 1802 86bc a745 233e ad84 a5bc 9772 32bd
00000190: 7eb9 093c 9a1b cabd 79e9 66bd c0bb a9bd
000001a0: f257 0a3e 6bb3 103e ea11 dabd e49e 88bd
000001b0: 8568 22be 983e 263d 8885 dabd 0134 ee3c
000001c0: 703d 14bd 9f31 083e b528 013e df03 513e
000001d0: 06a1 0c3e f04f 903e eb30 323e 7c78 3abe
000001e0: e40f 433e 345c 8d3d 1e5c f4bc f5c2 3b3d
000001f0: 5ee3 6f3e 5f3a 53bd 70bd a8bd 8a21 27bb
00000200: d2b5 81bd ae5a f5bd ce1d a83d 8068 babd
00000210: 5157 393d 20a6 033e bef8 6abd abd3 013d
00000220: 1d29 35bd 8d8e 1d3e ccc8 283a adff fc3d
00000230: 2eff 22bd a729 633c f348 0fbd 7f4a e7bd
00000240: 30b7 583e 0abb 033e f2f4 fc3d 77f2 82bd
00000250: b665 72bd 2fc7 0e3e 090a a5bd 1984 f13d
00000260: 97cc 0ebe c5d1 d5bd ea99 dabc 1c14 fe3c
00000270: 1d4b d9bd 0abd 5abd 0ee8 203e 67e4 9dbd
00000280: b0ad 043e 6652 b5bd 3e35 353e c2ef 7e3e
00000290: 3469 6f3d 055f 11bd c042 f03d 5e41 bbbd
000002a0: 08c6 d1bd 23e7 b73c 4bab 0c3e c48d 8f3d
000002b0: ef26 afbc 5845 75bd 1944 673d 89ab bcbb
000002c0: 7451 623d 94bf 4a3c a747 c83d 4994 72bd
000002d0: 8724 dcbd a8bf 853c bd9f fe3c a7d9 5b3e
000002e0: 4fbc adbd 42b0 4fbd 10c5 ce3d 85c7 b8bc
000002f0: 1a2c 9f3d 72e5 73bd e758 a3bd 4de2 debc
00000300: aa8c 5cbd 3829 533e 8eff 8fbd 0cdf 6b3d
00000310: b18e 243e 6b3c 5f3e 414b 9bbd 3dc8 cb3d
00000320: 7ebc dabd 90e7 7cbd f799 083e 57c4 363e
00000330: 3173 5a3e be79 2c3b e9b1 2f3e eb1e 05bd
00000340: 6504 d3bc 62df a5bd 383a 30bd 1d9a d93d
00000350: 60fa 9a3b 7e84 9e3c 126b 93bd 98d5 5abd
00000360: 4c79 e13c 5f5c 423e 5321 9e3c f2ba d2bd
00000370: 3e36 0bbe cf77 66bd 0bce 913d be9a f13c
00000380: 4e06 83bd b4ed 5fbd e2fe 163e 308a 1c3c
00000390: 4b2f 0a3e a744 acbc 6a80 c33a f247 4a3e
000003a0: 2137 ed3d 2989 e6bc aa05 e43d 557b 183e
000003b0: 1c15 78bd 7ae8 93bc bb39 253e 48e0 7a3e
000003c0: 1e68 9dbd 2bcc fb3d a58f debd 60b3 b4bc
000003d0: 5106 ccbc 5fd2 fb3d 45a5 aebd a7ba 5ebd
000003e0: 147a c5bd 6807 6e3d 9dc6 bbbc 3f0d 263d
000003f0: 0167 7abb 0ce0 803d c3b5 d83d 142d e1bc

linear3.bias f4 [2]
-0.049083974 -0.033083033
00000000: 470c 49bd 1382 07bd
