models/ACCartPole-v0/critic.pth (torch, 137559 bytes, 5 tensors)

linear1.weight f4 [128, 4]
-0.080840066 -0.3172018 -0.42793328 0.28916773 -0.31420648 0.104828484 -0.42255738 -0.022131968
0.08452576 0.13251616 -0.040213786 -0.03892617 0.013302268 0.29893935 -0.6317516 0.34031194
-0.1482398 -0.34000337 -0.4342381 -0.45975876 0.14598382 -0.15445639 -0.4964787 -0.38394555
0.3652034 0.24966195 0.044709463 -0.41302863 0.040280916 0.40980387 -0.2525929 0.3161212
0.5980442 0.3946042 -0.1491175 -0.3880312 -0.46140718 0.50159615 0.32415193 -0.34964117
-0.035323095 -0.09360293 0.01765117 -0.00955519 -0.3284128 -0.1786275 -0.27454147 -0.20195465
0.20677246 0.21965784 0.7902292 0.48176998 -0.23366007 0.09010372 -0.49429873 -0.35410422
0.38098267 0.5084327 0.3214977 0.34737828 -0.5483896 -0.20155981 0.29457358 -0.057408962
0.15988564 0.49312186 -0.11363933 0.0075369445 0.3070836 0.5475793 0.5306771 0.254322
0.5676514 0.2629448 0.29641053 0.40504307 -0.18691333 -0.08678549 -0.40155965 -0.3727164
-0.22193983 -0.17152217 -0.06983222 -0.20973514 -0.17845199 0.4542411 0.31472236 0.11407456
0.34477243 0.41132033 -0.21284898 0.22204854 -0.03134242 0.150764 -0.1358609 0.044440236
0.523923 0.25626087 -0.10181286 0.48606476 0.15279359 0.34332374 0.027288385 -0.026141958
-0.3474754 0.47674507 -0.5184789 0.38277858 -0.058200836 0.13932517 -0.18455051 -0.47546136
-0.110209234 0.39165536 -0.5318891 -0.34546706 0.094326 0.1951411 0.8575141 0.28298426
-0.13848191 -0.2879565 0.14162025 -0.13736165 0.1225058 0.096852586 -0.087401144 0.39192885
-0.1252768 0.119431116 -0.10936015 -0.12718587 -0.27379945 -0.40834448 -0.6125565 0.289135
0.09817627 0.31647223 0.4596377 0.3905404 -0.19856568 -0.442684 0.09756932 -0.101342455
-0.2396333 0.026328431 0.021103133 -0.07252036 0.06747137 -0.16895239 -0.071285196 -0.034905907
0.03420302 -0.36732078 -0.5290822 -0.23166059 -0.23720475 -0.12156988 -0.069403596 0.4944321
0.33889297 0.0020311824 0.44828472 0.49099565 -0.29138923 0.22863857 -0.09107952 0.327917
0.49113226 0.1037811 0.19611764 0.10632819 -0.40309256 0.42100126 0.07133493 -0.48835889
-0.54822844 -0.37235752 -0.24450055 -0.20580499 -0.3450773 0.059819207 -0.4719455 0.12388163
-0.2316011 0.06561521 -0.15841289 -0.016403342 -0.27977753 0.13086171 -0.39220762 -0.07490778
-0.14910677 -0.29989365 0.2615396 0.35792148 -0.17184556 -0.35953116 -0.05291047 -0.31983054
0.15670894 0.5024613 0.6445814 0.08316865 -0.262903 -0.30255035 0.031885054 -0.4213308
0.29032603 -0.35960504 -0.23848385 -0.09961801 -0.28064606 0.30935404 0.11271654 -0.014974237
-0.27684012 0.25600713 0.058354177 0.15218095 0.29467434 -0.3128959 -0.25287154 -0.24587469
-0.18134966 0.3812266 -0.32948223 0.08252734 0.31726116 -0.3468138 0.7379772 0.3994685
-0.038581595 0.4197503 0.2063232 -0.25979364 -0.20974432 -0.0064857565 -0.41812858 -0.030407475
0.19467473 -0.115330696 -0.010300764 -0.32300857 -0.07912951 0.2683295 -0.48068577 -0.59595233
0.19931227 -0.015951859 0.24605012 -0.3140356 0.43945348 -0.31149507 -0.13461377 0.46581757
00000000: 7a8f a5bd 4668 a2be 121a dbbe cb0d 943e
00000010: acdf a0be 51b0 d63d 7159 d8be 1a4e b5bc
00000020: d71b ad3d 51b2 073e 36b7 24bd 0c71 1fbd
00000030: c2f1 593c 940e 993e 79ba 21bf 5e3d ae3e
00000040: 2dcc 17be ec14 aebe 7554 debe 8065 ebbe
00000050: c87c 153e d129 1ebe 7532 febe 8394 c4be
00000060: f1fb ba3e 62a7 7f3e 4521 373d 7d78 d3be
00000070: 9afd 243d d0d1 d13e db53 81be a3da a13e
00000080: 6d19 193f 9009 ca3e 42b2 18be 07ac c6be
00000090: 903d ecbe 9b68 003f 3ef7 a53e 2b04 b3be
000000a0: f3ae 10bd e5b2 bfbd 3099 903c 5f8d 1cbc
000000b0: b925 a8be 21ea 36be b390 8cbe 33cd 4ebe
000000c0: 29bc 533e fced 603e 764c 4a3f 8eaa f63e
000000d0: 9644 6fbe 4d88 b83d b914 fdbe 264d b5be
000000e0: 2910 c33e a528 023f 599b a43e 91db b13e
000000f0: 4363 0cbf b265 4ebe 59d2 963e a925 6bbd
00000100: 10b9 233e 787a fc3e bdbb e8bd 79f8 f63b
00000110: 103a 9d3e 282e 0c3f 74da 073f 7e36 823e
00000120: 9a51 113f b3a0 863e 1fc3 973e ce61 cf3e
00000130: 3566 3fbe 97bc b1bd 3a99 cdbe afd4 bebe
00000140: 3244 63be 82a3 2fbe 3204 8fbd cfc4 56be
00000150: 1ebc 36be 4a92 e83e 4a23 a13e ec9f e93d
00000160: 0386 b03e 9498 d23e 15f5 59be b160 633e
00000170: e960 00bd e161 1a3e 1f1f 0bbe f706 363d
00000180: d11f 063f a034 833e 4383 d0bd 7bdd f83e
00000190: ec75 1c3e 21c8 af3e e48b df3c a927 d6bc
000001a0: 4ce8 b1be ee17 f43e 08bb 04bf 8efb c33e
000001b0: 0064 6ebd 42ab 0e3e cffa 3cbe ac6f f3be
000001c0: 61b5 e1bd 0d87 c83e e229 08bf 0fe1 b0be
000001d0: fd2d c13d 12d3 473e 0b86 5b3f 50e3 903e
000001e0: 34ce 0dbe 096f 93be e604 113e 88a8 0cbe
000001f0: 52e4 fa3d a65a c63d 5fff b2bd e6aa c83e
00000200: 9048 00be 4d98 f43d 37f8 dfbd 033d 02be
00000210: 712f 8cbe 8712 d1be 81d0 1cbf 8109 943e
00000220: a410 c93d a608 a23e a255 eb3e e9f4 c73e
00000230: cd54 4bbe 7aa7 e2be 6cd2 c73d a28c cfbd
00000240: 6f62 75be b9ae d73c 7ae0 ac3c 8e85 94bd
00000250: 6e2e 8a3d db01 2dbe f9fd 91bd 7ff9 0ebd
00000260: 7718 0c3d 7811 bcbe ee71 07bf 6f38 6dbe
00000270: cde5 72be a1f9 f8bd 7923 8ebd 3426 fd3e
00000280: 6183 ad3e 961d 053b 9385 e53e c863 fb3e
00000290: f830 95be 3b20 6a3e e687 babd bde4 a73e
000002a0: b075 fb3e 2f8b d43d 10d3 483e 98c2 d93d
000002b0: 2662 cebe 7a8d d73e 0c18 923d 2d0a fabe
000002c0: b358 0cbf a5a5 bebe 5a5e 7abe 8bbe 52be
000002d0: f9ad b0be fc04 753d d7a2 f1be a7b5 fd3d
000002e0: d728 6dbe 4461 863d fd36 22be 4d60 86bc
000002f0: 003f 8fbe 9d00 063e 70cf c8be 4069 99bd
00000300: 72af 18be a98b 99be 85e8 853e 7c41 b73e
00000310: 48f8 2fbe 7814 b8be a6b8 58bd d4c0 a3be
00000320: 4f78 203e 4ea1 003f 4903 253f 5354 aa3d
00000330: 399b 86be e1e7 9abe e799 023d acb8 d7be
00000340: 9da5 943e 271e b8be 1c35 74be 8704 ccbd
00000350: d7b0 8fbe a763 9e3e eed7 e63d 8156 75bc
00000360: fdbd 8dbe 5e13 833e ca04 6f3d 53d5 1b3e
00000370: 8edf 963e e433 a0be 6178 81be 93c6 7bbe
00000380: bab3 39be 2230 c33e e5b1 a8be 1804 a93d
00000390: 0e70 a23e 9491 b1be 13ec 3c3f 2387 cc3e
000003a0: bc07 1ebd 83e9 d63e 6446 533e ac03 85be
000003b0: 37c7 56be 7886 d4bb f314 d6be 1919 f9bc
000003c0: d058 473e 8032 ecbd 89c4 28bc 6161 a5be
000003d0: a70e a2bd 7c62 893e 721c f6be 5590 18bf
000003e0: 8418 4c3e 79ad 82bc 90f4 7b3e 46c9 a0be
000003f0: 0c00 e13e 487c 9fbe 31d8 09be a47f ee3e

linear1.bias f4 [128]
0.5231383 0.49332303 0.63838434 0.4323435 0.33750442 0.54924446 0.09881648 0.49778607
-0.31541434 0.25123778 0.46307316 -0.053290103 -0.17094311 0.44080877 -0.027202185 -0.17130296
-0.3410602 -0.38705286 -0.02691546 0.40537968 0.49759308 -0.33420932 -0.056111798 0.42655522
-0.106419615 0.5208496 0.3258669 -0.15374073 -0.26197475 -0.042067174 0.57383025 -0.27335867
-0.23807587 0.3927415 -0.12608327 0.39872894 0.38658193 0.2619783 0.3824688 -0.30199328
-0.4330748 0.46749786 -0.24522816 -0.11457537 -0.16253942 -0.23735331 0.34510767 0.55473197
-0.37498382 0.41455615 -0.2348005 -0.06743184 0.49558228 0.24350253 0.2550842 0.5862465
0.5064975 -0.3515865 -0.4205394 0.33360267 0.56393856 0.07140978 -0.17766607 -0.26142266
0.6472397 -0.45574862 0.3679122 0.6553423 -0.1397982 -0.20902616 -0.08580574 -0.27263764
0.53948754 0.2743906 -0.30715734 -0.018876396 0.49715516 -0.2996684 -0.49050748 0.62281144
0.5570697 0.6563162 0.41438022 -0.21075931 0.37316763 0.49001682 0.6332514 -0.29104102
0.6745147 -0.18565635 0.6871828 -0.019289404 0.5909609 0.36177978 0.43636215 0.014164581
0.30837238 -0.21798277 -0.19730888 0.28377056 -0.1480054 0.4883572 -0.3337093 -0.065383255
0.26832607 -0.30168426 -0.0054854676 0.45467275 0.4792358 0.47097522 -0.36230645 0.2899181
0.6639705 0.6754062 0.5187138 -0.13119993 0.5637235 0.5433546 -0.43476668 0.26689956
0.043564394 -0.076577 -0.0035717841 0.48482534 0.44867092 0.5163162 -0.13500246 0.23905873
00000000: 64ec 053f d694 fc3e 286d 233f 215c dd3e
00000010: 61cd ac3e 499b 0c3f 4b60 ca3d d1dd fe3e
00000020: fd7d a1be 3da2 803e ed17 ed3e b946 5abd
00000030: b60b 2fbe b0b1 e13e 1ed7 debc 0b6a 2fbe
00000040: 719f aebe cb2b c6be d07d dcbc ed8d cf3e
00000050: 85c4 fe3e 7c1d abbe 7cd5 65bd 7265 da3e
00000060: 87f2 d9bd 6656 053f 07d8 a63e 366e 1dbe
00000070: 8e21 86be a14e 2cbd 8ae6 123f abf5 8bbe
00000080: 29ca 73be 6a15 c93e f91b 01be 3326 cc3e
00000090: 11ee c53e 0522 863e f3d2 c33e dd9e 9abe
000000a0: fbbb ddbe e15b ef3e 171d 7bbe 7ea6 eabd
000000b0: bc70 26be bf0c 73be f4b1 b03e ea02 0e3f
000000c0: e1fd bfbe b440 d43e 8b6f 70be b419 8abd
000000d0: f6bc fd3e ba58 793e 659a 823e 4014 163f
000000e0: d2a9 013f 2503 b4be f150 d7be f8cd aa3e
000000f0: 475e 103f 4a3f 923d 18ee 35be 31d9 85be
00000100: 80b1 253f e257 e9be fd5e bc3e 83c4 273f
00000110: 4227 0fbe f40a 56be ebba afbd 2997 8bbe
00000120: db1b 0a3f ed7c 8c3e ba43 9dbe aca2 9abc
00000130: 1f8b fe3e 236e 99be cc23 fbbe 9270 1f3f
00000140: 1f9c 0e3f 5704 283f a529 d43e 4ad1 57be
00000150: d40f bf3e 7ce3 fa3e c41c 223f 5403 95be
00000160: ffac 2c3f b31c 3ebe 36eb 2f3f d004 9ebc
00000170: 3749 173f 333b b93e dc6a df3e 8f12 683c
00000180: fce2 9d3e e036 5fbe 570b 4abe 604a 913e
00000190: ba8e 17be f409 fa3e f2db aabe a8e7 85bd
000001a0: 0962 893e 5c76 9abe 70bf b3bb deca e83e
000001b0: 655e f53e aa23 f13e 3b80 b9be 2570 943e
000001c0: f8f9 293f 6ce7 2c3f 6dca 043f 4659 06be
000001d0: 2f50 103f 4919 0b3f bd99 debe 0fa7 883e
000001e0: 9470 323d 67d4 9cbd 9814 6abb 073b f83e
000001f0: 32b8 e53e 4c2d 043f 163e 0abe d0cb 743e

linear2.weight f4 [256, 128]
0.033252466 -0.07707344 -0.046776153 -0.05298905 0.026822744 0.027899705 0.078434326 -0.052230414
0.08679057 -0.060049307 -0.0633296 -0.04565381 0.060224596 -0.07349563 0.009982057 -0.009602455
-0.028969932 0.08368363 -0.08539788 -0.03783865 0.0211769 -0.0846389 -0.05494577 -0.05512251
0.046293158 -0.02245692 -0.029545443 -0.081125826 0.025675975 -0.09559684 0.055712122 0.0040268246
-0.048411567 0.052261434 0.07331512 -0.03847281 -0.059108667 -0.027072482 0.022917908 -0.05482898
0.06747032 0.052635197 -0.0733463 -0.0868068 0.075640425 -0.039740197 0.0021017764 -0.0022532437
-0.020912055 0.00074246747 0.024535112 0.051788315 0.04968677 -0.034308936 0.025862638 -0.086905114
0.026075132 -0.08259493 -0.01025106 -0.071077146 0.046335418 -0.021932118 0.0056425333 0.060929745
-0.03238439 0.08391749 0.012274966 0.030675624 0.026724448 0.022053927 -0.020789817 -0.0025473875
-0.047269456 -0.045775615 0.045486443 0.020008765 0.014402006 0.02589149 0.08277247 -0.061059136
0.061617155 0.041698962 0.040445156 0.071277015 0.027454797 0.030536495 -0.07251122 -0.07985844
0.04858884 0.06750675 -0.074212275 -0.08397218 0.06720144 -0.058002513 -0.04324072 -0.043767296
-0.0363903 0.049988974 0.07010508 0.057126172 -0.070881106 -0.015042022 -0.009421423 -0.09724472
-0.03276354 0.03240452 -0.0283686 -0.039718516 -0.052273568 0.042857587 0.049881198 0.04642613
-0.028472926 -0.036069255 0.030932631 0.023419373 -0.084276974 -0.07836232 0.01466329 -0.072527744
-0.04633352 -0.020707974 -0.0737735 -0.08288271 0.050504617 -0.1072182 -0.086533025 -0.012499781
0.10521973 0.29098222 0.06404466 0.08593851 0.3075001 0.0024666747 -0.10304686 0.29288235
-0.11942785 0.13964516 0.19226632 -0.12069542 -0.2580576 0.10769809 -0.23374023 -0.062477134
-0.095182925 -0.028276172 -0.1103791 0.027945103 0.2957694 -0.14095937 -0.16687256 0.049050696
-0.070664674 0.061342966 0.25326937 0.06876652 -0.0011474194 -0.24110411 0.25986725 -0.09368609
-0.09069427 0.06360487 -0.25971624 0.13526681 0.18302281 0.18617485 0.22488129 0.060269855
-0.19458762 0.19403388 -0.07933699 0.06249468 -0.12697263 -0.02017476 0.13875632 0.14243384
0.060890168 0.28956175 -0.078974664 -0.13628626 0.17526636 0.030628003 0.24564911 0.23468968
0.10606283 -0.045192175 -0.03289142 0.27496025 0.053408686 -0.048790015 -0.119631544 -0.0016601669
-0.023765555 -0.067946166 0.18516684 0.09312542 0.10523582 -0.013756902 -0.13445273 -0.06477958
0.16284455 0.16477595 -0.15644374 -0.30400518 0.05978052 -0.11249509 0.04457807 0.13610744
0.23273006 0.24491166 0.095810704 -0.086107 0.043633677 0.15589806 0.23034784 -0.16151193
0.17474225 -0.18481831 -0.030455269 -0.3209388 0.16878363 0.2984946 0.053505413 -0.09508316
0.22963388 -0.19013155 0.0075640697 0.004124202 -0.07744325 0.21621442 -0.21052593 -0.12282689
0.15083747 -0.06966674 0.097186364 0.2334925 0.10685199 0.11778098 -0.029499553 0.0648665
0.2065243 0.14478399 0.15515363 -0.033584673 0.061727166 0.007178581 -0.0663937 0.060768902
0.051844418 -0.03864061 -0.02000071 0.14100993 0.23651855 0.20017292 -0.18372937 -0.07728588
00000000: bd33 083d aed8 9dbd 5a98 3fbd 0c0b 59bd
00000010: 5fbb db3c ec8d e43c 2da2 a03d 8fef 55bd
00000020: 41bf b13d 43f6 75bd f3b2 81bd 7dff 3abd
00000030: 11ae 763d e084 96bd c88b 233c 9e53 1dbc
00000040: 5a52 edbc 5362 ab3d 15e5 aebd b3fc 1abd
00000050: 2e7b ad3c 2957 adbd d10e 61bd 24c8 61bd
00000060: e59d 3d3d 93f7 b7bc 4909 f2bc 4c25 a6bd
00000070: 6c56 d23c 47c8 c3bd 6532 643d 74f3 833b
00000080: 354b 46bd 1610 563d 3d26 963d aa95 1dbd
00000090: ee1b 72bd 1cc7 ddbc 56be bb3c 5a94 60bd
000000a0: e12d 8a3d 0198 573d 9636 96bd c3c7 b1bd
000000b0: 5ee9 9a3d 9ec6 22bd f5bd 093b 28ab 13bb
000000c0: c24f abbc 26a2 423a dcfd c83c fc1f 543d
000000d0: 5b84 4b3d 8787 0cbd e2dd d33c 4ffb b1bd
000000e0: 849b d53c 8827 a9bd 10f4 27bc e590 91bd
000000f0: 35ca 3d3d fcaa b3bc 00e5 b83b 7891 793d
00000100: 7ea5 04bd efdc ab3d f01c 493c 724b fb3c
00000110: 3bed da3c 70aa b43c 684f aabc 12f2 26bb
00000120: 9e9d 41bd 367f 3bbd fe4f 3a3d 6ce9 a33c
00000130: 64f6 6b3c 641a d43c 9d84 a93d 2519 7abd
00000140: 4562 7c3d 88cc 2a3d d2a9 253d aff9 913d
00000150: e2e8 e03c ac27 fa3c c380 94bd d28c a3bd
00000160: 1705 473d fb40 8a3d 9bfc 97bd 9bf9 abbd
00000170: e9a0 893d 0b94 6dbd 2e1d 31bd 5645 33bd
00000180: ff0d 15bd 3dc1 4c3d 4193 8f3d 22fd 693d
00000190: 1d2a 91bd d072 76bc 505c 1abc 3d28 c7bd
000001a0: 1033 06bd 9aba 043d 4465 e8bc e2af 22bd
000001b0: cf1c 56bd 708b 2f3d 3a50 4c3d 5329 3e3d
000001c0: 0e40 e9bc 5bbd 13bd 6e66 fd3c fcd9 bf3c
000001d0: 6899 acbd 6d7c a0bd 4c3e 703c 6d89 94bd
000001e0: 38c8 3dbd c5a3 a9bc 9016 97bd 69be a9bd
000001f0: eedd 4e3d 3795 dbbd 3a38 b1bd e2cb 4cbc
00000200: 717d d73d 9ffb 943e d929 833d 8800 b03d
00000210: a770 9d3e efa7 213b 3b0a d3bd adf4 953e
00000220: 9796 f4bd 24ff 0e3e 76e1 443e 292f f7bd
00000230: 2020 84be d190 dc3d 9959 6fbe 06e8 7fbd
00000240: 44ef c2bd 6ea3 e7bc 700e e2bd 21ed e43c
00000250: 166f 973e a757 10be a4e0 2abe 62e9 483d
00000260: a4b8 90bd c342 7b3d 86ac 813e 76d5 8c3d
00000270: 0265 96ba ffe3 76be 520d 853e 7ede bfbd
00000280: ebbd b9bd 4543 823d 87f9 84be 6283 0a3e
00000290: 556a 3b3e 9fa4 3e3e 4847 663e 86dd 763d
000002a0: fa41 47be d1b0 463e 6f7b a2bd 6cfa 7f3d
000002b0: 1d05 02be 8a45 a5bc 2316 0e3e 2dda 113e
000002c0: f867 793d 7041 943e 78bd a1bd a08e 0bbe
000002d0: 0679 333e 94e7 fa3c 718b 7b3e 7e52 703e
000002e0: 7837 d93d 6e1b 39bd 27b9 06bd 97c7 8c3e
000002f0: 11c3 5a3d 0ad8 47bd 6201 f5bd f599 d9ba
00000300: fbaf c2bc 5c27 8bbd 609c 3d3e 8ab8 be3d
00000310: e185 d73d a164 61bc faad 09be 28ab 84bd
00000320: b9c0 263e 07bb 283e ca32 20be 91a6 9bbe
00000330: 6bdc 743d d363 e6bd 7f97 363d c05f 0b3e
00000340: ca50 6e3e 1fca 7a3e 6738 c43d de58 b0bd
00000350: 3ab9 323d bea3 1f3e 4ee0 6b3e 6263 25be
00000360: a2ef 323e 0341 3dbe 547d f9bc 1752 a4be
00000370: 9ed5 2c3e 49d4 983e 7e28 5b3d f6ba c2bd
00000380: 2525 6b3e d8b1 42be 04dc f73b 5024 873b
00000390: 919a 9ebd 5067 5d3e 1c94 57be aa8c fbbd
000003a0: 2375 1a3e 70ad 8ebd a509 c73d a818 6f3e
000003b0: 37d5 da3d 2837 f13d 0ca9 f1bc bad8 843d
000003c0: 1b7b 533e 4142 143e 98e0 1e3e 1590 09bd
000003d0: a0d5 7c3d 4d3a eb3b 6cf9 87bd d0e8 783d
000003e0: d05a 543d 9e45 1ebd 87d8 a3bc e864 103e
000003f0: eb31 723e 21fa 4c3e 8d23 3cbe 0f48 9ebd

linear2.bias f4 [256]
0.034998763 0.15557143 0.19586259 0.16732816 0.07353948 0.10317847 0.17640139 0.09127123
-0.010495331 0.07711166 0.022751052 0.06342876 0.123048946 -0.08025847 0.064544745 0.069313675
0.0028581235 -0.07578398 0.09215438 0.18680798 0.06571228 -0.008127399 -0.06416524 0.0057924963
0.11200965 0.08281954 0.055705987 0.1122677 0.167238 -0.04117709 0.16049646 0.12081151
0.03478929 0.05889719 0.14369091 0.0668697 0.04270792 0.2022707 0.08883815 0.050365377
0.12898974 0.01372867 0.15878442 0.1859983 -0.06987114 0.114499666 0.07626353 0.16308516
0.04045159 -0.02957393 0.051469333 0.11860335 -0.086446255 -0.07275625 -0.10378584 -0.054725528
0.020807398 0.007655682 0.024799986 -0.04599817 0.0962716 0.048205186 0.20745987 0.05035698
0.10728816 0.18263671 0.061798587 0.16590263 0.18364069 0.19520077 0.0949209 0.036081836
0.07616059 -0.002786985 0.2035031 0.16117883 0.12108359 0.11910118 0.18977693 0.025328295
0.15645026 -0.04194366 0.02145123 0.020602997 0.06609393 0.09950764 0.19845258 -0.07951821
-0.042371623 -0.026434539 0.06494885 0.13676436 0.12706865 0.024583986 0.09145964 0.18055332
-0.04549196 0.055296827 0.0010355298 0.0398552 -0.038460996 0.045471393 0.0698799 0.009372586
0.03476248 0.18723969 0.039636314 -0.054467026 0.018603185 0.0068322932 0.11320247 0.052247208
0.058708094 -0.033191834 -0.07878625 0.015235802 0.011477203 -0.04650898 0.11415278 0.056632
0.1595081 -0.024479382 0.04758576 0.10972944 0.038497988 0.039934874 0.16794877 0.08337098
0.065626115 -0.03282774 -0.0008247417 -0.09949392 0.0443229 0.19229254 0.11392262 0.0078091216
-0.040280074 0.06632821 0.059492506 0.13366961 -0.08285181 -0.044636555 0.1944683 -0.0049178824
-0.028209485 0.027148275 0.014612481 0.11784383 0.073146515 -0.0023156244 0.16435482 0.07340229
0.18038695 0.09432761 -0.07973276 0.051601987 0.10004092 0.17420682 0.095624425 0.085665494
-0.0017948772 0.052754194 0.07396065 -0.021543749 0.037503596 -0.020357274 0.00014659774 0.16164802
0.05244291 0.098895095 0.09561632 -0.013178423 0.0007540092 -0.03612212 0.024310345 0.047349103
0.028933479 0.024962548 0.075211816 0.04365332 0.0683359 0.036978997 -0.032729216 0.14295381
-0.058385875 -0.071518205 0.06776575 0.05568014 0.060942948 0.14186417 0.16531894 0.040861633
0.043898765 0.06276124 -0.020154146 -0.052638557 0.06934935 0.07503151 0.17379956 0.18625805
-0.011472998 0.1646488 -0.0120396465 -0.022423122 -0.067569606 0.038670752 0.19938755 0.14521478
-0.036254056 0.1735866 0.19761777 -0.086515605 -0.039430674 0.06360737 0.1786472 -0.0038519187
0.003122881 0.16680616 0.19322287 0.06124694 0.047590263 0.14217587 0.030770607 0.17586435
0.10139858 0.16924134 0.18140791 -0.012591327 0.034549918 0.01766001 0.028920664 -0.025324902
0.15698215 0.18224591 -0.027805537 0.14692242 -0.0065082638 -0.0020143613 0.013247314 -0.018982733
0.17717098 0.07572175 0.17606637 0.09674758 0.04406884 0.12418355 0.046158537 -0.064277455
0.09578428 0.055463888 0.024378007 0.028190795 0.0049747457 -0.08363339 0.1731019 0.12677278
00000000: dd5a 0f3d 1e4e 1f3e 3490 483e 1358 2b3e
00000010: de9b 963d 3c4f d33d 91a2 343e 69ec ba3d
00000020: 9cf4 2bbc b8ec 9d3d 6a60 ba3c f0e6 813d
00000030: 1601 fc3d 8d5e a4bd 0930 843d 54f4 8d3d
00000040: 5b4f 3b3b a234 9bbd 70bb bc3d 974a 3f3e
00000050: 2994 863d c828 05bc 1169 83bd fbce bd3b
00000060: 5165 e53d 4a9d a93d f62b 643d 9cec e53d
00000070: 7040 2b3e 4fa9 28bd 2f59 243e 066c f73d
00000080: 377f 0e3d 2e3e 713d b623 133e fbf2 883d
00000090: 80ee 2e3d 0d20 4f3e c7f0 b53d ed4b 4e3d
000000a0: e315 043e 37ee 603c 6298 223e 5776 3e3e
000000b0: 9a18 8fbd cd7e ea3d 0e30 9c3d ccff 263e
000000c0: 91b0 253d 0745 f2bc 82d1 523d 50e6 f23d
000000d0: bc0a b1bd 3b01 95bd ac8d d4bd e027 60bd
000000e0: 4774 aa3c 84dc fa3b 5729 cb3c 9468 3cbd
000000f0: 0b2a c53d cd72 453d 5c70 543e 1f43 4e3d
00000100: e5b9 db3d 1e05 3b3e 8420 7d3d 61e2 293e
00000110: 4e0c 3c3e b6e2 473e e465 c23d 8cca 133d
00000120: 15fa 9b3d d9a5 36bb 1e63 503e 100c 253e
00000130: acfa f73d 52eb f33d e254 423e 497d cf3c
00000140: 7f34 203e 1dcd 2bbd 7dba af3c 9ec7 a83c
00000150: 415c 873d a9ca cb3d 2737 4b3e 71da a2bd
00000160: de8d 2dbd 3f8d d8bc e703 853d f50b 0c3e
00000170: 491e 023e 5b64 c93c 314f bb3d f8e2 383e
00000180: c755 3abd ed7e 623d 9dba 873a 353f 233d
00000190: 4789 1dbd 3640 3a3d 311d 8f3d 7a8f 193c
000001a0: 1a63 0e3d c3bb 3f3e b059 223d d118 5fbd
000001b0: b565 983c 6ee1 df3b b2d6 e73d 2b01 563d
000001c0: e677 703d 29f4 07bd af5a a1bd 969f 793c
000001d0: e10a 3c3c 3380 3ebd efc8 e93d f5f6 673d
000001e0: 1756 233e fc88 c8bc 49e9 423d d4b9 e03d
000001f0: 11b0 1d3d c092 233d c3fa 2b3e 68be aa3d
00000200: fc66 863d 6176 06bd 7b33 58ba 78c3 cbbd
00000210: ee8b 353d 56e8 443e 4350 e93d a9e3 ff3b
00000220: b8fc 24bd 16d7 873d 6aae 733d b0e0 083e
00000230: 36ae a9bd d2d4 36bd b322 473e 3026 a1bb
00000240: 9417 e7bc 0f66 de3c 3069 6f3c 1b58 f13d
00000250: d7cd 953d bbc1 17bb a14c 283e f153 963d
00000260: 5bb7 383e d62e c13d ee4a a3bd 9b5c 533d
00000270: 41e2 cc3d 4663 323e bdd6 c33d 6471 af3d
00000280: 1642 ebba c814 583d ae78 973d 847c b0bc
00000290: 5f9d 193d 4cc4 a6bc 08b8 1939 0f87 253e
000002a0: 60ce 563d 8389 ca3d 7dd2 c33d 50ea 57bc
000002b0: b3a8 453a caf4 13bd 7d26 c73c 22f1 413d
000002c0: e705 ed3c 427e cc3c a708 9a3d d3cd 323d
000002d0: b1f3 8b3d 4a77 173d 120f 06bd 7c62 123e
000002e0: 0726 6fbd 2378 92bd c5c8 8a3d dc10 643d
000002f0: 509f 793d d744 113e 5e49 293e 875e 273d
00000300: 31cf 333d f788 803d 4f1a a5bc 879b 57bd
00000310: 0807 8e3d 1faa 993d 83f8 313e 6eba 3e3e
00000320: 3ef9 3bbc b299 283e f041 45bc b2b0 b7bc
00000330: ef61 8abd 3965 1e3d 402c 4c3e 2fb3 143e
00000340: 227f 14bd b0c0 313e 505c 4a3e 182f b1bd
00000350: 0f82 21bd 9544 823d 4bef 363e 7970 7cbb
00000360: 40a9 4c3b 3ccf 2a3e 37dc 453e 12de 7a3d
00000370: 02ee 423d 8d96 113e a412 fc3c c915 343e
00000380: 0faa cf3d 9a4d 2d3e ffc2 393e da4b 4ebc
00000390: 3784 0d3d baab 903c 07eb ec3c 2b76 cfbc
000003a0: eebf 203e ac9e 3a3e 70c8 e3bc d572 163e
000003b0: 4643 d5bb 6003 04bb 430b 593c ad81 9bbc
000003c0: 4f6c 353e 0114 9b3d be4a 343e 9823 c63d
000003d0: 8781 343d f253 fe3d bc10 3d3d e6a3 83bd
000003e0: 8c2a c43d 1a2e 633d 63b4 c73c 62f0 e63c
000003f0: 3103 a33b fc47 abbd a041 313e b9d0 013e

linear3.weight f4 [1, 256]
-0.044481236 0.15687571 0.13900238 0.15531735 -0.045246243 0.12458753 0.26411152 0.1357396
-0.03502425 -0.054421086 -0.14570004 -0.29373264 0.17388986 -0.046186827 0.17117599 -0.2212141
0.05032238 -0.025423368 0.17646925 0.1436795 -0.14182475 0.045803644 0.017068386 -0.15009716
0.24428587 0.21484764 -0.15893182 0.24059628 0.14387923 -0.049748167 0.23704712 0.16676061
0.1933158 0.20880169 0.20751439 -0.15799414 -0.029855289 0.14299056 -0.25204766 -0.05583972
0.20498931 -0.13143632 0.22864825 0.190781 0.036474004 0.16816242 -0.002761979 0.19293045
-0.022402804 -0.026780795 0.1287131 0.19985539 -0.022661762 -0.007060142 -0.003013237 -0.012768969
-0.2376886 -0.056738913 0.18430045 -0.12467039 -0.23112106 -0.034068044 0.12201225 -0.26680052
0.14708889 0.20627369 -0.043437842 0.15938592 0.23351474 0.17525242 -0.37840143 0.19563356
0.21901965 0.06532443 0.15341684 -0.2684254 -0.23480411 0.17283939 0.22779948 -0.037791457
0.19629261 0.09129874 0.17038912 -0.046729006 0.14415509 0.21194379 0.1481938 -0.043609057
-0.038760316 -0.2606756 -0.25197545 0.13680935 0.2007961 -0.027828133 -0.2548581 0.13946684
-0.037181173 0.051342573 -0.25525597 0.15919164 -0.019274747 -0.27725533 -0.020346425 -0.21410629
0.010336734 0.1572344 -0.2866335 -0.045570217 -0.031093603 -0.24315949 -0.2527584 0.053933498
-0.021623507 -0.06875949 -0.04602717 0.18086752 0.1323636 -0.10340176 0.18697464 -0.19134474
0.25993463 0.01720713 -0.24440967 0.19008718 0.19175239 -0.04664945 0.2562667 -0.27160147
-0.22066742 -0.0017445468 -0.21639155 -0.029465519 0.023882538 0.1536955 0.21465006 -0.01654097
-0.30519694 -0.04467645 -0.21323502 0.18771696 0.05817469 -0.21545672 0.15084502 0.035027377
0.018477403 -0.09837723 -0.024044968 -0.13696359 -0.23814408 -0.23975866 0.19807152 -0.0023167988
0.20247139 0.12498405 -0.012503381 -0.040513393 0.12930742 0.15087189 0.2967324 0.1749523
-0.028911527 0.1520256 -0.27834484 -0.060785275 0.16338965 -0.0048644566 -0.22602662 0.17303312
-0.25228927 -0.25576738 0.20567878 -0.060649842 0.058618862 -0.03343646 -0.33802122 0.17168346
-0.017639475 0.1780309 0.12282331 -0.25004074 0.03634737 -0.050393034 -0.047382236 -0.2945574
-0.048679758 -0.036103815 -0.2803783 -0.14342965 0.17110388 0.23107147 0.16988926 -0.22345918
0.0067262203 0.0020247898 -0.2672554 0.035938513 -0.21635383 0.17915298 0.15149793 0.14309748
-0.042903047 0.15985398 0.07659335 -0.2489014 -0.021755412 0.23339859 0.1618507 -0.3362783
-0.042133152 0.14421575 0.14556646 0.05135046 -0.33465898 -0.08470125 0.15867138 -0.18247549
-0.04209443 0.22781752 0.17674743 -0.04422338 0.18127404 0.12879989 -0.21099794 0.21181817
-0.33494648 -0.3234242 0.15000148 -0.042037494 -0.041285757 -0.2571927 0.1140732 -0.043013882
0.1838681 0.1296361 -0.11946012 0.20860694 -0.017469484 -0.007084818 -0.015612498 -0.064477846
0.23759413 0.19213814 0.1510412 0.17571548 0.16135888 0.16579603 -0.23014957 -0.040453594
0.19435875 -0.20293608 0.18996346 -0.26789448 -0.03003621 -0.05123739 0.15662552 0.17224295
00000000: f531 36bd 07a4 203e a456 0e3e 830b 1f3e
00000010: 2054 39bd bf27 ff3d a039 873e 52ff 0a3e
00000020: 9775 0fbd a5e8 5ebd 6432 15be 2064 96be
00000030: 2f10 323e 662e 3dbd c248 2f3e f385 62be
00000040: d71e 4e3d ab44 d0bc 5bb4 343e b820 133e
00000050: 823a 11be 9a9c 3b3d 00d3 8b3c 12b3 19be
00000060: 1326 7a3e 0501 5c3e 06bf 22be df5e 763e
00000070: 1455 133e bcc4 4bbd 7bbc 723e 4bc3 2a3e
00000080: 94f4 453e 1cd0 553e a77e 543e 37c9 21be
00000090: 1493 f4bc 1e6c 123e 640c 81be 31b8 64bd
000000a0: b8e8 513e 3e97 06be c422 6a3e 185c 433e
000000b0: c465 153d c532 2c3e 5102 35bb 8f8f 453e
000000c0: 1686 b7bc 6663 dbbc 5ecd 033e e4a6 4c3e
000000d0: 29a5 b9bc c358 e7bb ba79 45bb f034 51bc
000000e0: a464 73be 1067 68bd 42b9 3c3e 3053 ffbd
000000f0: 00ab 6cbe ef8a 0bbd 8fe1 f93d 149a 88be
00000100: 789e 163e 6939 533e e1eb 31bd 1036 233e
00000110: 7d1e 6f3e 5f75 333e d5bd c1be 2a54 483e
00000120: b046 603e d1c8 853d 4e19 1d3e 0e6f 89be
00000130: 7d70 70be cffc 303e 4444 693e 37cb 1abd
00000140: ee00 493e d5fa ba3d 7c7a 2e3e ea66 3fbd
00000150: 649d 133e cb07 593e 1ec0 173e 699f 32bd
00000160: 23c3 1ebd 4677 85be ed02 81be c017 0c3e
00000170: 7e9d 4d3e d3f7 e3bc c37c 82be 65d0 0e3e
00000180: 494b 18bd 974c 523d e9b0 82be 2203 233e
00000190: 13e6 9dbc 69f4 8dbe 8cad a6bc ae3e 5bbe
000001a0: 685b 293c 0e02 213e a0c1 92be d6a7 3abd
000001b0: 03b8 febc cdfe 78be 8d69 81be 5fe9 5c3d
000001c0: c823 b1bc c7d1 8cbd fc86 3cbd 5635 393e
000001d0: 538a 073e 4dc4 d3bd 4876 3f3e e0ef 43be
000001e0: 2716 853e f8f5 8c3c 8746 7abe 37a6 423e
000001f0: bd5a 443e 7e13 3fbd 6435 833e 590f 8bbe
00000200: a4f6 61be 47a9 e4ba bf95 5dbe ac61 f1bc
00000210: 50a5 c33c 5a62 1d3e 3acd 5b3e ee80 87bc
00000220: c642 9cbe a7fe 36bd 485a 5abe e038 403e
00000230: 9548 6e3d b0a0 5cbe 1e77 1a3e de78 0f3d
00000240: ec5d 973c 007a c9bd f4f9 c4bc 2f40 0cbe
00000250: 0bdc 73be 4b83 75be 43d3 4a3e 6fd5 17bb
00000260: a954 4f3e a3f7 ff3d fbda 4cbc 5ff1 25bd
00000270: 2a69 043e 297e 1a3e 4fed 973e b226 333e
00000280: ded7 ecbc 99ac 1b3e 3783 8ebe fbf9 78bd
00000290: 9e4f 273e 0566 9fbb 8673 67be 982f 313e
000002a0: 0f2c 81be f1f3 82be 759d 523e f86b 78bd
000002b0: 551a 703d abf4 08bd 1e11 adbe cacd 2f3e
000002c0: a980 90bc bb4d 363e ca8a fb3d 5705 80be
000002d0: fbe0 143d ed68 4ebd e013 42bd 3ad0 96be
000002e0: 6d64 47bd 98e1 13bd bf8d 8fbe 39df 12be
000002f0: db35 2f3e 009e 6c3e 73f7 2d3e 7cd2 64be
00000300: a067 dc3b 56b2 043b b3d5 88be 4334 133d
00000310: dc8b 5dbe e173 373e 4622 1b3e 2588 123e
00000320: 1bbb 2fbd c3b0 233e f9dc 9c3d 02e0 7ebe
00000330: 6838 b2bc 0a00 6f3e 31bc 253e ab2c acbe
00000340: d093 2cbd 4bad 133e 600f 153e dc54 523d
00000350: 6c58 abbe d977 adbd c07a 223e dbda 3abe
00000360: 366b 2cbd ff48 693e 47fd 343e 9323 35bd
00000370: e79f 393e 1ee4 033e d80f 58be dde6 583e
00000380: 1b7e abbe db97 a5be fd99 193e 822f 2cbd
00000390: 411b 29bd c3ae 83be 369f e93d 532f 30bd
000003a0: eb47 3c3e 53bf 043e 82a7 f4bd 0f9d 553e
000003b0: 2a1c 8fbc c327 e8bb 90cb 7fbc f60c 84bd
000003c0: e04b 733e dcbf 443e 8baa 1a3e c2ee 333e
000003d0: 433b 253e 6fc6 293e 54ac 6bbe abb2 25bd
000003e0: fb05 473e 7ace 4fbe c885 423e 7729 89be
000003f0: 7f0e f6bc 4cde 51bd 7162 203e 7560 303e
