models/TD3_BipedalWalkerHardCore/actor_target.pth (torch, 527831 bytes, 6 tensors)

fc1.weight f4 [400, 24]
000000 82 14 24 3e 17 6c 2c 40 7d 52 8d bf 98 9e d5 bf
       0.16023448 2.6940973 -1.1040798 -1.6689024
000010 6d 98 60 3e e4 88 73 bf ed af f4 be 6f 5e 9f be
       0.21933146 -0.95130754 -0.4779047 -0.31126735
000020 7a 87 a6 bf 90 b6 19 3f dc ea 55 bf 34 93 0b 3f
       -1.3010094 0.60044193 -0.8356149 0.5452149
000030 4b fb 2e 3f 28 8d 25 3f c2 43 4d be 1c 66 7e 3d
       0.6835219 0.6466851 -0.20045379 0.062109098
000040 63 48 94 3c c4 a1 a2 be bc fc 41 be 2e b8 30 be
       0.018100923 -0.31764042 -0.18944067 -0.17257759
000050 cf a0 ac bc 17 85 34 3d b9 ce df bd 9e f2 5b be
       -0.021072773 0.044072237 -0.10928101 -0.2147927
000060 cf 55 b3 3e db 9a fc 3e 37 ac 38 bf ca b8 64 be
       0.35026404 0.49336895 -0.7213778 -0.22336116
000070 85 7a 81 be 68 d4 49 be 52 25 d2 3e d1 b0 da bd
       -0.25288787 -0.19709933 0.41044098 -0.10678256
000080 9a 71 54 be 4f 26 bd bd 9a 1f ea 3d 58 95 b4 3e
       -0.2074646 -0.092358224 0.11431809 0.3527019
000090 7f 75 3b 3d 7b 31 f3 3d c5 82 09 bf 53 e7 ec be
       0.04576635 0.11874672 -0.53715163 -0.46270236
0000a0 e2 97 d4 be 46 c3 91 be 76 9c 12 bf a5 e3 09 bf
       -0.41522127 -0.28469294 -0.5726999 -0.53862983
0000b0 db ec e6 be 16 49 16 bf ae 96 17 bf ac a0 f4 be
       -0.4510258 -0.5870527 -0.59214294 -0.47778833
0000c0 03 53 80 bf a5 fc 09 c0 e9 38 cc 3f 65 0c 17 bf
       -1.0025333 -2.1560452 1.5954868 -0.5900329
0000d0 96 74 15 be 2e e3 1d 3e f7 3b 80 3e 7a 8f 5b be
       -0.14595255 0.15418693 0.2504575 -0.2144145
0000e0 65 46 85 3e f5 a5 1f bf 02 26 db 3d ce f6 94 3d
       0.2603027 -0.62362605 0.10700609 0.07273637
0000f0 76 e2 17 3e 60 71 b7 be ca 55 68 be 4a 69 6b be
       0.14832482 -0.35828686 -0.22688976 -0.22989383
000100 d8 36 b1 3d 2a 73 54 3e 51 e8 d7 bd be df a2 be
       0.08653039 0.20747057 -0.10542358 -0.31811327
000110 97 fe 30 be fa 00 60 be ac 48 8b be 33 d9 f2 be
       -0.17284618 -0.21875373 -0.27203882 -0.47431335
000120 8d be 94 be 3d 37 0a bf 78 db c6 3d 87 24 20 c0
       -0.2905163 -0.53990537 0.09709829 -2.5022295
000130 36 14 3a 3c c6 0e 94 3b 3c 9f 2c bf 29 16 30 3f
       0.011357358 0.0045183627 -0.6743047 0.68783814
000140 2c ba 76 bf 39 3a ca bb cb c0 eb 3d ed eb d3 3e
       -0.96377826 -0.0061714915 0.11511382 0.41390935
000150 95 a2 e1 3e 1e 32 9b be 89 7d 08 be 2b 30 8b be
       0.44069353 -0.30311674 -0.13329138 -0.27185187
000160 42 95 37 3d 4a 98 1f be 99 8d 50 bd 47 e4 3e be
       0.044820078 -0.15585437 -0.050916288 -0.18641768
000170 5b 1c a2 be f3 87 04 bf f6 24 b8 be 11 dc 1a 3e
       -0.31662259 -0.5176994 -0.359657 0.15123011
000180 6e 91 eb 3f 95 ec 52 bf ff 57 e5 3f 4a 64 a7 bf
       1.8403757 -0.82392246 1.7917479 -1.3077481
000190 5b 38 f3 be 14 0f 12 be 89 1d bb 3d a6 9b b6 3e
       -0.47503933 -0.14263564 0.09136493 0.35665625
0001a0 53 25 c9 3e d5 81 35 3e 55 80 4c 3f c2 69 82 3e
       0.3928629 0.17725308 0.7988332 0.25471312
0001b0 7e e2 2e 3e 61 5e 85 bf c2 2b 50 bc ed 2f 37 3d
       0.17078587 -1.0419427 -0.012705745 0.04472344
0001c0 5e 33 76 bc f9 f6 d3 bb 92 8e 5a 3d 0e c5 0d be
       -0.015026895 -0.0064686504 0.053358622 -0.13844702
0001d0 5a 6d d5 be f7 92 e6 be dc d4 21 bf 23 a1 f8 bc
       -0.4168499 -0.45034 -0.6321542 -0.030350273
0001e0 d2 cd 6a 3e b0 94 c1 3e cf af 3d bf 78 0f b6 3e
       0.22930077 0.37808752 -0.7409639 0.35558677
0001f0 28 f0 bb 3d 21 04 5d 3e e4 5e 83 3e 6a 95 e0 be
       0.091766655 0.21583606 0.25658333 -0.43863994
000200 3f 6a a7 3c a3 68 f8 3e e4 d7 73 3e e4 9f 8d 3e
       0.020436404 0.4851733 0.23812824 0.2766105
000210 5f df ad bc f0 df c2 3d 33 fd ec be 80 68 39 be
       -0.021224676 0.09515369 -0.46286926 -0.1810627
000220 53 7a 61 be 2e 4b 95 be bd 28 02 bf b0 0e b6 be
       -0.22019319 -0.2915892 -0.5084341 -0.3555808
000230 0c 92 78 be 35 c4 02 bf b5 b3 0b bf b8 17 be be
       -0.24274462 -0.5108064 -0.54571086 -0.3712747
000240 6a a3 e6 3e ba 85 66 be 4d 95 9e 3f 47 5e 26 3e
       0.4504655 -0.2251195 1.2389313 0.16246901
000250 c0 83 42 be 36 b5 2a 3d 57 17 30 bf cd 89 09 bd
       -0.18995571 0.041676722 -0.68785614 -0.033578683
000260 33 ca e8 be 0e 37 1c bd 6f 4f 3f 3f 0c 0c 06 3f
       -0.45466766 -0.03813844 0.7473058 0.5236213
000270 d8 34 42 be ce 3d 1e bf 5c 85 f1 be 43 9e e1 be
       -0.18965471 -0.61813056 -0.47172058 -0.44066057
000280 16 30 96 be ae 01 9b be 05 76 08 be 12 c8 d3 be
       -0.29333562 -0.3027472 -0.13326271 -0.4136358
000290 56 16 93 be d0 a9 3e be aa 91 d1 bd 4b 16 e4 be
       -0.28727978 -0.18619466 -0.10232861 -0.44548258
0002a0 e7 49 2c 3e 3e 94 00 bf 52 ed eb 3e da fa ec bc
       0.16825067 -0.502262 0.460795 -0.02892821
0002b0 0b a5 60 bd c1 2c dd 3e ff de b8 3e 22 b7 54 3d
       -0.054844897 0.43198207 0.36107633 0.05193246
0002c0 7f 49 a1 be 5c d0 8a be ed 8c 89 3c 17 bf ac be
       -0.31501386 -0.2711209 0.016790831 -0.3373954
0002d0 d0 a4 43 be b4 ba 0e 3e be 2d 2f 3b d0 fd b0 be
       -0.1910584 0.13938409 0.0026730145 -0.34568644
0002e0 85 2c 8e be a6 55 90 be 0f 54 ac be b7 a2 ab be
       -0.2776834 -0.28190345 -0.33657882 -0.3352258
0002f0 3f 3a 2f be a7 35 26 be a5 2f 8e be b7 ba a7 be
       -0.17112063 -0.16231404 -0.27770725 -0.3275964
000300 c0 55 82 be 18 43 79 bf 43 fa 8a bd 85 9c 66 be
       -0.25456047 -0.97368 -0.06786015 -0.22520645
000310 6a 7a 2a bf cf 93 fb 3e ec 66 96 bb 82 d4 22 3f
       -0.6659304 0.49136207 -0.004589906 0.6360551
000320 3a 3f 39 3f d7 eb ad 3d b6 86 01 3f 5a c3 3a 3f
       0.723621 0.084922485 0.5059618 0.7295433
000330 a3 57 98 3f f6 8c 8c be 0d 7e ff 3d 85 dd e1 bd
       1.1901745 -0.27451295 0.12475214 -0.110285796
000340 a7 49 3d be 9a 27 99 be ed b7 da 3d d9 dd aa 3c
       -0.18485127 -0.29913026 0.10679612 0.020857738
000350 70 e0 07 bd 30 3b 94 be fc 24 c1 be 18 ad 54 3e
       -0.033173025 -0.28951406 -0.3772353 0.20769155
000360 fb ae 75 bd 37 1a af 3f 7d 0b 0a bf 9f d5 b8 be
       -0.059981328 1.3679875 -0.5392378 -0.3610048
000370 15 89 1c 3f 51 7b cc bd 74 ae 76 bf 58 70 b6 be
       0.6114667 -0.09984458 -0.96359944 -0.35632586
000380 d9 2c 54 3e a9 48 c0 be 24 67 0b bf 0c 7e 8c 3f
       0.20720233 -0.37555435 -0.54454255 1.0975966
000390 85 75 9f 3e 52 5d ea 3b 55 62 97 3c 3e a4 15 be
       0.31144348 0.007152238 0.018479506 -0.14613435
0003a0 ac a5 ef bd 49 54 49 be f8 14 4c 3d d3 7e f3 3d
       -0.11701521 -0.19661058 0.049824685 0.11889424
0003b0 8e 93 17 be b7 2b 2a be 25 dd 08 be 45 0c 8a be
       -0.14802381 -0.16618238 -0.1336561 -0.26962486
0003c0 ec 9f 38 bf 20 59 65 bf 4a 14 8e 3d a2 05 5b 3d
       -0.7211902 -0.8958912 0.069374636 0.05347217
0003d0 a1 1b 10 3f 22 66 64 3e 20 44 f8 3d 65 3f 50 3e
       0.5629216 0.22304586 0.12122369 0.20336683
0003e0 47 bf 3f bf 8f fe 22 be b0 15 23 3f 2c 5d 15 3f
       -0.7490124 -0.15917419 0.6370497 0.58345294
0003f0 5a b8 94 3d fe e2 5d bf 4c ba 0a 3e 00 8f 72 3d
       0.07261725 -0.8667449 0.13547629 0.059218407

fc1.bias f4 [400]
000000 5e 9f 50 bd ab d0 ec be ce 47 ad be 1d aa 56 3d
       -0.050933234 -0.4625295 -0.33843845 0.052408326
000010 6c 36 dc 3d ce a4 11 bf 37 bf 20 bf fe 78 17 be
       0.10752568 -0.56892097 -0.6279177 -0.14792249
000020 ed 94 9b 3e 15 97 89 be 11 ff c6 3c b8 29 41 be
       0.3038706 -0.2687308 0.024291547 -0.1886357
000030 71 22 0b be 2e 8a 97 be 92 41 5f bd 66 23 1e bc
       -0.13587357 -0.2959761 -0.054505892 -0.009651994
000040 37 db 7b be 32 62 ea bd e6 f6 24 3c 0e 86 04 bf
       -0.24595343 -0.114445105 0.010068631 -0.5176705
000050 39 c1 41 be 8b a5 fc bd 1e ec 89 be f9 89 b9 3e
       -0.18921365 -0.12336262 -0.26937956 0.36238077
000060 3e 5f 81 3d 0e bc 9b be 70 98 ca 3e b8 b3 bd be
       0.06316994 -0.30416912 0.39569426 -0.37051177
000070 e8 e7 33 be 44 c3 f8 bc 6c 20 80 3e 8e b7 11 bf
       -0.17568934 -0.030366547 0.25024736 -0.5692071
000080 05 ba 05 bf 50 b3 ff bb 78 4f bc bd 10 ef 2e be
       -0.5223697 -0.007803358 -0.09194845 -0.17083383
000090 1a f9 e5 be be b4 1c be 87 3a 53 be f4 e7 86 ba
       -0.44916612 -0.15303323 -0.20627795 -0.0010292516
0000a0 d5 a4 8e be ab 05 80 be 44 e7 c2 3e 7b e8 7a be
       -0.27860132 -0.25004324 0.38067067 -0.24502747
0000b0 8e 47 93 be a6 9b e6 bd db 7b e4 be 9c 5d 21 be
       -0.2876553 -0.11260156 -0.44625744 -0.15758365
0000c0 88 59 39 be 1a be 5a bd 9d bc 06 bf b9 cd c1 be
       -0.1810056 -0.05340395 -0.5263155 -0.37852266
0000d0 9e 02 3c 3e 9a 67 9f 3d cc 35 83 be a2 06 e7 be
       0.18360373 0.07783432 -0.2562698 -0.45122248
0000e0 52 21 5b be 08 c5 97 bd a0 59 3c be 54 5b fb be
       -0.2139943 -0.074106276 -0.18393564 -0.49093115
0000f0 40 4e b4 bd fa 81 d7 3c 97 52 bc be 0f 35 ad be
       -0.088039875 0.026307095 -0.3678176 -0.33829543
000100 33 c3 65 be ff 3f ad be 76 71 fc be 22 20 7c be
       -0.22437744 -0.33837888 -0.49305314 -0.24621633
000110 8b 7f f9 be 0c d8 b1 3d 84 88 46 3e 7f 11 a2 be
       -0.4873012 0.08683786 0.19388014 -0.31653973
000120 a0 ce 93 3d 5a 1b 59 bc 43 bb cf bd 02 90 1b be
       0.07217145 -0.01325115 -0.10143139 -0.15191653
000130 b8 ef cc 3d 20 ad c6 be 7a 8a 00 3c 34 e8 fc be
       0.1000666 -0.3880396 0.007845515 -0.49395907
000140 b3 1f 61 be 08 7b 86 bd 96 cf 38 3e 30 fa c2 3d
       -0.21984749 -0.06566435 0.18047938 0.09520376
000150 a5 b3 11 bf 51 87 ca be d8 78 ff bd 0b ae a1 be
       -0.5691474 -0.39556363 -0.12474221 -0.31578097
000160 85 e7 f6 3d ab a3 67 be 36 8a 14 bf d2 d3 17 3e
       0.120558776 -0.22621028 -0.58023393 0.14826897
000170 d6 bf 96 be b4 9b 76 be a1 42 c4 be d7 0b ee 3d
       -0.29443234 -0.24082834 -0.38332084 0.11623352
000180 99 f2 4b be 90 e7 1d bd 4b 4f 58 3e 2d d2 0b bf
       -0.19916762 -0.038550913 0.21123998 -0.5461758
000190 35 e4 05 be ea 61 da be 01 9d c3 be 9d a2 a9 3d
       -0.13075335 -0.42652828 -0.38205722 0.08282969
0001a0 6b a8 e1 be 5c e6 83 be c5 70 59 3c 9d 52 76 3c
       -0.44073805 -0.25761688 0.013271515 0.015034345
0001b0 82 02 63 be 23 6a 65 be 28 15 50 3e 37 26 2d be
       -0.22168925 -0.22403769 0.2032057 -0.16909109
0001c0 b6 c1 11 be 04 92 24 3d fd 6b 82 be 33 97 64 be
       -0.14234051 0.040178314 -0.25473014 -0.22323303
0001d0 9c db 8e be 03 47 41 bc 87 ca 2e be 60 97 b9 be
       -0.27901924 -0.011796716 -0.17069446 -0.36248302
0001e0 c7 8e a0 be b0 aa b5 be 82 11 54 be b3 dd 0f 3d
       -0.3135893 -0.35481787 -0.20709804 0.03512354
0001f0 3c 51 75 be 93 fc f6 bd a1 69 ca be 91 03 c8 be
       -0.2395677 -0.120598935 -0.39533713 -0.3906522
000200 ed bd a9 be a1 bf c4 be f7 b5 7d 3e e4 fd f5 be
       -0.33152714 -0.3842745 0.24776445 -0.48045266
000210 ce 4d 93 bd 1a 57 14 be 40 3e 3f bd ff e7 2a be
       -0.071925744 -0.14486352 -0.046690226 -0.16690062
000220 f3 36 ed be 91 9f a2 be cb 1d 69 bd 8f 7d a3 be
       -0.46330985 -0.31762365 -0.05691318 -0.3193173
000230 f0 0f 6d 3d 2d 9c 51 be ad dc 03 bf 96 90 a6 bc
       0.057876527 -0.20469733 -0.515086 -0.020332616
000240 90 1f 7b 3d 07 54 32 be d9 1b c2 be ff 59 76 bc
       0.061309397 -0.17414866 -0.3791187 -0.015036105
000250 0c 31 84 be 2c 8e f5 be 92 94 53 3e 65 26 82 bc
       -0.2581867 -0.4796003 0.20662144 -0.015887449
000260 7d 18 0c bf 89 14 5d be 9e 04 94 be 50 34 43 be
       -0.54724866 -0.21589865 -0.28909773 -0.19062924
000270 4d c7 05 be fb 24 41 3e 03 08 80 be 83 53 62 be
       -0.13064308 0.18861763 -0.25006112 -0.2210217
000280 8f ee 25 be a2 44 bc bd c2 da a5 bd a8 e4 3f bd
       -0.16204284 -0.09192778 -0.08098365 -0.046848923
000290 b5 55 8a be ce ea af be 3c 7b b0 3e 17 5b 2c be
       -0.27018514 -0.3435883 0.3446902 -0.16831623
0002a0 2b 97 9c 3e d1 f8 13 3e 99 59 d8 be ae 92 80 3d
       0.30584082 0.14450385 -0.42255858 0.06277977
0002b0 3e 3f 47 3e 56 94 e2 be 9e ce d1 3e a7 34 31 3e
       0.19457719 -0.44253796 0.4097795 0.17305242
0002c0 1d f6 0b be 2d 1d 0c bf f0 c1 60 3e d6 2f 95 bd
       -0.13668104 -0.5473202 0.21948981 -0.072845146
0002d0 75 2d 99 be 86 f9 c3 be 06 3a 12 bf ee a8 15 be
       -0.29917493 -0.3827631 -0.57119787 -0.14615223
0002e0 8e 66 ab be 5d 42 df 3e 6f 45 ca be e8 90 35 be
       -0.3347668 0.4360532 -0.395061 -0.17731059
0002f0 2d 38 46 3e 12 8a d5 be fd cb b4 bd 0c ad 80 be
       0.19357367 -0.41706902 -0.0882797 -0.25132024
000300 95 08 8b be 4f ee 2b 3d f3 07 e6 be d3 f3 ec be
       -0.27154985 0.041975316 -0.4492794 -0.46279773
000310 88 be 32 be db f3 69 be 01 78 45 be 9b 96 6b be
       -0.17455494 -0.2284693 -0.19284059 -0.2300667
000320 84 57 f2 bd 07 2e ad be 9c c4 56 3d 9c 63 dd bc
       -0.118330985 -0.3382418 0.052433595 -0.027025037
000330 da 8b bb be e1 81 88 be f9 b7 4e be e6 75 94 be
       -0.36630136 -0.2666159 -0.20187367 -0.289962
000340 21 6e dc bd c7 f9 f6 bd c2 43 b0 bd 03 43 6b be
       -0.10763193 -0.1205936 -0.08606674 -0.22974782
000350 8e 6f 9d be 8c 50 85 be a7 17 ab be 60 56 7b 3d
       -0.30749172 -0.26038015 -0.33416483 0.06136167
000360 4a af 57 be 45 20 0f bc 20 c2 c8 bd fd 18 0e 3e
       -0.21062961 -0.008735721 -0.098026514 0.1387672
000370 6a f5 d0 bd 32 59 e6 be 27 3c 27 be ef 1b a0 be
       -0.10203059 -0.44989926 -0.1633154 -0.31271312
000380 29 24 c4 be bc 04 08 3d ee 70 2f 3e ab cd 1d 3e
       -0.38308838 0.03320764 0.17132923 0.15410487
000390 3e 66 78 3c 0e 86 93 be 50 ee bd be b3 bf 10 3e
       0.015161095 -0.28813213 -0.3709588 0.14135627
0003a0 6b f7 32 3d 07 25 bb bd 7f 71 ab bd ad b0 68 bd
       0.043692987 -0.09137922 -0.08371257 -0.056809116
0003b0 fe ba a5 be 35 74 87 be 4a f8 75 bd 09 ab 46 bd
       -0.32369226 -0.26455846 -0.06005124 -0.048502956
0003c0 98 25 37 bf 40 b1 49 be 99 93 cd 3e 60 bb 3a 3e
       -0.7154174 -0.19696522 0.4015167 0.1823554
0003d0 a1 25 4d bb 22 e6 e1 3d b9 d4 c4 bd e7 3a a2 be
       -0.0031302946 0.110302225 -0.09610886 -0.31685564
0003e0 4f 51 a1 be 9d d5 9f be 7d 5e b7 be 6e 4f bd bd
       -0.31507346 -0.31217661 -0.35814276 -0.09243666
0003f0 94 59 3f be 84 ed 72 bd 29 bf 58 3d fe df 2a 3e
       -0.18686515 -0.059308544 0.05291668 0.16687009

fc2.weight f4 [300, 400]
000000 67 2b af be dc d8 13 be 70 50 43 3e c7 8e a0 be
       -0.342128 -0.14438194 0.19073653 -0.3135893
000010 3e 13 10 bf 47 c2 a6 bd 66 a8 16 bf 55 28 90 3e
       -0.5627936 -0.08142524 -0.58850706 0.2815577
000020 07 c2 be bd e5 e7 81 be e0 69 b2 bd 61 09 c0 be
       -0.093143515 -0.25372234 -0.087116 -0.37507156
000030 b5 d7 85 be 16 7b 96 bd fb ba 73 bd cf 58 26 3d
       -0.26141134 -0.073476955 -0.05950449 0.04061204
000040 aa 05 60 be a3 0c 66 3e 05 1d 02 3d 49 b6 c1 3c
       -0.2187716 0.22465758 0.031765956 0.02364649
000050 84 c7 89 be 2c b8 07 bf 4a f9 d3 be b4 82 f6 bd
       -0.2691003 -0.530154 -0.4140113 -0.120366484
000060 e4 2e 0b 3e bd 26 93 be b0 8a cb 3c 89 5e 59 3d
       0.13592106 -0.28740492 0.024846405 0.05306867
000070 dd 9c 04 be 95 a8 84 3e 26 7c 2d be 7e a8 26 bf
       -0.12950464 0.25909868 -0.1694189 -0.6510085
000080 e7 18 b0 3d da b9 62 3c 9e 69 98 be cc 81 82 be
       0.085985 0.013838256 -0.2976808 -0.25489652
000090 a9 4b cc bd fe 41 1c 3d 74 bb 78 be e2 a4 ef bd
       -0.099753685 0.038148873 -0.24290258 -0.11701371
0000a0 e7 0f a5 3a 84 fb 78 be d5 c3 0d bf 77 a0 3b be
       0.001259324 -0.24314696 -0.5537694 -0.18322931
0000b0 18 18 b3 be f8 29 3c be 05 9c 8a be e0 58 b9 bd
       -0.3497932 -0.18375385 -0.27072158 -0.09050155
0000c0 16 4f 15 be 44 ca 7b be ac 21 05 3d fd 6d 9d bd
       -0.1458095 -0.24588877 0.032502815 -0.07686994
0000d0 a9 5a d6 3e 40 c1 3e bf fb 32 79 3e 9b a6 60 be
       0.41866043 -0.74513626 0.24335854 -0.21938555
0000e0 7f fe 20 b9 15 63 01 be 32 47 e9 3e 29 b9 40 be
       -0.00015353596 -0.12635453 0.4556213 -0.18820633
0000f0 c7 02 2f be 54 e0 02 3d aa a9 e6 3e a0 19 b6 be
       -0.17090903 0.031952217 0.45051318 -0.35566425
000100 c0 23 39 be ed 1c 8b be cf d1 af be 48 7c 3a bf
       -0.18080044 -0.27170506 -0.3433976 -0.7284589
000110 07 4c a8 bd b5 08 1b bf ae db 98 be 4c e1 89 3d
       -0.08217626 -0.6056016 -0.29855102 0.06732425
000120 03 1a 76 3d e2 c8 50 be bb 13 f9 3d 34 ec 0c be
       0.0600834 -0.2038913 0.121619664 -0.1376198
000130 5e 8d 11 bf c2 62 6d bd 4a 4e e3 bb d4 25 86 3d
       -0.56856334 -0.05795551 -0.006936823 0.06550184
000140 08 da ba be c1 01 c7 3d d2 fd e2 3d ff a9 ac 3e
       -0.3649447 0.097171314 0.11083569 0.33723447
000150 02 c3 5e be 44 4e 7f be d1 59 c3 3d 4f 79 2b bc
       -0.21754077 -0.249322 0.095386155 -0.010465934
000160 7f 8c b3 3e 91 dd de bb 57 cf a2 be 3f 41 32 3e
       0.35068128 -0.006801315 -0.31798813 0.17407702
000170 cc fd 7e bd 35 3b 9d be 7a 8c e8 bd d5 6c 0f be
       -0.06225376 -0.30709234 -0.11354919 -0.1400636
000180 cf 07 a7 bd 18 69 b2 bd 5c 95 ff bc 6a 9a db be
       -0.08155786 -0.08711451 -0.03119915 -0.42891246
000190 d7 1a a5 be 0e 95 1d be 15 71 87 3d 2a 92 53 3e
       -0.3224704 -0.15388891 0.066133656 0.20661226
0001a0 ae 6c 9e be bd a2 8f bd f1 b8 55 be 1d 56 95 be
       -0.3094229 -0.07013462 -0.20871331 -0.29167262
0001b0 a5 3f 1c 3d 9d fb 29 3d 60 28 bf bd 31 c9 4b bd
       0.038146634 0.041499723 -0.09333873 -0.049752418
0001c0 7d 60 19 be f8 4c 32 bd 8b 6a 70 3e ac c7 7a be
       -0.14978214 -0.043530434 0.23478143 -0.24490231
0001d0 24 3a 06 be 10 c0 b3 3e 70 12 45 be bb 0c 76 be
       -0.13108116 0.3510747 -0.19245315 -0.24028294
0001e0 ef 75 aa be 54 94 fe be 1a af 69 bd bb 5f e4 be
       -0.332931 -0.4972254 -0.057051755 -0.44604287
0001f0 98 32 b9 bd 66 86 24 3c 9a 09 dd bd da c4 5c 3e
       -0.09042853 0.010041809 -0.10792847 0.21559468
000200 c5 c0 87 be c6 2c a8 be e7 f1 a9 bd c2 db dd be
       -0.2651426 -0.3284666 -0.08298092 -0.43331724
000210 42 36 51 be 57 d1 2a bf ee 25 af 3d 64 05 fb be
       -0.20430854 -0.6672568 0.085521564 -0.4902755
000220 82 e7 5a bd 21 e5 c4 3b ac 8d 8c 3e 28 2c cb bd
       -0.05344344 0.0060087596 0.27451837 -0.099205315
000230 af 13 b1 be 16 16 2b be 42 55 d0 bd 84 3f 0f 3e
       -0.3458533 -0.16707644 -0.10172512 0.13989073
000240 69 0b 5e be fb 07 e3 be ac a7 77 be 0a 7d d6 bd
       -0.2168404 -0.44342026 -0.24185055 -0.10473068
000250 e8 9d b7 bd bb 69 f3 3c 07 89 22 be 69 2f d8 3c
       -0.08965665 0.029713502 -0.15872584 0.026389794
000260 73 b1 e9 be 99 75 cb 3d 46 d2 1b be e5 53 89 be
       -0.45643196 0.09934539 -0.15216932 -0.2682182
000270 31 ec 41 3d c0 27 b0 be 31 7a d4 3e d1 b5 55 3e
       0.04734439 -0.34405327 0.41499475 0.20870139
000280 b5 a9 95 bc d1 07 c0 be 57 08 3f 3d fe 84 15 3e
       -0.0182694 -0.37505963 0.046638813 0.14601514
000290 8b 88 eb be b8 93 3a be 35 36 09 bf d2 d9 68 bd
       -0.46002612 -0.18220413 -0.5359834 -0.056848355
0002a0 66 87 a8 3d 22 87 5c be 73 98 69 be 99 4e 45 be
       0.0822895 -0.21535924 -0.22812061 -0.19268264
0002b0 26 50 93 be a7 f8 ab bc 20 ce b3 bd a6 87 90 be
       -0.28772086 -0.02099259 -0.087795496 -0.28228492
0002c0 f8 d2 bd be 6d 66 05 be a5 9b 95 be 27 f1 26 be
       -0.3707502 -0.13027354 -0.2922031 -0.1630293
0002d0 2a 1c 56 bd 59 16 c5 be fc b2 05 3e b6 e1 05 bf
       -0.052272953 -0.38493612 0.13056558 -0.5229753
0002e0 d3 63 eb be ee b1 20 be e1 db 51 3d 89 db 40 bc
       -0.45974597 -0.15692875 0.051235083 -0.011771091
0002f0 8e cd 9e bc ee b1 20 be d3 ea 61 be 31 25 5e 3b
       -0.019385125 -0.15692875 -0.22062235 0.003389668
000300 7e 9b 24 3e 6f 05 2a be a5 7d 01 bc d9 25 d1 3e
       0.1607494 -0.16603635 -0.007903491 0.40849188
000310 95 ce 06 be e8 5c 88 3b 16 d1 90 3d 40 7c bd bc
       -0.13164742 0.004161466 0.0707113 -0.023130536
000320 63 84 ea bd 0e 2f ae bd 84 c3 f9 be 30 61 3b be
       -0.11451032 -0.08505069 -0.4878198 -0.18298793
000330 3f 50 a3 bc 28 3d 44 bd 07 61 b1 bd 30 bb 45 3e
       -0.019935725 -0.047909886 -0.086610846 0.19309688
000340 f4 1d 0c bd 2c 9c 7b 3d 86 92 96 bd 9b ed e9 3d
       -0.034208253 0.061428234 -0.07352166 0.11422273
000350 ac 6d 89 3e 30 e9 35 bc 44 95 08 3d 17 5f bc be
       0.26841486 -0.0111029595 0.033345476 -0.36791298
000360 f5 af 95 3d 28 ba 44 be f2 ee e5 3d e6 8c a5 be
       0.07308952 -0.19211638 0.11227216 -0.3233406
000370 53 76 ea ba 94 58 70 be 5d 3e 9a 3e c9 34 c8 bd
       -0.0017888047 -0.2347129 0.30125704 -0.09775693
000380 93 0a 64 be 5f 4f ac be a5 15 0a bf af e4 3c 3e
       -0.22269659 -0.33654305 -0.53939277 0.18446611
000390 34 69 8d 3d 38 74 39 3c ef e4 bd 3c 73 65 7e 3e
       0.069048315 0.011319213 0.023180453 0.24843387
0003a0 4f 5f 27 3d 17 54 a9 bd 53 48 e1 3d 21 6e 43 be
       0.040862378 -0.08267992 0.11000123 -0.1908498
0003b0 4b 79 e0 bd dc dd 0e bd 09 e6 51 3b a7 e4 26 be
       -0.10960635 -0.03487955 0.003202798 -0.16298161
0003c0 1f 3c aa be e1 22 5b 3d 30 2f 3b be 9a db ec bc
       -0.33248994 0.05350006 -0.1827972 -0.028913308
0003d0 ed 58 01 bd a2 43 61 3e 1d 40 88 3d 64 21 87 3d
       -0.031578947 0.21998456 0.06652854 0.06598166
0003e0 c8 22 32 be b7 64 ad 3c 05 89 89 be ea 47 ef be
       -0.1739608 0.021166189 -0.2686235 -0.46734554
0003f0 7e 7c a5 be 29 3a d1 3d bc 39 fb bd 24 9a 76 be
       -0.32321543 0.10216171 -0.12266871 -0.24082237

fc2.bias f4 [300]
000000 28 01 35 be f8 8c 38 be ed f6 08 bf 19 76 4d bd
       -0.17676222 -0.18022525 -0.5350178 -0.050161455
000010 70 9d 32 be a1 a6 c4 be f4 ea 87 3d 49 a5 c8 bc
       -0.1744287 -0.38408378 0.066366106 -0.024492877
000020 71 b5 47 bc 66 fc 21 3c f5 8e 0e be 76 12 90 be
       -0.012189255 0.009886837 -0.13921721 -0.28139085
000030 66 bd 1f bd 32 06 5f bd 57 f6 2c 3d cd 4f 02 bd
       -0.038998984 -0.054449268 0.042227115 -0.031814385
000040 7f 14 ae bd d3 b3 e6 be 1c b9 f8 bc 3a f2 6f be
       -0.08500003 -0.4505907 -0.030361705 -0.23432246
000050 23 9d e9 be 41 91 c6 bd 37 a7 24 3d a8 8d 41 3d
       -0.45627698 -0.09695674 0.04019853 0.047254235
000060 0c b5 07 bb 5a 33 6e 3d c8 b2 b3 bd 3e 3b 9a bd
       -0.0020707278 0.05815444 -0.08774334 -0.07530831
000070 29 d4 48 be 92 98 dd be f0 ea 3c bd 53 57 eb bd
       -0.19612183 -0.43280464 -0.04612249 -0.11491265
000080 5d 7e 07 be e6 9c 1a be 0b 1c e2 bc df b6 a1 bd
       -0.13231798 -0.15098915 -0.027601263 -0.07896208
000090 ce f1 99 3d 58 fc c0 3d 48 68 ce 3a 71 f8 d9 3c
       0.07516824 0.09423131 0.0015747631 0.026607724
0000a0 99 6d 44 be 9d 32 84 3d 76 e1 13 be d4 b3 ff be
       -0.19182433 0.06454966 -0.14441475 -0.49941885
0000b0 61 18 4a bd 9e 9c 1c bd a1 ce c9 3d 24 e6 7a be
       -0.049339656 -0.0382353 0.098538645 -0.24501854
0000c0 19 c6 32 bf ca 1c 65 be cf ce 23 be 54 fd 79 be
       -0.69833523 -0.22374263 -0.1599686 -0.24413043
0000d0 30 ef b4 bd 9e cc 15 3e c0 5c bc bd 13 d4 6a be
       -0.08834684 0.14628837 -0.09197378 -0.22932462
0000e0 07 00 24 be 98 19 b9 bd 48 e6 b9 be 8d 46 8f 3d
       -0.16015635 -0.09038085 -0.36308503 0.06995878
0000f0 98 c1 b6 3c 94 18 83 be 1e 7d 9b bd 34 31 75 bd
       0.02230911 -0.2560469 -0.075922236 -0.059861377
000100 83 fe eb bd eb a2 e4 bc d9 bd 59 3e ea 7d 66 3d
       -0.11523154 -0.027909717 0.21263827 0.056272425
000110 0b 8e e8 bd 4a b4 52 be 98 37 4d 3d 54 40 f3 be
       -0.113552175 -0.20576587 0.050101846 -0.47510016
000120 57 fc a7 bd 26 da 15 bd 6d c6 0e bf 58 33 bc bd
       -0.08202427 -0.036584996 -0.55771524 -0.091894805
000130 bd 36 88 be d8 0a b0 bd c1 0d 5e 3b 3e e2 13 3d
       -0.26604262 -0.08595818 0.003388271 0.036104433
000140 9a af d2 bd e1 0b ca bd 5d aa 4a 3e 82 3e d9 be
       -0.102873996 -0.09865547 0.19791551 -0.42430502
000150 df 9b b2 3d 96 15 90 bd df 4c a2 be 9b 74 79 3e
       0.08721136 -0.07035367 -0.31699273 0.24360888
000160 7e 7d 10 bd 37 7a b8 3d 3d 21 96 3d 52 7f dc bd
       -0.03527593 0.09007686 0.073305584 -0.10766472
000170 04 e1 8b 3e 37 6b 2e bd 1e 99 27 3c e9 76 4a be
       0.2732011 -0.042582717 0.010229377 -0.19771923
000180 8f 5f a8 bd f1 d9 43 be 6d 5f 02 be 15 f2 97 3d
       -0.08221351 -0.19126107 -0.12731715 0.0741922
000190 18 2a e5 3d b9 d4 44 bc 75 b1 1b 3d 1f a6 a9 be
       0.11189669 -0.012013608 0.038011033 -0.33134553
0001a0 28 b5 0c bd 8c 10 ff bd 3d 24 09 be bf 04 a1 be
       -0.03435245 -0.12454328 -0.1339273 -0.31448933
0001b0 f2 a4 50 be c6 0b 21 3e 84 0c f2 bc 16 d2 94 bd
       -0.20375422 0.15727147 -0.029546984 -0.07266633
0001c0 d9 6d 45 bd ed 74 0d bd fa 05 db bd 1b 50 e4 bd
       -0.048200462 -0.034535337 -0.10694499 -0.111480914
0001d0 52 59 5a bd a5 67 8d bb 64 b9 f6 bd 37 5d 28 be
       -0.05330784 -0.004315334 -0.12047079 -0.16441809
0001e0 44 5f 78 be f7 f1 a3 bd 64 8b 86 3d 22 7a 9f 3d
       -0.24255091 -0.080051355 0.065695554 0.07786967
0001f0 61 03 39 3e e4 98 f1 bb f7 ac a2 be 20 f4 b5 bd
       0.18067695 -0.0073729623 -0.31772587 -0.08884454
000200 66 4b 99 be 97 a6 ae be f3 c1 60 be 37 e6 26 bf
       -0.29940337 -0.34111473 -0.21948986 -0.6519503
000210 63 e3 ef be 4b be e1 bd 67 99 a5 bd 3d e0 8b bd
       -0.4685317 -0.11022624 -0.080859 -0.068298794
000220 e5 fa 82 bc 2b 6b e6 be e7 8c 25 be d3 c0 68 be
       -0.015988776 -0.45003638 -0.16167031 -0.22729807
000230 e1 f2 c9 bd 3f ce 27 be ca b1 61 3d f7 1d 69 3e
       -0.098607786 -0.1638727 0.055101193 0.22765337
000240 71 21 cf be c2 04 d3 bd e6 c7 17 be bf c9 ae bd
       -0.404552 -0.10303642 -0.14822349 -0.08534574
000250 8d 77 0b bd a9 f2 c5 be 57 5e a0 bd 99 f5 57 3e
       -0.03404956 -0.38661698 -0.07830494 0.21089782
000260 c2 de e9 3d 96 ce 1f be e8 0c b2 bd 42 01 de bd
       0.11419441 -0.1560615 -0.08693868 -0.10840084
000270 d7 9c a0 be 8f 8b a9 be 1e a0 91 bd 7f aa ae 3e
       -0.3136966 -0.33114287 -0.07110618 0.34114453
000280 d5 8b 8e bd 2a 6c d1 be 7c c8 77 be 68 a2 b0 bc
       -0.069602646 -0.40902835 -0.24197572 -0.021561816
000290 84 4a 09 3c 46 77 26 3d cd c6 83 bd c0 b9 39 be
       0.008379582 0.04064109 -0.064344026 -0.18137264
0002a0 77 04 a3 bd 1d 52 9e 3e 7b 64 77 3d ab 2b 62 be
       -0.07959836 0.30922022 0.06039856 -0.2208697
0002b0 d1 41 47 be 11 df cb 3d 32 75 59 bd 11 0e 59 3c
       -0.194587 0.09954656 -0.05309028 0.013247983
0002c0 fd ff 0d bf c5 87 04 bd 61 9a c5 be b8 b7 34 bd
       -0.5546873 -0.032356042 -0.38594344 -0.04412052
0002d0 53 19 ed bc 7e 0e 16 bf 3f f2 a1 bc be 85 98 bd
       -0.02894274 -0.58615863 -0.019768832 -0.07447384
0002e0 96 a3 a2 3e d6 9f 93 be 25 93 8c be 62 dd d7 bd
       0.3176543 -0.28832883 -0.27456012 -0.10540272
0002f0 fe 38 91 bd ea b0 51 bf 3d d2 05 bd 2f 88 a8 3c
       -0.070909485 -0.81910574 -0.032671202 0.02057275
000300 c4 af f7 bd 32 84 e3 3c 1d 2e 0b bd 66 45 9a bd
       -0.120940715 0.027772997 -0.033979524 -0.07532768
000310 32 c6 d8 bd a0 f9 32 bd 46 6f 1f be 3d 00 8f bd
       -0.10584678 -0.043695092 -0.15569791 -0.06982467
000320 32 c5 d4 be f6 04 25 3e 00 73 31 be c8 db 41 be
       -0.41556698 0.16115174 -0.17329025 -0.18931496
000330 33 ef e6 be 3d 00 0f bd 72 a0 57 bd 35 7b 0a be
       -0.4510437 -0.034912337 -0.052643247 -0.13523562
000340 e2 52 d3 bd e7 d1 26 be 82 e8 ca bd 7d 6a 8a bd
       -0.10318543 -0.16291009 -0.099076286 -0.06758592
000350 0d 82 83 be 24 48 f3 bc c6 e8 11 be 2d 69 90 3d
       -0.25685158 -0.029697485 -0.14248952 0.07051311
000360 a0 0e 3c bd 0a 32 d6 bd b6 39 17 bd d5 07 8b bd
       -0.045912385 -0.10458763 -0.03692027 -0.06788603
000370 76 57 91 be b4 d7 4b 3d ad 33 82 bd 0d 5c 81 bd
       -0.2838704 0.049766257 -0.063575126 -0.063163854
000380 95 d1 88 be d3 ed ed bc ed e7 97 3c b3 b0 ff 3c
       -0.26722398 -0.029044067 0.018543208 0.031212186
000390 f4 2f 47 be c2 8f 59 bd 8d 6f 84 bc b7 a3 af bd
       -0.19451886 -0.053115614 -0.016166473 -0.08576148
0003a0 41 15 ca be 27 36 a8 bd 53 35 80 3c c6 b8 99 bd
       -0.3946934 -0.08213454 0.015650427 -0.07505946
0003b0 f5 35 08 3d 93 ba e8 bd ee be 22 3e d0 f8 35 bd
       0.033254582 -0.11363711 0.15893146 -0.04442674
0003c0 fe 7a 1f bf 8b 6e 67 bd e1 42 48 bc 39 81 02 bf
       -0.62297046 -0.056501906 -0.012222976 -0.5097843
0003d0 ba 7e ca bd da 55 62 3d c6 75 35 bf a5 7a 0e bf
       -0.098874524 0.055257656 -0.70882833 -0.5565589
0003e0 36 4d 1a 3e 47 b5 a4 be 06 5b 62 3e ff e0 a7 bd
       0.15068516 -0.32169554 0.22105035 -0.081972115
0003f0 fc 97 fd bd 19 22 db 3d 22 53 6d 3e d1 02 c5 be
       -0.12382504 0.10699863 0.23176244 -0.3847871

fc3.weight f4 [4, 300]
000000 36 1a 2f bc 0d 21 8f 3d 59 c5 5e bf 79 9f 50 3c
       -0.0106874015 0.06988726 -0.8701988 0.012733334
000010 48 16 32 be 6e 6c 9d bd b1 34 51 3f eb 81 76 3b
       -0.17391312 -0.07686697 0.81721026 0.0037614058
000020 38 ec 3e bd 71 5c c1 bd bb f5 fd bd 94 9b 02 be
       -0.046611995 -0.0944146 -0.12400385 -0.12754661
000030 c2 7c d8 bd cd ce 8a bd 5e 2b 7b 3d 90 1f 3b bd
       -0.10570671 -0.06777725 0.061320655 -0.045684397
000040 35 3b 84 bd 91 c9 d9 3e 38 d0 4b 3c 08 8e b6 3e
       -0.06456605 0.42536595 0.01243978 0.35655236
000050 55 25 1d 3f 62 38 e6 3e 6d e5 0d bd 25 d8 0d be
       0.6138509 0.44964892 -0.034642626 -0.13851984
000060 89 db 40 bd 83 62 ec 3d 0e e8 a4 3c e6 65 9f 3b
       -0.047084365 0.11542227 0.020130184 0.004864442
000070 49 1b 5f bd 58 94 b0 3e a2 52 eb bd 37 9b a6 3f
       -0.05446938 0.34488177 -0.1149037 1.3016118
000080 2e ba a8 bb 05 08 92 be 4c 1c fc bc 17 8a 20 bc
       -0.0051491475 -0.28521743 -0.030775212 -0.009798548
000090 3d ad 07 bd 34 8b 7f 3b 07 41 2e bd 69 9f d6 3e
       -0.033124197 0.0038992884 -0.042542484 0.41918495
0000a0 6f a1 a9 be 5d 2c 84 bd f4 23 0b be d4 73 f9 be
       -0.33130977 -0.06453774 -0.13587934 -0.48721182
0000b0 c5 ce 0d 3d 28 4f 41 bd 16 d2 9d 3d b9 da dc bd
       0.03462102 -0.04719463 0.07706086 -0.107839055
0000c0 97 f4 3a 3f 74 dc ff 3e b7 24 a7 3d 3e c6 20 be
       0.73029464 0.4997288 0.081613 -0.15700623
0000d0 73 6c e8 3b d8 0b 4a 3d f3 1b eb bc b4 43 f4 3d
       0.0070930063 0.0493277 -0.02869985 0.11926976
0000e0 fd e3 01 bd fe d4 10 bd 5e 61 29 3f 92 dc 5a bd
       -0.031711567 -0.035359375 0.66164196 -0.05343301
0000f0 dd b4 00 bd 21 10 42 3f a6 31 2f be fe 52 ae bd
       -0.031422485 0.7580586 -0.17108783 -0.08511923
000100 36 b4 a6 be 85 79 96 bc 86 9d a9 be 80 a4 48 3f
       -0.32559365 -0.018368492 -0.33127993 0.7837601
000110 1c 47 8b 3b 6a e3 6c 3e 9d 8a 1f 3e 22 35 59 3e
       0.0042504203 0.23133627 0.1558022 0.21211675
000120 5a 9d 54 3d 15 f5 8a bd 7d 0d 12 3f 8e d0 aa 3b
       0.051907875 -0.06785027 0.5705183 0.00521285
000130 f6 8e 27 3e 04 2a 84 bc 7d 78 15 3f 6b 7f 6c bd
       0.16363129 -0.016133316 0.58386976 -0.057738703
000140 a4 be 8b be 1b d4 e7 3b 08 0c 32 3e e9 46 52 3e
       -0.27293885 0.0070748455 0.17387402 0.20534863
000150 3e 92 98 bd d4 a5 79 3d 0d aa 0d bd 24 cf 02 3e
       -0.074497685 0.06094916 -0.034586 0.1277433
000160 b9 f0 d0 3c ab 17 f6 bd c5 0e 14 3f a7 8c 3d 3d
       0.02550541 -0.12016233 0.57835037 0.046276715
000170 a5 ad 92 3d 27 c5 3e 3e 84 d9 06 3d 2e 05 a9 3e
       0.07162026 0.18629895 0.032922283 0.33011764
000180 e7 89 b2 bc bf 0a a0 bc 59 4e dd bb 6d b8 88 bd
       -0.021794273 -0.019536374 -0.0067537245 -0.066758014
000190 d0 3b 1a 3d 99 48 c6 3c 27 dc 36 bd 5f a3 b7 3e
       0.037654698 0.02420454 -0.044643547 0.3586683
0001a0 fe 90 b4 3d d9 23 c9 3e 06 a3 26 be e3 82 fd bd
       0.088167176 0.39285162 -0.16273126 -0.1237848
0001b0 0c ce 07 3f ef c5 a5 3e 61 47 57 3e 37 05 a6 3b
       0.5304878 0.32377574 0.21023323 0.0050665396
0001c0 dc 6a 04 3a d1 8b dc 3e 21 ed 4b 3d 06 80 97 bd
       0.00050513237 0.4307542 0.04978669 -0.073974654
0001d0 65 80 8c 3b 7e 8e 22 3d d0 be 47 3d a9 3d 46 3d
       0.0042877668 0.039686672 0.048765957 0.048398647
0001e0 37 9b bf 3e fd 1c 85 3c 67 79 22 3b 34 1c 84 bd
       0.37423107 0.016249174 0.00247916 -0.06450692
0001f0 d7 9a b1 3e 03 e4 fe bc 83 55 ea bd 5f 5b 2a 3d
       0.34688446 -0.031114584 -0.11442091 0.041591045
000200 1a cf 6c bd d4 fb 8c 3e 3d 03 82 3e 81 fa 5b 3e
       -0.057814695 0.2753588 0.25393096 0.21482278
000210 15 bb 03 3f 28 dd 3a 3c b6 01 18 bd 8c 50 05 3c
       0.5145734 0.011405267 -0.037111007 0.00813688
000220 a7 f4 34 3d db 54 f7 3d a6 ba 14 bf 7d 41 81 bc
       0.04417863 0.12076732 -0.580973 -0.015778298
000230 3d 96 0f 3d 60 13 4f 3f b9 76 c3 bd e3 83 bf be
       0.035055388 0.8088894 -0.09544129 -0.3740531
000240 bd 45 12 bd 74 d3 74 bd 3d 02 97 bd 79 6a 5d bd
       -0.03571104 -0.05977197 -0.07373474 -0.05405662
000250 db fb f0 bc 9f 8b 3c be 4d 45 0a be a5 ce 80 3e
       -0.029416969 -0.18412636 -0.13502999 0.25157657
000260 de e6 19 bf 08 bc bf 3c 9e 74 12 bc c0 86 b5 bd
       -0.601179 0.02340509 -0.0089389365 -0.08863592
000270 8e f0 ad bd a2 b2 5b bd 08 dc 42 be 95 7c 83 be
       -0.08493148 -0.053637154 -0.19029248 -0.25680986
000280 96 9e 27 3f 9d 77 9e be 25 56 92 bd 16 de 92 3d
       0.6547636 -0.30950633 -0.07145337 0.07171266
000290 45 2f 99 3c a6 ba ad 3e 2a 1b d2 bc ce 9c 23 be
       0.018699298 0.33931464 -0.025647718 -0.15977785
0002a0 6b 74 f2 bc 13 38 eb 3c 30 b7 4e 3e 9f cc ad 3d
       -0.029596528 0.028713262 0.20187068 0.08486294
0002b0 99 69 4d be 7e 2c 91 be 91 0f 5f 3c fb 60 69 3e
       -0.20059814 -0.28354257 0.013614551 0.22790901
0002c0 4a 93 e4 3d b8 7c c2 3e c3 20 f8 be 9e 00 9d 3e
       0.11160906 0.37985778 -0.48462495 0.30664533
0002d0 ec 97 83 3e 9d b2 90 bd 0a d3 e9 3e fa 61 54 bd
       0.25701845 -0.07065318 0.45668823 -0.05185125
0002e0 9d 56 17 bf 6e 06 2e be d4 ef 75 3d dd a9 86 bb
       -0.59116536 -0.1699464 0.06004317 -0.0041096047
0002f0 28 cf cd 3b 6f aa b4 bd cb 80 7e 3e 42 0a 69 3d
       0.0062807985 -0.0882157 0.24853818 0.05689455
000300 74 fb a9 bd 3c 7e 7a bd 7c 67 83 bd fe 0f 9c 3d
       -0.08299914 -0.061155543 -0.064162225 0.07620238
000310 ca 9b 54 3d 7d 42 1e 3d 75 ba 0d be 11 80 c6 bc
       0.051906385 0.038637627 -0.13840659 -0.024230989
000320 d5 18 1d 3d 3d 2c 10 3f 3b 72 e3 bd 51 f0 c5 3d
       0.03835376 0.563175 -0.11105772 0.09664977
000330 bf 73 34 3e 7c 5f fc bb 4b 52 73 3d e3 35 75 3e
       0.17622279 -0.0077018123 0.059404653 0.23946337
000340 2d b2 88 3d b1 36 d9 3d 2c 90 fd be 70 21 18 bf
       0.06674609 0.10606135 -0.49524057 -0.5942602
000350 2c 2e 85 3e 3c d3 70 bd fd 04 89 3a 31 24 da 3d
       0.2601179 -0.0587952 0.0010453757 0.10651434
000360 c6 74 9c 3b 4a dc 41 3e 27 0c af bd 4a cf 5a 3d
       0.0047746627 0.1893169 -0.0854724 0.053420343
000370 10 4f b1 bd 28 0a d8 bd 71 13 c9 3c c8 a5 b1 3c
       -0.08657658 -0.10548812 0.024545403 0.021685496
000380 2d 6b 6d bd 69 60 d4 3c 63 d2 f6 3b 7e 7e ad bd
       -0.05796354 0.025924878 0.0075324043 -0.08471392
000390 24 e0 13 bd 56 11 18 3c ae 4b 17 bd 92 90 56 3b
       -0.03610243 0.009281477 -0.03693741 0.003273998
0003a0 40 8d cf 3e 7d 09 02 bd e1 79 40 bd f1 97 4e bd
       0.40537453 -0.03174733 -0.046991233 -0.05043787
0003b0 0c cc 7f bd e4 fc 0a 3e fd 8a 94 bd 46 46 91 bd
       -0.062450454 0.13573033 -0.072530724 -0.07093482
0003c0 02 ba ec 3d 4e da 1f bd 1c 12 a8 be bb fc ea 3e
       0.11558916 -0.03902655 -0.32826316 0.45895943
0003d0 b3 fa 62 bd da 6a 52 3d 1a d9 b2 3e a2 f2 e1 be
       -0.055414867 0.051371433 0.3493126 -0.44130427
0003e0 1f 3b a6 bf 45 7d 8c bd 2d 4a 28 be 6f c6 27 bc
       -1.2986792 -0.06859831 -0.16434546 -0.010240181
0003f0 ba 54 ea bd 8c 06 09 3f 3c 50 0a 3d c9 f6 49 3f
       -0.114419416 0.53525615 0.033767924 0.7889219

fc3.bias f4 [4]
000000 60 aa 06 be e9 18 04 be 44 a8 17 be 12 ca 61 bc
       -0.1315093 -0.12900127 -0.14810282 -0.0137810875
