models/TD3_BipedalWalkerHardCore/critic_2_target.pth (torch, 530647 bytes, 5 tensors)

fc1.weight f4 [400, 28]
000000 de ea b9 bf 3e 1f 56 c0 a8 63 9a 3f f3 36 1d bf
       -1.4524801 -3.3456569 1.2061663 -0.6141197
000010 d6 42 00 bf f8 e2 58 bd 7a aa b3 be 13 8b 05 bc
       -0.50101984 -0.05295083 -0.35091 -0.008150834
000020 d8 90 14 3d 5d 0a 47 bf ee 11 17 be 0c ab 2f bf
       0.036270946 -0.7775019 -0.14752933 -0.6862037
000030 95 d0 0b bd cf 19 f7 bd 96 eb 95 bc cb 52 b3 3e
       -0.034134466 -0.120654695 -0.018300813 0.35024104
000040 63 a5 3b 3f 42 c8 b4 3f 3c be 28 3f 57 22 b4 be
       0.73299235 1.4123614 0.65915275 -0.3518245
000050 af be 81 bf f8 0b 8e bf be ee e3 be 0d c6 10 bc
       -1.0136317 -1.1097403 -0.44518083 -0.0088362815
000060 8b 56 40 3d c5 29 87 3d d6 e0 4e 3d 74 86 bd bc
       0.046957534 0.06599764 0.05050739 -0.023135401
000070 e5 57 99 bd e6 8d 90 3f 86 15 96 be 43 42 e8 3e
       -0.07487468 1.1293304 -0.29313296 0.45363054
000080 b4 86 86 3b e6 3e 19 3f 77 4e 38 3f 8f 8b 29 bf
       0.0041054133 0.598616 0.7199473 -0.66228575
000090 7d c2 11 bf e1 00 d0 3d 73 a5 eb be d5 a7 81 be
       -0.5693739 0.10156418 -0.46024665 -0.25323358
0000a0 31 e7 5f bf 4f fb bf bf aa e3 54 bf 27 29 26 bf
       -0.87462145 -1.4998568 -0.8315989 -0.64906543
0000b0 c9 bf ce be 68 1a 36 bf 94 fb 72 bf 67 44 af bf
       -0.40380695 -0.7113404 -0.9491513 -1.369275
0000c0 b9 fb ca bf 0e 92 91 bf 0d f3 85 bf 40 1c 34 bf
       -1.585807 -1.1372697 -1.0464798 -0.70355606
0000d0 46 66 94 be c7 4b a7 bf 4e 5e a3 3f d8 98 42 bf
       -0.28984278 -1.307 1.2763155 -0.7601447
0000e0 c0 63 76 bf f1 84 46 c0 15 08 d6 3f 1d 1a c8 bf
       -0.96245956 -3.101864 1.6721216 -1.5632969
0000f0 26 99 53 bf d8 5b 57 be 18 4a ef bd 26 62 f3 bc
       -0.8265556 -0.2103113 -0.11684054 -0.029709887
000100 a6 c5 13 3e d9 3b 55 bf 66 91 52 3d fd c8 bf be
       0.14430866 -0.83294445 0.051408194 -0.3745803
000110 77 23 d0 3d 1f cd 40 3e ab 3d 61 be b5 f1 b8 bd
       0.101630144 0.18828247 -0.2199618 -0.09030477
000120 9f 01 9c 3e 42 de 7d 3f 2c de 4c 3f 2f 7a b6 3d
       0.30469987 0.99167264 0.8002651 0.089100234
000130 0a 45 9f bc 86 cc bc 3b 35 11 e1 bc a3 3f 8c be
       -0.0194421 0.005761686 -0.027474025 -0.273923
000140 4a e9 17 3d e2 1c 1d be 63 e2 6e bd 6d 8d 08 be
       0.037087716 -0.15343049 -0.058321368 -0.133352
000150 c7 69 a2 bf 08 56 37 c0 e7 59 ba bf 49 7f df 3f
       -1.2688531 -2.864626 -1.4558686 1.7460719
000160 ce a0 1a 3f ed 65 1c 3f 02 db da 3e 3f 77 29 bf
       0.6040162 0.61093026 0.42745215 -0.6619758
000170 1a 15 d9 be 20 17 45 be 3e 49 80 3e 00 51 bf 3d
       -0.42398912 -0.19247103 0.2505588 0.093416214
000180 a0 e7 35 be 80 78 c7 3e dd 1d 15 bf 8d 7f 12 bf
       -0.17764139 0.38959122 -0.5824869 -0.5722588
000190 ae a1 aa bf 1d 07 9e bf 73 e5 71 bf 47 19 be bf
       -1.3330591 -1.2345921 -0.94490737 -1.4851464
0001a0 d5 02 90 bf 16 fc a6 bf b6 76 aa bf fa 52 63 bf
       -1.1250864 -1.304568 -1.3317478 -0.8879849
0001b0 36 76 a8 be 48 4b be 3e 59 a2 4f 3f be 28 9b bf
       -0.32902688 0.3716681 0.811071 -1.2121809
0001c0 11 f6 c3 3e 68 92 bb 3f 17 7f 26 c0 be 64 11 3f
       0.3827367 1.4654055 -2.601507 0.56794345
0001d0 17 30 af be 4a 95 53 be 9c 4d 0c 3f d3 68 ff be
       -0.34216377 -0.20662418 0.5480592 -0.49884662
0001e0 c8 be b1 bf 2e 3d a8 bd c2 75 6e be 40 f4 c2 3e
       -1.3886347 -0.08214794 -0.23287109 0.38076973
0001f0 de 89 1c 3c 2e 64 15 c0 16 da 9b bd 6f 82 2a be
       0.0095543545 -2.3342395 -0.07609956 -0.16651319
000200 e9 db ce be 4d 13 8a bf eb 24 60 bf 4a f2 50 bf
       -0.40402153 -1.078714 -0.8755633 -0.81619704
000210 78 53 33 bf a7 87 29 bf 03 bf 67 bf 3b b9 6c bf
       -0.7004924 -0.66222614 -0.90525836 -0.9247014
000220 eb 82 fa 3e 0d de 15 3f ce ee 26 bf 46 ab 2e 3f
       0.48928007 0.5854195 -0.6520814 0.6823009
000230 17 5f 23 3f a5 3c 90 bf 35 23 08 3e 8c 7e 0e be
       0.6381697 -1.1268507 0.1329468 -0.13915461
000240 08 c5 31 bf 09 cc 4d bf 5e d8 11 bf 92 56 e8 be
       -0.6944127 -0.8038946 -0.56970775 -0.45378548
000250 e1 28 41 bf f2 d1 55 3e 18 7d 37 3f 92 39 58 be
       -0.75453 0.20880869 0.7167525 -0.21115711
000260 9f 16 2a bf 70 9d 4b bf 5b c5 77 bf a4 9e 08 bf
       -0.6644077 -0.79537106 -0.96785516 -0.53367066
000270 25 52 1b bf cb 92 fb be fe 7c 27 bf 25 82 13 bf
       -0.6067222 -0.49135432 -0.654251 -0.5762046
000280 94 a1 81 be f5 be 1f be 78 c4 4e bf 16 5f 23 bf
       -0.25318587 -0.15600188 -0.8076854 -0.63816965
000290 78 12 42 be b6 db 95 be d7 49 b2 ba 9f 40 23 3e
       -0.18952358 -0.2926919 -0.0013602328 0.1594262
0002a0 71 97 cc 3e 20 da 4a c0 a2 b7 ef bf ae 0c ae bf
       0.3995929 -3.1695633 -1.8727915 -1.359762
0002b0 e8 81 44 be 44 9d 0f 3f 4c 11 82 3e 6c b0 81 3e
       -0.1919018 0.56099343 0.2540382 0.25329912
0002c0 6a 86 d6 bf 8e cb 2f 3f 61 65 52 3f 84 5e 75 be
       -1.675977 0.68669975 0.8218594 -0.23961836
0002d0 d3 13 70 3e e2 7d 69 3e 93 77 6f be 95 3b 92 3c
       0.23445062 0.22801927 -0.23385458 0.017850677
0002e0 3d c0 08 be 55 f4 07 bf b3 d4 60 bf 3d c0 88 bf
       -0.13354583 -0.53107196 -0.87824553 -1.0683666
0002f0 c3 f5 61 bf f0 4e bd bf cf 51 a3 bf ae e9 9e bf
       -0.8826563 -1.4789715 -1.2759341 -1.2415063
000300 19 d6 d6 3e 59 f7 de bc ac 1a 82 bf 01 27 c6 3d
       0.4196022 -0.027217554 -1.016439 0.09675408
000310 de f7 12 3f 18 a7 49 3f 32 ee e2 3e a4 3f 83 40
       0.57409465 0.7877059 0.44322354 4.1015186
000320 c7 f6 b0 3e 11 8b d9 3e 6a ce e3 bd 94 1e 82 be
       0.34563276 0.42488912 -0.11123355 -0.25413954
000330 76 49 24 bf 55 5d 9c 3e 00 61 4d be 9e ff 98 3e
       -0.6417459 0.30539957 -0.20056534 0.2988252
000340 ef ef b7 3e 2c 7f 04 bf 37 e7 aa be 46 65 10 bf
       0.35925242 -0.5175655 -0.33379528 -0.5640453
000350 54 98 75 bf e0 13 38 be c3 28 e6 be 5d 9d 86 be
       -0.9593556 -0.17976332 -0.44952974 -0.26291934
000360 b7 6e a3 be 38 8c 35 be 54 7a 7a be ae b6 1a bf
       -0.31920406 -0.1772927 -0.24460727 -0.60435
000370 43 ab fc be 02 17 ea bd 2c 60 05 be bf 22 35 3e
       -0.49349412 -0.1143017 -0.13024968 0.17689036
000380 b2 1c 6e 3e f5 21 1c 3f 03 c5 e6 be 4b 01 74 bf
       0.23253134 0.60989314 -0.45072183 -0.9531447
000390 54 ac 7a 3e b7 5b bb bd 66 24 93 3d 3c b4 0a bf
       0.244798 -0.091483526 0.07184677 -0.54181266
0003a0 05 0f 15 bf a6 37 ae 3e b9 f8 d7 be 10 ae 4f 3e
       -0.58226043 0.3402683 -0.42181948 0.20281243
0003b0 03 de 7f be c7 d4 25 be 41 09 4c bf 5a 9e 58 bf
       -0.24987034 -0.1619445 -0.7970162 -0.84616625
0003c0 39 7d 44 bf 30 1c 3a bf dd 44 82 bf e2 5e 51 bf
       -0.76753575 -0.7269926 -1.0177265 -0.81785405
0003d0 eb 66 6e bf b0 a5 3a bf e2 b8 5b bf 34 01 fd be
       -0.9312579 -0.7290907 -0.85828984 -0.4941498
0003e0 31 e9 ce 3e e1 a2 ce 3e d9 ac 47 3d 95 33 8b bd
       0.40412286 0.40358642 0.048748825 -0.06796948
0003f0 6b 9d 67 3e 1d bd 08 3e 58 1f 37 bd 75 87 09 bf
       0.22618644 0.13353391 -0.044707626 -0.53722316

fc1.bias f4 [400]
000000 c0 1d 53 3f 5c e4 f6 bd ee 80 79 3f 94 bc 09 bf
       0.8246727 -0.12055275 0.97462356 -0.5380337
000010 14 34 0d 3b de d5 20 bf ad 6c 85 be 03 49 6a bf
       0.0021545934 -0.62826335 -0.26059476 -0.9151766
000020 07 4c a8 be 9f 01 ba be 8f 4b a3 bf 04 9d f5 be
       -0.32870504 -0.36329362 -1.2757434 -0.47971356
000030 9e 50 18 bf 19 54 c2 be 86 75 1f bf 94 66 76 be
       -0.5949801 -0.37954786 -0.622887 -0.24062568
000040 06 66 13 bf a6 ed 18 bf f6 67 a1 bf be a3 2c 3e
       -0.5757755 -0.5973762 -1.2609851 0.16859338
000050 e0 52 3a bf 1d d5 04 bf 57 ac ac be 25 cb 8b be
       -0.7278271 -0.51887685 -0.33725235 -0.27303424
000060 3a eb d3 be 32 c0 59 bf 02 46 de bd 6f d4 ad be
       -0.413904 -0.8505889 -0.10853197 -0.33951136
000070 10 a9 bb be e9 96 4d bf 46 c4 15 be 3d fd 02 bf
       -0.36652422 -0.80308396 -0.14625654 -0.5116766
000080 e0 a5 1b bf 50 3f bd be f7 03 1c 3e ca 8e 6b bf
       -0.6079998 -0.36962366 0.15235887 -0.92014754
000090 af b8 a2 bd 6e 6b 19 be 66 25 97 bc 60 00 b5 be
       -0.07945382 -0.14982387 -0.01845045 -0.3535185
0000a0 b5 55 a8 be ca c2 da bd fe e8 95 be 52 5d 3c be
       -0.3287789 -0.10681684 -0.2927932 -0.18394974
0000b0 9e 31 99 be d7 a3 a3 be 57 7c 34 bf c3 3a 0e bf
       -0.29920667 -0.31960937 -0.7050223 -0.55558413
0000c0 f2 b8 d5 be 7f 2d 2e bf a9 6a 4b be ef a7 2a bf
       -0.41742665 -0.6803817 -0.19864906 -0.66662496
0000d0 46 40 12 bf df 4e aa be d0 35 b0 be 8a f4 35 bf
       -0.57129323 -0.332633 -0.34416056 -0.7107626
0000e0 5c 1a af be 6d d2 c7 bd 2e ae 91 be 8c 66 79 be
       -0.34199798 -0.097569324 -0.284532 -0.24355525
0000f0 aa df dd be af ce af be b6 7e 18 bf 1a b7 57 bf
       -0.43334705 -0.34337375 -0.59568346 -0.84263766
000100 77 26 ae bf 6f 11 a8 be 0c 3c fe be de 99 91 be
       -1.3605489 -0.328258 -0.49655187 -0.28437704
000110 35 9a 09 bf 21 c9 51 3e 23 38 65 be 10 16 22 bf
       -0.53750926 0.20486881 -0.22384696 -0.63314915
000120 dc 4d 74 bf 02 7b 51 bf 96 85 bd be e6 9a 92 bf
       -0.95431304 -0.8182832 -0.3701598 -1.1453521
000130 cd 81 02 bf ca d0 a6 be b1 55 de 3c 08 39 9c be
       -0.5097931 -0.32581168 0.02714047 -0.3051226
000140 49 a4 44 bf 08 30 35 bf 58 71 b6 be 9d 90 05 be
       -0.7681318 -0.70776415 -0.3563335 -0.13043447
000150 a3 72 ee be 12 8d bf bd ab 47 ee bd 1c 59 08 3e
       -0.46571836 -0.09353079 -0.11634763 0.13315243
000160 8f 84 b3 3d d9 6d 45 be 4f ca 2a bf 18 4b 37 bf
       0.08765518 -0.19280185 -0.6671495 -0.7159896
000170 03 6c 95 bf 1b 6b ec be a9 cc dc 3d 47 0c a3 be
       -1.1673588 -0.46175465 0.10781223 -0.31845304
000180 38 44 c1 be 02 78 5e bf 7c ce 8f 3e 91 53 dc bc
       -0.3774736 -0.8690187 0.28087223 -0.026895316
000190 92 91 da be eb ed e4 bd 27 25 af be 17 78 23 bd
       -0.42689186 -0.11178192 -0.34208032 -0.03990945
0001a0 e1 57 ce be 8b 05 ca be 1e 68 12 be 63 e9 ee bd
       -0.4030142 -0.39457354 -0.1429753 -0.11665609
0001b0 ee 62 10 bf db 8f 94 bd cd cc 82 be f9 21 4e bf
       -0.56400955 -0.07254001 -0.25546876 -0.8052059
0001c0 b9 b9 76 be 7a 8d d3 bd fe 54 1d bf cf 1b 2c bf
       -0.24094285 -0.10329719 -0.6145781 -0.6722993
0001d0 59 a4 d7 be 4e 10 17 be 91 78 41 bd ba 71 61 3e
       -0.42117575 -0.14752313 -0.04723412 0.2201604
0001e0 34 82 f4 be 4c 0a ff bd 55 1a 8a be 27 fe 28 bf
       -0.47755587 -0.12453136 -0.26973215 -0.66012806
0001f0 06 3d 1e bf 84 e3 46 bf 8d 23 19 bf f0 70 a1 bf
       -0.61811864 -0.7769091 -0.5981987 -1.2612591
000200 6e 82 11 bf 01 5d c7 be 23 77 e7 be f9 52 03 bf
       -0.56839645 -0.38938144 -0.45208082 -0.5129848
000210 60 86 c3 3c 7f 7c 3e be 01 28 4a bf 2a fa e3 39
       0.023867786 -0.18602179 -0.7896729 0.000434832
000220 72 d7 52 be a7 74 a8 be ef ec 2b bf fa 25 23 bf
       -0.20589998 -0.329015 -0.67158407 -0.6372982
000230 97 ce f3 be db 91 16 bf 5c b6 06 bf d7 b9 b0 3e
       -0.47618553 -0.5881631 -0.5262201 0.34516785
000240 96 5d 1d bf 99 4c 35 bf c9 3f 5b 3d ea 15 56 bd
       -0.61470926 -0.70820004 0.053527627 -0.052266993
000250 64 e4 f3 be bf 23 80 bf bd 87 87 be 36 20 58 3f
       -0.47635186 -1.0010909 -0.26470748 0.8442415
000260 ef 5b 3f 3e b6 a5 77 bf a5 e8 1d 3b 1d 9d 05 bf
       0.18687414 -0.9673723 0.0024094966 -0.5219286
000270 5e 42 11 bf ee bd 9e be be bc 64 bf e4 2b ff be
       -0.56741893 -0.3100428 -0.893505 -0.49838173
000280 06 f2 9d bd a0 7f be bf 8d e1 0a bf 70 b2 bb bc
       -0.07712178 -1.4882698 -0.54250413 -0.022912234
000290 e1 5d 4d bf 82 96 5b be bc 57 76 be c8 90 df be
       -0.8022137 -0.21444133 -0.24056906 -0.43665147
0002a0 05 7e 0f bf df 8a a0 be 76 6b 16 bf 91 b0 99 be
       -0.56051666 -0.3135595 -0.5875772 -0.30017522
0002b0 ea 15 56 bd 85 31 89 be 5d 17 36 bf c0 c5 6b bd
       -0.052266993 -0.26795593 -0.711294 -0.057561636
0002c0 24 04 92 be 42 a4 60 be 4b 0a ff be 3e 46 19 bf
       -0.28518784 -0.2193766 -0.4981254 -0.59872806
0002d0 2d c3 81 be bf aa af be 4b f3 ed be 80 8f bf be
       -0.2534422 -0.34309956 -0.4647468 -0.3741417
0002e0 ee 20 9b be 56 99 12 bf 92 34 17 bf b6 2d 8f bc
       -0.3029856 -0.5726522 -0.5906459 -0.017477851
0002f0 61 1f cd be b8 08 34 be 0f 27 a7 be 71 4a c4 be
       -0.40063003 -0.17581451 -0.32646987 -0.38338044
000300 5c 40 89 be 10 c1 37 bf b9 39 c9 be 62 a8 64 3e
       -0.26806915 -0.71778965 -0.3930185 0.22329858
000310 66 ae 19 bf 29 ff c5 be b3 7a 6f be da dd 5c be
       -0.60031736 -0.38671234 -0.2338665 -0.21569005
000320 7b d5 e0 be 0b ea a5 be 90 8a be be 1d 22 8d be
       -0.43912873 -0.32405123 -0.3721509 -0.2756509
000330 2c 4f 0c 3f 2c 8e f5 be 5b ee 6c bf 9c dd 74 be
       0.54808307 -0.4796003 -0.925512 -0.23912662
000340 f5 5b 0a bf a6 70 18 bf c5 88 08 bf cb 28 e3 be
       -0.54046565 -0.5954689 -0.53333694 -0.4436706
000350 83 2a 6d bf 2e 5b 05 bf 4f 54 ad bd ea 8c 57 bf
       -0.9264299 -0.52092254 -0.08463346 -0.8419939
000360 d5 0c 06 bf eb bd 6c bf b0 98 b8 be ba 80 52 bf
       -0.5236333 -0.9247729 -0.3605399 -0.8222767
000370 22 ca 55 bf 05 33 8f be cf 13 25 bf a0 a4 bc be
       -0.83511555 -0.27968612 -0.6448335 -0.3684435
000380 37 c2 2c be ca 9c 58 bf 49 e8 c1 be 57 14 a4 be
       -0.16870962 -0.8461424 -0.37872532 -0.32046768
000390 ef 72 a6 be e7 bf a9 be 27 89 2f bf 45 6e 02 bf
       -0.32509562 -0.33154222 -0.6856865 -0.5094951
0003a0 6e 3f 98 be 25 cb 8b bf 82 68 6b 3e bd 12 0e be
       -0.29735893 -1.092137 0.22989085 -0.13874336
0003b0 6c fe 56 bf 1b da e6 be ee 07 9b be 96 f6 90 be
       -0.83981967 -0.45088276 -0.30279487 -0.2831313
0003c0 6e 20 99 be da 34 5b bf 16 43 17 bf 91 66 c4 bd
       -0.29907554 -0.8562752 -0.5908674 -0.095898755
0003d0 94 07 f1 be 97 b6 a3 bc 72 87 57 bf f6 85 9c bf
       -0.47076094 -0.019984527 -0.8419105 -1.2228382
0003e0 0c c3 f4 be f4 7a 0d bf 06 f0 95 be e1 25 4e be
       -0.4780506 -0.55265737 -0.29284686 -0.20131637
0003f0 8e 31 1f bf 4d 89 87 bf c1 dc c8 bd c3 6c 63 be
       -0.6218499 -1.0588776 -0.098077305 -0.22209458

fc2.weight f4 [300, 400]
000000 2d e3 13 3f ce db 25 bf 70 64 0a 3e 53 c7 69 3f
       0.5776852 -0.6478852 0.13514876 0.9131977
000010 4f f2 34 3f e4 45 03 3f 8a ae d4 be ec c9 03 3e
       0.70682234 0.5127852 -0.41539413 0.12869996
000020 10 bc bc 3e 57 eb ae 3e 4e 5b 97 3f 0b eb 65 3e
       0.3686223 0.34163925 1.1824739 0.22452943
000030 1d e6 16 3f b0 d4 47 3e 0e 26 23 bf 8c 92 7a bb
       0.58944875 0.19514728 -0.6372994 -0.0038234321
000040 b6 70 2b bf 50 74 b0 3c b8 35 b9 be 86 88 a0 be
       -0.6696886 0.021539837 -0.36173797 -0.3135416
000050 c8 97 c4 3c 4f af a2 bd 65 01 04 3c 4a ea e2 3c
       0.023998156 -0.07943594 0.008056973 0.027699608
000060 4f a9 bc be 75 d4 91 be 28 b6 cd 3a 58 74 c6 be
       -0.36847922 -0.28482404 0.0015694546 -0.38760638
000070 58 3d 32 3f 89 8c c9 3d 6a 4d ec 3e 96 42 2e bf
       0.69624853 0.09841258 0.46152812 -0.6807035
000080 1d 38 5a be 37 62 3c bf 4b 6e ce 3e 8d eb 99 bc
       -0.21310468 -0.73587364 0.40318522 -0.018789077
000090 81 d9 d4 3e ad 66 9f 3f fe ab 1b 3e 6f 0b a9 3e
       0.41572192 1.2453209 0.15202329 0.33016536
0000a0 d2 51 1c 3f 08 62 ce 3e 03 ac ff bd 97 19 aa 3e
       0.6106235 0.40309167 -0.124839805 0.33222649
0000b0 d5 3e 1f 3e 7a 8d 6c bd 60 51 34 3f 4f d9 65 3c
       0.15551312 -0.05775211 0.7043667 0.014028861
0000c0 ca 0a e8 3e b5 ca 03 3f ee 4e 24 3d 65 29 8e 3e
       0.4532073 0.5148118 0.040114336 0.27765957
0000d0 30 20 31 be 1b ca f1 bc bd ea 9c bd 02 5d 49 3e
       -0.17297435 -0.029515317 -0.0766196 0.19664386
0000e0 89 cc 22 bf d7 1a 04 3f 1f 21 bb 3e f5 4a 11 bd
       -0.63593346 0.51603454 0.36548707 -0.035471875
0000f0 75 b5 92 3e 03 6b 75 bf 3d 1c 9b 3e e9 71 4f bd
       0.28654066 -0.9586641 0.30294982 -0.050645743
000100 81 2d 33 bc 4c c7 05 3d af 86 bb 3d 45 f3 89 bc
       -0.010936142 0.032660767 0.09156548 -0.016839633
000110 5f 4c b9 3e f8 aa cc bf 08 2b ba be a3 76 64 3f
       0.3619108 -1.5989676 -0.36360955 0.89243525
000120 49 0d 40 3e 7d 77 91 3e f5 ef cf 3d de d9 97 3e
       0.18755068 0.28411475 0.1015319 0.29658407
000130 18 3c c6 3d 73 af 0e 3f 76 d5 b7 3d 2a 43 c0 3e
       0.09679431 0.55736464 0.08976261 0.37551242
000140 de 05 19 bf d1 24 d0 3e c9 50 35 3f 66 81 90 3e
       -0.5977458 0.4065309 0.70826393 0.28223723
000150 43 34 e2 be 84 6c eb 3e ec 61 73 bd de 33 a2 bf
       -0.44180498 0.45981228 -0.059419557 -1.2672079
000160 bb 91 ee 3d 6f e2 b3 be ff 0a ba be f8 ca cf 3e
       0.1164889 -0.35133693 -0.36336514 0.4058454
000170 65 8d 13 be 88 b6 c2 3e 3e 98 17 3e 4d 1e 9d 3e
       -0.14409406 0.38029885 0.1480417 0.3068718
000180 73 80 6d 3e 7f e7 a8 be 5e fb a0 bf 36 27 98 3e
       0.2319353 -0.32989118 -1.2576711 0.29717416
000190 81 87 d1 3e 2d 63 91 3f b4 76 f8 bd 3e d3 a2 bc
       0.40923694 1.1358391 -0.12132016 -0.019876119
0001a0 55 7e 0a bd d7 eb 03 bf e1 45 d1 3e 1a fb 6d 3f
       -0.033811886 -0.5153174 0.40873626 0.92961276
0001b0 66 c6 2a 3f aa 4c 9c 3f 64 80 8c 3d c8 3b 32 3d
       0.6670898 1.2210896 0.06860426 0.043514043
0001c0 b5 0f b5 3e 57 08 26 3e aa a3 e7 be 66 ed 97 3e
       0.35363546 0.16214119 -0.45242053 0.29673308
0001d0 8e 93 17 3f bf df 22 bd 50 e6 36 3d b4 86 86 3e
       0.59209526 -0.039764162 0.044653237 0.26274645
0001e0 fe 68 a2 3d 5b 4e f6 3e ec 04 0f bd 35 3a 19 3e
       0.07930182 0.48106655 -0.034916803 0.1496361
0001f0 84 d5 0f be 2f d7 82 3e 86 47 16 3f 64 30 51 3e
       -0.14046293 0.25554797 0.58702886 0.20428616
000200 61 16 db 3e f9 5e 0e 3f 46 80 98 3d 1e f2 79 3d
       0.4279051 0.55613667 0.07446341 0.061021917
000210 02 b2 c7 3e f6 b4 a9 be 95 6c 8e 3f 25 a1 92 3e
       0.39002997 -0.33145875 1.1126887 0.2863857
000220 68 a8 c8 3d a9 68 c3 3e 5d 45 1d be 75 2d 48 3e
       0.09797746 0.38165787 -0.15358491 0.1954859
000230 5a d6 b9 3e 6c e2 1c 3f 4a b5 56 bf 31 6c 4e bf
       0.3629635 0.6128299 -0.83870375 -0.80633837
000240 e7 83 33 bf 81 1c 20 3e 6e 6c 9d 3e 02 11 6b bd
       -0.7012314 0.15635873 0.30746788 -0.057389267
000250 df 85 be 3d 0a b6 59 be d7 34 a9 bd 9f 32 8f 3f
       0.09302878 -0.21260849 -0.082620315 1.1187323
000260 5b 35 f6 be ed ea 6e 3e be 19 91 3e 04 89 09 3f
       -0.48087582 0.23331805 0.28339952 0.53724694
000270 ae c7 ac 3e b4 69 8f 3c 9f 9d 1c bf 39 12 da bc
       0.33746094 0.017506458 -0.6117801 -0.026620017
000280 ff 3d be 3e cf ef 2a be 5b c5 77 be ea 8f 63 bf
       0.37156674 -0.16693042 -0.24196379 -0.8889147
000290 76 b4 27 3e 27 73 22 3f b2 aa 67 3e 12 0b a9 3e
       0.16377434 0.6345696 0.22623709 0.33016258
0002a0 97 71 bb 3e 5d 27 89 3d d7 db 3b 3e 40 01 88 3f
       0.366101 0.06696961 0.18345581 1.0625381
0002b0 3a aa 62 3e dd 32 05 3d 7e 23 58 3f 6f 64 01 3c
       0.22135249 0.03251921 0.84429157 0.00789748
0002c0 4d 10 e9 3e 90 f0 46 3f c4 6a f4 3e e6 fc 94 3e
       0.4552025 0.7771082 0.47737706 0.29099196
0002d0 0c 11 01 be 05 a7 84 3e 73 ad f2 bd b5 15 9d be
       -0.12604159 0.25908676 -0.11849489 -0.30680624
0002e0 17 4a 33 be 4d 3a 10 be f4 2f 2d 3f 73 06 41 3e
       -0.17508732 -0.1408474 0.67651296 0.18850116
0002f0 87 78 2b 3f 4f aa a7 bd c1 24 56 3d 15 ef 0b 3f
       0.66980785 -0.08186781 0.052281145 0.54661685
000300 1c f2 7b be fe 02 1a be 35 99 9e 3e 46 50 80 3e
       -0.24604076 -0.15040204 0.30976263 0.25061244
000310 a5 7d 9f 3d d6 5c 1a bd b6 28 1e be c7 f7 34 3d
       0.07787637 -0.03768619 -0.15445217 0.04418161
000320 3e 8f 25 3f ae 16 ce 3e 40 6d 4c bf 94 ca 0f 3e
       0.64671695 0.40251678 -0.798542 0.14042121
000330 79 f9 da bf 18 fc bf 3d b7 55 bc be 1d 53 09 3d
       -1.7107383 0.09374255 -0.36784145 0.03352653
000340 46 c2 26 bf 56 2e a8 be 4d c3 8e 3d 8e 1b 2b 3e
       -0.6514019 -0.32847852 0.069708444 0.1670973
000350 a2 78 d4 3c f3 a6 49 3e 04 83 71 3e df 7e bb be
       0.025936428 0.19692592 0.23585135 -0.36620232
000360 5e ec 16 3b 17 e8 ba 3d 72 7f d0 3d d9 00 d3 be
       0.002302907 0.09126299 0.10180558 -0.41211584
000370 2f e8 31 be fe 8a ad 3e 10 6e b0 bd d5 66 10 bf
       -0.17373727 0.33895105 -0.08614743 -0.5640691
000380 65 dd 89 bd f5 f5 01 3f 9f 5d b3 3e 24 65 83 3f
       -0.06731681 0.50765926 0.35032365 1.0265241
000390 31 a1 43 3f 2e f6 1e 3e 1a c1 66 3e 61 48 c2 be
       0.76417834 0.15523598 0.225346 -0.37945846
0003a0 75 4c 97 3e 1c 34 8a 3e d6 52 a4 3d 2c 24 0f 3d
       0.2955052 0.2699288 0.08023612 0.034946606
0003b0 8a 0f 6a be 0a 86 e1 3c 51 95 d0 3e 37 a5 b5 bc
       -0.2285749 0.027529735 0.4073892 -0.022173507
0003c0 9a 15 db 3c 36 7e 2f 3f 4a 76 ed be a6 d3 2d 3e
       0.026743699 0.6855196 -0.4637931 0.16975269
0003d0 ac e4 f1 3e 41 65 c5 be 76 51 ab be 45 db 0d 3d
       0.47244775 -0.38553813 -0.33460587 0.03463294
0003e0 dc c9 09 3f cd e8 97 3e f0 b4 c5 bd 1b 9a 80 3f
       0.5382364 0.296698 -0.09653652 1.0047029
0003f0 45 b1 94 3e 57 e4 ab bd 7c b2 03 3e ec b6 02 be
       0.29041496 -0.08393162 0.12861055 -0.12765092

fc2.bias f4 [300]
000000 2a 36 0a 40 2f 1e a9 3f 38 ea 36 be c5 af 0e bc
       2.159556 1.3212336 -0.17862785 -0.008708899
000010 fa 1a 20 40 24 b5 fe bd fc 49 f1 bd 40 29 36 bd
       2.5016465 -0.124368936 -0.117816895 -0.044472933
000020 d6 37 9c bd d9 0e c0 bd 65 9a 58 3d a3 56 fb bd
       -0.07627837 -0.09377832 0.052881617 -0.12272384
000030 2c 3b 30 40 02 46 de be 12 6b d6 be 42 45 a4 3f
       2.7536116 -0.43412787 -0.41878563 1.2833636
000040 e4 01 06 3f b2 47 d2 bc 45 ed 0a be aa 17 dd bd
       0.52346635 -0.025668953 -0.13567074 -0.10795529
000050 f7 fc 36 3f 6d 5f 82 3f cb a5 63 bd 06 c5 98 bd
       0.71479744 1.0185372 -0.055578034 -0.07459454
000060 af 9c af bd 77 85 b3 3f e5 19 02 be 4f 53 29 c0
       -0.08574807 1.4025105 -0.1270519 -2.6457098
000070 c2 10 51 be 3f 4b a8 bd 5e c4 25 40 ad da 14 3f
       -0.20416549 -0.08217477 2.5901103 0.5814617
000080 af 59 36 3e 44 5f 78 bd c6 58 a9 3f ea c5 5a be
       0.17807649 -0.060637727 1.3230217 -0.2136456
000090 07 a7 36 c0 c2 24 d6 bd 35 8e 0b be 70 f8 c0 3f
       -2.8539445 -0.1045623 -0.13628466 1.5075817
0000a0 89 07 c2 be c8 e8 43 bf 99 53 c0 be 88 83 cc 3f
       -0.37896374 -0.7652707 -0.3756378 1.597764
0000b0 0d 36 18 c0 d7 38 00 bd 5d f1 11 be 9d c7 80 bd
       -2.378299 -0.031304207 -0.14252229 -0.06288073
0000c0 c4 4a f1 bd b1 ec 43 bd 20 32 cd 3e 00 5b ce 3f
       -0.117818385 -0.04783315 0.40077305 1.6121521
0000d0 2d d6 9b 3f 21 2c ce bc 0c a3 0a 3c 5b 90 6b 3f
       1.2174736 -0.025167527 0.008461725 0.92017144
0000e0 55 f6 8f bd 25 04 8f bd 2c 9a f3 bb 92 04 31 40
       -0.07029406 -0.069832124 -0.00743415 2.765904
0000f0 c7 21 ae bc 15 cf 08 40 cd 11 04 be 1c ed 00 3f
       -0.02125634 2.1376393 -0.12897415 0.503618
000100 b7 80 b9 3e 96 88 1a be 4b cd eb bd e2 84 d3 bd
       0.36231014 -0.15091166 -0.11513766 -0.1032808
000110 e4 9c 01 3f 3f 58 2a bd a3 11 fa 3d 6f ec a9 bd
       0.5063002 -0.041588064 0.12210395 -0.08297049
000120 5d 19 83 bd bf a2 28 be de 93 92 be 64 b8 0b 3f
       -0.06401322 -0.16468333 -0.2862844 0.5457823
000130 b7 88 27 bd 46 d0 8f be 47 73 2f bf 85 87 83 bd
       -0.040901866 -0.28088588 -0.68535274 -0.06422333
000140 2a 82 de bd c0 bd b0 be 74 6e f0 be dd 9d 08 bd
       -0.108646706 -0.34519768 -0.4695927 -0.033353675
000150 1e c8 9b bc 4d 75 02 bd 9c 08 f2 bc 99 ac c6 bd
       -0.019016322 -0.031850148 -0.02954512 -0.09700889
000160 1f 2f a8 bd bf 83 a9 bd 2d f6 85 bd 35 73 12 bd
       -0.08212113 -0.08277082 -0.06541095 -0.0357544
000170 04 2e fb bd b9 60 cf be 4e be 2c 40 c7 9d a4 bd
       -0.12264636 -0.4050348 2.6991153 -0.08037906
000180 e8 4c 37 40 c1 a8 c0 bd 2d 21 9a be 26 94 29 3f
       2.864069 -0.09407187 -0.30103436 0.6624168
000190 57 23 ae 3f f6 aa 1a bd 9c 99 77 bd a5 7e 05 be
       1.3604535 -0.037760697 -0.060449228 -0.13036592
0001a0 b7 6a ac bc 07 f9 20 be 3a cb 21 40 af c5 bd 3e
       -0.02104698 -0.15719996 2.528029 0.37064883
0001b0 74 5d f7 be 14 15 8e 3e 9f bf ab bd fe 7e af 3e
       -0.48313487 0.27750456 -0.08386158 0.34276575
0001c0 75 55 89 be 8f f3 b9 3e d5 38 87 bd 43 93 67 bd
       -0.2682301 0.36318633 -0.06602637 -0.056536924
0001d0 36 0f 9c bd 98 59 bf bd e6 a7 14 bf 4b 1e 12 40
       -0.07620089 -0.093432605 -0.5806869 2.283099
0001e0 42 29 68 3f 6a b6 67 3b d9 9a ca bd 88 9e 46 3f
       0.90687954 0.003535653 -0.09892816 0.7758565
0001f0 b5 61 08 bd 87 94 b7 3f 14 b2 f8 bd cb fd 65 bd
       -0.033296306 1.4342202 -0.12143341 -0.05615024
000200 1e b4 af 3f 8c ee 8c be eb 71 e8 bd 52 f0 de bc
       1.3726842 -0.27525747 -0.11349853 -0.027214203
000210 9c fb 88 3e c7 0d 29 bc 5b 17 7b 3f 3e 84 92 bd
       0.26754463 -0.010318226 0.9808251 -0.071541294
000220 f1 bc cc bd a4 d0 88 bf c4 61 2f bd 2d ea 07 be
       -0.09996975 -1.0688672 -0.042817846 -0.13272925
000230 8b 4a 6d bd e3 84 ec be 52 5e 55 bd cd 65 0f be
       -0.057932418 -0.46195135 -0.052091904 -0.14003678
000240 1d 40 08 bc bd e2 15 c0 fd ca b7 bd 00 ad 38 be
       -0.008316067 -2.341964 -0.08974264 -0.18034744
000250 5b 78 6f be f3 9d e6 3f e0 47 b9 3e 3e 1b 97 bd
       -0.23385756 1.8016952 0.3618765 -0.07378243
000260 e1 c0 c9 bd d1 0a 4c bd c9 6c c7 be aa 05 60 be
       -0.09851242 -0.049815003 -0.38950184 -0.2187716
000270 02 c7 d5 bd d9 9f de 3f 0b 03 e2 bd 0f 59 a7 bd
       -0.10438348 1.7392532 -0.11035737 -0.081712835
000280 1c 6d 74 bd e6 14 a0 3f c6 50 cb be f8 3b 1e 40
       -0.059674367 1.2506378 -0.39710063 2.4724102
000290 e2 be da bc 6c 96 92 bb 1d ee 84 bd b1 9c c8 bd
       -0.026702348 -0.004473498 -0.06490729 -0.097955115
0002a0 69 fc 32 40 a1 bf 44 bd fd 61 86 bd 3e 30 ad be
       2.796656 -0.048034314 -0.065616585 -0.33825868
0002b0 9e fe 94 bd 24 ff 2b 40 27 09 a3 bd 28 0f bb bd
       -0.07275127 2.6874475 -0.0796073 -0.0913375
0002c0 b0 2c 31 c0 0e 76 1e be 7b b9 ed bd 34 93 06 3f
       -2.7683525 -0.15474722 -0.11607643 0.52568364
0002d0 0a 6f e9 3f ba e5 56 bd d4 19 08 40 0a 7f de bd
       1.8237011 -0.052465178 2.1265764 -0.108640745
0002e0 13 87 e2 3d 8d cc 01 be 34 f9 8e 3f 83 96 f4 3e
       0.110609196 -0.12675686 1.1169801 0.4777108
0002f0 d2 59 5c bd b5 04 8b bd 12 be 5d bd d6 13 22 3f
       -0.053796597 -0.06788007 -0.054136343 0.6331152
000300 2e 7f 9d bd 85 58 8f bd 39 15 cd bd 33 9a 28 40
       -0.07690273 -0.06999306 -0.100138135 2.6344116
000310 d3 99 fb 3e f9 57 c5 bd 92 4a 23 c0 a2 e0 64 3f
       0.49140796 -0.0963592 -2.5514264 0.8940526
000320 d0 61 4a 3f 14 f0 f6 bd 1b 04 e0 bd 0f b2 2d bd
       0.790555 -0.1205751 -0.10938283 -0.042406138
000330 9a 52 ee 3e 23 fa 06 40 88 67 b2 bd 00 54 32 be
       0.46547395 2.1090171 -0.08711153 -0.17414856
000340 1d 9a 92 3f d9 16 47 bd 95 c1 04 40 92 40 db bc
       1.1453282 -0.048605774 2.0743153 -0.026764188
000350 68 e2 b6 bd 04 bb f0 bd 98 ad b1 bd a1 b8 c1 bd
       -0.08929902 -0.117544204 -0.086756885 -0.09459043
000360 b6 78 99 bd 63 d6 6d bd d6 6a 00 40 1b b1 24 40
       -0.07493727 -0.058065783 2.0065207 2.5733097
000370 2c 26 fe bd 48 b4 b9 bd 5a 35 5d bd b8 ad be bd
       -0.124096245 -0.09067589 -0.05400596 -0.09310478
000380 1e 38 1a bd 57 d5 a1 bd 8b e5 68 bd a6 5e 9b bd
       -0.037651174 -0.079020195 -0.056859534 -0.07586412
000390 f8 d8 3c 3f eb 92 6f bd 1b e7 e8 bd 7e b7 97 be
       0.7376857 -0.05848972 -0.11372205 -0.2963218
0003a0 f3 70 e1 bc c5 99 81 bd a8 07 4f 3d 93 8f eb bd
       -0.027519679 -0.06328157 0.05054441 -0.11501994
0003b0 37 19 37 40 72 da de bd 9f bb 34 be 2e 71 97 bd
       2.860914 -0.10881509 -0.17649697 -0.07394634
0003c0 ac 0b 0c 40 6a 8d d9 bd 07 e5 b4 3e 6e 98 9e 3f
       2.1882124 -0.10622676 0.35330984 1.2390268
0003d0 df ee 20 bd d7 f4 a2 bd cd 56 1e 3f 46 a1 9f be
       -0.039290305 -0.07956856 0.618512 -0.3117773
0003e0 3e 9c 27 40 e5 6b 05 c0 68 c4 3b bf 84 fa 0d 3f
       2.6189113 -2.0847104 -0.7334657 0.5546038
0003f0 bc 0d fa bd 57 56 60 be 13 8f 69 bd 57 e0 34 3f
       -0.12209651 -0.21907936 -0.05702121 0.70654815

fc3.weight f4 [1, 300]
000000 ab 06 2c be 58 ff 4c 3f 50 5c cd 3f 06 ef 11 bb
       -0.16799419 0.80077124 1.6043797 -0.0022267713
000010 2d c3 0a bf 5a 9f 5c bc 04 e7 f1 bc c8 7c 3c bc
       -0.54204065 -0.013465727 -0.029529102 -0.01150436
000020 01 bf ce 3b f0 b4 c5 3f 02 1b e5 3e de 43 17 3d
       0.0063093905 1.5445843 0.44747168 0.036929958
000030 5a 72 76 be 14 14 0a 40 85 2d 92 3f 1b 72 72 bf
       -0.24067059 2.1574755 1.1420141 -0.9470536
000040 00 91 c5 bf 85 ef 13 bc ab 89 63 3c 39 90 c5 3c
       -1.5434875 -0.009029274 0.013887803 0.024116622
000050 16 c4 a7 bf 0c d2 7e 3f 2d 5f 01 bd 52 cc e4 be
       -1.3106716 0.99539256 -0.031584907 -0.44687134
000060 0d c9 8c bc a8 cd 47 bf 2d 65 99 bd 06 d4 22 3f
       -0.017185712 -0.7804818 -0.07490001 0.6360477
000070 90 a4 42 bf 97 dd a9 bc 96 c2 21 be 2c 7f 84 bf
       -0.7603235 -0.020735545 -0.15796885 -1.035131
000080 6f d8 3d bf 18 ce 36 bb 90 74 4a bf 7f 1c 35 3f
       -0.74158376 -0.0027893838 -0.7908411 0.70746607
000090 c7 c8 27 3f 3e 4c 13 ba 61 fe c5 3c 3c c2 f7 3b
       0.65540737 -0.0005618966 0.024169149 0.0075609963
0000a0 36 10 20 3f e7 de 28 3f 1f 8c 06 40 92 32 2c bf
       0.62524736 0.6596512 2.1023023 -0.67264664
0000b0 9d 8a 06 3f f3 71 e5 3a 35 46 97 3f 34 24 8c 3c
       0.5255526 0.0017505273 1.18183 0.017107107
0000c0 72 81 58 3c 55 d8 94 bc 5c c9 07 bf 17 b2 aa 3b
       0.013214456 -0.018169561 -0.53041625 0.0052092182
0000d0 2c dd 85 3d 10 4f b1 3c fd 38 11 bf 30 ea b9 3e
       0.06536326 0.021644145 -0.5672758 0.36311483
0000e0 54 92 0f 3c 61 e6 49 3c 27 4d b9 3b 48 c9 cf bd
       0.008762915 0.012322993 0.005654949 -0.10145813
0000f0 4c d5 72 3c c3 28 7f be 60 8f b2 bc 2c c0 8e be
       0.014821362 -0.24917893 -0.021796882 -0.2788099
000100 64 d7 8a be 0c a9 89 3f 2d b1 9d ba 14 dd f5 bb
       -0.27117455 1.0754714 -0.0012030952 -0.007503161
000110 68 04 42 be 3a f6 66 ba 17 b1 3f bf ef 04 28 bc
       -0.18946993 -0.00088104943 -0.7487959 -0.0102550825
000120 ee 6f 2b bb d8 4f b1 3c 00 b2 4c 3f 8b 41 fb bf
       -0.0026159245 0.021644518 0.79959106 -1.9629377
000130 f5 dc 9a be ef 66 c5 be b0 64 49 3f 84 e1 f4 3c
       -0.30246702 -0.38555095 0.7866926 0.02989269
000140 86 52 29 3c ac 80 8a 3f 98 b2 45 3f 73 3f e3 3c
       0.0103346165 1.0820518 0.7722564 0.027740216
000150 1b 8a eb bc f8 83 46 3a 54 3f 88 3b e6 56 ae 3c
       -0.028752377 0.00075727655 0.00415794 0.02128167
000160 6f 2c b0 3f 9a 7c 67 3c 7c 23 06 bf 92 d5 ce 3e
       1.376356 0.014128828 -0.52397895 0.40397316
000170 82 c0 d4 3c 08 94 4e bf 1f 3a 22 bf 28 61 07 bf
       0.025970701 -0.8069463 -0.63369936 -0.52882624
000180 5f c8 bf be b7 61 a1 3c db 9e 5f 3c 0e 42 af bf
       -0.3745756 0.019699914 0.013648714 -1.3692033
000190 6e 6f a9 bf 66 b6 1c bc 63 76 e4 bc 52 47 5d bc
       -1.3237131 -0.009564972 -0.027888482 -0.013505774
0001a0 68 84 b5 bc 7a ca e6 3f 7b ca 9c be 20 17 c5 be
       -0.022157863 1.8030541 -0.3062323 -0.38494205
0001b0 16 c3 a3 3e a9 34 d4 3e 48 40 44 3c 57 3b 2a bc
       0.31984776 0.41446427 0.0119782165 -0.010390124
0001c0 58 94 c9 3f 7c da 0d bf a5 09 0c bc be e2 15 3c
       1.5748396 -0.55411506 -0.008547221 0.009148298
0001d0 bb 1a 7c 3b f7 e6 a9 bc 52 2b ea bf 4f 76 4e be
       0.003846808 -0.020740015 -1.829447 -0.20162319
0001e0 73 11 f3 3e 7b 0f 68 39 e8 54 3f 3b 5b d7 f4 be
       0.4747425 0.00022131011 0.0029194895 -0.47820553
0001f0 a7 b3 aa 3c d5 8b 0e bf bb 36 ef bc a0 e6 31 bb
       0.020837618 -0.55682117 -0.029200902 -0.002714552
000200 f9 2f 54 bf 67 0a 97 3e db 93 60 3b 70 89 46 3c
       -0.828857 0.29500124 0.0034267816 0.012117729
000210 0f 43 b3 3f fc 3d 8c bc 94 9c 86 bf 57 2b 35 3b
       1.400484 -0.0171194 -1.0516534 0.002764424
000220 80 f1 b7 bc 35 26 94 3e 0c 44 20 be 6d c8 96 3a
       -0.022454023 0.289354 -0.15650958 0.0011503823
000230 7a f9 5a 3c 81 db dc 3e 94 b1 8f bc 58 79 41 3f
       0.013365144 0.43136218 -0.01754073 0.7557578
000240 dd cb 91 bc 53 e7 ec 3e 68 5d aa 3e 87 8f 23 3c
       -0.017797405 0.46270236 0.33274388 0.00998295
000250 ef 5a 3b bd b8 b5 c5 be 27 82 98 3d d1 81 cd 3c
       -0.045741018 -0.38615203 0.074466996 0.025086315
000260 9a b0 d6 bb e8 7e b8 3c ca b4 6d 3f b8 f0 b7 3f
       -0.0065518143 0.022521451 0.9285399 1.4370337
000270 a7 f6 23 bc 39 c8 dd be 95 37 02 bc 72 9a 58 bc
       -0.010007537 -0.4331682 -0.007947822 -0.013220416
000280 79 7e 49 bc 25 14 1d be 6a e8 96 3e ef 60 b9 be
       -0.01229822 -0.15339716 0.29474193 -0.36206767
000290 49 6a d6 3f d3 13 f0 bf fa 7b d8 bc 00 b2 b3 3c
       1.6751186 -1.875605 -0.026426304 0.021935463
0002a0 12 6d 9f be bc 0a 87 3c ed 66 87 bc fc 51 6b 3f
       -0.31137902 0.01648461 -0.016528571 0.91921973
0002b0 3e 1c 9b bc a0 02 0d bf dc bc 07 bc 91 ff d0 3c
       -0.018934365 -0.5508213 -0.008284774 0.025512489
0002c0 a9 17 44 3f 73 5e 62 3c e4 8f ff bc 00 39 43 be
       0.765986 0.013816464 -0.031196542 -0.19064713
0002d0 94 d3 01 be 93 c8 6e bc 5d 6b 1f be 58 16 c5 3a
       -0.12678367 -0.014574188 -0.155683 0.0015036566
0002e0 db 84 ef 3f cd da 08 bc 6a 72 6a bf 1a 11 62 3f
       1.8712419 -0.008352947 -0.9158083 0.88307345
0002f0 98 18 35 bd 34 07 7c bc b5 cb 07 bb b5 26 96 bf
       -0.044212908 -0.015382577 -0.0020720784 -1.1730562
000300 47 88 b8 3c 49 7f 5f bc 52 b6 57 3b 0e 43 c2 be
       0.02252592 -0.013641187 0.0032915068 -0.37941784
000310 cc a6 80 bf 33 00 f9 bf 7f 93 cf 3e b5 fa 94 bf
       -1.0050902 -1.9453186 0.40542218 -1.163901
000320 fa 5f 65 bf 5f 27 3b 3e 62 61 db 3b 0c 52 f2 3b
       -0.89599574 0.18276738 0.0066949585 0.0073950347
000330 76 3f 2e bf 03 68 cf bd 16 38 9d 3c 45 1a 10 be
       -0.68065584 -0.101272605 0.019191783 -0.14072521
000340 74 ab 83 bf 4b d4 6e 3c 3e 2c 90 be 1c 2f 8f bb
       -1.0286698 0.014576982 -0.28158754 -0.0043696295
000350 d9 6c 41 3c 1a 32 d0 bc 0c fa 88 3c de 96 9e 3c
       0.011805736 -0.025414515 0.016720794 0.019359048
000360 46 bd 92 3b e8 77 35 3c f1 f6 d3 be e2 d8 14 bf
       0.0044781296 0.011075951 -0.4139934 -0.58143437
000370 80 2b 3f 3c b5 42 09 3c a5 fc 09 bc f3 20 e6 bc
       0.011668086 0.008377721 -0.008422052 -0.028091883
000380 21 b1 55 bc 62 e5 de bc 32 f0 51 3c ff e1 ab bc
       -0.013042719 -0.027208988 0.012813615 -0.020981787
000390 41 10 4f bf d0 43 b6 bc 73 32 e1 bb 84 4b 8d 3f
       -0.80884176 -0.022249132 -0.006872469 1.103867
0003a0 6c b0 81 bf 1d f8 13 3f 40 a3 c3 3f e0 ba ca 3f
       -1.0131965 0.57800466 1.5284195 1.583828
0003b0 52 fe 15 bf e0 77 38 bc 52 33 58 3f 61 0c cc bc
       -0.58591187 -0.011259049 0.8445331 -0.024908246
0003c0 8b 2c 4d be 20 85 3b 3c 90 4e c8 3a ad 4c 1b bf
       -0.20036523 0.011445314 0.0015282203 -0.6066387
0003d0 63 2a e0 bb bb 08 e6 bc 25 12 95 bf 36 d8 a0 3f
       -0.0068409904 -0.028080335 -1.1646162 1.2565982
0003e0 af 55 26 bf 4a 73 52 3f dc 12 82 3f f8 a3 49 be
       -0.6497449 0.8220717 1.0162005 -0.19691455
0003f0 34 66 81 be a4 aa 9e 3d 3a 0c 5b bc 4d 9a 99 bf
       -0.25273287 0.07747391 -0.013369614 -1.2000214
