models/ACLunarLander-v2/critic.pth (torch, 139607 bytes, 5 tensors)

linear1.weight f4 [128, 8]
0	0x3db028ae	0.08601509
1	0xbd3a2dbb	-0.04545377
2	0xbebe7b8d	-0.37203637
3	0x3daadfb7	0.083434515
4	0xbeb572ec	-0.3543924
5	0xbf0e4525	-0.55574256
6	0xbe18f5c7	-0.14937507
7	0xbe89af9f	-0.268918
8	0xbe2b5c1c	-0.16734356
9	0x3c84fd89	0.016234176
10	0xbe3cb483	-0.18428235
11	0xbb822491	-0.003971644
12	0xbe8d70af	-0.27625033
13	0xbed2c113	-0.4116293
14	0x3dd3235c	0.10309479
15	0xbbf1dcb0	-0.0073810443
16	0xbd919df3	-0.071102045
17	0x3e54fef4	0.20800382
18	0xbecd6902	-0.40119177
19	0x3e27073b	0.16311352
20	0xbea480b7	-0.32129452
21	0xbe3fe606	-0.1874009
22	0xbdf8a30e	-0.12140475
23	0xbea60d62	-0.32432085
24	0xbeb1e51d	-0.34745112
25	0xbe6d23a2	-0.23158124
26	0xbbc8fd65	-0.0061337226
27	0xbe1aee3a	-0.15129939
28	0x3e051663	0.12996821
29	0xbe7a73a6	-0.24458179
30	0xbeb09642	-0.34489638
31	0x3d97b107	0.07406812
32	0x3e889c73	0.2668186
33	0x3ddce930	0.107866645
34	0x3ebba422	0.3664866
35	0x3daac6a4	0.08338669
36	0xbeb5e7f5	-0.35528532
37	0xbebba910	-0.36652422
38	0xbd0b3f68	-0.033996016
39	0xbe58353f	-0.21114062
40	0x3e05d5d3	0.13069849
41	0x3d1843ef	0.03717416
42	0x3ce1ef5d	0.027579958
43	0xbd4d7ced	-0.050167967
44	0xbe9ff4de	-0.31241506
45	0xbef912e9	-0.4864724
46	0xbc3580bf	-0.011078059
47	0x3dc4a033	0.09600868
48	0xbeb97e52	-0.36229187
49	0x3e666f92	0.22503498
50	0x3e8ca00a	0.2746585
51	0xbd64572e	-0.055747204
52	0xbf2d7b6a	-0.6776644
53	0x3e9f6623	0.31132612
54	0xbe847d28	-0.25876737
55	0xbd09be36	-0.033628665
56	0xbdc670b6	-0.09689467
57	0xbe8ef8f3	-0.27924308
58	0x3e8fee9b	0.2811173
59	0xbd3f5b29	-0.046717796
60	0x3e43618d	0.19080181
61	0xbd797497	-0.060902204
62	0xbe619ff9	-0.22033681
63	0xbd20dedd	-0.03927504
64	0x3e03e8b7	0.12881742
65	0x3e5a707b	0.2133197
66	0x3edf4dcc	0.43614042
67	0xbd34525b	-0.044023853
68	0x3d8568d7	0.06514137
69	0x3f2626d7	0.64903015
70	0x3d1e1c9b	0.0386015
71	0xbe0ae954	-0.1356557
72	0xbea08649	-0.3135245
73	0xbe1c48e7	-0.15262185
74	0xbc9b335a	-0.018945385
75	0x3d1069eb	0.03525726
76	0x3efc6565	0.49296108
77	0x3f1861d5	0.5952428
78	0x3e083f5c	0.1330542
79	0xbe8a2957	-0.26984665
80	0xbe8012ed	-0.2501444
81	0xbddd2c4d	-0.10799465
82	0xbe0fdefd	-0.14049907
83	0xbd07d9e7	-0.033166792
84	0xbe74ba9a	-0.23899308
85	0xbf29f8e4	-0.663954
86	0x3d7583ec	0.059940264
87	0xbe5d3426	-0.21601924
88	0xbd918d84	-0.0710707
89	0xbe5ce96d	-0.2157342
90	0xbe1d89dd	-0.15384622
91	0xbf1f13b8	-0.62139463
92	0xbe6ae84b	-0.22940175
93	0x3e699800	0.2281189
94	0xbe9a4cea	-0.30136806
95	0xbe962e38	-0.29332137
96	0xbeeaa527	-0.45829126
97	0xbe8ed58c	-0.27897298
98	0xbe7ad17a	-0.24493971
99	0xbe45887a	-0.19290343
100	0x3ea96e79	0.33092096
101	0xbe4033d4	-0.18769771
102	0x3e2b58d5	0.16733105
103	0xba3e1845	-0.0007251541
104	0x3ace78d4	0.0015752562
105	0x3e0c624d	0.13709374
106	0xbe96d076	-0.29455918
107	0xbe2eacb8	-0.17058074
108	0x3cac84e4	0.021059461
109	0x3dd30c6f	0.10305106
110	0xbda52c85	-0.08065132
111	0x3eb8dfc3	0.36108217
112	0xbe7f4532	-0.2492874
113	0xbe4fd693	-0.20296697
114	0xbd2771dc	-0.04088007
115	0x3dfeeec7	0.12447887
116	0xbe186810	-0.14883447
117	0x3e87a5ea	0.2649377
118	0xbe97129a	-0.2950638
119	0xbe6a16f8	-0.22860324
120	0xbe6731dc	-0.22577614
121	0x3dd978db	0.106187545
122	0xbdeb2358	-0.11481351
123	0xbe738a73	-0.23783283
124	0xbeaf53b2	-0.34243542
125	0xbf281443	-0.65655917
126	0x3e585cb4	0.21129113
127	0x3ddedc9d	0.108819224
128	0x3e195965	0.14975508
129	0x3edf7508	0.43643975
130	0xbd91c194	-0.07117
131	0x3e084868	0.13308871
132	0xbed3a146	-0.4133398
133	0xbd78b2f9	-0.060717557
134	0x3eada526	0.3391506
135	0x3ec7cd65	0.3902389
136	0xbc6542c2	-0.013992967
137	0x3e82aac8	0.2552092
138	0x3dcfe030	0.10150182
139	0xbe8a7de7	-0.2704918
140	0xbec66d85	-0.38755432
141	0xbece6598	-0.40311885
142	0xbe7faebb	-0.24968998
143	0x3e89b6e6	0.26897353
144	0x3d766d41	0.060162786
145	0x3eab3169	0.33436134
146	0xbeb21c6e	-0.34787315
147	0x3f579d25	0.8422416
148	0xbe515264	-0.20441586
149	0x3ccaa5bf	0.024737237
150	0xbd51d250	-0.05122596
151	0xbe0462ab	-0.12928264
152	0x3b510131	0.003189158
153	0x3d461195	0.04835661
154	0xbee21a5e	-0.44160742
155	0x3e18b8e0	0.14914274
156	0x3d9bc7f1	0.07606495
157	0x3e1c3e15	0.15258057
158	0xbeae4395	-0.34035936
159	0x3c6b7a75	0.014372458
160	0x3e863b84	0.26217282
161	0xbd6bdfd4	-0.057586506
162	0xbe6f3620	-0.23360491
163	0xbe330ec2	-0.17486098
164	0x3d099e1c	0.03359805
165	0x3ea330c9	0.31873158
166	0x3e056895	0.13028176
167	0xbdef2a38	-0.116779745
168	0xba52bc29	-0.00080389023
169	0x3e0b09d4	0.13577968
170	0x3d80c1da	0.06286974
171	0xbe48010e	-0.19531652
172	0xbaa3c3a7	-0.0012494222
173	0x3e6ca8ce	0.23111269
174	0xbe936c63	-0.2879363
175	0xbe33599f	-0.17514656
176	0x3d0e0306	0.034670852
177	0x3e03b5fc	0.1286239
178	0xbe36cd5f	-0.1785178
179	0x3ce1eedc	0.027579717
180	0xbe88d1c7	-0.26722547
181	0xbeecfd3a	-0.46286947
182	0x3ea218cb	0.3165954
183	0xbd99351e	-0.074808344
184	0xbe6433f0	-0.22285438
185	0x3caa2152	0.020767841
186	0xbe2f9680	-0.17147255
187	0xbd0f2735	-0.0349495
188	0xbe40af12	-0.18816784
189	0xbf0d2261	-0.55130583
190	0xbdec6ad6	-0.11543815
191	0x3deada85	0.114674605
192	0xbd5cd250	-0.053911507
193	0x3ea5b946	0.32367915
194	0xbd9d1fea	-0.07672103
195	0x3d6455b7	0.055745807
196	0x3cfebc56	0.031095665
197	0xbeb9c2a0	-0.362813
198	0x3dd8dcef	0.10589015
199	0x3e8fd6da	0.28093606
200	0x3dd888a1	0.10572935
201	0x3d52eda6	0.05149617
202	0x3e0d0585	0.13771637
203	0xbcd8e600	-0.02647686
204	0x3e7b2568	0.24525988
205	0x3f5090c0	0.8147087
206	0x3e374081	0.178957
207	0xbe11a249	-0.14222063
208	0xbe87fc12	-0.26559502
209	0xbe63c075	-0.22241385
210	0x3ebda1ee	0.37037605
211	0x3e2a7551	0.16646315
212	0x3e30eb53	0.17277269
213	0xbe95d92a	-0.29267246
214	0x3e238f11	0.15972544
215	0xbe664bfb	-0.22489922
216	0xbd2dfead	-0.042479206
217	0xbe11df7f	-0.14245413
218	0xbcc59c16	-0.02412228
219	0x3d9a0ba3	0.07521751
220	0x3e9c01cd	0.30470124
221	0x3ef71d67	0.4826462
222	0x3e44a8c1	0.19205
223	0xbea4f8de	-0.3222112
224	0xbeb630e0	-0.35584164
225	0xbe60f8ce	-0.21969911
226	0x3e3a8566	0.1821495
227	0xbce3bab1	-0.027798982
228	0x3e9449d6	0.28962582
229	0x3f1a1378	0.60185957
230	0xbd3e6f9c	-0.046493158
231	0x3db6523e	0.08902405
232	0xbe7c7c9a	-0.24656907
233	0xbe8b2354	-0.2717539
234	0x3df7a21a	0.12091465
235	0xbd86ea84	-0.06587699
236	0xbef223e6	-0.47293013
237	0xbdd59f12	-0.10430731
238	0x3d33a904	0.043862358
239	0xbd958bd8	-0.07302064
240	0xbe685520	-0.22688723
241	0x3e124066	0.14282379
242	0x3f117f79	0.5683513
243	0x3ecbeead	0.39830533
244	0x3f05c38d	0.5225151
245	0xbe68a642	-0.22719672
246	0x3ea5fd27	0.32419702
247	0x3ec4b5c1	0.38419917
248	0x3e845c0d	0.2585148
249	0x3d5f5055	0.05451997
250	0x3dca14c9	0.09867246
251	0xbdd26c6f	-0.10274588
252	0x3de51604	0.1118584
253	0x3f11978f	0.56871885
254	0x3e3b4d2c	0.18291157
255	0x3d34edc1	0.044172052

linear1.bias f4 [128]
0	0x3eb909c1	0.36140254
1	0xbd928e16	-0.07156007
2	0x3df7a6df	0.12092375
3	0x3ec12fc6	0.3773176
4	0xbc438b6e	-0.011935098
5	0xbdd01124	-0.10159519
6	0xbe832f36	-0.25621957
7	0xbeb4a361	-0.35280898
8	0xbe3bb51d	-0.18330808
9	0x3e2be0ce	0.16784975
10	0x3df2c5a0	0.118541
11	0x3ebb846e	0.36624473
12	0x3ec65a9f	0.38741013
13	0x3de47955	0.11155955
14	0xbe5be9e7	-0.21475945
15	0x3e989aac	0.29805505
16	0xbe69e2f8	-0.22840488
17	0x3c1b8c9d	0.009493974
18	0xbe77da35	-0.24204333
19	0x3ec9c82b	0.3941053
20	0x3e5229a4	0.20523697
21	0x3e3e4c02	0.18583682
22	0xbea9b717	-0.331475
23	0xbcfc3689	-0.030787723
24	0x3e923148	0.28553224
25	0xbdf3b69d	-0.11900065
26	0xbe37593b	-0.17905132
27	0x3eb39133	0.35071716
28	0x3e9067b8	0.2820413
29	0x3e9fd887	0.31219885
30	0xbe55943d	-0.2085733
31	0xbdd8435b	-0.10559722
32	0x3e4f8aff	0.20267867
33	0x3d97a3cc	0.07404289
34	0xbdfd61bd	-0.12372158
35	0x3eaad5c9	0.3336623
36	0x3e50c253	0.20386629
37	0x3e9c638f	0.30544707
38	0x3e9db6ad	0.30803433
39	0xbe279663	-0.16365962
40	0x3eb19102	0.34680945
41	0xbe846494	-0.25857985
42	0x3d93ae45	0.07210974
43	0x3d8547b1	0.06507815
44	0x3d11f8ac	0.035637543
45	0x3db1a01b	0.08673116
46	0x3de58bfb	0.1120834
47	0xbe928845	-0.2861959
48	0x3caf72cf	0.02141705
49	0x3e9395b8	0.28825164
50	0x3e865a28	0.2624066
51	0x3cf4a0b4	0.029861785
52	0xbe785cf3	-0.24254207
53	0xbeb6ceb8	-0.3570459
54	0xbe285751	-0.16439559
55	0xbe439da0	-0.19103098
56	0x3e29fc3d	0.16600128
57	0x3db939fb	0.09044262
58	0x3e9a943c	0.3019122
59	0xbe93b6f1	-0.2885051
60	0x3ec7ae1c	0.39000022
61	0xbe1eed2c	-0.15520161
62	0xbd80f429	-0.0629657
63	0x3ecf0cda	0.40439492
64	0x3de5ad6d	0.11214719
65	0x3daa6a1c	0.0832102
66	0x3ea51020	0.32238865
67	0x3e841008	0.2579348
68	0xbe1dba47	-0.1540309
69	0xbe515f85	-0.20446594
70	0x3eb3ca11	0.35115102
71	0x3d868ad5	0.06569449
72	0x3ecc8993	0.3994871
73	0xbe890903	-0.26764688
74	0x3e6d6874	0.23184377
75	0xbea7e0c7	-0.3278868
76	0x3eb4bf7a	0.35302335
77	0x3c6418a6	0.013921892
78	0x3e8898c5	0.26679054
79	0x3d86341f	0.0655291
80	0xbe33d45c	-0.17561477
81	0x3ea6ab60	0.32552624
82	0x3e6a872e	0.2290313
83	0x3d83344f	0.064064614
84	0xbe68b3eb	-0.22724883
85	0x3d84afad	0.0647882
86	0xbe8fc8c5	-0.28082862
87	0x3e288d20	0.16460085
88	0xbd9a3028	-0.07528716
89	0xbe1d4353	-0.15357713
90	0x3e77d2d3	0.24201517
91	0xbdef79ef	-0.11693179
92	0x3ea9ee86	0.3318979
93	0x3d97e52d	0.07416759
94	0x3e7150ca	0.23565975
95	0xbea11535	-0.31461492
96	0xbe15f9d7	-0.14646088
97	0xbd9b441d	-0.07581351
98	0x3e2e5dea	0.17028013
99	0xbe1e7e36	-0.15477833
100	0xbd983031	-0.07431067
101	0xbc96814b	-0.018372199
102	0x3eace47c	0.3376807
103	0xbe8d28ea	-0.27570277
104	0xbe952c77	-0.29135486
105	0x3ea3e796	0.32012624
106	0x3e1d051e	0.15333983
107	0xbdeea09a	-0.11651726
108	0x3ea79209	0.32728603
109	0xbe940943	-0.28913316
110	0xbe036d36	-0.1283463
111	0xbe1b4615	-0.15163453
112	0x3e1641e5	0.14673574
113	0x3c19ae5b	0.0093799485
114	0x3ce2270c	0.02760651
115	0xbd40830f	-0.046999987
116	0xbdbe3e11	-0.09289182
117	0x3ebfe06d	0.3747591
118	0x3dff9221	0.12479044
119	0x3e6911f8	0.22760761
120	0x3e2dbe3a	0.16967097
121	0xba8033f7	-0.0009781112
122	0x3ed94d45	0.42441764
123	0x3d984724	0.07435444
124	0x3e4fe2d7	0.20301376
125	0x3ec78f3e	0.38976473
126	0xbe9b4c16	-0.30331486
127	0x3eb8d3aa	0.36098987

linear2.weight f4 [256, 128]
0	0xbdd1fd2e	-0.10253368
1	0xbdc56a25	-0.09639386
2	0xbde97b07	-0.11400419
3	0xbd8f0795	-0.06983868
4	0x3d1a13b8	0.03761646
5	0xbdf2618d	-0.118350126
6	0x3e5498ab	0.20761363
7	0x3d0cdde0	0.034391284
8	0xbceed49a	-0.02915411
9	0xbd8a2a13	-0.06746306
10	0xbe1aa4c7	-0.1510192
11	0x3e100853	0.14065675
12	0xba280090	-0.0006408775
13	0x3b8f0468	0.004364539
14	0xbc15cf40	-0.0091436505
15	0x3c33f14f	0.010982825
16	0x3d2cfb52	0.042231865
17	0xbd9c2b42	-0.07625438
18	0x3e890ca3	0.26767454
19	0xbde7555a	-0.112955764
20	0x3dbb0ae3	0.09132936
21	0x3dde2700	0.108472824
22	0x3d6c8f7a	0.057754017
23	0xbd2e591a	-0.042565443
24	0x3d2d6f88	0.042342693
25	0xbe37f130	-0.179631
26	0xbcf35e39	-0.029708015
27	0xbc103261	-0.008801074
28	0x3d7ab06f	0.061203416
29	0x3d811fd9	0.063049026
30	0x3e1a3500	0.1505928
31	0xbd8e18ce	-0.06938325
32	0x3e03e538	0.12880409
33	0xbc84a480	-0.016191721
34	0xbdaeee65	-0.08541564
35	0xbdd78cc1	-0.105248936
36	0x3d506339	0.050875876
37	0x3d5cd085	0.053909797
38	0x3da977e2	0.08274819
39	0xbe2314a5	-0.15925844
40	0xbe30dce8	-0.17271769
41	0xbc1077d7	-0.008817635
42	0x3e25fd76	0.16209969
43	0x3bc82138	0.0061074756
44	0x3ced8a85	0.028996715
45	0x3db9da1d	0.09074805
46	0xbd21f7f4	-0.039543107
47	0xbdbccdc6	-0.09218936
48	0x3a14bc8c	0.00056738476
49	0xbac5f8e5	-0.0015104084
50	0x3d5ae268	0.053438574
51	0x3ce27405	0.027643213
52	0xbd07a73d	-0.033118475
53	0x3e717310	0.23579049
54	0x3dd4244e	0.10358487
55	0x3c254bb7	0.010088853
56	0x3c35f25e	0.011105148
57	0xbd21f81b	-0.039543252
58	0xbd0da427	-0.034580376
59	0xbd8e0b2b	-0.06935724
60	0x3bee8876	0.007279451
61	0x3e038973	0.12845401
62	0x3d7f582e	0.062339954
63	0x3d25aea6	0.04044976
64	0xba2bc0b4	-0.00065518473
65	0x3e39cb6d	0.18144007
66	0x3d71c9af	0.05903023
67	0xbdeaadcf	-0.114589326
68	0xbe45bf36	-0.19311222
69	0xbe82772b	-0.25481543
70	0x3da3975e	0.079878554
71	0x3c96b840	0.018398404
72	0x3ccad68e	0.02476051
73	0x3e3bdfe5	0.18347128
74	0xbda546b7	-0.080701284
75	0xbd352142	-0.04422117
76	0xbce5673b	-0.028003326
77	0xbe5f77a3	-0.21822982
78	0x3cae6709	0.021289365
79	0xbdb96b51	-0.09053672
80	0xbddec0e7	-0.10876637
81	0x3decd4a9	0.11563999
82	0x3c3502ed	0.011048061
83	0x3e04330b	0.12910096
84	0x3e8f50cc	0.2799133
85	0x3e8785b9	0.2646921
86	0xbe17361a	-0.14766732
87	0x3e810629	0.25200012
88	0x3e325eda	0.17418995
89	0xbd948fc4	-0.072539836
90	0xbdc40b8f	-0.09572517
91	0xbcfeeee6	-0.031119775
92	0x3af03b5d	0.0018328239
93	0xbe0e53c7	-0.13899146
94	0xbe2ec6da	-0.17068043
95	0x3d8f875d	0.0700824
96	0xbdd42561	-0.10358692
97	0x3dc619cc	0.09672889
98	0x3e389cf8	0.18028629
99	0xbd6bdf7e	-0.057586186
100	0xbd6b1481	-0.0573926
101	0xba38e0e1	-0.00070525525
102	0x3db2be4b	0.08727702
103	0xbc05e3c2	-0.0081719775
104	0xbd2cd8de	-0.04219901
105	0x3e059924	0.130467
106	0x3d98e3e0	0.07465339
107	0xbdeea483	-0.11652472
108	0xbd0a5672	-0.033773847
109	0xbe1c9a80	-0.15293312
110	0xbe4c9d69	-0.19981922
111	0xbd24a6a9	-0.040198002
112	0x3dca0445	0.098640956
113	0xbc60e57c	-0.013726588
114	0x3b42fecc	0.0029753922
115	0x3d8b3ce0	0.0679872
116	0xbda8b1b4	-0.08237019
117	0x3d6a8771	0.057258073
118	0x3e01fe44	0.12694651
119	0xbe2b96fa	-0.16756812
120	0x3e22089e	0.158236
121	0x3e3cccd2	0.18437508
122	0x3d317a0a	0.043329276
123	0xbc26f50a	-0.010190258
124	0x3ebf5177	0.3736684
125	0x3db4c970	0.08827484
126	0x3c24ff8a	0.010070691
127	0x3dae00c8	0.08496243
128	0x3d5bd720	0.053671956
129	0xbd40c887	-0.047066238
130	0xbd116c10	-0.035503447
131	0xbcc8e1a8	-0.024521664
132	0x3d412d9e	0.047162645
133	0x3da0d7db	0.07853671
134	0xbd86e596	-0.06586759
135	0x3d8dd5e7	0.06925564
136	0xbc889dae	-0.01667675
137	0x3d6549bf	0.055978533
138	0x3c197018	0.009365104
139	0xbd8e69dc	-0.06953785
140	0xbdc630b5	-0.09677259
141	0xbdaa5220	-0.08316445
142	0xbd574095	-0.052551825
143	0xbcae88bf	-0.02130544
144	0x3c9564af	0.018236486
145	0x3d884001	0.06652833
146	0x3d8a9e3b	0.06768461
147	0xbd2a3da3	-0.041562688
148	0x3c195ae8	0.009360053
149	0xbcf3d763	-0.02976579
150	0x3d969d5e	0.07354234
151	0x3d46308b	0.048386138
152	0xbcd1aa9a	-0.025594044
153	0x3d0041c4	0.03131272
154	0x3c596190	0.01326789
155	0x3cc9732a	0.024591047
156	0xbd93e656	-0.072216675
157	0xbd9ee06f	-0.07757651
158	0x3d9a10cd	0.07522736
159	0xbd507510	-0.05089289
160	0x3d109734	0.03530045
161	0xbd49a3c7	-0.049228456
162	0x3d82e34f	0.06391012
163	0x3cee97f9	0.0291252
164	0xbd3ffb26	-0.046870373
165	0xbd0e53ff	-0.034748074
166	0x3d830ac4	0.06398538
167	0xbda150f2	-0.07876767
168	0xbd8fc9ec	-0.070209354
169	0x3d028cbe	0.031872503
170	0xbc88bc2f	-0.016691295
171	0xbd2eddd4	-0.04269202
172	0xbdb5e48d	-0.08881483
173	0x3d09e2a0	0.033663392
174	0x3c54396b	0.012953143
175	0x3cb19c53	0.021680987
176	0xbd723193	-0.05912931
177	0xbc294678	-0.010331742
178	0xbd1332c2	-0.03593708
179	0xbcda27a0	-0.026630223
180	0x3d33566a	0.043783583
181	0xbd8bee6d	-0.068325855
182	0xbd05943c	-0.03261207
183	0x3d891a2d	0.06694446
184	0xbdaaa2d8	-0.08331841
185	0x3c8f874a	0.017520566
186	0x3d24ee2d	0.040266205
187	0x39a41839	0.00031298565
188	0x3c55118e	0.013004674
189	0xbd13f316	-0.036120497
190	0xbd324702	-0.04352475
191	0xbd20a469	-0.039219294
192	0x3d635533	0.055501174
193	0x3cac9f57	0.021072073
194	0xbcb2d9b7	-0.02183233
195	0xbdb26421	-0.08710504
196	0xbd270d93	-0.04078443
197	0x3d2163e9	0.039401922
198	0xbd7d5a36	-0.06185361
199	0xbd17c3ce	-0.03705197
200	0xbd9454f7	-0.07242768
201	0x3d5f360b	0.0544949
202	0x3d5365fd	0.051610935
203	0x3d824ae4	0.063619405
204	0x3d1476c0	0.03624606
205	0xbd27b1e1	-0.040941123
206	0x3c6056fd	0.013692615
207	0xbcb61e71	-0.022231312
208	0xbd0fff82	-0.03515578
209	0x3cd14d23	0.025549477
210	0x3d7dff33	0.062010955
211	0x3d205001	0.039138798
212	0x3dafc4d3	0.08582463
213	0xbd66f838	-0.056389064
214	0xbd424984	-0.04743339
215	0x3b0666c0	0.002050802
216	0x3b4cd687	0.0031255798
217	0x3cd4d144	0.025978692
218	0xbd03b342	-0.032153375
219	0x3c9b28bc	0.018940322
220	0xbd959008	-0.073028624
221	0xbd8902b0	-0.06689966
222	0x3d1114be	0.035420172
223	0x3d691cb2	0.05691213
224	0xbd8a7ad2	-0.06761707
225	0xbcc50118	-0.024048373
226	0xbdb02a06	-0.08601765
227	0xbd79137c	-0.060809597
228	0xbc0f2440	-0.00873667
229	0x3cf25de5	0.029585788
230	0xbc88fe4f	-0.016722826
231	0xbdad2bd0	-0.08455622
232	0xbc7806b0	-0.015138313
233	0xbc572ccf	-0.013133242
234	0x3d569157	0.0523847
235	0x3d3abb70	0.04558891
236	0x3b864471	0.0040975143
237	0xbd207d8b	-0.039182227
238	0xbd8adde6	-0.06780605
239	0xbdb90959	-0.09034986
240	0x3cf3b638	0.029749975
241	0xbda1103e	-0.07864426
242	0xbc110e74	-0.008853544
243	0x3d38c0a6	0.0451056
244	0x3cfcc5e7	0.030856086
245	0xbdb19e17	-0.08672731
246	0xbd8fb3f3	-0.070167445
247	0xbc3f8f30	-0.011691853
248	0x3cee22cd	0.029069329
249	0x3db423ab	0.087958656
250	0xbd69b2a1	-0.05705512
251	0xbd7667b6	-0.0601575
252	0xbd519f62	-0.05117739
253	0x3c80356e	0.015650477
254	0xbd729fa4	-0.059234276
255	0xbcf5196a	-0.029919345

linear2.bias f4 [256]
0	0x3da8eaa0	0.08247876
1	0x3c45b907	0.01206804
2	0x3e0ccf7a	0.13751021
3	0xbc51afc1	-0.012798251
4	0xbd1bcca2	-0.03803695
5	0xbc07744a	-0.008267472
6	0x3db65316	0.08902566
7	0x3d911a0a	0.07085045
8	0xbcea8467	-0.028627587
9	0x3d38ead0	0.04514581
10	0xbd70066e	-0.05859988
11	0xbd9b6048	-0.075867236
12	0xbb7d5bca	-0.0038659447
13	0xbb241776	-0.0025038398
14	0x3dc86d35	0.097864546
15	0x3dcc05f3	0.09962072
16	0x3dcccc09	0.09999854
17	0x3c3570b0	0.01107423
18	0x3d134fde	0.03596484
19	0x3d584203	0.05279733
20	0x3dff234d	0.12457905
21	0x3d5e8f3d	0.05433582
22	0xbbcdcaba	-0.0062802704
23	0xbdba2a78	-0.090901315
24	0x3de9b4a7	0.1141141
25	0x3d569399	0.052386854
26	0xbdce161a	-0.10062809
27	0x3c8f0a8f	0.01746109
28	0xbd6beebf	-0.057600733
29	0x3c1e40cb	0.009659003
30	0x3b9af96a	0.0047294395
31	0x3d9f460e	0.07777034
32	0xbd7070d0	-0.058701336
33	0xbdac3414	-0.084083706
34	0xbca1eb8e	-0.019765642
35	0x3d94dd4f	0.07268774
36	0x3de1ebfd	0.11031339
37	0x3e15ccdc	0.14628929
38	0xbb2e6802	-0.0026612286
39	0x3cd15e2a	0.025557596
40	0xbcfe8913	-0.031071221
41	0x3bb775cf	0.0055987607
42	0x3da46ca8	0.08028537
43	0x3dad84af	0.08472573
44	0x3ba497e2	0.0050229887
45	0xbaf8ff34	-0.0018996955
46	0x3d8baa29	0.06819565
47	0xbcc59d16	-0.024122756
48	0x3de32ea4	0.1109288
49	0x3db5c616	0.088756725
50	0x3da49d58	0.080378234
51	0x3c585015	0.013202687
52	0x3d23c73a	0.03998492
53	0xbdc8445f	-0.09778666
54	0x3e161894	0.14657813
55	0x3dcd902d	0.10037265
56	0x3cd4116d	0.025887216
57	0x3d45a51a	0.048253156
58	0x3e148a66	0.1450592
59	0x3be145cd	0.006874776
60	0x3d5138bd	0.0510795
61	0x3d6a260b	0.057165187
62	0x3c066532	0.008202838
63	0x3d940b0d	0.0722867
64	0x3cefed61	0.029287996
65	0x3e0ab16f	0.13544248
66	0xbd50e650	-0.051000893
67	0x3d4476c1	0.047964815
68	0x3cd5d3b6	0.026101928
69	0xbd0b9605	-0.034078617
70	0x3d4cecdd	0.050030578
71	0x3d9a045b	0.07520362
72	0x3e12c148	0.14331543
73	0x3c6456e1	0.013936729
74	0xbbf03cfb	-0.007331488
75	0x3bae9b80	0.0053285956
76	0x3d8d3053	0.06893983
77	0xbd4ace64	-0.049513236
78	0xbd9450d5	-0.0724198
79	0x3e14f2e8	0.14545786
80	0x3d8ad14a	0.067782
81	0x3e00c215	0.12574036
82	0x3e134200	0.14380646
83	0x3d136d8e	0.03599315
84	0x3e0d810f	0.13818763
85	0x3cfbb17f	0.030724285
86	0xbdccd2d5	-0.100011505
87	0xbd8f6118	-0.07000941
88	0xbd7b821a	-0.06140337
89	0x3dc904d8	0.09815377
90	0x3ded55b7	0.115886144
91	0x3cc1d59f	0.023661433
92	0x3d97f3ca	0.07419546
93	0x3c785277	0.01515638
94	0x3dbba9d5	0.09163252
95	0x3db8c7b7	0.090224676
96	0x3b6d8722	0.0036243876
97	0x3c30e56a	0.010796884
98	0x3e08c168	0.13355029
99	0x3d9a79e1	0.07542778
100	0xbdc5dd4c	-0.0966135
101	0x3cc1d244	0.023659833
102	0x3d5dbd1a	0.05413542
103	0x3de01daa	0.10943158
104	0x3cde9a07	0.027173055
105	0x3d6e7789	0.058219466
106	0x3d473472	0.048634
107	0x3db59b93	0.08867564
108	0x3dcc11e6	0.09964351
109	0x3deea27c	0.11652085
110	0xbd082f30	-0.033248127
111	0x3db32216	0.08746736
112	0x3dd00e04	0.10158923
113	0x3db6425a	0.08899374
114	0x3d51471b	0.051093202
115	0x3db82bfa	0.08992763
116	0xbd77605a	-0.060394622
117	0xbce58cb3	-0.028021192
118	0xbc28e4f0	-0.010308489
119	0xbd878923	-0.06617954
120	0x3d18df45	0.0373223
121	0xbd36fc09	-0.044673953
122	0x3d07654d	0.033055592
123	0x3cadf220	0.021233618
124	0x3d6e1a00	0.058130264
125	0xbd4a503d	-0.049392927
126	0x3e09a25a	0.13440838
127	0x3c9d03f7	0.01916693
128	0x3b01b124	0.0019789422
129	0x3cfb3798	0.030666158
130	0x3d0f4e1e	0.034986608
131	0x3d8e85d7	0.06959122
132	0xbd9be7b4	-0.07612553
133	0x3d001959	0.031274173
134	0x3e0e52cd	0.13898773
135	0x3dbeea9f	0.09322094
136	0x3e010c6e	0.12602398
137	0x3d76a2e5	0.060213942
138	0x3cdf86d0	0.027285963
139	0x3dfdde1c	0.123958796
140	0x3e0d2e9e	0.13787314
141	0x3b836495	0.004009793
142	0x3e0d577f	0.13802908
143	0x3dcfc3fe	0.101448044
144	0x3df4ab80	0.119467735
145	0x3e154c98	0.1458
146	0x3e039ef8	0.1285361
147	0x3e01b585	0.126669
148	0xbdb22fb4	-0.08700505
149	0x3d64c237	0.05584928
150	0x3e11a694	0.14223701
151	0xbdbeb60b	-0.09312066
152	0x3dd00e48	0.10158974
153	0x3d8cb3a6	0.06870203
154	0x3d33791f	0.043816682
155	0xbcf98913	-0.03046087
156	0x3c5ce5b4	0.0134825
157	0x3c90cc1a	0.017675448
158	0x3cd2665a	0.02568357
159	0x3bb1fab6	0.0054314984
160	0x3e10bb0a	0.1413385
161	0x3d80c5ca	0.06287725
162	0xbdb595c4	-0.08866456
163	0x3dae7ef4	0.08520308
164	0x3e1d4de5	0.15361746
165	0x3de4029c	0.1113331
166	0x3d23078d	0.039802123
167	0x3d80cf0d	0.06289492
168	0xbdca13bc	-0.09867045
169	0x3d8dd0e1	0.06924606
170	0x3dc3de6d	0.09563909
171	0x3d66b749	0.056327138
172	0x3c48b7c3	0.012250843
173	0xbd142568	-0.036168486
174	0xbc870468	-0.016481593
175	0x3ddf02d9	0.10889215
176	0x3e067c72	0.1313341
177	0x3d20a450	0.0392192
178	0x3e2385d4	0.1596902
179	0x3e1adb34	0.15122682
180	0xbd02e750	-0.031958878
181	0xbd9de7b0	-0.077102065
182	0x3e1b4fb0	0.15167117
183	0xbba20154	-0.004944006
184	0x3da6550f	0.081216924
185	0x3dcee773	0.10102739
186	0x3d2f13f1	0.042743627
187	0x3d15d8cb	0.036583703
188	0x3d901bf3	0.07036581
189	0x3e18648e	0.14882109
190	0x3e1f68f0	0.15567374
191	0x3cc0799c	0.023495488
192	0xbd7a9d6a	-0.061185278
193	0x3e023c68	0.12718356
194	0x3d42a8f4	0.047524408
195	0x3d8c3d40	0.0684762
196	0xbc733c5d	-0.014845935
197	0x3d8fb423	0.0701678
198	0x3e022a70	0.12711501
199	0xbc161833	-0.009161043
200	0xbc3fc96d	-0.0117057385
201	0x3c5e0287	0.013550407
202	0x3e109146	0.14117917
203	0xbd6c6506	-0.05771353
204	0x3db7f019	0.08981342
205	0x3d63b742	0.05559469
206	0x3d7e074a	0.06201867
207	0x3ba9209b	0.0051613576
208	0x3d3ac6cd	0.045599747
209	0x3d637caa	0.05553881
210	0x3d2d63d1	0.04233152
211	0x3d5d601b	0.05404673
212	0x3e15627a	0.14588347
213	0x3dadbc83	0.084832214
214	0xbdbe3a51	-0.09288467
215	0x3d08229c	0.03323613
216	0xbd14b99a	-0.036309816
217	0x3dd6e974	0.104937464
218	0x3e108b0e	0.14115545
219	0xbd8ac17a	-0.06775184
220	0x3d525b84	0.051356807
221	0x3d447ec0	0.04797244
222	0x3d003109	0.031296764
223	0x3c905d40	0.01762259
224	0xbdb23c97	-0.08702963
225	0x3bc5eeb5	0.006040419
226	0x3d8b54cf	0.06803285
227	0x3b82dae6	0.00399338
228	0x3d7e96b9	0.06215546
229	0xbd6fe173	-0.058564615
230	0xbc9ef75e	-0.019405063
231	0x3dc2c291	0.09509767
232	0xbb59899a	-0.003319359
233	0x3e0ea957	0.13931786
234	0x3dae9f76	0.085265085
235	0xbc942933	-0.018086052
236	0x3da220fd	0.07916448
237	0x3dc8860c	0.097911924
238	0xbc1511c1	-0.009098471
239	0x3d80c192	0.062869206
240	0x3d7ad0e9	0.06123439
241	0x3d868ee8	0.06570226
242	0xbd12cd88	-0.03584054
243	0x3d63d82f	0.05562609
244	0x3dde9837	0.108688764
245	0x3e07eb7a	0.13273421
246	0x3d5db9cf	0.05413228
247	0x3d2dc6cd	0.04242592
248	0xbc4a444d	-0.012345386
249	0xbd0fb373	-0.035083245
250	0xbd44ac41	-0.048015837
251	0x3df5c6fb	0.12000843
252	0x3d5ead02	0.05436421
253	0x3dc80203	0.09766009
254	0x3a8113cb	0.0009847818
255	0x3dfb30b6	0.1226515

linear3.weight f4 [1, 256]
0	0x3e2efb8a	0.17088142
1	0x3d1a6dcd	0.03770237
2	0xbe9393af	-0.2882361
3	0xbe8b3444	-0.27188313
4	0x3cebbf92	0.028777871
5	0x3d512acf	0.051066216
6	0x3e4354c3	0.19075303
7	0xbe8a987b	-0.27069458
8	0x3d43e9f1	0.047830526
9	0xbe8967e2	-0.2683707
10	0x3cea8204	0.02862645
11	0x3bbf38c2	0.0058356235
12	0xbe6da85c	-0.23208755
13	0xbe8d2ec3	-0.2757474
14	0xbeb4d855	-0.35321298
15	0xbe86577c	-0.2623862
16	0xbe859e1d	-0.26097193
17	0x3d6f5b00	0.058436394
18	0xbe8c14b1	-0.27359536
19	0x3cfea9dc	0.031086855
20	0xbe9757d4	-0.29559195
21	0xbe932d57	-0.2874553
22	0x3e3873c9	0.18012919
23	0x3d1a2e5c	0.037641868
24	0xbe92f64e	-0.2870354
25	0xbe70cf11	-0.2351649
26	0x3c2528f3	0.010080564
27	0x3eb33623	0.3500224
28	0x3d7db473	0.061939668
29	0xbe8c1e8c	-0.27367055
30	0xbc816aad	-0.015797937
31	0x3de07724	0.10960224
32	0x3c4858ab	0.012228171
33	0xbd2adfc5	-0.04171731
34	0x3ccaf01a	0.024772692
35	0x3e5e053a	0.21681681
36	0xbe9c6e4d	-0.30552903
37	0xbe83d0f7	-0.25745365
38	0x3cd423fa	0.025896061
39	0xbea5f462	-0.32413012
40	0x3d1c1b40	0.038111925
41	0xbe849f6f	-0.25902888
42	0xbe8ba728	-0.27275968
43	0xbe6e6cf0	-0.23283744
44	0x3c518b4d	0.01278956
45	0xbea48ced	-0.32138768
46	0xbe80ed1b	-0.25180897
47	0xbe763c21	-0.24046375
48	0xbe87eb49	-0.26546696
49	0xbea00a9d	-0.31258097
50	0xbea70632	-0.32621914
51	0xbe97c99b	-0.29646
52	0x3e32a612	0.17446163
53	0x3d09ae6d	0.03361361
54	0xbe75bf8a	-0.23998848
55	0x3e33c646	0.17556104
56	0xbe93cf97	-0.28869316
57	0xbea0be54	-0.3139521
58	0xbe862d48	-0.26206422
59	0xbe871b86	-0.26388186
60	0xbe8e980a	-0.27850372
61	0xbe916c49	-0.28402928
62	0xbe833b0e	-0.25630993
63	0xbea96cce	-0.33090824
64	0xbed9bf8f	-0.4252896
65	0xbe9863b2	-0.2976356
66	0x3c8cd0b5	0.017189363
67	0xbe87aaa0	-0.26497364
68	0x3c4edfcb	0.012626599
69	0x3d05fa70	0.03270954
70	0x3cb6f0d8	0.02233164
71	0x3e0d3cf3	0.13792782
72	0xbe8f366b	-0.27971205
73	0x3ea647df	0.32476708
74	0x3c3f0da5	0.011660968
75	0x3c45e258	0.01207789
76	0x3e3e6f7a	0.18597212
77	0x3c8e9d80	0.017409086
78	0xbd65747a	-0.056019284
79	0xbe880500	-0.26566315
80	0xbe57d152	-0.21075943
81	0xbe84cf7d	-0.2593955
82	0xbe80fd2b	-0.25193152
83	0xbeb1a6ed	-0.34697667
84	0xbe89ea23	-0.26936445
85	0x3cf52bee	0.029928174
86	0x3cf94535	0.030428508
87	0x3c95c92a	0.018284399
88	0x3ccc18cc	0.024914168
89	0xbea3d98d	-0.32001916
90	0xbe9f1e03	-0.31077585
91	0xbe897648	-0.26848054
92	0xbe6578c4	-0.2240935
93	0x3ec6a049	0.38794163
94	0x3e8ca720	0.27471256
95	0xbe942c83	-0.2894021
96	0xbe9ef5d7	-0.31046936
97	0xbe859f93	-0.26098308
98	0xbe8a3c9e	-0.26999372
99	0xbea4903c	-0.32141292
100	0x3d42a011	0.047515932
101	0xbe807dea	-0.25096065
102	0x3c86832f	0.016419975
103	0xbe671a80	-0.22568703
104	0x3ec28464	0.3799163
105	0x3d086f0a	0.03330902
106	0xbe8f0b72	-0.2793842
107	0xbe752115	-0.23938401
108	0xbe8d890f	-0.2764363
109	0xbea3e656	-0.3201167
110	0x3acda49b	0.0015689315
111	0xbe943094	-0.28943312
112	0xbe8f5537	-0.279947
113	0xbe986a33	-0.29768524
114	0x3e7abd3a	0.24486247
115	0xbe9a4772	-0.30132633
116	0x3bb87e57	0.0056302953
117	0xbab020c8	-0.0013437504
118	0xbd617af2	-0.05504889
119	0x3d566c79	0.05234954
120	0x3e9e02e5	0.30861583
121	0x3c6d1b59	0.014471852
122	0xbe8d353c	-0.27579677
123	0x3d3af16a	0.045640387
124	0x3cc0829c	0.02349978
125	0x3da28c80	0.079369545
126	0x3e9d1271	0.30678132
127	0xbc8a86a3	-0.016909903
128	0xbe8c6dad	-0.27427426
129	0xbe78586f	-0.24252485
130	0xbe8469d1	-0.25861982
131	0x3bd287b0	0.0064248666
132	0x3baf454b	0.0053488365
133	0x3baae505	0.0052152895
134	0xbe751be7	-0.23936425
135	0xbea8b0d6	-0.32947415
136	0x3e479be8	0.19493067
137	0x3c643e0f	0.013930812
138	0x3c8a5fef	0.016891448
139	0x3e8086ef	0.25102946
140	0xbe8fe095	-0.2810103
141	0xbe29d43b	-0.16584866
142	0xbe75d496	-0.24006876
143	0xbe630c1b	-0.22172587
144	0xbe895f10	-0.2683034
145	0xbe9fc80a	-0.31207305
146	0xbe917d9d	-0.28416148
147	0x3e24cd75	0.16094
148	0xba6ee848	-0.0009113592
149	0xbe816d03	-0.25278482
150	0xbe98d0e8	-0.29846883
151	0x3d02b886	0.031914257
152	0xbe7cf19c	-0.24701542
153	0xbe6a9104	-0.22906882
154	0x3bae429c	0.005317999
155	0x3cfb69f0	0.030690163
156	0xbea08712	-0.3135305
157	0x3e09d5aa	0.13460413
158	0xbe965b64	-0.293666
159	0xbeb85052	-0.3599878
160	0xbe868b19	-0.26277998
161	0xbe6b63b1	-0.22987248
162	0x3c80e752	0.015735302
163	0x3eaa72a6	0.33290595
164	0xbe947598	-0.28995967
165	0x3e31a955	0.17349751
166	0xbe897f77	-0.2685506
167	0xbe84c48a	-0.25931197
168	0x3cbcbb0d	0.023038412
169	0x3cae3c60	0.021269023
170	0xbe9660bc	-0.29370677
171	0xbe7ce30a	-0.24695984
172	0x3e14d83a	0.14535609
173	0x3c9eec44	0.01939977
174	0x3c026099	0.007957601
175	0xbeb45f12	-0.35228783
176	0xbe8573bb	-0.26064858
177	0xbe7658eb	-0.24057357
178	0x3eb6aa84	0.35676968
179	0xbe7fe9c6	-0.24991521
180	0x3e2acd16	0.16679797
181	0xbb053140	-0.0020323545
182	0xbe812312	-0.2522207
183	0xbe6ee6fe	-0.23330304
184	0xbe881dc2	-0.26585203
185	0xbe7e78bd	-0.24850745
186	0xbe80fa0c	-0.2519077
187	0xbe8531fb	-0.26014695
188	0xbe8c4b10	-0.27401018
189	0xbe8ac27c	-0.27101505
190	0xbe89d821	-0.26922706
191	0x3cefe8c3	0.029285794
192	0x3d0c967f	0.03432321
193	0xbe83c107	-0.25733206
194	0xbe88c0a0	-0.2670946
195	0xbe8736dd	-0.26409045
196	0xbe9341c9	-0.28761128
197	0x3d06c135	0.0328991
198	0xbe99b228	-0.30018735
199	0xbe6fdd29	-0.2342421
200	0xbe9b8bcb	-0.3038009
201	0x3c992e79	0.018698918
202	0x3e8be8d7	0.2732608
203	0x3d06177b	0.032737236
204	0xbe827535	-0.25480047
205	0xbe96eea4	-0.29478943
206	0x3d0f9405	0.03505327
207	0xbea43b6d	-0.32076588
208	0x3d42225b	0.047396045
209	0xbe85b4b5	-0.2611443
210	0xbe9a3939	-0.30121782
211	0xbb427f36	-0.0029677874
212	0xbe68ece0	-0.2274661
213	0x3e1bcbbf	0.15214442
214	0x3d4f2e4d	0.050581265
215	0xbe968c3d	-0.29403868
216	0x3d0f5db9	0.03500149
217	0xbe8a45cc	-0.27006376
218	0xbe89ebfb	-0.2693785
219	0x3e259ab4	0.16172296
220	0x3e30eccc	0.17277831
221	0x3e245c72	0.1605089
222	0x3c381116	0.011234542
223	0x3c792520	0.015206605
224	0x3cc0cc18	0.02353482
225	0x3c84d87b	0.016216507
226	0xbe91cf32	-0.2847839
227	0xbe97eb31	-0.29671624
228	0xbe8d9ece	-0.2766022
229	0xbb1aa2ec	-0.0023595644
230	0x3d225511	0.039631907
231	0xbe814048	-0.25244355
232	0x3ca412ca	0.02002849
233	0xbe83ea27	-0.25764582
234	0x3e65e437	0.22450338
235	0xbe9035d1	-0.2816606
236	0x3d93d416	0.072181866
237	0x3e5ff405	0.2187043
238	0x3b398828	0.0028309915
239	0x3ea177b5	0.31536642
240	0x3c3a27f9	0.011362069
241	0xbe808b38	-0.25106215
242	0xbc3efcb8	-0.0116569325
243	0xbe803dab	-0.2504705
244	0x3e57b27a	0.21064177
245	0xbed4c7fb	-0.41558823
246	0xbea9463e	-0.33061403
247	0xba780351	-0.00094609434
248	0xbeb34a9f	-0.3501787
249	0xbb498fac	-0.00307558
250	0x3c8537e2	0.016261999
251	0xbe826161	-0.2546492
252	0x3d8009cc	0.062518686
253	0x3e0fd939	0.14047708
254	0x3d0eb437	0.034839835
255	0xbe6bc893	-0.23025732
