expPendulumviaDDPG.pyPendulum-v1./actor.pth (torch, 490647 bytes, 5 tensors)

l1.weight f4 [400, 3]
000000 9e 6c ce be 08 9c 3a 3f 3b f8 b8 3e 9d 06 1c 3f
       -0.40317243 0.72894335 0.36126885 0.6094759
000010 77 5c 49 3e 71 36 f3 3d 38 65 a8 3e a1 29 34 3f
       0.19664179 0.11875618 0.32889724 0.7037602
000020 3b df 03 bf fe 82 ff 3d 34 5c f2 be 25 37 06 bf
       -0.515125 0.12476157 -0.4733597 -0.52427894
000030 5b f9 aa 3e 50 c2 d4 3e 2e 87 fb 3e e3 2a 07 bf
       0.33393368 0.415545 0.4912657 -0.52799815
000040 25 12 10 bf a8 a3 ee 3e 10 f0 03 3f 22 bf a7 3e
       -0.56277686 0.46609235 0.5153818 0.3276301
000050 07 39 18 be 1a 6c e8 be 50 15 13 3e e5 15 d1 3d
       -0.14865504 -0.45394975 0.14363599 0.10209254
000060 b9 fb e4 3e c0 eb 0d bf e9 70 8c 3d 1c 3f d8 be
       0.447233 -0.5543785 0.068574734 -0.4223565
000070 d3 01 9c be 0f af 08 bf d6 76 ce be fb 3f 60 3f
       -0.30470142 -0.5339212 -0.4032504 0.87597626
000080 93 7b e0 3e 26 92 b8 3e 11 67 a7 3e fa 09 b9 3e
       0.4384428 0.36049002 0.3269582 0.36140424
000090 f0 78 03 3f 40 1c ad 3e 43 a4 15 3e e8 b7 c6 be
       0.5135641 0.33810616 0.14613442 -0.38812184
0000a0 49 20 39 3f 2f 19 60 3e dc e1 13 be d6 df f8 3c
       0.7231489 0.21884607 -0.14441627 0.03038017
0000b0 bc 94 9b be 5d 6a 5b be e3 0f e8 3e e8 8c 64 3c
       -0.30386913 -0.21427293 0.4532462 0.01394961
0000c0 72 18 ff be 71 47 23 bf 45 ab 10 bf 6f 73 22 be
       -0.49823338 -0.63780886 -0.56511337 -0.15864347
0000d0 72 8b ee bd f2 57 3c be 91 11 b8 3e 06 3f 9d 3e
       -0.11647691 -0.18392923 0.35950902 0.30712146
0000e0 56 09 2d be b4 d7 a5 3e 07 7f c1 be e4 69 03 bf
       -0.16898093 0.3239113 -0.37792227 -0.5133345
0000f0 f9 5e 29 3f 55 3e d0 be 3f 7e d0 be 80 c0 6a 3e
       0.6616054 -0.40672556 -0.40721318 0.22924995
000100 12 dd 18 be 20 8d df bc 81 28 9d 3c 14 6f fa be
       -0.14928082 -0.027288973 0.019184353 -0.4891287
000110 79 6e df be 8b 21 23 bd 64 6a 74 3c 53 76 64 be
       -0.4363897 -0.03982691 0.014917944 -0.22310762
000120 47 b3 aa be 2b 05 bf bd 28 e3 e1 3d e4 f3 25 bf
       -0.33339903 -0.093271576 0.11029655 -0.6482527
000130 92 11 b7 3e 46 e1 2d 3d ad 5a 85 be cf d0 ef 3e
       0.35755593 0.042451166 -0.26045743 0.46838996
000140 db 9f d6 3e 20 8d 66 3e 43 aa ef 3e 60 4e f9 be
       0.41918835 0.22514772 0.46809587 -0.48692608
000150 f0 51 b0 be 16 c0 2c bf bb cf 92 be ba 15 6a 3e
       -0.34437513 -0.674806 -0.2867411 0.2285985
000160 c4 da 95 3e d4 21 40 3e ed 08 1c be ec 30 5a 3f
       0.29268467 0.18762904 -0.1523778 0.852309
000170 57 c9 0f 3e 80 d8 08 3f 44 5f 12 3f 2b f8 f2 bd
       0.14041649 0.5345535 0.57176614 -0.118637405
000180 3c c6 ae be 6f 6f 6a 3f d0 d5 ef 3e 49 41 0b bf
       -0.34135616 0.91576284 0.46842813 -0.5439649
000190 98 8e 23 3f e1 63 41 3e 9c 5a 6b 3e 26 09 fa 3e
       0.63889456 0.18885757 0.22983783 0.48835105
0001a0 c5 ab 98 3d 39 25 00 3f 03 6b 98 3c bb 79 bd be
       0.074546374 0.500568 0.018605715 -0.37006935
0001b0 78 35 14 bf 68 07 52 3e bb dc ad 3e 91 f8 d4 3e
       -0.57894087 0.20510638 0.33957466 0.4159589
0001c0 57 24 97 be fd 9e 7f 3e a7 0c 5d be f7 03 76 be
       -0.29519913 0.24962993 -0.21586858 -0.2402495
0001d0 7d 79 2d be 3f eb af be c0 23 a0 3e da 0d a8 3e
       -0.16940875 -0.34359166 0.31277275 0.32823068
0001e0 c1 41 5a be 1e b9 d0 3c 63 11 3f 3a 30 25 43 be
       -0.21314146 0.025478896 0.00072886626 -0.19057155
0001f0 72 7c 01 3f 56 97 f8 be e6 3d 22 3f 77 2f a8 3e
       0.50580513 -0.4855296 0.633757 0.32848713
000200 16 9a cb be 2c c8 15 3f 5b 7c 13 bf 94 e6 ee be
       -0.39765996 0.58508563 -0.57611626 -0.46660292
000210 d0 f1 90 3e 1e 79 43 3f 65 90 cc 3e 93 5f e9 3e
       0.28309488 0.76356685 0.39953914 0.4558073
000220 66 cf db bd 42 ba 96 3e b8 b0 cf 3e 90 92 19 3d
       -0.107329175 0.29438978 0.40564513 0.03749329
000230 24 a7 06 bf c3 a5 7d 3e 4e 91 8f be bd 4c f3 be
       -0.52598786 0.24770264 -0.28040546 -0.47519484
000240 60 b9 76 3d f0 ca d8 3d 70 0b 2d bd 2f dc a5 3e
       0.06023538 0.10585582 -0.042247236 0.3239455
000250 67 d7 c4 be 4e 70 82 3e 91 e7 d5 3e 00 e3 a2 be
       -0.3844559 0.25476307 0.41778234 -0.31813812
000260 ab 09 0f 3e 26 6b 17 3f a4 4f 2a be 9d 06 f9 be
       0.13968532 0.5914787 -0.16631943 -0.48637858
000270 48 07 77 be b9 29 df be dd ef e8 be dc fb fe be
       -0.24123871 -0.4358652 -0.454955 -0.49801528
000280 24 55 16 bf 10 80 ae 3e 6b e7 57 be a5 9f ca bd
       -0.58723664 0.3408208 -0.21084373 -0.09893731
000290 6e e7 58 bd 7c 36 6e be 2e e9 23 bf 8a 32 14 3f
       -0.052955084 -0.23262972 -0.6402768 0.57889616
0002a0 79 18 bc be 8e ab df 3d d4 ce c1 be 2d 09 3c 3c
       -0.3673742 0.10921393 -0.3785311 0.011476797
0002b0 76 34 fd 3e 21 6f 56 3d 5c 71 25 3d c9 ff 0d bf
       0.49454087 0.052352075 0.04039131 -0.5546842
0002c0 9d 62 f0 be 0e 09 10 3f 4c 86 60 3e f6 f7 6f be
       -0.46950236 0.56263816 0.2192623 -0.23434433
0002d0 16 f3 a6 3d d6 22 24 3e 72 e2 06 bf a3 a0 9b be
       0.08151834 0.16028914 -0.5268928 -0.30395994
0002e0 8a 54 18 3f ce 8e 25 3e 1d 5e db 3d 90 d8 b9 3c
       0.59503996 0.16167757 0.1071131 0.022686273
0002f0 03 8c a4 3e 69 de a8 3e c6 fb 20 3f 8e f2 a3 be
       0.3213807 0.32982185 0.62884176 -0.32020992
000300 9b e0 10 3f 5c a3 01 bf 05 d9 85 be 2f 19 22 3e
       0.5659272 -0.5063989 -0.26142135 0.1582992
000310 f8 ca d7 3e 81 ae 0b bf db 91 0e bf 7f 19 51 be
       0.4214704 -0.54563147 -0.5569131 -0.20419882
000320 45 5c 03 3f c3 81 18 3f 87 42 fd bc 5e 9c 83 be
       0.5131267 0.59573 -0.030915512 -0.25705236
000330 2d 70 84 3e 17 72 b7 be a9 f1 22 bd 34 54 15 bf
       0.25866833 -0.3582923 -0.039781246 -0.5833161
000340 45 9a c3 3e a4 c6 05 3f 44 c1 a9 be 96 1f 4d 3c
       0.38203636 0.52256227 -0.33155262 0.012519738
000350 66 cb 22 be 06 18 29 be 7c 4d 7e 3e e8 06 f5 be
       -0.15897903 -0.1651307 0.24834245 -0.47856832
000360 34 93 dd 3d 66 7d c3 be 23 1a fd be 3c 4e 42 3d
       0.108190924 -0.3818161 -0.49434003 0.04743789
000370 4e a9 d7 be 38 c5 3c 3e fc 86 e5 3e b3 4f 88 3e
       -0.42121357 0.18434608 0.44829547 0.26623306
000380 30 b4 e8 be 52 9a 02 bf 55 c8 f5 bd 25 d6 d6 be
       -0.45449972 -0.51016724 -0.12001101 -0.41960254
000390 e2 e4 85 be 8f d7 3f 3f 8f b0 b5 3d c3 60 af 3e
       -0.26151186 0.7493829 0.088715665 0.3425351
0003a0 3a 2a f7 be 92 61 57 3d be 20 00 3f 55 e9 03 3f
       -0.48274404 0.052583285 0.5004996 0.5152791
0003b0 1d 59 c1 3e dd 55 e8 be 9c 29 be be c0 da f6 be
       0.377633 -0.45378008 -0.3714112 -0.48213768
0003c0 c0 5e 8d bd dd ca a8 be b0 62 d0 3e e6 d7 8d 3e
       -0.06902838 -0.32967272 0.40700293 0.2770378
0003d0 29 65 ac 3e 09 c4 2d be 71 7e d9 be 32 36 cf 3e
       0.3367093 -0.16969313 -0.4247928 0.40471035
0003e0 d0 47 0b be 85 77 80 3e 42 a9 1c 3f fd af be 3d
       -0.13601613 0.25091186 0.61195767 0.09310911
0003f0 83 01 9a 3e 58 5d 38 3d 35 d9 43 bd 95 08 25 be
       0.30079278 0.045010895 -0.047814567 -0.16116555

l1.bias f4 [400]
000000 52 a4 12 3e bc 5d 12 be 19 7d 0b bf 5c 9a 42 be
       0.14320496 -0.1429357 -0.5448776 -0.19004196
000010 29 7a 0a bf ee fd a3 be ed c4 c9 be 97 01 e5 be
       -0.5409265 -0.3202967 -0.39408055 -0.44727775
000020 29 d0 a2 3e 2c 59 7e 3c 6d c5 bd be 19 0b 40 be
       0.3179944 0.01552419 -0.37064686 -0.18754233
000030 41 e8 ec 3c 06 8f 18 3e fd d6 71 be c0 83 64 3d
       0.028919341 0.14898309 -0.23617168 0.05578971
000040 d7 a9 f4 be 7b 51 8f 3e 60 4e fb be fc 8d a8 3e
       -0.47785828 0.27991852 -0.49083233 0.32920825
000050 aa f1 96 3e 8c 2a 11 bf 51 db a2 bd a2 bc 45 be
       0.2948125 -0.56705546 -0.079519875 -0.19310239
000060 a2 e2 88 be a0 15 9b be 2a a9 11 bf 27 e2 2a be
       -0.26735407 -0.30289936 -0.5689875 -0.16687833
000070 da e4 cf bd 9d 80 d0 be f0 09 cb bd 92 30 67 bc
       -0.10151072 -0.40723124 -0.09914005 -0.014110701
000080 14 aa 8f be 0d 66 45 3e a7 b8 b9 be e5 5a 84 be
       -0.28059447 0.1927721 -0.3627369 -0.25850597
000090 67 2e 78 3d 54 45 94 be bf 4b b3 3e 8a c3 24 3e
       0.060591128 -0.28959143 0.35018727 0.16090217
0000a0 5d c5 89 3e 64 c6 ca bd a2 22 10 3f 52 da f1 3e
       0.2690839 -0.09901121 0.56302845 0.47236878
0000b0 5b 65 d7 be 81 92 d8 3e cb 41 d9 be bc 61 68 3e
       -0.42069516 0.42299274 -0.4243301 0.22693533
0000c0 90 67 d8 be a3 5c b5 be a1 36 c0 b9 d5 46 71 bd
       -0.42266512 -0.3542224 -0.00036661795 -0.05890544
0000d0 c2 e1 96 be 9d 9c f5 be 57 07 6e 3e 24 9e 73 bd
       -0.29469115 -0.4797105 0.23244987 -0.059476987
0000e0 ad cb f9 be 11 e9 56 be d7 54 bf 3e 4e d9 bf 3d
       -0.48788205 -0.20987345 0.37369415 0.093676195
0000f0 5d b9 23 bc a1 31 8e 3e fc 84 97 bd e7 ef 9b be
       -0.0099929245 0.2777224 -0.07398412 -0.30456468
000100 54 ff 71 be 5e 7e 1f be 4a 27 07 bf 4e a7 ef 3e
       -0.23632556 -0.15575549 -0.52794325 0.4680733
000110 df 6c 56 3e 67 04 00 3f 7f 9a ee be c7 41 e5 be
       0.20939969 0.5000672 -0.46602246 -0.44776747
000120 ac 41 f2 be 42 cf fc be 54 a4 02 bf ef 61 c1 be
       -0.4731573 -0.49376875 -0.51031995 -0.3777003
000130 d0 14 f7 3e c2 a9 e6 3d dc 84 38 3d 74 49 d7 bd
       0.48258066 0.112628475 0.04504858 -0.10512057
000140 a6 f3 56 3e 5a 0b 01 3e ec e2 d2 3e 6f a4 c1 3e
       0.20991382 0.12601987 0.41188753 0.37820765
000150 b7 0b 0d 3f a1 4b c6 be da 03 a0 be db 23 95 be
       0.55096 -0.38729575 -0.31252939 -0.29128918
000160 98 44 8f be 02 b3 c0 be 4d 0e 02 bf f3 4b cb be
       -0.2798202 -0.37636572 -0.5080307 -0.39706382
000170 a9 7d 03 bf b1 ff df 3e 67 10 af be 3d ac be 3e
       -0.5136362 0.43749765 -0.34192201 0.37240782
000180 85 70 9a 3e 1a fc 02 3e e1 22 8b be c2 ed 93 bd
       0.3016397 0.12791482 -0.27175048 -0.07223083
000190 57 e3 7d 3d 47 28 f0 3e d5 11 c7 3e 97 dd 84 3e
       0.061984386 0.4690573 0.38880792 0.2595031
0001a0 91 80 b0 3e a5 d1 e5 be d6 23 fc 3e dc 3f 0e 3e
       0.34473088 -0.4488651 0.4924609 0.13891548
0001b0 9b e1 c3 be b3 dd a4 3d e7 42 20 be e6 51 a2 bd
       -0.3825806 0.08050098 -0.15650521 -0.07925777
0001c0 da b6 81 3e 02 06 b2 bb f7 1b 82 be 00 05 a7 3e
       0.25334817 -0.005432845 -0.2541196 0.32621002
0001d0 60 24 9e 3e fc 60 d7 bd e0 cf a9 be 46 76 90 be
       0.30887127 -0.10516545 -0.3316641 -0.28215235
0001e0 32 44 28 bd a0 dc 0a 3f 8e 11 fb bd 80 15 15 3f
       -0.04108066 0.542429 -0.12259208 0.5823593
0001f0 b4 12 bb bd ec 14 21 bf b2 66 19 3e d5 66 b9 be
       -0.09134427 -0.6292255 0.14980581 -0.36211267
000200 4a 4b 50 3e 84 84 d6 3d 31 01 0d 3f fd 54 3a 3e
       0.2034122 0.10474494 0.5507994 0.18196483
000210 4f 45 a3 be 99 6a 89 be 92 74 fe be 2b cd de bd
       -0.31888816 -0.2683914 -0.4969831 -0.108789764
000220 92 c4 ea be ff a6 b9 be 9d b6 0d 3e 20 6f f6 3e
       -0.45853096 -0.3626022 0.13839193 0.48131657
000230 79 b4 ba 3e 8a e3 f3 be db 58 09 3e 95 80 18 3e
       0.36465815 -0.47634536 0.13412802 0.148928
000240 dc 85 ac bd 97 32 b3 3e 7a b5 96 be 3c da 88 bd
       -0.08423969 0.34999534 -0.2943533 -0.0668225
000250 1d ff 8a bd 22 1e 08 3f 20 98 17 3f dc 54 93 bd
       -0.0678694 0.5317098 0.592165 -0.0719392
000260 0a 9c a9 3d ae e5 e4 3e 1d e2 e1 3d db 0f c4 be
       0.08281715 0.44706482 0.11029456 -0.38293347
000270 fb 65 18 3f bf 7f 18 b9 07 a7 16 bf 14 5f 09 3f
       0.5953061 -0.00014543439 -0.58848614 0.536607
000280 7d f3 a8 3e b7 a8 26 be 72 e1 d5 3e 03 dc dc be
       0.32998267 -0.16275297 0.41773564 -0.43136606
000290 ea cf 07 bd 42 60 13 3e 37 8c 05 3f 2e 56 d5 be
       -0.033157267 0.14392188 0.52167076 -0.41667312
0002a0 c3 1a 10 bf 39 dc 11 bf 39 c8 78 bd fc 5b 16 bd
       -0.56290835 -0.5697666 -0.060737822 -0.036708817
0002b0 d5 08 a8 3e 34 7a a6 3e 67 87 d0 3e 23 6f 53 be
       0.32819238 0.3251511 0.40728304 -0.20647864
0002c0 4b 9f 0e 3f 83 92 a3 be 68 ac dc be 80 43 de be
       0.5571181 -0.31947717 -0.43100286 -0.43410873
0002d0 66 9a e9 3e 2a 8f 78 3e 88 1d c3 be 49 e6 db 3e
       0.4562561 0.24273363 -0.38108468 0.4294913
0002e0 56 36 52 3e 77 f6 01 3f a4 dd be bd f4 96 92 be
       0.2052854 0.507667 -0.09319618 -0.28630793
0002f0 1a b6 89 be 04 06 e7 3e 2f da ad be 56 d0 f0 3c
       -0.26896745 0.45121777 -0.33955523 0.029396217
000300 c2 66 cd 3e 84 45 85 3e 62 7e 02 be 57 b9 e2 bd
       0.4011746 0.260296 -0.12743524 -0.11070507
000310 0a 87 fd 3b c0 f3 35 3d c6 19 e8 be e4 b7 0b 3f
       0.007737045 0.04442191 -0.45332164 0.5457747
000320 79 84 a7 3d d1 79 cf 3d 3a 41 de 3e 5b 58 a0 3c
       0.08179564 0.101306565 0.4340914 0.019573381
000330 4b 0d c3 3e c6 84 e1 be 46 09 9a be f0 a6 6f bc
       0.3809608 -0.4404661 -0.300852 -0.014627203
000340 46 db 01 3f 62 2c 83 be 33 75 e0 3e 9e 3c a8 be
       0.5072521 -0.256198 0.43839416 -0.32858747
000350 88 3f 07 bf d3 60 08 bf 2b 00 45 be 2e bd 7e 3e
       -0.52831316 -0.5327274 -0.19238345 0.24876854
000360 bc 90 00 3f 3d 87 e6 3d fb a7 b8 be d2 f3 88 3e
       0.5022085 0.112562634 -0.3606566 0.2674852
000370 da 4c d3 3e 95 d4 cf 3e 49 90 e0 be 5d eb 93 3e
       0.4126957 0.40591875 -0.4386008 0.28890505
000380 cf 36 0c 3f a4 7d 02 be 62 15 84 be 36 24 f8 3e
       0.5477113 -0.1274324 -0.25797564 0.48465127
000390 27 04 b8 3d 26 ce 02 bf f2 cc 13 3f 83 6d 73 3e
       0.08985167 -0.5109581 0.57734597 0.23772244
0003a0 0c 08 c0 bd c6 2b e0 3e d9 5b 87 3e 0b 88 cf 3d
       -0.09376535 0.43783396 0.26437262 0.1013337
0003b0 6a 0e 04 3f ef dd e6 3e 5e e8 b1 3e b0 1a fe 3e
       0.51584494 0.45091197 0.34747595 0.49629736
0003c0 bd 8e 01 3f b4 ed 5c be 37 83 a0 3d ce 7c 07 3f
       0.50608426 -0.21575052 0.07837527 0.5292481
0003d0 3a 0f c3 be dd 9f 94 be 76 02 17 bf 6b 15 e4 be
       -0.38097554 -0.29028216 -0.5898813 -0.4454759
0003e0 49 e1 ca 3e 8f ea cb 3e fe 36 dc be 71 4c 00 bf
       0.39625004 0.39827392 -0.43010706 -0.5011664
0003f0 34 59 d6 3d 8c 9a c4 3e f1 77 81 be 38 ce 49 bd
       0.10466233 0.3839916 -0.2528682 -0.04926893

l2.weight f4 [300, 400]
000000 3a 18 de 3b 04 14 46 bc c1 3d f9 bc cf 69 c4 bb
       0.0067777904 -0.012089733 -0.030424954 -0.0059940587
000010 06 38 d9 3c bf ac 49 bb da 47 6e bb 7d 4e 5b bc
       0.026515972 -0.003077313 -0.0036358745 -0.013385412
000020 dd a8 2d bd 61 b4 cc ba 9d e4 19 bd d0 1f 6b 3c
       -0.04239737 -0.0015617722 -0.03757154 0.014350846
000030 32 f6 d6 bc 63 37 ec bb fd d1 2b 3d e9 a0 c3 bc
       -0.026240442 -0.007208751 0.041948307 -0.023880439
000040 96 f5 b4 3c fc 5e 21 3c f4 ee fb 3c 6e 46 33 3d
       0.02208976 0.009849306 0.03075359 0.04376834
000050 78 54 0e 3d 20 aa 2d 3b 5e dd f0 3c ad 24 4e bc
       0.034748524 0.0026499107 0.029402431 -0.012581986
000060 ca 61 65 3c 04 49 a8 3c 2a c6 1f 3d f7 41 ec 3a
       0.0140003655 0.020542629 0.039007343 0.001802503
000070 3b 61 24 bc 6b ae a0 3c 55 31 f2 bc ea 77 10 bd
       -0.010032947 0.019614419 -0.029564539 -0.03527061
000080 58 62 d4 bc d1 bc df 3c 16 40 b9 3c ea c7 3c 3d
       -0.0259258 0.027311714 0.022613566 0.04608909
000090 02 d0 32 3c 9a dc ef 3c 9c fc f1 bc ff 07 f9 bc
       0.010913851 0.029279996 -0.029539399 -0.03039932
0000a0 bb cd 2a 3d e7 33 ad 3c d4 22 27 3d 2b b0 35 3c
       0.041700106 0.021142913 0.0408047 0.011089365
0000b0 19 d1 2d bd be cb 10 3d 5b bd 30 3d d2 6e 9c 3c
       -0.04243574 0.035350554 0.043149333 0.019095812
0000c0 36 4c 1f bd 57 cd 30 3c dd 76 40 bd 9b 99 e7 bb
       -0.03889104 0.010791144 -0.046988357 -0.0070678717
0000d0 89 c0 3d 3b 82 b8 76 3c c1 f7 fd bc fd 2e d1 3c
       0.0028953871 0.0150586385 -0.031001927 0.025535101
0000e0 9b 1c 02 3c 5d 7a d3 3b 05 d3 fb bc 04 cb 21 bc
       0.00794139 0.006453796 -0.03074027 -0.009875063
0000f0 1a e5 f0 bc 86 3a 00 bd ba eb 57 bc 79 83 8b 3c
       -0.02940612 -0.031305812 -0.01317876 0.017030464
000100 d3 f8 e0 bc 3b 1b 8a 3b e8 0d dc 3c 10 41 c5 bc
       -0.027462399 0.004214672 0.0268621 -0.024078876
000110 f5 e8 1a bd be ca f9 bc 42 52 9f bc 98 ed cc 3c
       -0.03781982 -0.030492183 -0.019448403 0.025015637
000120 c6 36 32 3b 72 de ae 3c 60 24 02 3c 29 34 c3 bc
       0.0027193292 0.021346305 0.007943243 -0.023828583
000130 0d b9 f5 39 f8 d4 c2 3c d9 c4 ab bc d6 3a 17 3d
       0.00046867915 0.023783192 -0.020967888 0.036921345
000140 05 52 2d 3d 53 ec 01 3d 29 3e 50 3b ef 7b 22 3d
       0.042314548 0.031719517 0.0031775332 0.039668974
000150 bb c5 0f 3d aa 4f 6b bb dd d8 43 3d 77 27 93 bc
       0.03510068 -0.0035905638 0.04781424 -0.017963154
000160 a3 6a fb 3c ed 6d 20 bd a8 45 2f bd 0a dc 80 3c
       0.030690497 -0.039167333 -0.04279104 0.015729923
000170 70 f7 c9 ba ca 9b 30 3b 59 1f c5 bb 16 56 e2 bc
       -0.0015408825 0.0026948326 -0.0060157 -0.02762894
000180 17 ab 8e bc 7f 1b 07 3c 8f 64 14 bd 08 25 22 3c
       -0.017415566 0.008246302 -0.036228713 0.009896524
000190 c2 fb ff 3a 99 09 af 3c 28 ff 9a bb d6 46 1c 3c
       0.0019529986 0.021366881 -0.004730124 0.009538373
0001a0 b1 4c 80 bc 1e e0 11 3b 1a ff 64 3c 90 f4 aa bc
       -0.01566157 0.0022258828 0.013976837 -0.02086857
0001b0 7e 5e 41 3d 89 22 ac 3c 5c 72 da bc cd b1 3d 3d
       0.047209255 0.021012561 -0.026665859 0.046312142
0001c0 3f 15 2f 3d e3 5b d7 bc 4b 07 1e 3d 0c ee 96 3b
       0.04274487 -0.026288932 0.038581174 0.004606014
0001d0 74 75 99 3c 3a 22 26 bd 15 70 be bc 94 38 ce bc
       0.018732764 -0.040559985 -0.023246804 -0.025173463
0001e0 29 a9 4c bc 43 49 46 39 e8 54 6e 39 52 ce ff bc
       -0.012491503 0.00018910044 0.00022729079 -0.03122631
0001f0 33 76 47 bd e0 11 58 3c 0d 76 14 3d 80 b2 b7 b9
       -0.048696708 0.0131878555 0.036245394 -0.00035037473
000200 d4 33 60 3c 91 56 22 3d cd cb f0 3c 39 4c 70 bc
       0.013684232 0.039633337 0.029394055 -0.01466661
000210 5f a0 12 bc b1 4a 3a bc c5 8e ae 3c d8 6c 6d 3c
       -0.008949368 -0.011370347 0.021308312 0.014491282
000220 4e 60 fc 39 a4 07 9d bc e0 50 05 3b e0 a3 9a 3c
       0.00048136938 -0.019168682 0.0020342395 0.01887697
000230 1b 47 52 3c ec e6 57 bc 38 56 83 bc 5c 10 8a 3c
       0.012834336 -0.013177615 -0.016032323 0.016853504
000240 d1 55 db bc 4d e2 2b 3d 03 9d 33 3d 1b 80 9a bc
       -0.026774319 0.041963864 0.04385091 -0.018859914
000250 75 43 4a bd 50 77 53 bd dd ee 15 bd b1 03 42 3d
       -0.04938074 -0.051627457 -0.03660475 0.0473668
000260 f4 34 04 3d c4 16 ff bc 8f 8c ab ba 11 82 3e 3d
       0.032277063 -0.031138785 -0.0013088154 0.04651076
000270 39 e8 85 bb 5f 86 5e 3c c5 5f 17 3c 70 7d 56 3c
       -0.004086521 0.013581841 0.009239142 0.01309143
000280 f5 b8 b5 bc 22 6f 9a bc 2b ae b5 bc f7 a9 11 bc
       -0.022182921 -0.01885182 -0.022177776 -0.00889062
000290 97 b4 0d 3d e3 b5 3c bc 24 03 81 3c 65 19 25 3d
       0.034596052 -0.011517975 0.015748568 0.04030742
0002a0 63 07 44 bd 7f 91 20 3d 00 59 29 bd 66 b4 b1 bc
       -0.047858607 0.039201256 -0.041344643 -0.021692466
0002b0 5a 12 87 bc 67 6c 1a 3d d3 55 38 3d 70 f1 2b bd
       -0.016488243 0.037701037 0.045003723 -0.0419783
0002c0 fc 36 9d bb 23 9b 48 bd c9 9b d9 bc 12 6e 99 bc
       -0.0047978144 -0.048976075 -0.026563542 -0.018729243
0002d0 57 1d 12 bd 1e 00 3b 3d aa 15 3a bc 43 d0 ba bb
       -0.035672512 0.04565441 -0.011357704 -0.0057010963
0002e0 84 e6 1c 3a d9 5f 5f 3c f0 9d d8 bc 55 fe 04 3d
       0.0005985277 0.013633692 -0.026442498 0.032469112
0002f0 e8 ad 32 3d ef 1b 0d bd f6 90 a9 bc 57 bb 0b bd
       0.04362288 -0.034450468 -0.020699006 -0.034114208
000300 06 98 96 ba 85 05 cc 3c 4a 6b 2f bd 69 ce 35 3d
       -0.0011489398 0.024904976 -0.04282693 0.0443863
000310 99 5a 3f bc 1b 17 25 bd 6d da d3 bc 45 0d 8f bc
       -0.011679315 -0.04030524 -0.02586099 -0.017462382
000320 5e 5c ba 3c 9a 9a 12 bd af 4b da bc 79 d1 1d 3d
       0.022749122 -0.03579197 -0.026647417 0.038529847
000330 98 bb c5 3c c4 6e 1a 3d 7a dc a9 3c a6 c5 13 3d
       0.024137303 0.03770329 0.020735014 0.036077164
000340 30 50 f5 3c 5c fe 05 3c a5 82 01 bd 43 4e 98 bc
       0.029945463 0.00817832 -0.031618733 -0.018592006
000350 77 97 c6 ba 3b fe 21 bd 98 01 88 bb c5 23 02 bd
       -0.0015151341 -0.039549094 -0.0041505806 -0.031772394
000360 b2 57 e9 bc 38 71 8b bb 10 6e 74 3c f5 8e 47 bd
       -0.0284842 -0.00425544 0.014918819 -0.04872032
000370 71 60 9c 3c 56 e5 d0 bc 4f 10 9d bb 87 e5 08 bd
       0.019088956 -0.02549998 -0.004793204 -0.03342202
000380 54 be 2d bc c1 51 e5 bc 99 43 31 3d 76 11 19 bc
       -0.01060446 -0.027993085 0.043277357 -0.009342542
000390 dc 93 22 3c c2 33 b6 3c 28 88 43 3c 2e b4 6d 3c
       0.009922948 0.022241477 0.011934318 0.01450829
0003a0 ed 17 45 3d 6b e5 44 bd ab ae 2d 3d b4 cc 3b bd
       0.04811852 -0.048070353 0.042402904 -0.045849517
0003b0 29 7e 96 bc 14 57 26 bd 6e 34 07 3b de 95 a4 bc
       -0.018370705 -0.040610388 0.0020630616 -0.020090993
0003c0 03 45 2c bd 40 49 4b bd 49 b1 67 bc dc 8b cf 3c
       -0.042058002 -0.049630404 -0.014141389 0.025335245
0003d0 38 5f 19 3d 33 1f d0 bc 61 d4 b7 3b 3c 3e 26 bb
       0.037444323 -0.025405502 0.0056100343 -0.0025366684
0003e0 a3 5a e4 bc 9b 68 3d 3d ee 75 28 3d 49 76 01 bd
       -0.02787525 0.046242338 0.04112809 -0.031606946
0003f0 fc ff cd bc 10 69 f8 bc 66 38 e1 3c 5e 4e fd 3c
       -0.025146477 -0.030323535 0.027492713 0.030921157

l2.bias f4 [300]
000000 36 aa 01 bd 7f 61 18 3b d5 67 40 3d b7 1b 0c 3d
       -0.031656466 0.0023251472 0.046974022 0.03420612
000010 ca 2e e0 3d 96 f0 df 3c 41 b5 af 3c 7f 0e ad 3c
       0.10946424 0.0273364 0.021448733 0.021125076
000020 cc c9 ab 3c 2d e6 56 3d 32 75 0d ba 6a 2b 99 bb
       0.020970248 0.052465606 -0.00053961866 -0.004674365
000030 ff 22 8c 3d 10 8d 85 3c 59 4e 7b bd 76 52 ab bc
       0.068426125 0.016302615 -0.061354015 -0.020913344
000040 24 fc 3b bd f8 f7 2b 3c fa e3 ff bb 39 ad a5 3c
       -0.045894757 0.010496132 -0.0078091593 0.0202242
000050 d6 57 2a 3c 05 ac da bc d0 d4 94 3b b3 b4 64 bc
       0.010396918 -0.026693353 0.004541971 -0.013959098
000060 10 68 58 3c e9 d1 5e bd 1a c1 02 3d 80 02 d0 3c
       0.013208404 -0.054399405 0.031922437 0.025391817
000070 fe 01 b2 3a 72 3b 9a 3c c9 13 5a 3c d2 0d 1c bd
       0.0013580916 0.018827174 0.013310381 -0.038099118
000080 8d 9a 79 bc 52 7c c5 bc f9 f4 91 bb 2e 15 eb 3c
       -0.015234602 -0.024107132 -0.004454252 0.028696623
000090 3e 2a 5f 3d ec 02 a3 3c 6c 81 79 bd 1d f6 cf 3c
       0.054483645 0.019898854 -0.060914442 0.02538591
0000a0 41 84 35 3d b7 e9 57 3d ff 3d f1 bc 83 13 bb 3a
       0.04431558 0.052713122 -0.029448507 0.0014272783
0000b0 b5 1d 73 3d a2 17 71 bc 5b f2 1a 3d 09 dc 04 3c
       0.059354503 -0.014715107 0.037828784 0.008109101
0000c0 a2 c4 f9 3b b5 d3 40 3d 67 89 ec bc af f7 16 bd
       0.0076223174 0.0470769 -0.028874112 -0.036857303
0000d0 46 2f 66 bc 42 34 1c bc 10 ab 9c bc 16 b7 6a bd
       -0.014049357 -0.009533944 -0.019124538 -0.05730351
0000e0 8c 50 ae 3b 04 d2 9e bb f9 7b 9d 3c 50 90 48 3d
       0.0053196605 -0.004846813 0.019224154 0.048965752
0000f0 5e 65 52 bc f4 f6 d5 3c 50 e2 05 3d 38 9f 02 bc
       -0.012841551 0.026118733 0.03268653 -0.007972531
000100 dc 4a 90 bc fa 20 c2 3c 14 70 73 bd da ff 28 3d
       -0.01761382 0.023697365 -0.059433058 0.041259624
000110 87 55 71 3d 95 5b c5 3c 4d 14 aa 3c aa a1 a7 bc
       0.058919456 0.024091521 0.020761633 -0.02046283
000120 94 1b 0f bd 36 05 02 bd bb 8b 27 3c 19 95 44 bd
       -0.03493841 -0.03174325 0.010226185 -0.047993753
000130 b4 4b ca bc d1 d5 9a 3c 5b d0 05 3d 0c 11 1b bd
       -0.024694301 0.018900784 0.032669406 -0.037858054
000140 db 6d 20 bd 07 21 1c 3d d1 2d 34 3c 2a 43 db bc
       -0.039167266 0.038117435 0.010997252 -0.026765425
000150 86 21 25 bd 58 7c 54 3c 52 b1 b7 3c ea e4 7d bb
       -0.040315174 0.012969099 0.02242342 -0.003874118
000160 2e 8c 7a 3d 2e 5d 6f bd 42 05 04 bd 3b cb 02 3d
       0.061168842 -0.058438472 -0.032231577 0.031932097
000170 37 00 39 bd 61 16 a2 3c ba a3 84 bd 58 2c 03 bd
       -0.04516622 0.019786062 -0.06476541 -0.03202471
000180 9f 11 fb 3c cf 4b 0c 3c 9d cd 4d bd 9e 5e 0a 3b
       0.03064805 0.008562996 -0.050244916 0.0021113525
000190 a5 d4 06 3d 53 e7 27 bd d1 e7 88 3c 57 1a 5e bc
       0.032917637 -0.040992092 0.016712101 -0.013556085
0001a0 a7 85 6c bc 12 a2 2a 3c 44 d8 4e 3d 5c b6 e5 bc
       -0.014436162 0.010414617 0.050499216 -0.028041057
0001b0 f4 f7 ac bc 1e 07 da 3c 6d 27 87 bc 66 50 6d 3c
       -0.021114327 0.026614722 -0.016498292 0.0144845005
0001c0 92 0a f8 3c f4 6a 0d 3d c1 9d 51 3d 1b 70 72 bc
       0.030278478 0.034525827 0.051175836 -0.014797236
0001d0 f4 ec 04 bd 15 4e 98 bc c5 d9 84 3c 37 6a c3 bc
       -0.03245254 -0.01859192 0.016217122 -0.023854358
0001e0 a9 b7 41 3d 1a f9 ba bc 56 61 be bc cb ef 0c bd
       0.047294293 -0.022823859 -0.023239773 -0.034408372
0001f0 33 4a 28 3d f4 58 70 bc df 35 34 bc 1c 3a 13 bd
       0.041086387 -0.014669646 -0.010999172 -0.03594409
000200 54 a9 d6 3c 59 b8 a4 bc 70 b2 9f 3c bf e7 4e bc
       0.026203789 -0.020107435 0.019494265 -0.012628495
000210 1a 2f de bb 4e e1 53 bd d6 2e 41 bc 03 21 23 bd
       -0.0067805173 -0.05172854 -0.011790952 -0.039826404
000220 59 f7 ec bc d5 1c e2 bc 5a 74 1b bd 58 61 86 bb
       -0.028926538 -0.027601639 -0.03795276 -0.0041009597
000230 a6 84 6c 3c d5 5c bc bc 38 83 0c bc a2 2b ff 3c
       0.014435923 -0.022993485 -0.008576207 0.031148735
000240 97 c9 d3 3a 33 4e 37 3c c8 68 1e bd d0 46 4a bb
       0.0016158101 0.011188078 -0.038674146 -0.0030864961
000250 a9 ff c8 3b cd 23 08 3d a3 52 05 3d 11 00 50 bd
       0.0061339927 0.033237267 0.03254951 -0.050781313
000260 bd 54 c4 3c a0 1f 66 bb 28 d2 b7 bc 62 6c 17 bd
       0.023966188 -0.0035114065 -0.022439077 -0.036968596
000270 0f ee 42 bd 12 6a 10 bb 36 57 ce 3a df 95 e8 3c
       -0.04759031 -0.002203588 0.0015742544 0.028391777
000280 6d eb 05 3c 04 64 74 3c 81 a4 05 bd df ea 3e bc
       0.008173806 0.014916424 -0.032627586 -0.011652677
000290 79 9a cb bb 75 f0 28 3d ca 9e e3 3c a3 f0 b6 3c
       -0.006213483 0.041244943 0.027785677 0.022331541
0002a0 ac a9 b4 3c b6 7d 2c ba e2 c5 b8 3c 77 7c 8c bc
       0.022053562 -0.00065800117 0.022555295 -0.017149193
0002b0 51 18 4c 3d c8 b2 1a bd 03 c6 78 bc 86 02 04 bd
       0.049827877 -0.037768155 -0.015183928 -0.03222897
0002c0 9b 65 02 bd d2 ff c3 bc 38 f8 11 3d 20 99 d2 3c
       -0.03183518 -0.023925696 0.03563711 0.025707781
0002d0 4b 44 1c 3d b9 dc e3 bc 0e bc 35 bd fb 53 a1 bb
       0.038151067 -0.02781521 -0.044368796 -0.0049233413
0002e0 ed 5c 3e bd eb ec 43 3d a9 a9 d1 bc 3e 04 30 3d
       -0.04647534 0.047833364 -0.025593596 0.042972796
0002f0 d5 8f 24 bd 12 45 0e bd d1 c5 48 bd 67 6b 4f bd
       -0.04017623 -0.03473384 -0.049016777 -0.050639536
000300 d5 04 e5 bc ad 91 1a bd 60 ad 0d bd 09 8f 36 3d
       -0.027956406 -0.037736584 -0.03458917 0.044570003
000310 ce ea b4 3c 4f cf 8c bd 5a b5 4c 3d 9e ff 21 bd
       0.02208462 -0.068754785 0.049977638 -0.039550416
000320 16 82 48 3c f8 3f 44 bd 91 ed 0b 3d 3d fc 9f 3b
       0.012238046 -0.047912568 0.034162108 0.004882364
000330 51 59 5e bc fe d8 4a 3d 5a 82 81 bc f3 49 98 3b
       -0.013571099 0.049523346 -0.015809227 0.0046474873
000340 d6 5a 54 3d 66 26 19 bd 5b 06 05 bb b7 b3 48 bb
       0.05184444 -0.037390135 -0.0020297978 -0.0030624697
000350 06 a8 af 3c a1 8a 38 3d d9 d9 15 3d 4a fa 35 bb
       0.021442425 0.04505408 0.03658471 -0.0027767592
000360 e7 0f 43 bd 07 18 f9 bb 70 a4 fa bb 1d 3e 23 3b
       -0.047622588 -0.0076017412 -0.007648997 0.0024908849
000370 0d 30 10 bb 39 ba 05 3d 5b a5 35 bc 4d 5f 86 3c
       -0.0022001297 0.0326483 -0.011086787 0.016402865
000380 3b 7e 07 bc 98 b8 f8 3b 1c 6b 13 3c bb 0f 0e 3c
       -0.008269842 0.0075903647 0.008997705 0.008670743
000390 5f a0 12 3d f8 fc 2b 3d 63 c2 90 3c 82 f8 1d bd
       0.035797473 0.041989297 0.017670816 -0.038567074
0003a0 13 15 e7 3a 8b a0 92 3b d0 e7 35 bd b8 3d 46 bd
       0.0017630182 0.0044747046 -0.044410527 -0.048398703
0003b0 1f 83 f0 3c 3d 9d 9b bb c6 20 4d 3d 58 ab 0b bd
       0.029359398 -0.004748969 0.050080083 -0.034098953
0003c0 44 74 b3 bc 4f 01 d1 3c bf 2e 35 bb 6e 10 e4 bc
       -0.021906026 0.02551332 -0.002764627 -0.027839866
0003d0 76 06 0f 3d 96 de c4 3c ba a0 0f bc ee 66 be bc
       0.03491827 0.024031918 -0.008766348 -0.02324244
0003e0 c1 f3 e4 3c 08 dd 30 3d 9d 83 23 3b 57 0a 0c b9
       0.027948262 0.04317954 0.0024950274 -0.00013355292
0003f0 1e fc 20 3d 20 65 83 3d 60 52 ab 3c 73 50 6d 3b
       0.039302938 0.064157724 0.020913303 0.0036211282

l3.weight f4 [1, 300]
000000 16 08 9a bc e2 be c5 bd 8b d7 c7 3d 98 0a ed 3d
       -0.018802684 -0.09655549 0.097579084 0.11574286
000010 24 2c 8b 3e 9a 8e b5 3b bd 89 94 3c 9d 4b e9 3c
       0.27182114 0.005540681 0.018132085 0.028478438
000020 87 31 bd bd e8 4e 17 3e 34 42 3f bd 4d 59 a7 3c
       -0.09237962 0.14776194 -0.046693996 0.020428324
000030 ee 61 60 be b5 94 dc 3b 9d 45 23 3d 37 8b d3 3b
       -0.21912357 0.0067315944 0.03986131 0.0064558047
000040 f9 de cf bc 5f 6d 8a 3d dd ff c9 be e1 55 d9 bb
       -0.025374876 0.06759142 -0.3945302 -0.006632552
000050 01 a2 b1 bd d4 3b 5d 3d 28 5d 4f 3c 31 0a 19 3d
       -0.08673478 0.054012135 0.0126564875 0.037363235
000060 63 d6 d6 3d 7d 8f 28 be 35 4d c9 bc 1a 46 a2 3d
       0.1049011 -0.16460986 -0.024572948 0.07923527
000070 29 ec ef bd 7a 28 45 3d 6a 94 a9 be 5f 55 9e 3d
       -0.11714966 0.048134305 -0.33121043 0.07731127
000080 c6 2e dc bb 50 07 b6 3c 52 3a e5 bb c1 95 a2 3d
       -0.006719443 0.022220284 -0.0069954777 0.079387195
000090 d2 16 cf be 23 3c a7 3d 5b 73 a7 3e 26 da 4e bc
       -0.40447098 0.08165767 0.32705197 -0.012625253
0000a0 aa 4d 5c 3d 1b 5b d9 bc 71 fa 56 3b 1c b3 83 bd
       0.053785004 -0.0265327 0.0032803083 -0.06430647
0000b0 b0 39 e9 bd c4 c4 a1 3b 01 30 9b 3d c3 d3 bf bd
       -0.11387956 0.0049367864 0.075775154 -0.09366562
0000c0 66 39 1a bd 1d 6c 9f be a5 75 a0 3c d8 f2 b2 bc
       -0.037652396 -0.3113717 0.019587347 -0.021844313
0000d0 1c 8f f4 bc 1c 8d 2b bc 23 07 2a bd 92 97 8d 3c
       -0.029853396 -0.010470655 -0.041510712 0.017284188
0000e0 c7 68 03 be 01 20 14 3d e6 c4 6a bd 4e 6f a6 3d
       -0.12832938 0.036163334 -0.057316683 0.081266984
0000f0 4a f4 59 3d 51 b4 9d bd 19 06 35 bd 98 06 20 be
       0.053211488 -0.07700408 -0.04419527 -0.15627515
000100 b7 15 34 bd 6f 3b 57 bd 02 f9 b7 3d cc 49 91 bd
       -0.04396602 -0.052546915 0.08983041 -0.07094154
000110 e7 46 4d 3e f7 2a 04 3d 56 1a db be 88 7d 76 bc
       0.20046578 0.032267537 -0.4279353 -0.015044577
000120 64 39 a4 3d 6b 70 e2 3c 96 94 8b bc a7 52 4e 3c
       0.08018759 0.027641496 -0.017038625 0.012592948
000130 1f b7 c4 be 49 e2 0d bd 8a 58 c2 3c 79 6f aa bd
       -0.3842096 -0.03463963 0.02372386 -0.08322043
000140 46 92 4d 3d ed 6b dd bb 82 00 70 3c 70 7d 04 be
       0.050188325 -0.0067572505 0.014648559 -0.12938476
000150 10 78 8b be d8 08 c5 3d 12 92 05 bc fe d1 0a bd
       -0.27240038 0.096208274 -0.008152502 -0.03389167
000160 8e a3 ba bd cf 72 66 3d 97 b2 da 3d c4 bb 1c bc
       -0.09113227 0.056261834 0.106785946 -0.009566251
000170 22 6b ef bd bd dc bf 3c 8b df e4 be 0b e0 41 3d
       -0.11690356 0.023420686 -0.447018 0.047332805
000180 a2 dd 10 bd 0f 07 e1 bc fe fd 42 bb fb fd c1 be
       -0.035367616 -0.027469186 -0.0029753442 -0.37889084
000190 f0 2e 92 3d fe 92 67 bd db 12 25 3e a2 0d d6 bc
       0.07137859 -0.056536667 0.16120474 -0.026129548
0001a0 38 1d 8c bc 57 b4 34 3d f5 42 11 3d e1 ef 28 3d
       -0.017103776 0.044117298 0.035464246 0.04124439
0001b0 b0 4f 9c 3c 43 21 ae 3d 51 67 b4 bd 56 eb 7f 3e
       0.019080967 0.08502438 -0.088087685 0.24992117
0001c0 64 71 04 3d 09 86 1f 3e 10 5b 80 3d 74 db 36 3e
       0.0323347 0.15578474 0.06267369 0.17857152
0001d0 d4 f3 f6 3c 63 d7 81 be d5 3b c6 bc b1 ac b9 3d
       0.030145563 -0.2535964 -0.024198452 0.090661414
0001e0 30 80 09 bd df 72 2a 3d 51 0b 2e bd af 6b 09 3d
       -0.033569515 0.041613456 -0.04249126 0.03354996
0001f0 dd dd a1 bc 88 cf 30 3d cb a1 95 3e 5b 21 79 3c
       -0.019759113 0.043166667 0.29225 0.0152057065
000200 87 17 75 3d 6c 09 a5 bd 3a 9a 17 3d 74 da 0d be
       0.05983689 -0.08058438 0.037012316 -0.13852865
000210 fb c5 29 bc 70 aa 11 3e f7 eb ab 3c c4 cc 7d bd
       -0.010362144 0.14225173 0.02098654 -0.061962858
000220 7d 72 06 3e 3f a7 0d 3d 33 3f 1f bd 34 e5 1c bd
       0.13129611 0.034583326 -0.03887863 -0.038304523
000230 95 b8 52 bd f7 c3 34 be 0d 26 4e 3d 3a a5 28 3d
       -0.051445562 -0.1765288 0.050329257 0.041173197
000240 05 43 33 bd 3b 84 bd bd ad b6 6e bd 52 73 e7 bc
       -0.043765087 -0.092537366 -0.058279682 -0.028253231
000250 54 b2 a2 bd 06 ba 27 be e7 eb 87 bd 1c 90 35 3d
       -0.0794417 -0.16379556 -0.06636792 0.044326887
000260 76 ee 86 bd c3 fd 2f 3d 6f 82 c2 3b 24 82 2a 3d
       -0.065884516 0.042966615 0.005935959 0.041628018
000270 6e 5e a3 be 59 6b 3e bd e2 fd 07 3d 4f 7d 85 3c
       -0.31907982 -0.046489093 0.033201106 0.016295103
000280 89 e0 cc 3b 84 80 7d 3c e2 bc a1 bd 85 8d 01 3c
       0.0062523526 0.015472535 -0.07897355 0.007907276
000290 d9 17 9f bd 31 e8 78 bd 72 ef 17 3d 90 a0 6d 3d
       -0.077682205 -0.06076831 0.037093587 0.058014452
0002a0 73 a9 6c bd 3e 54 6f 3d 81 41 14 3e a7 5d 76 3c
       -0.057778787 0.05842995 0.14478113 0.015036977
0002b0 85 84 c1 be 7f 22 ea bc 60 d2 6a bd 0d 97 33 bd
       -0.37796417 -0.028580902 -0.057329535 -0.043845225
0002c0 34 e8 6c 3d e2 92 87 bd f0 10 0a be 5b f2 5c 3d
       0.057838634 -0.066198125 -0.13483024 0.053942066
0002d0 ba 1d a9 3d 3d d5 17 3e 07 20 58 bc 62 cd 2f 3d
       0.08257623 0.14827438 -0.01319123 0.042920478
0002e0 15 1a 66 3d 48 db 6d bc 0c 1b 2d bd 58 c7 be bd
       0.056177218 -0.014517613 -0.042262122 -0.093153656
0002f0 65 fc 2b bd c8 0d 73 bc 9f 2c 00 3d 30 05 da 3a
       -0.04198875 -0.014834829 0.031292554 0.0016633626
000300 30 ac 54 bd dd af 7d bd 43 ad 54 3d da 19 3a bd
       -0.051922023 -0.061935294 0.051923048 -0.04543481
000310 c7 be 1c bd 60 fe 61 3c 8f f0 bd 3d e6 cd 91 3d
       -0.038267877 0.013793558 0.092743985 0.0711935
000320 30 6a 7c 3b 57 55 d9 bc 8c ee 7c 3d 7b 2b 4d bb
       0.003851544 -0.026529951 0.061750934 -0.0031306434
000330 41 b7 92 3d b4 9f 7e bd 1d 37 be 3c 6a db 88 3d
       0.07163859 -0.062164024 0.02321964 0.06682475
000340 1e 00 f5 3c d0 68 98 bd 8f f0 98 bd 92 df fc 3c
       0.029907282 -0.074418664 -0.07467758 0.030868325
000350 b1 e3 70 bc b4 43 c0 bc 39 28 53 bc 7a 33 ac 3e
       -0.014702723 -0.023469783 -0.012888008 0.33633024
000360 b2 76 0e 3d 7c f5 66 3c 7c 70 90 bc 87 69 94 bc
       0.034781165 0.014096614 -0.017631762 -0.018116726
000370 ed d0 10 be 1f c9 5e bd dd e1 c6 3c 52 7b 6e be
       -0.14142199 -0.054391023 0.024277622 -0.2328923
000380 5d 74 38 3a 3b 7a a2 bc 05 86 ab bc 43 84 9c bd
       0.00070363824 -0.019833675 -0.020937929 -0.076424144
000390 b0 74 4c bc b4 5c a0 bb e7 ce 8a be fa aa 7d 3d
       -0.012478992 -0.0048938636 -0.2711098 0.061930634
0003a0 d2 f9 28 bd c0 b9 5e bd f6 bc 44 bd 75 b1 eb bc
       -0.041253872 -0.054376364 -0.04803177 -0.028771142
0003b0 47 83 8d bc c4 40 32 bd 88 9f b7 3c f8 a0 cf bb
       -0.017274512 -0.043518797 0.022414938 -0.0063363276
0003c0 6c 10 09 3e 95 7e 1e bd 7d 5d 91 3c e0 49 38 3e
       0.1338517 -0.038694937 0.017744774 0.17996931
0003d0 4e 72 13 3d ea f1 30 3e 0b 41 4c 3d 1f 95 89 3b
       0.03599768 0.17279783 0.049866717 0.004198685
0003e0 e1 c4 30 bd 2a cc 22 3c e1 fa 64 bd 9e 08 75 bd
       -0.04315651 0.009936372 -0.05590332 -0.05982267
0003f0 7c bc cc 3c b6 5e fb bd 2c 83 0e 3e f0 0c 57 bd
       0.02499222 -0.12273924 0.13917226 -0.052502573
