expPendulumviaDDPG.pyPendulum-v1./critic.pth (torch, 492247 bytes, 5 tensors)

l1.weight f4 [400, 4]
0.6646468 -1.1823184 -0.40042803 0.15474394 -0.1641637 0.031153128 -0.22571124 0.4248102
0.10510414 -0.14957887 0.3514992 0.061639678 0.3588944 -1.092793 0.011030771 -0.16984415
0.29019368 1.2137622 0.4225984 -0.10358977 -0.43728554 -1.095087 -0.27617225 -0.065433726
-0.3791057 -0.76319593 0.15121779 0.02457029 -0.1775929 0.21993347 -0.18204978 0.05084619
-0.42624968 1.5460044 0.3440524 0.09289635 -0.6536941 0.14879456 -0.08066884 0.34733555
0.7474892 0.38801232 0.2273412 -0.30772838 -0.38402572 -0.48668998 0.012238313 0.19713949
0.19769976 0.688759 0.15833941 -0.113305315 0.68004745 -0.51391697 -0.1689124 0.04172525
0.28779608 -0.17971279 0.26161927 0.2834054 0.3095932 0.86822337 0.09401735 0.030444374
-0.53383744 0.5795429 -0.070316665 0.22218134 0.3722963 0.18532073 0.5008383 -0.44095898
-0.25152543 -0.2372936 -0.18466452 -0.030028027 0.14658593 -0.16593239 0.2694553 -0.18645795
-0.40499935 0.06324897 -0.2767371 -0.4501043 0.73309314 0.7019853 -0.32858676 0.09845419
0.43048802 -0.34358555 0.2501853 -0.48625055 0.05523248 -0.8002412 -0.1998148 0.5730121
-0.732454 0.29534966 0.26093292 -0.5156895 0.594031 -0.37549222 0.24243833 -0.15408042
-0.82732224 0.27708176 0.11314963 0.05227128 -0.51562685 -0.3038336 -0.1933181 0.51302004
0.03019692 0.14834921 -0.053215977 -0.020512324 0.38591805 -0.22718038 -0.0988879 0.22676684
-0.68555546 0.4681842 0.2057875 0.021082297 -0.055769447 -0.51361334 -0.2803419 -0.3675232
-0.5920056 -0.664806 -0.35959268 -0.05754989 -0.2674267 0.9824228 0.22091182 -0.011161346
-0.04409888 -0.3191733 0.17288458 -0.23092778 -0.34341538 1.2222396 0.42038816 0.026355525
-0.4741317 -0.2816068 -0.29094973 0.053889174 0.29702997 -1.311875 -0.28265357 -0.14469372
-0.21746852 0.042765852 0.012866566 0.32564834 -0.41001517 -0.54552394 -0.15550433 -0.040558122
0.07212601 0.86156994 0.10190042 -0.16069059 -0.052853126 -0.059740603 -0.16771841 0.11684633
-0.55799496 -0.48028517 -0.34955847 0.01420219 0.24644677 0.4777026 0.4927886 0.31901163
0.5046948 0.10124275 0.069836736 0.06370192 -0.18773746 -0.69281864 -0.09295408 0.2264711
0.66469216 0.03938176 0.2813461 0.14136258 0.5420121 0.9161825 0.26368785 0.009633506
-0.59029686 -1.1710391 -0.24810247 -0.0090164775 -0.3306324 -0.20811282 0.42588526 0.07611214
-0.3723243 0.8650098 0.19970827 0.0133827 -0.55323225 -0.003556342 -0.13618544 -0.060159884
-0.18082578 1.4545114 0.21435252 0.23179857 -0.054145154 -0.74911255 0.19582552 -0.42994952
0.46226305 -0.3194849 -0.3365973 0.4845072 0.1338389 -1.0839902 -0.2558137 -0.16969138
-0.58487505 -0.41007584 0.36322096 -0.3093556 -0.5514281 -0.025403881 -0.14290181 -0.029177014
-0.7430456 0.46990088 0.23126331 0.3104081 -0.3251935 0.053211447 -0.33114153 0.14168185
0.42302504 -0.9667938 -0.20546381 0.3447143 0.13807058 -0.9798683 -0.19428474 -0.05745417
0.40392587 0.5531904 -0.19984224 0.35361075 0.53074896 -0.7922175 -0.24207371 -0.060405288
00000000: 4b26 2a3f 3656 97bf e704 cdbe 3275 1e3e
00000010: 871a 28be d834 ff3c d920 67be b980 d93e
00000020: d740 d73d 342b 19be b4f7 b33e e379 7c3d
00000030: 02c1 b73e a4e0 8bbf 68ba 343c a0eb 2dbe
00000040: 4494 943e 8f5c 9b3f d15e d83e e026 d4bd
00000050: e4e3 dfbe d02b 8cbf 7366 8dbe 1e02 86bd
00000060: 241a c2be cf60 43bf d6d8 1a3e a247 c93c
00000070: eada 35be 3d36 613e 426b 3abe 1844 503d
00000080: 663d dabe 79e3 c53f a327 b03e 7140 be3d
00000090: 7f58 27bf 9a5d 183e b435 a5bd f7d5 b13e
000000a0: 745b 3f3f 8da9 c63e 22cc 683e 938e 9dbe
000000b0: 059f c4be 6e2f f9be 3583 483c efde 493e
000000c0: ce71 4a3e 8352 303f ba23 223e 9e0c e8bd
000000d0: 9717 2e3f 1090 03bf 5ff7 2cbe 19e8 2a3d
000000e0: 025a 933e a106 38be f6f2 853e 831a 913e
000000f0: 0083 9e3e e343 5e3f 2b8c c03d 7b66 f93c
00000100: 92a9 08bf ec5c 143f 2f02 90bd 8183 633e
00000110: 9f9d be3e b8c4 3d3e f036 003f 60c5 e1be
00000120: f1c7 80be 18fd 72be b218 3dbe 56fd f5bc
00000130: 9f1a 163e 2eea 29be 0cf6 893e d5ee 3ebe
00000140: 135c cfbe ad88 813d 7cb0 8dbe 1274 e6be
00000150: feab 3b3f 4fb5 333f 863c a8be 5aa2 c93d
00000160: ed68 dc3e 72ea afbe 4a18 803e d5f5 f8be
00000170: 743b 623d 9bdc 4cbf 409c 4cbe ecb0 123f
00000180: 1b82 3bbf 1238 973e 0099 853e 3a04 04bf
00000190: 6a12 183f 8440 c0be c141 783e 42c7 1dbe
000001a0: 64cb 53bf a9dd 8d3e feba e73d 691a 563d
000001b0: 1f00 04bf 1490 9bbe 2ef5 45be 4855 033f
000001c0: 885f f73c dbe8 173e fff8 59bd 7609 a8bc
000001d0: 0d97 c53e f9a1 68be bd85 cabd 9135 683e
000001e0: 9080 2fbf d7b5 ef3e f5b9 523e c8b4 ac3c
000001f0: 816e 64bd 2a7c 03bf f988 8fbe 002c bcbe
00000200: ae8d 17bf ba30 2abf 881c b8be 6fb9 6bbd
00000210: 27ec 88be 1080 7b3f b536 623e 14de 36bc
00000220: 07a1 34bd af6a a3be a808 313e 5578 6cbe
00000230: 24d4 afbe 5972 9c3f 1e3d d73e 8be7 d73c
00000240: 64c1 f2be c42e 90be 5df7 94be e5ba 5c3d
00000250: 5014 983e 85eb a7bf f8b7 90be 972a 14be
00000260: 11b0 5ebe 3f2b 2f3d 4ace 523c 61bb a63e
00000270: 82ed d1be 75a7 0bbf 873c 1fbe 4620 26bd
00000280: cdb6 933d d98f 5c3f 2bb1 d03d 138c 24be
00000290: 857c 58bd 90b2 74bd 60be 2bbe 214d ef3d
000002a0: c2d8 0ebf f0e7 f5be 54f9 b2be 4db0 683c
000002b0: 8b5c 7c3e 6f95 f43e ca4e fc3e 7e55 a33e
000002c0: ae33 013f 5c58 cf3d 9006 8f3d 2776 823d
000002d0: 403e 40be 905c 31bf b55e bebd 0ae8 673e
000002e0: 4429 2a3f c54e 213d 990c 903e 5ac1 103e
000002f0: 4ec1 0a3f f08a 6a3f 1802 873e dad5 1d3c
00000300: b21d 17bf 9ce4 95bf 930e 7ebe d9b9 13bc
00000310: a648 a9be 871b 55be a20d da3e afe0 9b3d
00000320: 4aa1 bebe 4871 5d3f 5380 4c3e 1d43 5b3c
00000330: a1a0 0dbf 8511 69bb 3274 0bbe 366a 76bd
00000340: 652a 39be 6e2d ba3f 3a7f 5b3e 9b5c 6d3e
00000350: 4fc7 5dbd d7c5 3fbf 7c86 483e 5822 dcbe
00000360: bead ec3e 8693 a3be 7b56 acbe 5411 f83e
00000370: 110d 093e 31c0 8abf 03fa 82be 94c3 2dbe
00000380: 5fba 15bf 76f5 d1be 19f8 b93e db63 9ebe
00000390: 642a 0dbf cd1b d0bc da54 12be a204 efbc
000003a0: 3d38 3ebf d996 f03e 4ad0 6c3e cfed 9e3e
000003b0: c37f a6be 3ff4 593d 628b a9be 0c15 113e
000003c0: bd96 d83e cc7f 77bf 1b65 52be 657e b03e
000003d0: 6062 0d3e a6d8 7abf 94f2 46be 1055 6bbd
000003e0: 5fcf ce3e e39d 0d3f 72a3 4cbe 780c b53e
000003f0: 2adf 073f c4ce 4abf 2ce2 77be 896b 77bd

l1.bias f4 [400]
-0.39223891 -0.11829986 -0.29156846 0.3222212 -0.1252325 0.31091785 -0.41226992 -0.38558897
0.046413954 0.3134592 -0.21430686 0.33280593 0.06967697 -0.09709412 -0.004916555 0.2873864
0.36682996 -0.6513469 -0.29429188 0.09585444 0.42393422 -0.0849467 0.6212579 0.4242735
-0.50151724 -0.45221728 -0.008002474 -0.034631006 0.4662914 0.60871553 0.56893706 -0.0613184
-0.5810881 -0.04648826 0.35843772 -0.4069549 0.38029948 -0.122770265 0.50506204 0.32832178
0.09454186 0.08972309 0.478199 -0.5065815 0.5665654 0.4444794 -0.1617131 -0.42977983
0.36275885 -0.43878314 -0.11518582 -0.07145146 -0.0035988847 0.114076085 -0.6950518 -0.15867788
0.61967456 0.58843654 -0.4968754 -0.6000794 -0.49598894 -0.22683352 -0.057944357 -0.38434315
0.41682237 -0.10696952 0.122721925 -0.17510764 -0.12375086 -0.2844801 0.58113 -0.38415322
0.318494 -0.6419563 0.28498924 -0.4736557 0.47667533 -0.13574749 0.07885073 -0.52529246
-0.10525913 0.15746468 -0.30035773 -0.28729364 -0.37628028 -0.12665626 0.17309652 0.023262875
-0.519862 -0.26407865 0.41688073 -0.23248321 0.5611921 -0.27019435 0.09256732 0.21801741
-0.069595255 0.25202015 -0.097076364 -0.4440299 0.679009 0.52882713 -0.56265336 -0.3219297
-0.5826034 0.17684665 -1.0200796 0.053826842 0.1199171 -0.98147655 0.49192503 -0.14332111
-0.61821645 0.3062948 -0.37192747 -0.75532305 -0.5316965 -0.0031256857 0.26089755 -0.7136006
-0.07923493 -0.60432285 -0.09888513 0.17218141 -0.13652472 0.49167883 0.107619286 -0.3216103
0.5576025 -0.6645665 0.3841359 -0.17226474 -0.13822347 -0.33657852 -0.23250584 0.37208855
-0.43504813 0.567918 -0.24641216 -0.35852635 -0.27611864 0.4398656 -0.07457444 0.67058474
-0.22138812 -0.6074783 -0.05573742 0.021194363 -0.57097447 -0.5737134 0.4250701 -0.20090947
-0.13348465 -0.030914119 -0.012789045 0.02642975 0.52573043 -0.36751115 0.6644982 0.16412194
-0.4684926 0.30406028 0.094730295 -0.35764375 -0.40202865 0.50152 -0.3204399 -0.4320684
-0.23686093 -0.39101437 -0.10252049 -0.8720019 0.5343723 -0.8637772 -0.8453914 -0.9117499
0.051764596 -0.59072214 0.43609518 0.5361488 0.1718635 0.3610981 0.48590213 -0.44087404
-0.026108999 -0.07592925 0.51231587 -0.08162223 -0.19053678 -0.51681304 0.36006296 0.13562374
-0.7610379 0.50763816 0.18706708 -0.21125974 0.39258727 -0.73592716 0.33613983 -0.054939207
-0.23904346 -0.9502502 -0.75300133 -0.5362146 0.032760102 -0.5853441 0.47859496 -0.75106764
0.52437687 0.06681238 0.08024623 0.24627014 0.44298953 -0.13127999 -0.54822624 -0.61468154
-0.24319506 -0.40047562 -0.37364164 0.48408166 -0.33153236 -0.3774629 -0.47521758 -0.7322148
-0.6802159 -0.5233807 0.013861126 0.41438466 -0.29452756 -0.11310125 -0.92377 0.0018924605
-0.38701558 0.09930594 -0.6341371 -0.32635188 -0.505972 -0.23618342 -0.11297672 -0.06784633
0.078479744 0.2974569 0.15417689 0.45873895 -0.7433115 0.017678121 -0.3430397 0.34649155
0.69660056 -0.65317285 -0.3022673 0.020640165 0.22882117 -0.6629598 0.55187935 0.038803495
00000000: 8ad3 c8be 3247 f2bd 7648 95be 2dfa a43e
00000010: f33c 00be a030 9f3e 0b15 d3be eb6b c5be
00000020: 8f1c 3e3d b97d a03e 4273 5bbe 8a65 aa3e
00000030: cdb2 8e3d 48d9 c6bd 0d1b a1bb 4f24 933e
00000040: 23d1 bb3e acbe 26bf 6dad 96be 554f c43d
00000050: e80d d93e 89f8 adbd c20a 1f3f 603a d93e
00000060: 6f63 00bf 0689 e7be cf1c 03bc 3ed9 0dbd
00000070: bfbd ee3e c8d4 1b3f dca5 113f 0129 7bbd
00000080: 31c2 14bf 796a 3ebd 2685 b73e 655c d0be
00000090: 9db6 c23e fa6e fbbd bf4b 013f cb19 a83e
000000a0: 2a9f c13d bdc0 b73d 80d6 f43e 53af 01bf
000000b0: 6e0a 113f ce92 e33e 1e98 25be 1a0c dcbe
000000c0: 87bb b93e 2fa8 e0be 8be6 ebbd 2555 92bd
000000d0: 44db 6bbb b9a0 e93d eaee 31bf 747c 22be
000000e0: fea2 1e3f c7a3 163f 7466 febe ce9e 19bf
000000f0: 43f2 fdbe 0c47 68be 1057 6dbd a0c8 c4be
00000100: be69 d53e d612 dbbd a255 fb3d 6b4f 33be
00000110: 1771 fdbd 60a7 91be f0c4 143f bbaf c4be
00000120: a511 a33e 4057 24bf 1cea 913e 0083 f2be
00000130: ca0e f43e 6401 0bbe 7e7c a13d 9179 06bf
00000140: 1992 d7bd 6c3e 213e 7dc8 99be 2718 93be
00000150: cfa7 c0be 2eb2 01be 3740 313e c991 be3c
00000160: ad15 05bf 5135 87be 6471 d53e 1410 6ebe
00000170: 49aa 0f3f ea56 8abe ef93 bd3d f53f 5f3e
00000180: f587 8ebd c908 813e f9cf c6bd e357 e3be
00000190: 89d3 2d3f 3761 073f 0d0a 10bf f8d3 a4be
000001a0: 7f25 15bf 4a17 353e f891 82bf 8979 5c3d
000001b0: 1997 f53d 0c42 7bbf 99dd fb3e c5c2 12be
000001c0: 6f43 1ebf acd2 9c3e 476d bebe da5c 41bf
000001d0: 431d 08bf 4ed8 4cbb 5d94 853e 87ae 36bf
000001e0: ec45 a2bd e7b4 1abf 4984 cabd 5350 303e
000001f0: 23cd 0bbe 54bd fb3e 8067 dc3d 1baa a4be
00000200: 0abf 0e3f 0821 2abf 76ad c43e 2b66 30be
00000210: 748a 0dbe 0554 acbe 0316 6ebe 6482 be3e
00000220: a1be debe 1363 113f 7853 7cbe c490 b7be
00000230: 6c5f 8dbe 1036 e13e 7cba 98bd 71ab 2b3f
00000240: 91b3 62be b383 1bbf ec4c 64bd cd9f ad3c
00000250: 622b 12bf e2de 12bf caa2 d93e 36bb 4dbe
00000260: 33b0 08be 9b3f fdbc 2589 51bc 3483 d83c
00000270: 4596 063f 6c2a bcbe 8e1c 2a3f 950f 283e
00000280: 43de efbe caad 9b3e f501 c23d 151d b7be
00000290: b3d6 cdbe 9d63 003f b310 a4be 1238 ddbe
000002a0: ac8b 72be 0933 c8be 43f6 d1bd 843b 5fbf
000002b0: a0cc 083f 8120 5dbf 926b 58bf 7168 69bf
000002c0: 1d07 543d 9139 17bf de47 df3e 0c41 093f
000002d0: fcfc 2f3e dae1 b83e 2ac8 f83e 3eba e1be
000002e0: 8ae2 d5bc cb80 9bbd 2227 033f 8e29 a7bd
000002f0: 131c 43be dc4d 04bf 2c5a b83e f3e0 0a3e
00000300: 61d3 42bf 93f4 013f 838e 3f3e 7954 58be
00000310: 3301 c93e b965 3cbf 851a ac3e ef07 61bd
00000320: cfc7 74be 9943 73bf b2c4 40bf 5c45 09bf
00000330: 752f 063d 1cd9 15bf 660a f53e f845 40bf
00000340: 903d 063f eed4 883d 2358 a43d 3d2e 7c3e
00000350: 86cf e23e 436e 06be 8e58 0cbf c55b 1dbf
00000360: 2008 79be 240b cdbe f54d bfbe 8dd9 f73e
00000370: 9cbe a9be d142 c1be b84f f3be 6e72 3bbf
00000380: a122 2ebf 47fc 05bf c719 633c 3a2a d43e
00000390: 51cc 96be a1a1 e7bd 317c 6cbf 700c f83a
000003a0: e826 c6be ea60 cb3d cf56 22bf 9817 a7be
000003b0: 6287 01bf 11da 71be 5760 e7bd 04f3 8abd
000003c0: fdb9 a03d 454c 983e 8ce0 1d3e d5df ea3e
000003d0: aa49 3ebf b5d1 903c e6a2 afbe 5767 b13e
000003e0: 6a54 323f 5636 27bf c8c2 9abe 9015 a93c
000003f0: 1950 6a3e bcb7 29bf f747 0d3f 6af0 1e3d

l2.weight f4 [300, 400]
0.032523897 0.030604575 -0.04269652 -0.016820729 -0.05194634 -0.034845065 -0.009725077 0.0048177615
0.017098872 -0.018267494 0.016064452 -0.014183252 0.008949674 -0.019443184 0.041366868 -0.026621055
0.020151759 0.019374954 0.027700845 0.01342972 0.03238265 0.003866715 -0.006298913 -0.034826666
-0.029803472 0.03238503 0.027275767 0.02804396 0.009414676 -0.048234396 -0.009071865 -0.005661845
0.014177021 0.022833366 0.01433469 0.03210797 -0.041116398 0.021561418 -0.026896778 0.0013157726
-0.050198738 0.020955686 -0.026414234 0.005758456 -0.020501258 -0.05634467 -0.0041478504 -0.04201641
-0.039756395 0.029427983 -0.008290826 -0.03176936 0.031973343 0.021199118 0.039930258 0.0021665364
-0.027625965 -0.046713993 -0.006953356 -0.027706748 -0.044467486 -0.0040256064 -0.021101242 0.001090087
-0.02586078 -0.01126048 0.018852524 -0.01483428 0.03858513 0.010958124 -0.005097969 -0.03272573
-0.0137064615 -0.04127968 -0.019685255 0.0039685704 0.033996295 -0.0071315924 -0.001982946 0.007909295
-0.036157627 -0.04917174 -0.015187265 -0.043011755 0.03470825 -0.0040741563 0.0067255846 0.04018009
0.00027330965 -0.044799857 -0.004078538 -0.023490625 0.029256366 0.010422029 -0.029014042 -0.038635608
0.010986634 -0.0061772373 -0.055304054 0.0016467683 -0.051055335 -0.05305026 -0.017507903 0.029481594
-0.022991424 -0.03562249 -0.057819705 -0.01206151 0.020325933 -0.006261587 -0.044392306 -0.0036759488
0.01045916 -0.028306285 0.016142385 0.048554648 -0.049748167 -0.04966393 -0.03964101 0.04994045
-0.012691777 -0.04058751 -0.009082747 -0.031644292 0.0234165 0.00658233 0.014654297 -0.04100793
0.03643582 0.018991541 -0.012996739 -0.00571308 0.011355875 -0.037077393 -0.027851451 0.000100277284
0.0041050427 -0.03434258 0.015818229 0.036277507 -0.034084156 -0.008497991 0.01217863 -0.01592264
-0.014787465 0.027024837 0.007884495 -0.036451783 0.038587708 -0.006205223 -0.042080216 -0.0288068
-0.003005328 0.01194977 -0.041354872 -0.004051216 0.005326587 -0.02213766 -0.024404638 0.0036901287
0.013080452 0.03059101 -0.034026917 0.01036346 0.026910994 -0.03937566 0.001962442 -0.018370055
-0.019432718 -0.015067298 -0.0033621339 -0.037303798 -0.032788374 -0.04436334 -0.013744909 0.037164707
-0.037211724 0.036810372 0.039514277 -0.018540729 -0.024637539 -0.056022048 -0.02577368 -0.034521893
0.0091313645 -0.02189968 -0.0029554472 0.025026603 0.018248435 0.008900505 -0.0114560835 -0.02476081
-0.034744687 -0.026709106 -0.007179237 0.019805085 0.033669457 0.039000217 0.03162277 0.003108171
0.019047957 0.030147243 -0.024158811 -0.006574452 0.009783275 -0.007814449 -0.017885912 -0.056415003
-0.048451126 0.008449162 -0.025686115 -0.01710345 0.016391743 0.008594799 -0.021928305 0.031224627
0.014902998 -0.028312564 0.024838794 -0.039433442 -0.017761659 -0.05636335 -0.025849236 -0.018373214
5.056709e-05 0.013839373 0.03669618 0.013404566 -0.0047371797 0.0067614317 -0.015947241 -0.026754932
-0.026595807 0.0048688278 -0.014489848 0.039567403 -0.023528636 -0.014824525 -0.03467069 -0.0018598959
-0.015338077 -0.01843718 0.032252565 -0.03413706 0.008655697 0.0011195081 -0.05050836 0.018686432
0.041849777 -0.020597868 0.0043235244 -0.04811399 -0.02400293 -0.036740392 0.030216554 0.022711465
00000000: c737 053d 72b6 fa3c 8ce2 2ebd a0cb 89bc
00000010: afc5 54bd b3b9 0ebd ee55 1fbc 50de 9d3b
00000020: ef12 8c3c b6a5 95bc 9999 833c df60 68bc
00000030: a7a1 123c 5047 9fbc 4e70 293d 6614 dabc
00000040: 4d15 a53c 39b8 9e3c e2ec e23c 5408 5c3c
00000050: aba3 043d b668 7d3b 1d67 cebb 68a6 0ebd
00000060: 6926 f4bc 2aa6 043d 6e71 df3c 72bc e53c
00000070: 0340 1a3c 6e91 45bd 29a2 14bc 0087 b9bb
00000080: bc46 683c 0a0d bb3c 0cdc 6a3c a683 033d
00000090: ab69 28bd 92a1 b03c a256 dcbc 0176 ac3a
000000a0: 319d 4dbd 42ab ab3c aa62 d8bc 6eb1 bc3b
000000b0: 41f2 a7bc abc9 66bd b1ea 87bb 6619 2cbd
000000c0: 9ad7 22bd f412 f13c 3fd6 07bc 9720 02bd
000000d0: 7bf6 023d c6a9 ad3c e98d 233d 73fc 0d3b
000000e0: d94f e2bc 2c57 3fbd fad8 e3bb 43f9 e2bc
000000f0: 8a23 36bd 3ce9 83bb 83dc acbc 40e1 8e3a
00000100: fdd9 d3bc e07d 38bc 9c70 9a3c 7b0b 73bc
00000110: 710b 1e3d b489 333c dd0c a7bb 6a0b 06bd
00000120: 1191 60bc e214 29bd f942 a1bc c80a 823b
00000130: b33f 0b3d 22b0 e9bb 50f4 01bb fd95 013c
00000140: 051a 14bd 4e68 49bd 02d4 78bc 182d 30bd
00000150: 3d2a 0e3d 8080 85bb 4b62 dc3b e193 243d
00000160: 004b 8f39 0e80 37bd 42a5 85bb 696f c0bc
00000170: 0cab ef3c 28c1 2a3c dbae edbc 5f40 1ebd
00000180: 4801 343c 6c6a cabb 8186 62bd 60d8 d73a
00000190: 661f 51bd 3b4b 59bd bc6c 8fbc 6283 f13c
000001a0: 8358 bcbc e3e8 11bd 5bd4 6cbd a49d 45bc
000001b0: 9282 a63c 002e cdbb b5d4 35bd 30e8 70bb
000001c0: e65c 2b3c 95e2 e7bc 093d 843c 3de1 463d
000001d0: bcc4 4bbd 686c 4bbd 9d5e 22bd 5b8e 4c3d
000001e0: 2cf1 4fbc 173f 26bd cdcf 14bc 729d 01bd
000001f0: f6d3 bf3c 96b0 d73b 9418 703c eef7 27bd
00000200: ba3d 153d 2694 9b3c 46f0 54bc ca34 bbbb
00000210: fe0d 3a3c 77de 17bd ba28 e4bc f54b d238
00000220: 9883 863b ceaa 0cbd 3b95 813c b997 143d
00000230: d49b 0bbd 283b 0bbc e088 473c 3270 82bc
00000240: 2047 72bc 3163 dd3c f82d 013c 774e 15bd
00000250: 250e 1e3d 2f55 cbbb 4e5c 2cbd 3dfc ebbc
00000260: 09f5 44bb f8c8 433c ba63 29bd 10c0 84bb
00000270: a68a ae3b 0a5a b5bc 3cec c7bc 16d6 713b
00000280: 644f 563c ff99 fa3c cf5f 0bbd 80cb 293c
00000290: 7274 dc3c 5f48 21bd 509c 003b cc7c 96bc
000002a0: 5d31 9fbc d4dc 76bc 3f57 5cbb decb 18bd
000002b0: 1a4d 06bd 55b6 35bd 5432 61bc 053a 183d
000002c0: 526b 18bd 79c6 163d b9d9 213d bae2 97bc
000002d0: aad4 c9bc 6077 65bd 5323 d3bc d466 0dbd
000002e0: b89b 153c f566 b3bc 2db0 41bb 9704 cd3c
000002f0: be7d 953c 6cd3 113c 4cb2 3bbc 2fd7 cabc
00000300: 7250 0ebd 0ecd dabc ce3f ebbb 463e a23c
00000310: fce8 093d b1be 1f3d e186 013d 75b2 4b3b
00000320: 760a 9c3c 5af7 f63c b3e8 c5bc 806e d7bb
00000330: 084a 203c 2d08 00bc 7a85 92bc 6b13 67bd
00000340: b074 46bd 5b6e 0a3c b06b d2bc 891c 8cbc
00000350: fa47 863c 33d1 0c3c fda2 b3bc caca ff3c
00000360: b42b 743c c0ef e7bc ba7a cb3c f684 21bd
00000370: e680 91bc 42dd 66bd c7c1 d3bc 6c83 96bc
00000380: 0018 5438 8abe 623c bc4e 163d d39e 5b3c
00000390: 583a 9bbb 008f dd3b caa3 82bc 292d dbbc
000003a0: 73df d9bc b08a 9f3b d466 6dbc 6e11 223d
000003b0: 20bf c0bc 91e2 72bc da02 0ebd c0c7 f3ba
000003c0: 8f4c 7bbc 9209 97bc 441b 043d 4dd3 0bbd
000003d0: a0d0 0d3c 75bc 923a dbe1 4ebd 4a14 993c
000003e0: ac6a 2b3d dcbc a8bc 5aac 8d3b 2d13 45bd
000003f0: cba1 c4bc 187d 16bd b588 f73c 650d ba3c

l2.bias f4 [300]
0.003425745 0.21678302 0.017986737 0.20600119 0.18258707 0.24672636 0.13057408 -0.05806123
0.08766814 -0.039726164 -0.01932111 -0.011093298 0.17363442 0.13205211 0.00081796834 0.16578637
0.00645491 0.13684763 0.027981294 0.19685988 0.21674342 0.184271 0.18137218 0.033810735
0.28474152 -0.013836015 0.011992355 0.17625913 -0.055892207 0.0048669004 -0.025240611 0.15861417
0.15884084 0.19761448 -0.020200618 -0.029860971 0.18115169 0.19207646 0.27485007 0.014009834
0.012608105 0.2585481 -0.027094774 0.14831322 -0.047795538 -0.022259094 0.15665357 -0.01894827
-0.03252256 -0.059170146 0.07761244 -0.040723387 0.21842867 0.15392247 0.2584402 0.008255239
0.10964104 0.1842761 -0.014726284 0.07297805 0.13689332 0.0022455256 0.20061426 -0.00548862
-0.04698459 0.16132426 0.0132961795 0.074867755 0.020972198 0.1420622 -0.030078813 0.026825886
0.0027996458 0.18974201 -0.047375098 0.15204017 0.012336702 0.021942118 0.016887933 0.3137623
0.18072125 0.038899597 0.18110059 -0.055198804 0.23034176 -0.016687986 -0.06363582 -0.045660682
-0.059403066 0.0066995723 0.00444696 -0.039953556 -0.038031954 0.25125533 -0.055988345 -0.04055326
-0.001432152 0.2122663 0.035608016 0.14341655 0.22192065 0.20822135 -0.05268706 -0.0028475518
0.013286319 0.16224423 -0.0032513607 0.19450475 -0.02822304 0.10679901 -0.01438621 0.13586047
0.14426705 0.23402564 0.1185407 0.2310505 0.03662279 0.1289232 0.22839983 -0.020774497
0.00409668 0.19023417 0.22328268 0.019369235 0.002343026 0.15905577 0.14827904 0.19267695
-0.036456175 0.14090218 0.23730843 0.20504773 -0.006064896 0.20535208 0.0043456727 0.20505211
0.042034015 -0.049408637 0.0314822 -0.06239457 0.2099733 0.17014316 -0.047616903 -0.053049363
-0.03406343 0.12365804 0.23023815 0.16136926 -0.02194687 0.037322376 -0.032133035 -0.019137975
0.14954692 0.10449191 0.026908327 -0.03689331 -0.036494102 -0.038681816 0.14570732 0.0011695845
0.11930398 0.13730732 0.15664305 0.23681219 0.02399753 0.19236897 -0.027758406 0.17039259
0.113430955 -0.013611752 0.19910498 0.15693742 0.10859236 -0.038774323 -0.023851218 0.067909315
0.2125287 0.19145578 0.20271769 -0.02794572 0.1775406 -0.031659313 0.22249366 0.011305017
0.20799187 -0.035593923 0.033321273 0.004823843 -0.035331476 0.20377232 0.21169327 0.008363862
0.021414597 0.113545686 -0.04865467 0.028572615 -0.06065848 0.14744848 -0.025017915 0.19070767
0.029591851 -0.018575696 -0.011436881 -0.020688688 0.016461572 0.2547853 -0.044523854 0.21042277
0.12162865 0.17226487 0.18109366 0.15204434 -0.06727983 0.1343006 -0.018641375 0.19256864
-0.048100308 0.19491726 -0.004099067 0.16619909 0.09583253 -0.04781857 -0.0098127 0.18585487
0.12948032 -0.032311987 -0.04663342 0.05164034 0.005820544 -0.05023487 0.16535549 -0.0334048
0.20788367 0.19077545 0.13483705 0.036567025 0.14961606 0.16493313 -0.04095236 -0.025658628
0.19272374 0.1731231 0.022021322 0.1411219 -0.002494375 0.010711443 0.21349843 0.13295555
-0.13978519 -0.051101003 0.11659469 0.032005638 0.0065886932 0.1650508 0.0060509695 0.21008351
00000000: 7782 603b 5efc 5d3e ec58 933c faf1 523e
00000010: 1bf8 3a3e d6a5 7c3e 36b5 053e 9dd1 6dbd
00000020: 5b8b b33d e7b7 22bd 4e47 9ebc aac0 35bc
00000030: 39cd 313e ab38 073e ed6c 563a e7c3 293e
00000040: b683 d33b c921 0c3e 0739 e53c a395 493e
00000050: fdf1 5d3e 89b1 3c3e a1b9 393e 207d 0a3d
00000060: a4c9 913e 74b0 62bc 957b 443c 467d 343e
00000070: 3aef 64bd 857a 9f3b 66c5 cebc c16b 223e
00000080: 2ca7 223e 735b 4a3e c47b a5bc ff9e f4bc
00000090: d47f 393e b1af 443e 26b9 8c3e 8189 653c
000000a0: 3a92 4e3c 6b60 843e dcf5 ddbc 6cdf 173e
000000b0: 41c5 43bd b458 b6bc cb69 203e 6739 9bbc
000000c0: 6036 05bd 655c 72bd 45f3 9e3d 91cd 26bd
000000d0: c4ab 5f3e da9d 1d3e 4652 843e fb40 073c
000000e0: 7b8b e03d e0b2 3c3e 8346 71bc 8475 953d
000000f0: c32d 0c3e ab29 133b d36d 4d3e e2d9 b3bb
00000100: ea72 40bd 3032 253e 38d8 593c 4454 993d
00000110: e3cd ab3c c178 113e d867 f6bc f6c1 db3c
00000120: 437a 373b bb4b 423e 640c 42bd 6bb0 1b3e
00000130: e11f 4a3c f5bf b33c 9058 8a3c 74a5 a03e
00000140: fe0e 393e 2f55 1f3d 6f72 393e 2418 62bd
00000150: b6de 6b3e 3eb5 88bc 7f53 82bd b206 3bbd
00000160: a150 73bd 1688 db3b ceb7 913b 57a6 23bd
00000170: 65c7 1bbd 8aa4 803e 0954 65bd 2d1b 26bd
00000180: 0cb7 bbba 565c 593e b6d9 113d cadb 123e
00000190: 2b3f 633e fa37 553e 63ce 57bd fe9d 3abb
000001a0: dcae 593c 5a23 263e c814 55bb 412c 473e
000001b0: 0134 e7bc 70b9 da3d 23b4 6bbc 021f 0b3e
000001c0: beba 133e 6ba4 6f3e 77c5 f23d 8198 6c3e
000001d0: c701 163d 7104 043e a5e1 693e 472f aabc
000001e0: 713d 863b bfcc 423e 37a4 643e 3bac 9e3c
000001f0: 748d 193b 84df 223e 76d6 173e 1b4d 453e
00000200: 1253 15bd a948 103e fb00 733e 08f8 513e
00000210: 09bc c6bb d147 523e 2566 8e3b 2ef9 513e
00000220: dc2b 2c3d b660 4abd 7bf3 003d 7391 7fbd
00000230: 3e03 573e 023a 2e3e f109 43bd 4a4a 59bd
00000240: 1886 0bbd 6d40 fd3d 8dc3 6b3e fc3d 253e
00000250: ecc9 b3bc 59df 183d ee9d 03bd 3ec7 9cbc
00000260: d422 193e dbff d53d da6e dc3c 701d 17bd
00000270: d77a 15bd d370 1ebd 4d34 153e be4c 993a
00000280: a555 f43d 4a9a 0c3e 0967 203e e57e 723e
00000290: 7896 c43c 5ffc 443e 9965 e3bc 657b 2e3e
000002a0: 7d4e e83d d303 5fbc 2de2 4b3e 34b4 203e
000002b0: ac65 de3d d3d1 1ebd a163 c3bc 0a14 8b3d
000002c0: 20a1 593e fc0c 443e 3a95 4f3e 6cee e4bc
000002d0: 34cd 353e 32ad 01bd 61d5 633e ae38 393c
000002e0: d2fb 543e efca 11bd e37b 083d 5411 9e3b
000002f0: bdb7 10bd b1a9 503e 1fc6 583e 9408 093c
00000300: aa6d af3c a48a e83d 1f4a 47bd 1e11 ea3c
00000310: 0775 78bd bcfc 163e 5ff2 ccbc df48 433e
00000320: 9c6a f23c 0f2c 98bc c161 3bbc 537b a9bc
00000330: 6bda 863c 3873 823e a55e 36bd 1179 573e
00000340: 7118 f93d 3466 303e 9e70 393e 83b1 1b3e
00000350: 02ca 89bd 1986 093e ccb5 98bc b730 453e
00000360: d404 45bd 6498 473e 7751 86bb 1830 2a3e
00000370: d843 c43d 68dd 43bd 72c5 20bc bd50 3e3e
00000380: 7d96 043e 9359 04bd af02 3fbd d284 533d
00000390: 43ba be3b 14c3 4dbd f352 293e 79d3 08bd
000003a0: 75df 543e a45a 433e b912 0a3e 4ec7 153d
000003b0: f434 193e 3be4 283e a9bd 27bd 0b32 d2bc
000003c0: 5f59 453e 2f47 313e 0f66 b43c 4282 103e
000003d0: ab78 23bb 0c7f 2f3c 559f 5a3e 8025 083e
000003e0: d923 0fbe 494f 51bd 32c9 ee3d 5818 033d
000003f0: f7e5 d73b 1403 293e 3647 c63b 2220 573e

l3.weight f4 [1, 300]
0.0067677265 -0.06418624 0.022735188 -0.085957095 -0.095915705 -0.28664663 -0.21961561 0.020561932
-0.4401621 -0.004678867 0.014318616 0.042701233 -0.082045525 -0.0718194 0.046600237 -0.16174856
0.007285211 -0.09761024 0.04047325 -0.090806015 -0.08422181 -0.07563893 -0.11121283 -0.0049329232
-0.3091488 -0.014269586 0.044106863 -0.12844081 0.0068146065 -0.016268332 -0.006372505 -0.08175927
-0.08580974 -0.056553993 0.0053422395 0.008922294 -0.3783924 -0.09908039 -0.48060906 0.040354475
0.042361606 -0.45814094 0.009217189 -0.07729492 0.019355606 0.020488458 -0.07314097 -0.0012256801
-0.01715083 0.016472133 -0.5234094 -0.002659547 -0.0757937 -0.07338101 -0.5312557 -0.0025824134
-0.23728667 -0.07160821 -0.3390667 -0.3925224 -0.06381845 0.0026431533 -0.40746236 0.031424165
0.00055979774 -0.25504112 -0.4348711 -0.49905258 -0.003308072 -0.108412325 0.022072768 0.023382064
0.024538295 -0.08182419 0.02628263 -0.08578553 -0.019627824 0.026718387 0.04088668 -0.46387514
-0.09670888 0.0496968 -0.07542405 -0.6801225 -0.20297505 0.026782637 -0.0071720392 0.012038287
0.012188199 0.014060745 0.004785277 0.02891727 0.008517527 2.6810112 0.03786946 -0.010920699
0.043109473 -0.07877943 0.0045297155 -0.07605974 -0.07701817 -0.09227944 0.0059360676 0.011677434
0.05077298 -0.058679853 0.014279638 -0.09384978 0.024360228 -0.37755293 0.04598546 -0.0559542
-0.049958404 -0.4121952 -0.5363175 -0.41618183 0.03296533 -0.09983451 -0.37793857 0.044537373
0.009777572 -0.059609435 -0.3286603 0.022638917 0.0054439423 -0.20413198 -0.08889416 -0.09138249
-0.00035869257 -0.06136873 -0.36028215 -0.060852937 0.02681742 -0.4659954 -0.027859649 -0.06419968
0.031988014 -0.0009505843 0.018356835 0.028959768 -0.07192652 -0.17354973 -0.004826425 0.0071997144
0.022493042 -0.09403449 -0.59060365 -0.07524898 0.008320271 0.00906811 0.04837863 0.03208325
-0.076394364 -0.2512646 0.0346401 0.04579975 -0.0017434118 0.037325818 -0.088699825 0.027124414
-0.16384932 -0.71811104 -0.09270672 -0.3569308 0.016619075 -0.09639636 0.0037838682 -0.08670089
-0.38202512 0.0438999 -0.13542856 -0.06728481 -0.13202348 0.022724593 0.041305747 -0.5111046
-0.3250819 -0.09911589 -0.10632478 0.017445179 -0.41505665 0.035392717 -0.11413497 0.0115964515
-0.102786444 0.0146173565 0.027469823 -0.0042933756 0.024932597 -0.08070598 -0.064034216 0.0041930764
0.0098448815 -0.47132447 0.009928632 0.033880636 0.03914316 -0.07975535 0.027572926 -0.07878368
0.007594375 0.034082588 0.026362944 0.019642701 0.023604842 -0.4492725 -0.009426559 -0.08019936
-0.0864482 -0.21552818 3.0252986 -0.074727006 -0.01949238 -0.43220502 0.019488683 -0.060604207
0.016602455 -0.081172094 0.013349125 -0.22906682 -0.13996889 -0.0061292034 0.018454418 -0.3317201
-0.07217533 0.010402763 -0.9412169 -0.4255971 -0.0006889962 -0.0030283923 -0.09925562 0.011235027
-0.079582945 -0.060250703 -0.30485386 -0.001976908 -0.10511578 -0.06679347 0.025487952 0.0418137
2.2322762 -0.069906905 0.043288708 -0.05614896 0.019313652 0.047507226 -0.55792487 -0.2741252
0.6793406 0.004775974 -0.068866186 0.025080604 -0.0024487975 -0.08307623 0.02531971 -0.08820148
00000000: cec3 dd3b 1374 83bd 253f ba3c 460a b0bd
00000010: 746f c4bd 59c3 92be eae2 60be 7f71 a83c
00000020: ed5c e1be 2e51 99bb a198 6a3c 7de7 2e3d
00000030: 7c07 a8bd 0d16 93bd e4df 3e3d 6aa1 25be
00000040: c7b8 ee3b e1e7 c7bd 47c7 253d 81f8 b9bd
00000050: 7c7c acbd 95e8 9abd 8dc3 e3bd 5ca4 a1bb
00000060: c048 9ebe fbca 69bc 66a9 343d fd85 03be
00000070: 104d df3b 2a45 85bc 72d0 d0bb 6771 a7bd
00000080: 04bd afbd 29a5 67bd f40d af3b d02e 123c
00000090: a6bc c1be a9ea cabd 6412 f6be bc4a 253d
000000a0: 5d83 2d3d 7391 eabe b103 173c cd4c 9ebd
000000b0: a68f 9e3c 69d7 a73c efca 95bd 00a7 a0ba
000000c0: e67f 8cbc 91f0 863c 29fe 05bf cb4b 2ebb
000000d0: ba39 9bbd c848 96bd 6000 08bf b53d 29bb
000000e0: 47fb 72be 53a7 92bd 279a adbe b2f8 c8be
000000f0: 3fb3 82bd c138 2d3b e89e d0be a0b6 003d
00000100: 64bf 123a c094 82be 6da7 debe d283 ffbe
00000110: 3dcc 58bb 4807 debd f3d1 b43c be8b bf3c
00000120: 8904 c93c 7193 a7bd ac4e d73c 53b0 afbd
00000130: 88ca a0bc 85e0 da3c cb78 273d 0b81 edbe
00000140: 4e0f c6bd df8e 4b3d ed77 9abd 821c 2ebf
00000150: b1d8 4fbe 4367 db3c 6d03 ebbb 3c3c 453c
00000160: 03b1 473c 0a5f 663c d0cd 9c3b e9e3 ec3c
00000170: 198d 0b3c b095 2b40 021d 1b3d bbec 32bc
00000180: 8f93 303d 1c57 a1bd 026e 943b 35c5 9bbd
00000190: b4bb 9dbd 01fd bcbd 5883 c23b b552 3f3c
000001a0: 54f7 4f3d 495a 70bd 25f5 693c 5034 c0bd
000001b0: 1a8f c73c 9e4e c1be 405b 3c3d 3b30 65bd
000001c0: 2fa1 4cbd 400b d3be 1b4c 09bf c915 d5be
000001d0: a706 073d 0976 ccbd 2a81 c1be d26c 363d
000001e0: 1c32 203c 0629 74bd 2a46 a8be 4075 b93c
000001f0: 1963 b23b f907 51be 240e b6bd be26 bbbd
00000200: e70e bcb9 c75d 7bbd e776 b8be ee40 79bd
00000210: 35b0 db3c f396 eebe eb39 e4bc 1f7b 83bd
00000220: dd05 033d a230 79ba 1361 963c 093d ed3c
00000230: 364e 93bd 05b7 31be fd26 9ebb 95eb eb3b
00000240: 5443 b83c 2895 c0bd cd31 17bf 231c 9abd
00000250: bf51 083c 6992 143c ac28 463d ba69 033d
00000260: a674 9cbd c1a5 80be c7e2 0d3d 8598 3b3d
00000270: 3183 e4ba f5e2 183d 41a8 b5bd 0534 de3c
00000280: 1ec8 27be 20d6 37bf 05dd bdbd a2bf b6be
00000290: ba24 883c 746b c5bd c6fa 773b 3c90 b1bd
000002a0: cc98 c3be 62d0 333d c9ad 0abe 9ecc 89bd
000002b0: 2a31 07be ed28 ba3c 3730 293d c0d7 02bf
000002c0: 2371 a6be 46fd cabd cec0 d9bd 31e9 8e3c
000002d0: 4e82 d4be f4f7 103d 98bf e9bd 0bff 3d3c
000002e0: b381 d2bd a37d 6f3c 6508 e13c 72af 8cbb
000002f0: 723f cc3c 2d49 a5bd 5f24 83bd 1366 893b
00000300: 6d4c 213c 7151 f1be b3ab 223c 6cc6 0a3d
00000310: 9454 203d c656 a3bd 9ee0 e13c 5759 a1bd
00000320: 3cda f83b 2f9a 0b3d 1af7 d73c bbe9 a03c
00000330: f15e c13c 0c07 e6be db71 1abc 903f a4bd
00000340: c10b b1bd 6bb3 5cbe 7e9e 4140 790a 99bd
00000350: 7cae 9fbc fa49 ddbe bba6 9f3c 1e3c 78bd
00000360: df01 883c 8e3d a6bd 4ab6 5a3c 7e90 6abe
00000370: 0154 0fbe 7cd7 c8bb b82d 973c 38d7 a9be
00000380: a9d0 93bd 5a70 2a3c 97f3 70bf dde7 d9be
00000390: c19d 34ba fe77 46bb 8846 cbbd 1e13 383c
000003a0: 62fc a2bd 71c9 76bd ce15 9cbe 038f 01bb
000003b0: f146 d7bd 04cb 88bd 1ccc d03c d844 2b3d
000003c0: 9ddd 0e40 5a2b 8fbd 804f 313d 74fc 65bd
000003d0: aa37 9e3c f096 423d 2ad4 0ebf 235a 8cbe
000003e0: 44e9 2d3f c67f 9c3b b709 8dbd d775 cd3c
000003f0: 017c 20bb df23 aabd 486b cf3c faa2 b4bd
