models/MountainCarContinuous-v0/critic.pth (torch, 490647 bytes, 5 tensors)

l1.weight f4 [400, 3]
00000000: 3de4 e23e 9151 86be 1ece a73d c018 963d
00000010: 40da 453c c8c4 fa3e 7047 113b 1887 8e3e
00000020: 0573 91be 0ed5 bc3c 6e34 10bf 1053 bebe
00000030: a537 44be cbed aebe 93b0 a03e 6b3a 0ebe
00000040: f1c3 eabe 889b 353f be0b 00bf fb56 47be
00000050: e73c 54be 0f9e 36be 5455 e93e 684e c1be
00000060: dc04 d5bd ce79 123f b6f6 34be 47b2 f53e
00000070: b101 95bd 076f 0ebf f36a e43d 2609 da3e
00000080: 471b c1be d0e1 273d 6e63 933e 8e2b 34be
00000090: 71d0 c33d 9dac a6be c01f 26bf 2518 cdbc
000000a0: feb9 c33d 5ba7 223f c38b bdbe a759 243f
000000b0: 75c8 2fbe cff2 1d3d b5d5 80bf 1c61 c23b
000000c0: 88c4 02bf 50e9 ce3e 593d 073f 1287 113f
000000d0: 2c55 933e cce9 9c3e 40fb 8abe c4bf 673e
000000e0: 5940 ee3c 8038 d23d 6a1a e4be 36a6 91be
000000f0: 3858 8e3e 3aa2 a7be 5305 00bf c1fc c1bd
00000100: 174f b5be 0cae a5be 2ce8 233e 5118 f7be
00000110: 3540 9ebe bedb 3fbe d8d3 0a3f 1491 043e
00000120: 5e34 673c de7f 71bb e0a5 efbe c707 a13e
00000130: dec7 123f 6ec8 2fbd ace7 85be abb3 d43c
00000140: 5d6c 05be a4be d5bd 15f9 1d3f 162c b53c
00000150: ef2c a4be c82e 693e 48d8 e73d 44e3 bcbe
00000160: 70ed 47bd c047 d6bc 9996 31bf dfd0 fc3d
00000170: 3e5d aebc e514 dabe e965 233e 95ae a93d
00000180: e861 88bd a89c fe3e a87f a4be 0c4c f53e
00000190: 0228 eb3e eb09 0b3e ea0b ea3e 2c4c d1be
000001a0: f0d3 c4ba 9b73 99be a4e8 3cbe c760 6e3e
000001b0: cd2e 113f f7a9 d8be d630 103f b432 aebe
000001c0: c9d7 3f3e 8314 bd3d 9b68 65be 556c a3bf
000001d0: eae8 01bd 4ee0 e03e 2346 a53d 1b65 b3be
000001e0: 1822 983e 703e b73e 4c5c f4be 3484 c0bd
000001f0: 2ad5 b4be 0057 ce3b 2d0f c8be 2282 6d3e
00000200: eb15 a0bc a676 2d3f 6a48 ebbe 6275 32be
00000210: e034 04bd 60b2 d43e 66be a03e bb47 013f
00000220: 131c 8a3e b311 13bf 6a42 ba3e 0c6d 9dbd
00000230: 42c8 c03c a758 abbe 8989 793e f3a6 5fbd
00000240: 0fbd 58be 2f58 b9be 868f a4be 20f7 563e
00000250: f389 30bf 4983 e03e a4b2 37be 40d9 e73e
00000260: 68b7 bcbd db1a 3bbe c521 4ebf 4fcc 95bc
00000270: e039 3a3e ae6d 7fbe dcfb 9a3e 4cea 0d3f
00000280: 5ccb c83e 5da7 163e 60b0 7ebd e867 213e
00000290: a021 86bc feaa 03be 50f4 363e b7b3 93be
000002a0: 18f5 a43d ba52 03bf 90db c43d 2db8 ea3e
000002b0: 073e a4be fa93 32be e3c0 093f 4d2f 00bf
000002c0: e2f8 6e3d 90ee 093e 58b1 8a3d fa5a 0abf
000002d0: 004a 1bbb 7e6c 8a3e 7a5d b2be ed43 3cbe
000002e0: bd4d 34be 72f5 a83d 4310 12be fbca 9e3d
000002f0: 6ecf 413e 5ed8 02be 68aa 2a3e 80ec 8ebc
00000300: e1cf 49be c1f1 b13c 4476 c2be 4a70 b43e
00000310: 54cf 483e b82a eb3e 0a1a a03e f2f9 c4bc
00000320: 987f 8cbe 00d0 3f3e 5c21 dc3e 1c99 08be
00000330: f08f 70bd 4031 dfbe 8e4b 20be a3a8 1c3e
00000340: 5a42 24be f625 bc3e 7a18 4fbd 9d64 9b3e
00000350: 593d 47bf abcb 96be 34cc a63e b0d2 b0be
00000360: d3b0 313e b8ab 713f 2787 d6be 6f52 003f
00000370: 3226 23bf edc6 a83b 9a42 b33e fe09 b5be
00000380: a2a6 ebbd 87ef 9dbe 8bd8 9fbe 11b6 8fbe
00000390: ec3a 363f 0ecb dbbe f562 dcbe a87b 3a3a
000003a0: 9c51 32c0 f936 06bc de9b ec3e 4cda cf3e
000003b0: 0546 eabe c06b 0f3f b4c7 c1be 5666 2fbe
000003c0: 4ebb bf3e d225 a83f 2438 d03c 96a4 e33e
000003d0: e7af 2ebe 9a14 b93c 7716 f53d f018 143f
000003e0: 5b08 673e 0857 2dbe 9c44 ee3e 002c 2cbd
000003f0: 3430 c93e f91f fe3f d240 483b e755 a6be
0.44314757 -0.26234105 0.081936106 0.073289394 0.012075961 0.48978257 0.0022167824 0.27837443
-0.28408065 0.023050811 -0.5633 -0.37172747 -0.19161852 -0.34165797 0.31384715 -0.13889472
-0.45852616 0.70940447 -0.5001792 -0.19466774 -0.20726357 -0.17833732 0.45572913 -0.37755132
-0.104013175 0.5721711 -0.17672238 0.47987577 -0.07275713 -0.55638164 0.111532114 0.42585105
-0.37716123 0.040986836 0.28786796 -0.1759474 0.095612414 -0.32553568 -0.64892197 -0.025035927
0.095569596 0.63536614 -0.37020692 0.641993 -0.17166312 0.03856164 -1.0065218 0.0059319865
-0.5108113 0.40412378 0.52827984 0.56846726 0.28775918 0.30647123 -0.27144814 0.22631747
0.029083418 0.10264683 -0.44551402 -0.2844712 0.2780168 -0.32740957 -0.50008124 -0.09472037
-0.35411903 -0.3235935 0.16006535 -0.4826074 -0.3090836 -0.18736169 0.542295 0.12945968
0.014111606 -0.0036849896 -0.4680624 0.31451246 0.57336223 -0.042915754 -0.26153314 0.025964579
-0.13029619 -0.104367524 0.61708194 0.022115748 -0.32065532 0.22771752 0.11320549 -0.3689214
-0.048810422 -0.02615726 -0.6937042 0.123445265 -0.021284696 -0.42594066 0.15956844 0.08285252
-0.06659299 0.49728894 -0.32128644 0.47909582 0.4592896 0.13578002 0.45712215 -0.40878427
-0.0015016776 -0.29971012 -0.1844812 0.23279105 0.5671204 -0.42317173 0.5632452 -0.34023058
0.18734659 0.09232428 -0.22403185 -1.2767435 -0.031716265 0.4392113 0.08070018 -0.35038075
0.2971351 0.35789824 -0.47726667 -0.09400216 -0.3531888 0.0062969923 -0.39074078 0.23194173
-0.019541701 0.6775917 -0.45953685 -0.1742759 -0.032276988 0.4154234 0.31395262 0.50500077
0.26974544 -0.5744888 0.36378795 -0.07686815 0.02353299 -0.33466074 0.24368872 -0.054602575
-0.2116587 -0.3620009 -0.3214075 0.20992708 -0.68960494 0.43850163 -0.1793924 0.45282936
-0.092146695 -0.18271963 -0.8052028 -0.018285898 0.1818614 -0.24944183 0.30270278 0.55435634
0.3921765 0.14712282 -0.062179923 0.15762293 -0.016373456 -0.12858197 0.17866635 -0.2884805
0.080545604 -0.51298106 0.09612191 0.4584364 -0.32078573 -0.17439261 0.53809947 -0.50072175
0.058342822 0.1346991 0.06772107 -0.5404507 -0.002369523 0.27035898 -0.34836942 -0.18385287
-0.1760778 0.0824994 -0.14264016 0.07753559 0.18926784 -0.1277785 0.16666567 -0.017446756
-0.19708206 0.021721723 -0.37980855 0.3524192 0.1961034 0.4593103 0.31269866 -0.024044964
-0.27441096 0.1873169 0.429942 -0.13339657 -0.05873102 -0.43592262 -0.15653822 0.15298705
-0.16040936 0.36747712 -0.050560452 0.303502 -0.77827984 -0.2945226 0.3257767 -0.34535742
0.1735261 0.94402647 -0.41899988 0.50125784 -0.63730156 0.005150667 0.3501175 -0.35359186
-0.11506392 -0.30846807 -0.31219897 -0.28068593 0.7118366 -0.42928356 -0.43044248 0.0007113763
-2.786231 -0.008191817 0.46212667 0.40596235 -0.45756546 0.5602379 -0.37847674 -0.17128882
0.3744759 1.3136542 0.025417395 0.44461507 -0.17059289 0.022592831 0.119671755 0.5785055
0.22561781 -0.16927731 0.4653672 -0.04203415 0.3929459 1.9853507 0.0030556214 -0.32487413

l1.bias f4 [400]
00000000: def2 b7bd 67ff a0be 452b 003d 9288 223d
00000010: 03d5 81bd 5ce9 02be c7ef a4be 5e41 ea3d
00000020: b149 c8be 26c3 953e f966 813e 6dfd 00bf
00000030: 6d41 76bc 3810 85bc 625a 01be 6231 71bc
00000040: e964 dbbe 0338 a5be 246d b83e 3a22 403d
00000050: 76e2 3b3e d2ab 4c3e 7205 dcbe ef3f cdbe
00000060: 8c26 aa3e 4f41 213e fb5f 383e d19a c8bd
00000070: 7091 cdbe fa22 e9be 356f bcbe 66a7 06bf
00000080: 8bc4 0bbf 17b2 a7bd e6d0 883c b10b 4d3b
00000090: b539 743e 7aaf 56be c640 5dbe a70f 94bd
000000a0: 9c27 9fbe 3ba2 93be a2e7 4b3e 8efb edbd
000000b0: 0588 efbe f202 62be d600 353e f696 d9be
000000c0: a512 14be 86d0 bb3e f2a4 03bf 9511 683e
000000d0: 8de8 acbe b3db 903e 706a c9be abb0 97be
000000e0: 760c 0bbe 661b 743e de64 59bd 92a3 f3be
000000f0: e3a8 08bf 0504 41be 2865 2f3d c3f8 06bf
00000100: a55a b33e 15c5 babe 8da2 8f3e bf65 89be
00000110: c0c1 2e3e b277 4e3e 2000 cdbd 8ac4 05bf
00000120: 3267 bd3d 2d65 8e3e 5550 4d3e 0ec2 12be
00000130: 5e92 983e 4bcf 933d 4737 383e b616 adbe
00000140: 655c 003e 9c93 203e 93eb 303e 73a7 cabe
00000150: ea23 0a3c e16b 973e a45b 53be 0535 99be
00000160: e50c 05bf 7c5a fabe 9f76 e23c 56bb cabd
00000170: 13d2 c239 e361 8bbd 3390 10bf de12 adbe
00000180: 115b 4a3d 4643 123e e4f3 d1be 6637 97be
00000190: 8c52 113e a4c0 b03d a480 babe 0c82 8f3c
000001a0: b23a 1ebe 2317 adbe 9ff0 373e 3c85 f3bd
000001b0: 2ca3 d03d 9bd3 88be 85a8 adbb c93e 12be
000001c0: e8b5 863d 63fd 99be 03d1 323e 06c2 7ebe
000001d0: e52f 3fbc 0c56 d7be 1ae5 04be 11ef 2cbd
000001e0: b7bd bebe 22b0 02bf 5947 fa3d e743 873d
000001f0: ab7c 5c3e c6a2 cebe 9b6a cbbe 364a 6d3d
00000200: 47e1 84be 17c8 01bf c029 4fbe 1c43 b3be
00000210: 1747 efbe 86e8 b7bc 9238 fcbe d64f dabe
00000220: 87e4 133c 2831 babe 9803 d33e ae65 6dbc
00000230: 9aa4 1dbe 9eef 03bf f009 5f3d a8a6 053e
00000240: 4996 c93d d7fb 04bf 3b05 bcbe c8e0 fdbd
00000250: 20a9 c0be 1275 0f3e 93b2 86be 1489 0c3e
00000260: 107d 0ebe e066 9a3e 5497 5abe 0449 32be
00000270: a1b8 053e 3ef7 2fbd a35a 99be 16a2 25be
00000280: bb46 ebbe 4245 71be fcc5 9fbe ed30 c73e
00000290: 4042 54be d3e2 5e3d 583f 24be 7e31 2a3e
000002a0: 96e9 d53d ccda e6be a873 d2be aab3 18be
000002b0: 4fcb 703d 6136 f6bd 526d 933e 5b68 d83d
000002c0: c5a6 c73d 1030 0bbf 2160 3cbe b3f8 02be
000002d0: b394 0abf 9fb9 70be 0fd5 e43d 201e 16be
000002e0: cd1e 41be 780a 00bf 3042 03bc 14e9 eebe
000002f0: f682 71bd c6c7 8cbe 7e37 6c3e abff b83d
00000300: c2b5 e8be 5e82 14be 4992 afbe 52db 9a3e
00000310: 719f 173e e633 4d3e 349a a4bd 90b8 643e
00000320: 981f 223d 8479 30bc 0d39 543d 55e1 6a3e
00000330: bc1d 0bbe c81c 883d 8919 97bd 6e9a bb3e
00000340: 6ba4 503e 22e5 05be c740 943e 86fc 85be
00000350: b7c5 a53c 929c 15be 85fe 08bb 14e9 703d
00000360: 95dc cdbe e367 763e 589c ec3d f636 9fbe
00000370: f7c5 b6be a3f8 0d3d c1c3 a7bd 9329 e9bc
00000380: 492b a8be a316 e9be 137e 7bbe a468 40bd
00000390: c4a0 0ebf 0bf7 af3e f222 623e bb5e fdbe
000003a0: 23c9 adbd ae19 863e bcb8 c5bd de81 b73e
000003b0: 43d3 edbe 6196 86bd 0df1 153e e203 f3be
000003c0: 9188 b4bc aa4d 0ebf aa1b 21be a79b 08be
000003d0: f45f 69be 15de b33e 7fdd df3d 2e7f 4fbe
000003e0: b0a6 f6be 92c0 12bf fb2c b4bc b585 d4be
000003f0: 1a71 92be 4845 78be 0647 c1be e982 eebc
-0.0898187 -0.31444857 0.031291265 0.039681025 -0.06339457 -0.12784332 -0.32214186 0.11438249
-0.39118722 0.2925045 0.25273874 -0.503867 -0.015030247 -0.016243085 -0.12632135 -0.014721246
-0.42850426 -0.32269296 0.36020768 0.04690764 0.18348107 0.19987419 -0.42972904 -0.4008784
0.33232534 0.1574757 0.18005364 -0.09795154 -0.40150023 -0.45534497 -0.36803594 -0.5259918
-0.54596776 -0.08188265 0.016701173 0.0031287486 0.23850138 -0.20965376 -0.2160674 -0.07229548
-0.31084907 -0.2883471 0.1991258 -0.11620246 -0.46783462 -0.22071436 0.176761 -0.42497987
-0.14460237 0.36682528 -0.5142356 0.22662957 -0.33771172 0.28292617 -0.39339018 -0.29626974
-0.13578972 0.23838577 -0.05307471 -0.47585732 -0.533827 -0.1884919 0.04282108 -0.5272333
0.35030094 -0.36478487 0.28053704 -0.2683544 0.17066097 0.20162848 -0.100097895 -0.5225302
0.092481986 0.27811566 0.20050175 -0.14331838 0.2979917 0.07217272 0.17989837 -0.3380639
0.12535246 0.15681309 0.17277364 -0.3958088 0.008431414 0.29574493 -0.20640427 -0.29923263
-0.519728 -0.4889716 0.027644454 -0.09899013 0.0003715908 -0.0680578 -0.5647003 -0.33803457
0.049403254 0.14283475 -0.41006386 -0.29534453 0.14191645 0.08630493 -0.3642627 0.017518066
-0.15452078 -0.33806714 0.17962883 -0.11890647 0.101873726 -0.26723942 -0.00529963 -0.14281763
0.065776646 -0.3007613 0.17462544 -0.24878702 -0.011669134 -0.42057836 -0.1297802 -0.04222018
-0.37254116 -0.5105001 0.1222064 0.06604748 0.21531932 -0.4035856 -0.3972977 0.0579321
-0.25953123 -0.5069594 -0.2023077 -0.35012138 -0.46733925 -0.022449743 -0.4926191 -0.42639035
0.009026653 -0.36365628 0.4121368 -0.014489574 -0.15394822 -0.515375 0.054452837 0.13051856
0.09843118 -0.5194678 -0.3672274 -0.12396389 -0.37629032 0.14009503 -0.26308116 0.13724166
-0.13914895 0.30156612 -0.2134679 -0.17410666 0.13058712 -0.042960398 -0.29951963 -0.16175112
-0.459524 -0.23561576 -0.31205738 0.38904515 -0.20728397 0.054415535 -0.16039789 0.16620442
0.104449436 -0.45088804 -0.41103864 -0.14912286 0.05878764 -0.12022091 0.28794342 0.10566779
0.09748606 -0.5437021 -0.18396045 -0.12790184 -0.54133147 -0.23508309 0.1117345 -0.1465993
-0.18859406 -0.50015974 -0.008011386 -0.466622 -0.058962785 -0.27496165 0.23068044 0.0903314
-0.4545117 -0.14502856 -0.34291294 0.30245453 0.14806916 0.20039329 -0.080372244 0.2233603
0.03958091 -0.010771159 0.05181222 0.2293752 -0.13585562 0.066461146 -0.07377917 0.36641258
0.2037522 -0.13075688 0.2895567 -0.26169223 0.02023588 -0.14610508 -0.0020903659 0.05881603
-0.40207353 0.24063067 0.11553258 -0.3109662 -0.3569791 0.034660947 -0.08191634 -0.028462207
-0.32845524 -0.45525083 -0.24559812 -0.046974793 -0.5571406 0.34368166 0.22083643 -0.49486336
-0.084856294 0.26191467 -0.09654376 0.35841268 -0.46450242 -0.06571651 0.14642735 -0.474639
-0.022037776 -0.55587256 -0.15733209 -0.13340627 -0.2279051 0.35130373 0.10930919 -0.20263359
-0.48174047 -0.5732509 -0.021994105 -0.4150826 -0.28601915 -0.24245179 -0.377495 -0.029115157

l2.weight f4 [300, 400]
00000000: 771f 17bd 079d 003d 78db 73bd c67f 3dbd
00000010: 843c 92bc e958 29bc 5deb 36bd f5d0 4d3b
00000020: 4ca5 1dbc 83ba 3cbd 1472 6f3c f6ae 03bd
00000030: 79ea 23bd b5ea 693d 4a4f 58bc f07a e5bc
00000040: eadc f03c 7d23 203d fba2 ff3c 1dd5 0f3d
00000050: 716d 4bbd acc5 5bbd e072 49bc 9ac3 19bd
00000060: e725 20bd ed72 56bd 9281 80bd 4e1a c6bb
00000070: 8ba7 3e3d 2e62 04bd e951 c6bc d034 653b
00000080: 50ff 693b 8014 26ba c27e f9bc 7371 043b
00000090: d1ac 5bbc b976 d5bc 3fcf 6b3c 10e7 e33b
000000a0: 2214 4abd 5004 e3bc 0fdf 15bd 1c5d 3f3d
000000b0: 2458 98bc d85d 453c cb4a 413c 629b 54bc
000000c0: 0e41 ee3b 0347 bb3b 7ab1 e3bc 428b a03b
000000d0: 22de 9c3c 9f08 a43c e816 13bd 1933 183d
000000e0: f4f7 3d3c 1657 09bd a1e1 453d 7ad3 ba3c
000000f0: 3f6e 483d 163d 603b e10b 023c eaf1 8abc
00000100: 58cf 183b 9771 cebc 41bb 333c c06a cfba
00000110: 76ab 843c c989 f43b bb7a b4bc 769e bc3c
00000120: 46d2 a53c 46c7 efbc 556b 183d a59e 10bd
00000130: 76e7 9b3c 8a98 8c3d c237 8fbc 00e8 21b9
00000140: d461 0b3d 3190 8c3c e2df e83c b577 2fbd
00000150: 8996 9c3c df4e d3bb 8d20 02bd d2d2 48bd
00000160: 3632 e53c 1749 333d 9292 ebbc cee8 19bd
00000170: a5be 03bc d634 8fbc b68b fcbb d1d3 213d
00000180: 6385 8f3c 3f8a 94bb 38ef 37bc cf3b 283c
00000190: 38f5 6a3c 9dcf 023d 681c 77bc a52b 37bd
000001a0: d7bd 483d e80d b4bb a10f 13bd 82f8 4bbd
000001b0: 6d3a 7d3c ba31 c6bc d097 11bd 55ab 423d
000001c0: 2301 80bd db84 013d f483 913c f0e7 bbbc
000001d0: edef 91bb 3bf1 f03c 742f 1fbd 0537 733c
000001e0: 961a 81bc c4d7 98bc 6ae0 0b3d 5aca 3abb
000001f0: b53f b1bc 2dfe d03c 689d bd3b 4c37 5fbc
00000200: b00f 94bc 0ccb 533c 69d7 0d3d 8ad4 c7bc
00000210: 05ef b13c 6992 50bd 331b a3bc 00fa af3a
00000220: a297 1fbd cc3b 05bb 0018 6bbd cf50 373c
00000230: f277 e03c 424f 2d3b 58ac e53c 1887 e6bc
00000240: e088 2f3b d7ec e9bc c9cf 1e3d c58f 0f3d
00000250: a67d efb9 04a6 443b 7756 0f3d 7528 2cbd
00000260: fd6d 873c ac7d 81bd 167e 953c fd1d cdbc
00000270: fb55 3cbd 5bd7 11bd 909a e33b 807f 0f3a
00000280: 382c 7dbc a533 57bd 4cfd 0ebc 73dc bcbc
00000290: db76 0abd a7d3 1bbd 85a9 6fbd 0336 493c
000002a0: 0338 543c dfa2 2b3d a85d d13b b41f 1dbc
000002b0: e992 f6bc 9180 70bc b32e 9a3a f23d 21bc
000002c0: 090b 33bd 341b 8abc 78ca ef3c 2abb 073c
000002d0: 34b7 4c3c 5c6c 6ebc 3b1c a2bb 808c 6c3c
000002e0: 94cc 35bb d0cc 183b 2e51 25bc 3499 00bd
000002f0: 475c 203d 9057 c6bc 3c50 22bd 7f84 053d
00000300: 80b1 8239 c370 7b3c d877 1fbd a582 e5bc
00000310: ef1e b83c 13e8 713c 287c 50bc a1c0 d63c
00000320: 6cf1 18bd 2e77 5abb 6ef1 62bd cb53 0f3d
00000330: ea49 8dbc b974 0d3d e5ea 063c c9f3 b43c
00000340: 84e1 55bd 41ec cfbc b02e a1bc aeee ed3c
00000350: 5733 50bd 0d09 b4bc 9ba5 20bd ca9d f03c
00000360: 6363 14bd 2ea1 033d af03 1b3d 2cc0 d33b
00000370: c89a 193d b246 0abc d9d3 203d a26f f13c
00000380: 3075 85bc 8690 f53c 87f2 373d 7af1 3e3c
00000390: 0b15 15bd 24a0 0f3d bbf1 febc 495e 1f3d
000003a0: 8045 0bbd e278 6dbc 2f12 263d 93f6 c1bb
000003b0: e8d6 2b3c 1305 233b efb6 193b 582c 40bc
000003c0: 893b 0abd c2f8 eb3c c0ad 96bc c5e0 b93c
000003d0: a12c 473c 8cda 34bd 42d2 6dbd cf35 153d
000003e0: f055 ffbc d113 273d b03f c0bb bb3d f13c
000003f0: d2df 8f3c 12a9 fc3c ec7f 99bc a3a4 dd3c
-0.03689524 0.031399753 -0.059535474 -0.046264432 -0.017851122 -0.010336139 -0.044658054 0.0031405066
-0.009621929 -0.04607631 0.014614601 -0.032149278 -0.040018532 0.0571086 -0.013202498 -0.028012723
0.029402215 0.039096344 0.031205645 0.03511535 -0.04966492 -0.05365531 -0.012295455 -0.037540056
-0.039098646 -0.052355696 -0.062747136 -0.006045616 0.0465465 -0.032320194 -0.02420898 0.0034974106
0.0035705157 -0.0006335452 -0.03045595 0.0020209223 -0.013407902 -0.026057588 0.014392673 0.006955035
-0.049335606 -0.027712017 -0.03658968 0.046719655 -0.018596716 0.0120463 0.011797617 -0.012976499
0.0072709387 0.0057152524 -0.027794588 0.0048994133 0.01914889 0.020023642 -0.035910517 0.037158106
0.011594761 -0.033530317 0.04831088 0.022805918 0.048933264 0.0034216098 0.007937402 -0.016961057
0.0023316946 -0.025200648 0.010969938 -0.0015824661 0.01619504 0.0074627143 -0.022031179 0.023024779
0.020241868 -0.029269826 0.037211735 -0.035307545 0.019031268 0.06865032 -0.017482642 -0.00015440583
0.034028843 0.0171586 0.028427068 -0.04283877 0.01911475 -0.006448611 -0.031769324 -0.04902918
0.027978044 0.043770876 -0.028756414 -0.037575535 -0.008041059 -0.017481249 -0.0077070845 0.039508644
0.017519658 -0.004533082 -0.011226468 0.010268166 0.014340691 0.031936277 -0.015082456 -0.044719357
0.04900917 -0.005494822 -0.035903577 -0.049797542 0.015455824 -0.024193633 -0.03554517 0.047526676
-0.06250217 0.03162084 0.017763115 -0.022937745 -0.00445365 0.029411903 -0.038863614 0.014844661
-0.015759747 -0.018657573 0.034149565 -0.0028501959 -0.021636823 0.025511825 0.0057865866 -0.013624024
-0.018073887 0.012926828 0.03462926 -0.024393339 0.021720419 -0.050920878 -0.01991043 0.0013425946
-0.038962968 -0.0020329831 -0.057395935 0.0111887 0.027400944 0.0026444946 0.028036281 -0.02814059
0.0026784465 -0.028555317 0.038772378 0.03504922 -0.00045679248 0.003000618 0.03499457 -0.04203077
0.016531939 -0.06322798 0.018248599 -0.025038714 -0.045980435 -0.03560577 0.0069459155 0.0005474016
-0.015452437 -0.052539486 -0.008727383 -0.023054337 -0.033804756 -0.038043644 -0.058511276 0.012280944
0.012952807 0.041903373 0.0063893385 -0.009590078 -0.03009935 -0.01467909 0.0011763185 -0.009841429
-0.043711696 -0.016858675 0.02927135 0.0082843695 0.012494851 -0.014552202 -0.004947213 0.014437795
-0.0027740346 0.0023315437 -0.0100901555 -0.031396106 0.039150503 -0.024211675 -0.0396273 0.03259706
0.0002492778 0.015346709 -0.03893265 -0.028016398 0.022475688 0.014764803 -0.012724914 0.0262149
-0.037339613 -0.0033335197 -0.055406027 0.03499202 -0.017247159 0.034535144 0.008234714 0.022088902
-0.05221702 -0.02538121 -0.019675583 0.029044475 -0.05083021 -0.021976972 -0.039220434 0.029372115
-0.036227595 0.032136135 0.03784531 0.0064621177 0.037501127 -0.008439707 0.039264534 0.029472176
-0.01629123 0.02997614 0.044909026 0.011654252 -0.03639702 0.03506483 -0.031121125 0.038908277
-0.034001827 -0.014494153 0.040544685 -0.0059192865 0.010488249 0.002487485 0.0023454984 -0.011729322
-0.033748183 0.02880514 -0.018393397 0.022690186 0.012156636 -0.044153735 -0.058061846 0.03642827
-0.031168908 0.040790383 -0.005866967 0.02944838 0.01756278 0.030842338 -0.018737756 0.027056044

l2.bias f4 [300]
00000000: af30 7b3c 1890 3abc d55e b33c 5704 e83c
00000010: 2d47 95bc 0f99 1abd 00f0 16b9 e9be 05bd
00000020: fe50 06bc 2998 f6bc d557 ebbc b8ed 5abd
00000030: 6bd7 9ebc a0a4 83bc 9b31 40bd c660 32bd
00000040: 24d0 573c 0a61 0cbd e686 2dbd 5976 58bd
00000050: 685b 86bb 947c c63c 3878 0cbc 4a33 a43c
00000060: 8858 5dbc 420d f6bc 1948 7bbc fffd 52bd
00000070: 03fa f3bc d57a 053d cf23 84bc 2e38 16bc
00000080: a6f6 053d 7016 c3bc ff74 0dbd fb43 693c
00000090: 54c3 0cbd 40ce ca3a 5888 0e3c 834b 59bd
000000a0: a769 e53c 9522 d9bc e0ff 4fbc 0a52 0d3c
000000b0: 2a4b fcbc c6fd 19bd 332d 0bbd 275c 53bd
000000c0: 2412 8a3c 0cd0 44bc 02e4 d2bc c142 343d
000000d0: 3139 e4bc d92e 32bd d180 73bd 52d5 6abc
000000e0: 45ee 19bd decf c63c 87c4 edbc a62b b83b
000000f0: 1d41 07bd 9d70 f73b 0cfd 213d 82a0 b13b
00000100: 1f65 ea3b 627b 79bc 8eef 1e3c 2b74 10bd
00000110: 40a6 62bd 1253 35bd 1951 56bc df68 abbb
00000120: 8957 3b3c 8c44 34bc 561a b63c 83ed 913c
00000130: 2b7f 183d c786 413d 8bbc bcbc d36f 90bd
00000140: 683a 073c a7c4 21bd b164 42bd aaf8 b6bc
00000150: 0afd 303d 0e86 a03c 9fdb 60bd ef10 ce3b
00000160: 869d 953c de99 25bd 21ec 92bd cd17 aabc
00000170: 7447 c7bb 09b9 e23c 4724 1fbd 1219 3dbd
00000180: 3e3f 9cbc 874b be3c f255 66bc 82a0 c7bc
00000190: bfd8 d13c 4d1b 8ebc 2c35 ef3c 6f1b e43c
000001a0: ad59 bbbc 05a0 093d bc75 8c3c 9e00 25bb
000001b0: bf9a ce3c 78b9 40bc 0772 2fbd 147a 70bc
000001c0: 622f 54bd 78ca 0abd bfbe 36bc 524a 923a
000001d0: e1f0 00bd a5d4 0ebd ffa2 ec3c e794 00bd
000001e0: 35b5 f33b 7245 29bc 3859 003d 440c abbc
000001f0: 12cd 41bd 5a3b 11bb 03fd 013d bd83 c3bc
00000200: ceb2 d13c 8682 abbc d666 29bd 4042 693c
00000210: 34f5 973c 2c6d 65bc 1edd db3b d11a 273d
00000220: 372d 3fbd 56b1 61bd f30e 23bd 23e8 a63b
00000230: e01d 613b fbf7 b1bd 5676 5cbd 20aa edbc
00000240: 712a 2e3d a072 113c 8c6b 29bd ff25 3fbd
00000250: 3f97 913c 169a cdbc 7bb6 4ebd ca72 263c
00000260: a220 bf3c 3bd3 39bd 3dd6 733a c320 e93b
00000270: a7f4 7abd 578c 833b 9bde 1b3d 1d16 36bd
00000280: 474f 0cbd 35a9 283d cc73 7fba 6a17 063d
00000290: a052 2a3d f684 c13c 10e5 ccbb 10a1 003d
000002a0: 377e 4dbc e5eb 9d3c 6d6c 49bd 9a15 98bb
000002b0: 346e 763c 6d0c dcbb df85 743c 985d 183c
000002c0: efd8 b03c 8682 3cbb 76cd 55bd 82e3 023d
000002d0: 8d8b d4bc a771 84bc 10eb 003d b766 27bc
000002e0: ec9f 303a af4b 18bd 30c5 d9bb 836d 67bc
000002f0: ad1a f63a a4f6 63bd 447c 0cbd b9ce 23bd
00000300: da12 93bd e6ea 053c 2469 3bbd 3405 74bd
00000310: 842b 35bd e348 96bd 1c37 443c f822 18bd
00000320: b321 de3b 5bae 5bbd c24b b8bb 8e9c 9abb
00000330: 0292 c3bc 45af 8a3c 06d4 9cbc 34b5 0ebd
00000340: 9015 41bd 0955 243d e5aa c93c ada0 ca3c
00000350: 6ae2 dcbc 5569 ddbc 2258 763c f855 033d
00000360: 8aba 4bbb 0921 37bd 1b1f 06bd 4f57 aa3c
00000370: 245e 363c 2e4c 95bc b8b5 083c 3abe 7bbd
00000380: 53ec 2ebd d3f2 4dbd 21dc 96bd 81f2 d5bc
00000390: 19c2 a2bc fa22 d9bc 0606 783b 9873 73bd
000003a0: 4283 bdbc ba21 833c 3008 9a3b 5377 25bd
000003b0: 6ea9 25bc f850 4c3b 6893 31bb f5c9 933c
000003c0: a873 b53c a58d 3dbd 8671 52bd 4339 e53c
000003d0: 91cc 70bc 6ae3 76ba 783a 123c 005d a439
000003e0: b429 08bc cd5e 9c3c df30 4ebd be92 503c
000003f0: bbd5 21bd 0796 253d 8a3c 043d 1565 62bd
0.015331431 -0.011386894 0.021895805 0.028322382 -0.018222416 -0.037743624 -0.00014394522 -0.03265277
-0.008198021 -0.030101852 -0.028728405 -0.053449363 -0.019389829 -0.01606971 -0.046922307 -0.04354932
0.013172183 -0.03427223 -0.042364977 -0.05284724 -0.004100252 0.024229325 -0.008573584 0.020043988
-0.013509877 -0.030035619 -0.015337014 -0.05151176 -0.0297823 0.032587845 -0.016130356 -0.009168668
0.032705925 -0.02381441 -0.034535404 0.014237399 -0.034365967 0.0015472844 0.008699499 -0.05305053
0.02800448 -0.026505748 -0.012695283 0.008625517 -0.03079756 -0.037595533 -0.033978652 -0.051601555
0.016854353 -0.012012493 -0.025743488 0.044008974 -0.027859302 -0.04350171 -0.05944902 -0.014333086
-0.037580747 0.02426904 -0.029024376 0.0056204377 -0.03302108 0.0075512663 0.039547965 0.0054207454
0.007153168 -0.015227171 0.009700669 -0.035267036 -0.05533433 -0.044268675 -0.013080859 -0.0052310075
0.011434444 -0.011002671 0.022229355 0.01781345 0.03723065 0.047247674 -0.023039123 -0.07052579
0.008253671 -0.039494183 -0.047459308 -0.02233537 0.043210067 0.019595172 -0.054896947 0.0062886397
0.01826359 -0.040429942 -0.07173944 -0.020763302 -0.006081516 0.027676122 -0.038852956 -0.046166487
-0.019073125 0.023229374 -0.014058577 -0.024368528 0.025616048 -0.017347002 0.029200159 0.027845113
-0.02286991 0.033599872 0.017145984 -0.002517737 0.025220273 -0.011762969 -0.042833354 -0.014677543
-0.051803 -0.033884495 -0.011153876 0.0011161065 -0.03147972 -0.034870762 0.028886316 -0.031392004
0.007437373 -0.010331498 0.031335086 -0.020879872 -0.04731471 -0.002216062 0.03173543 -0.023866529
0.025597956 -0.020936262 -0.041357838 0.014236987 0.01854954 -0.014003079 0.006709709 0.04079706
-0.04667398 -0.05510076 -0.03980918 0.005093591 0.0034350082 -0.08689877 -0.05382379 -0.029011786
0.042520944 0.008877426 -0.04136233 -0.046667095 0.017772315 -0.025097888 -0.050466996 0.010159204
0.02333099 -0.04536746 0.00093016383 0.007114501 -0.061268475 0.0040145325 0.03805409 -0.044454683
-0.034255292 0.041176993 -0.0009744733 0.032737173 0.041582704 0.023622971 -0.0062528923 0.0314036
-0.012542299 0.019277522 -0.04917567 -0.004641247 0.015040923 -0.0067153485 0.0149244955 0.009299658
0.021587817 -0.0028764321 -0.052197896 0.03195525 -0.02594545 -0.016167475 0.031474173 -0.01021736
0.00067376974 -0.037181552 -0.006645821 -0.014125231 0.001877626 -0.055655137 -0.034298196 -0.039992068
-0.0718133 0.00817368 -0.045754567 -0.059575275 -0.044230953 -0.07338121 0.01197603 -0.037142724
0.0067789196 -0.053633075 -0.0056242654 -0.00471837 -0.023873333 0.016929278 -0.01914407 -0.034840778
-0.047139704 0.04012016 0.024617622 0.02473482 -0.026963431 -0.027027765 0.015035661 0.032064408
-0.0031086528 -0.04470924 -0.03274451 0.020793585 0.011130843 -0.018224802 0.008344106 -0.06146071
-0.042705845 -0.050280403 -0.07366205 -0.026116611 -0.019867944 -0.026505936 0.0037845387 -0.05943641
-0.023133878 0.016007293 0.004700683 -0.040397 -0.010111196 0.003117619 -0.0027095918 0.018040637
0.022149876 -0.04627766 -0.051377796 0.027981406 -0.01469721 -0.00094180426 0.008925073 0.00031349808
-0.008310724 0.019088173 -0.050339576 0.012730299 -0.03951047 0.04042628 0.032284297 -0.05527218

l3.weight f4 [1, 300]
00000000: 659e 89bb 1cae 583d fa8c 293c 346c a23c
00000010: cf3f 3b3d 30e1 adbb 084f a03c bacf 0737
00000020: 6c36 aabb eb06 9bbc 3f48 393c 1e13 f83c
00000030: b9b4 093d 8c05 debb 2699 213d f7e8 cd3b
00000040: 9239 033d 1079 833c 39da 803b 840c db3b
00000050: d47e 19bc 6aa1 7ebc 0fd6 bb3b 34b1 d63c
00000060: 9e97 273c 178b c53c f1f1 d33c 60a9 86bb
00000070: 927d 363d 48e9 333c b487 e7ba da9b 403c
00000080: ac40 f23b 9f1e 58bb a9de 963c d444 733c
00000090: 706f 493c 98b1 2abc 11d0 d03c a75f 433b
000000a0: df12 0e3c 81c2 ca3c ab8b 683c d28f 15bc
000000b0: a07b 4cbc 807a 543c ea4d d93b 5fdf 3cbc
000000c0: 90aa 9bbc f939 613a 29e5 9e3a 0896 21bd
000000d0: 7ea8 313d 7d2c 043d 674a 9f3b ca77 d13b
000000e0: 00f6 b2b8 3314 063c b0c3 3d3d e4b6 603c
000000f0: eea6 533d 0546 1cbd 1b38 e3bc 767a 513d
00000100: 7ab1 39bd 1aa1 24bd 17c5 513d 0438 c63c
00000110: f7de 163d 3b6f 66bd 0d70 a83b e091 ad3c
00000120: 06c4 be3c e669 a5bc 7cbb bdbc 6ccc 96bb
00000130: d2fc c63b 08de c03c f464 a8bb e7a1 373b
00000140: 18a6 193d 6a94 2b3b 654a 3c3b 4824 bfbb
00000150: 590a 073c 562c 25ba bad8 1dba 84c4 31bd
00000160: c42a c93b f14d 423b 8098 5ebd aeac e83a
00000170: f8b1 86bb d5cf b53c fff5 55bc acc0 f33c
00000180: 3969 2b3c c12d f13c 15c6 90bc b315 55bb
00000190: 5101 9abb 97ea a93b 85b5 0b39 87c0 81bb
000001a0: c842 eabc 422d be3b 870b 913a 71a4 3a3b
000001b0: 1544 363c de75 213d 2642 66bc da33 5ebd
000001c0: 34bc 173b eacb ccbb 2032 debb f4da 6e3c
000001d0: e5a9 27bd 564e 24bd 668f 7abb 8f59 9e3b
000001e0: 87ef d9bb 0054 46bb f34e 75ba 349d 9f3b
000001f0: 1005 073b 1600 97bc d319 33bb d357 113c
00000200: 58aa e8bb 0aaf 823c 775a 923a 4a17 30bc
00000210: 0997 433d 6db6 19bc 7d83 3bbd 46e7 44bd
00000220: 942d 17bd 92ff 0abd c03d ee3b a28f eebb
00000230: 7268 e4bc cd03 4dbc f8cd 58bd c8ea 493d
00000240: 1228 a23b 1b14 f03c babb 70bb b36a 9bbc
00000250: 1d9e acbb 69c3 0bbd b184 8a3c 3030 bbba
00000260: 5c92 8f3b 2425 4bbc b244 cabc 3fae 88bc
00000270: 418c fd39 cd4a 4e3b 00ce 6d3c eebf 53bb
00000280: a874 1e3c 12a9 743a e3a6 2fbd e67e 95bc
00000290: a893 f03a e97d 093c b0f5 513d 823d 923c
000002a0: e16f d73c bcde 04bd 60d0 a53c dafd 5d3a
000002b0: 40fc 613a 863e 163b e393 083c 9334 80bc
000002c0: 466b 913b f293 a03b 247a 473d 7996 103d
000002d0: 24dc 4a3d 868b b73c 641a 1e3c db3f a6bc
000002e0: 9834 a1b9 baf8 9fbb 5234 0cbd 3804 3b3c
000002f0: d286 c1bb 4883 a8ba 40b5 59bb 7a83 c93c
00000300: 9ed1 f6bc 70b3 8a3c 1dbd 35bc fe6d 6a3c
00000310: d821 133b 145b cd3c 48d2 22bd ca2b 283d
00000320: 118c 2dbc cdad 293b 56f4 873b 1401 f039
00000330: e780 8fbb 9d8b ccba 71d3 a13a 0596 053c
00000340: e878 803b 5063 05bd 03d8 afb9 b08a 253b
00000350: 302f ff3c 5b2d ce3c db8b 663b 6be0 2b3b
00000360: 174e ab38 b7bd 573b f831 35bd 6a5a e7b9
00000370: 1d7f 77bb c2aa 14bd aea9 b93a 56f1 f63b
00000380: 6c6d 973c baf3 40bd f315 f63c d5bd 193b
00000390: fa14 123d 404b 503d ed7d 363d 802b a9bc
000003a0: 4735 333d 7af3 edbc 02b7 7fbc 885b 563c
000003b0: 30ef e83b 7594 92bc 2f8c 053d 1b76 1c3d
000003c0: 4a0c 843c 357e 75bc b89e 3d3a 7ecf 5b3b
000003d0: aa49 f9bb c6c9 c73b 8465 923c 3db1 edbc
000003e0: b92f e4b8 bc1b 363c 4063 1a3d 6cb1 7c3b
000003f0: 12b7 1abc c862 92bb e625 723c 307d 99bc
-0.0041997903 0.05290042 0.010348553 0.019826986 0.04571515 -0.0053063855 0.019568935 8.094992e-06
-0.005194476 -0.018924197 0.011308729 0.030282553 0.033619616 -0.0067755636 0.039452694 0.006283875
0.032037325 0.016048938 0.003932264 0.0066848416 -0.009368617 -0.015541414 0.005732305 0.026207544
0.010229019 0.024114175 0.025872203 -0.0041095465 0.044553347 0.010980912 -0.0017664344 0.011755908
0.0073929634 -0.0032977236 0.01841672 0.014847953 0.012294635 -0.010418318 0.025489839 0.0029811652
0.008671491 0.02475095 0.014193456 -0.009128528 -0.012480646 0.012968659 0.0066316025 -0.011527865
-0.019002229 0.00085917074 0.0012122738 -0.03944972 0.043373577 0.03226899 0.0048611644 0.006392454
-8.5335225e-05 0.008183527 0.0463292 0.0137154795 0.05167287 -0.038152713 -0.027736714 0.05114218
-0.04533527 -0.0401927 0.05121335 0.024196632 0.03683373 -0.05625842 0.0051403106 0.021187723
0.02328683 -0.020192098 -0.023160689 -0.0046020057 0.006072619 0.023543373 -0.0051389877 0.0028020085
0.037511915 0.002618099 0.0028730866 -0.0058331825 0.008242213 -0.0006300857 -0.00060213695 -0.043400303
0.0061391313 0.0029648507 -0.054344654 0.0017751658 -0.004110571 0.022193829 -0.013059138 0.029754959
0.010462099 0.029440762 -0.017672578 -0.0032514154 -0.004699864 0.005185436 0.00013323694 -0.0039597186
-0.028596297 0.005803735 0.0011066057 0.0028479362 0.01112463 0.039419048 -0.014053857 -0.05424867
0.002315295 -0.0062498944 -0.0067808777 0.01457857 -0.04093351 -0.04011377 -0.0038232445 0.0048324536
-0.0066508683 -0.003026247 -0.00093577727 0.004871035 0.0020602383 -0.018432658 -0.0027328625 0.008871037
-0.0071003847 0.015952606 0.0011165877 -0.01074774 0.04775146 -0.009381873 -0.045779694 -0.048072122
-0.0369087 -0.033935137 0.007270545 -0.007280306 -0.027881835 -0.012513113 -0.052930802 0.04929617
0.0049486244 0.029306462 -0.0036732988 -0.018971777 -0.005267872 -0.034121905 0.016908975 -0.0014281329
0.004381461 -0.012398992 -0.02469096 -0.01668465 0.00048360418 0.003147769 0.014514446 -0.0032310444
0.009671368 0.0009333055 -0.042883765 -0.018248986 0.0018354552 0.008391836 0.051259696 0.017851595
0.026298465 -0.03243898 0.020240963 0.0008468308 0.0008620657 0.002292545 0.00833604 -0.01565007
0.004437837 0.004900449 0.048700467 0.035299752 0.04952635 0.022405397 0.009649847 -0.02029412
-0.00030747498 -0.0048819454 -0.034229584 0.01141458 -0.0059059644 -0.0012856508 -0.0033219606 0.024598826
-0.03012925 0.016931266 -0.011092451 0.014308451 0.0022450592 0.025067843 -0.03975132 0.041057386
-0.010592476 0.0025890947 0.004149 0.0004577717 -0.00437938 -0.0015605573 0.001234634 0.008153443
0.003920663 -0.032565415 -0.00033539542 0.0025259666 0.03115043 0.025168112 0.0035178575 0.0026226293
8.168461e-05 0.0032919475 -0.044237107 -0.00044127117 -0.0037764974 -0.03629566 0.0014164948 0.0075360937
0.018484794 -0.047107436 0.030039763 0.0023459096 0.035664536 0.050853014 0.044553686 -0.020650625
0.04375198 -0.029046763 -0.015607597 0.013083346 0.0071085915 -0.017893055 0.032604393 0.03819857
0.016119141 -0.014983703 0.0007233429 0.0033540423 -0.0076076584 0.0060970513 0.017870672 -0.029015178
-0.00010880776 0.011115011 0.03769231 0.00385579 -0.009443061 -0.004467342 0.0147795435 -0.018736452
