runs/expMountainCarContinuous./critic.pth (torch, 490647 bytes, 5 tensors)

l1.weight f4 [400, 3]
00000000: 1390 1dbe 96fd f03e ebd5 40be 6b86 123f
00000010: 4973 adbd 898c 153f 006f c73d 808a 293e
00000020: a06c 27be a4d0 79be 39c0 d13d 9814 b6be
00000030: 7d98 ed3e fc80 fdbd 43bb 483d 736c c0be
00000040: 2819 57be fc1c f73e 659f 8b3c 8acd 7fbe
00000050: abf9 e83e cbde 3cbe a460 92be 37eb 38be
00000060: 1521 f3be 9c25 aa3e c687 09bf 1000 dd3a
00000070: cb7c f63e df6c ce3e a985 62be 7abd 0e3e
00000080: c8ce 863e 637d b33e 9715 ab3e 228c 07bf
00000090: b029 a6be 10f3 10bf 286c 82bd 04d3 943e
000000a0: e86d f03e 4bfa da3d 05c7 b03e 112c d2be
000000b0: b22b 8c3d abe5 babe 7ca4 95be 90c3 193f
000000c0: b01b b93e ea2b 813e 807f c53d 60ee 513e
000000d0: 1c5b 543e 6857 df3e 8960 66be 2428 253f
000000e0: 3232 8a3e ee11 f8be c85c a83e dd8d ab3e
000000f0: 0f56 c33e 2b1b 01be 90e3 b1bd 1224 bf3e
00000100: 2f51 2e3f 9cd8 9e3a 4004 24be 08b6 e7be
00000110: ae47 bebe 90cc 2b3e 0205 133f 3027 c2bd
00000120: 84fc 5c3e 72b1 03bf 8a34 0a3f dd12 ab3e
00000130: c603 a5be d7e5 8cbe 3c85 b83e bc2f e5bd
00000140: 1076 013e 07f1 e0be a42f a9be cea8 9e3e
00000150: 0155 db3e 9e5c 563e c3ce 8ebd ceb4 973e
00000160: 9e3c 8b3d d457 d8be e312 b1be 3cc6 cc3e
00000170: 9368 14be c4ba 953e dc31 5a3e 1a89 a83e
00000180: 0423 f8be 0ab8 c63e 8eb6 94be ecbf f03e
00000190: 8854 debe 7255 00be 98a1 f83d 923d d53e
000001a0: 4cf7 aabe 5e00 b13d d0c8 2dbf 6282 a83e
000001b0: c204 dbbd 5686 1e3e 89fc fa3c befa e0be
000001c0: dcd2 a53d 4e57 e2be 786b b7be 9325 07bf
000001d0: 1c93 e0be b251 d8be c067 b33e ae6d 093e
000001e0: e285 153f bd98 ef3c d7c7 73be 0068 9f3a
000001f0: 2888 ec3e a862 9f3d c40a 023f 188c 353e
00000200: 7697 abbe 6b31 a23e ca4a c23e 9f06 003f
00000210: 4629 503c 866c 753d 3622 523d 3892 01be
00000220: e08f f13c 2202 a63e 57b0 1cbe a8bc f6be
00000230: e70b b4be d6df 013f 4f3c b5be 1602 d9be
00000240: 6fc9 763e 9b7c 583e beeb fdbe 3423 4c3e
00000250: 80d1 ddbb aec1 fabe d8aa c6bd 7871 743e
00000260: f594 a0bd 94e2 92be 3585 b13e 0f61 0fbe
00000270: 7e1e 003f 4440 debe 9238 9abe 2a34 33be
00000280: a946 02bf 1e7f 0c3f e93c f1be 3cd7 8d3e
00000290: 7b25 08bf eb7a e0be 1f0e 1bbe 71c4 b53d
000002a0: 4a2c 26be 986f 92bd f6d1 873e 8557 f93b
000002b0: c6b3 9e3d 31b6 0bbf e43c 113f 703a b93e
000002c0: acd1 473e 4790 9fbe 8ded fdbe 7f3e d4be
000002d0: 40ae 713d 8fbb 8ebe 2c49 ecbd 9e83 a13e
000002e0: 842a 59be 067e 0a3f c8a1 e13e 579c 0fbe
000002f0: 211b fc3e b753 4a3d ab6c 28bf f587 88be
00000300: 6615 32be 5017 413d c80c e23e 70f8 5bbd
00000310: 4cab 533e e061 3dbd 728c 123e a010 e7be
00000320: e15d 43be 20ba e43e ec45 e93e b904 06bf
00000330: 25ab b73e 909e 73bd bab9 c7be 4484 d43e
00000340: 6a9f 0b3f 06d9 b6be 6091 013f 05c9 dfbe
00000350: ce6c 10bf 5bc4 da3e 234c dabe a954 d53e
00000360: 9aca fdbe 65f0 123f 3c3f e4be 3d5a a03d
00000370: 9487 a8bd 732b c63e a6f4 b7be 5502 f53e
00000380: 199d 08bb 6ae9 093f e655 0f3f dae2 e4be
00000390: a850 763e c074 dcbc 8524 ccbe 309c ad3e
000003a0: 6002 da3e 9c03 5c3e 9442 9dbe 7c58 17bf
000003b0: 1095 e83e 004b c93c c766 8bbe 5a6d af3e
000003c0: 00bd b43c d8c0 a73e f0fb 793e 98a6 dc3e
000003d0: 6351 07bf 7838 653e 847d c7bc bc5b 04bf
000003e0: 7eaf cfbd 4564 e43e cf54 5c3e ace5 0ebf
000003f0: bbe3 f43e b23f f0bc 0e3c ab3e 109e 71bc
-0.15386991 0.4706847 -0.18831603 0.57236356 -0.084692545 0.58417565 0.097379684 0.1655674
-0.16350031 -0.24395996 0.10241742 -0.35562587 0.46405402 -0.123781174 0.04900671 -0.3758274
-0.2100569 0.482643 0.017043779 -0.2498075 0.45502982 -0.18444364 -0.28589356 -0.18058477
-0.47486177 0.3323182 -0.537228 0.001686098 0.48142084 0.40317437 -0.221213 0.13939467
0.26329637 0.350566 0.3341491 -0.529482 -0.3245368 -0.56620884 -0.063682854 0.29067242
0.46958852 0.10692271 0.3452684 -0.41049245 0.06844272 -0.36503348 -0.29227054 0.6006403
0.36153936 0.25228816 0.09643459 0.20501089 0.2073788 0.43621373 -0.22497763 0.64514375
0.2699142 -0.4845118 0.32883286 0.3350667 0.38151595 -0.1260802 -0.08685982 0.37332207
0.68092626 0.0012118998 -0.16017246 -0.45256066 -0.37164062 0.16777253 0.57429516 -0.09480131
0.21580702 -0.51442635 0.5398642 0.3341283 -0.3222944 -0.27519104 0.3603915 -0.11190745
0.12642694 -0.4393389 -0.3304416 0.30988163 0.4283829 0.20933768 -0.069730304 0.2963013
0.06798671 -0.42254508 -0.34584722 0.3999499 -0.14493017 0.29244053 0.21308082 0.329171
-0.48464215 0.38812286 -0.29045528 0.47021425 -0.43423867 -0.12532595 0.121401966 0.41648537
-0.33391798 0.08642648 -0.6788454 0.32911974 -0.10694267 0.15480933 0.030637996 -0.439413
0.08096859 -0.44207233 -0.3582418 -0.5279171 -0.43862236 -0.4224983 0.35040092 0.13420746
0.58407414 0.029247636 -0.23806702 0.0012161732 0.4619763 0.07782489 0.5079768 0.17729223
-0.33513993 0.31678328 0.37947685 0.50010103 0.012705153 0.05991795 0.051302157 -0.12653434
0.02948755 0.32423502 -0.15301643 -0.48190808 -0.3516533 0.5073217 -0.35397574 -0.42384404
0.24100278 0.21141283 -0.4959392 0.19935304 -0.006769359 -0.4897589 -0.097005546 0.2387141
-0.07840911 -0.2868849 0.3467194 -0.14001869 0.5004653 -0.43408406 -0.30121285 -0.17500368
-0.5088907 0.54881465 -0.47116783 0.27703273 -0.5318219 -0.4384378 -0.15142106 0.08875359
-0.16227832 -0.07150191 0.26527375 0.00760931 0.07749133 -0.5457488 0.56733537 0.36177397
0.19513577 -0.31164762 -0.495953 -0.4145393 0.05900407 -0.2787747 -0.11537394 0.31545728
-0.21207625 0.54098547 0.44068742 -0.14024483 0.49239448 0.049396243 -0.65790814 -0.26666227
-0.17390975 0.047141373 0.44150376 -0.053703725 0.20670813 -0.04623592 0.14311388 -0.4512987
-0.1907878 0.44673252 0.4556116 -0.52350956 0.3587276 -0.05947739 -0.39008886 0.4150716
0.5454012 -0.3571245 0.5061245 -0.43708053 -0.5641602 0.42727932 -0.42636213 0.41666153
-0.49568635 0.5739806 -0.44579494 0.078297116 -0.082289845 0.38705024 -0.3592884 0.47853342
-0.002084559 0.53871787 0.55990446 -0.44704324 0.24054205 -0.02691114 -0.39871612 0.33908224
0.42579937 0.21485752 -0.30714858 -0.5911939 0.45426226 0.024571896 -0.2722685 0.34263116
0.022062778 0.32764316 0.24412513 0.4309585 -0.5285856 0.22384822 -0.024351843 -0.51702476
-0.10140894 0.4460775 0.21516727 -0.558192 0.47829995 -0.029327247 0.33444256 -0.014747158

l1.bias f4 [400]
00000000: 1008 9e3e af1a f03e 6c10 e3bd 78f2 293e
00000010: 3963 8f3e 49e3 033f c79a f43d 3d88 5abe
00000020: 8bee 0c3f 289c 16bb 932c 52be 99e1 64bd
00000030: a81b 04bf 94c4 f73e eace 353e 4c41 72be
00000040: 80bc abbc 18fb fcbe 74a4 bb3e 717b cfbc
00000050: 5404 873e 998d 523e 72f6 133e aa97 4ebe
00000060: 1d3f ccbe ead0 bd3e 10c7 08bd 0764 79bd
00000070: 4452 a43e ca42 263e 8fbf ffbd f607 dfbe
00000080: d482 eb3d 427f 3ebe 7cdd 46be 76bc 853e
00000090: 2cf0 9fbd 1156 d53c a7ca 4dbe b46d 0f3e
000000a0: f519 a43e 4006 e9bd a858 94be 4736 683d
000000b0: 3a11 1cbc f84f fbbe 75d6 903c 10c6 25be
000000c0: 5d72 0e3e 400b 99be 3f09 3a3d 90df d63e
000000d0: e40c de3e ebf0 e93e 7f63 8abe a0c7 d83c
000000e0: 4e08 a1be 02aa d5bd 00a2 afbe 4a73 863d
000000f0: c27f 9abe 24e0 b7be 5a64 c43e d478 e03c
00000100: fa23 c2be febf b9be 22ac 993d 76e0 7fbe
00000110: 628b 963e 326e acbe 511d a63d 094a a43e
00000120: c9b4 82bd 258b 803c 9575 5abe 9c44 d9be
00000130: 8d2d 0fbf 4dde a6be 0e44 69be 0fed 08bf
00000140: 2944 edbe 7cda ecbd 3b31 073f 45dc 803e
00000150: 5c71 b53e 7646 d1bd 2455 d7be f5b6 e13e
00000160: a2b2 463e a291 a03d 34e7 373e 31ee bebe
00000170: 31e0 723e 6250 13be 5b51 f33e 41f5 f73e
00000180: 7824 e9be ccec 083e 0e8c 063f dfa1 bbbd
00000190: 5066 babe d1e3 0abf 7500 ea3e 29b0 f93e
000001a0: b11f dc3e f0ae 53be ceff e03d 2f75 9f3c
000001b0: f006 cd3d 5a6b 60be 8e10 0abe f323 983c
000001c0: a748 e8bd 06b5 1d3e 8431 943e 2317 da3e
000001d0: 9753 9bbe 337e 833e f750 7c3e 4888 d3bd
000001e0: 232a fabe 2aa7 cebe e2d4 4cbe ee50 ec3c
000001f0: 8d2f 1b3d 31f3 983d c374 b43e 743a cebd
00000200: 9419 e93e 6af3 52be 60c6 513d 3693 f43e
00000210: 8cb9 e5bd cfcb c13e de83 dd3e 4c59 ed3e
00000220: 8fa0 fdbe d82a 383e c7cf 183d e4c1 fd3c
00000230: daab cc3e c537 3ebd 62d1 fa3e 90c8 ad3d
00000240: 961f 0dbf 6f12 27be a243 09bf faf8 aabe
00000250: c7a4 d03d aaaa 87bd 2c08 e1bc 0b63 8cbd
00000260: 5a5d 73bd 9175 0bbf 3ac4 89bd a656 29be
00000270: 51b0 09bf a5d1 f5bd f14e 3c3e d1ca de3e
00000280: 8e8f e03e f118 fabe 4e54 9b3e 3f92 703e
00000290: 8869 9a3e 98e8 1f3d dae6 413e 0ca7 42be
000002a0: ab84 903b e3c1 353d 59f3 b5be cbaf eebe
000002b0: 93c3 8a3e 3923 c93d 8959 1dbd 602a 163b
000002c0: cf0f a43e c879 283e 6d26 9fbe d198 c8bd
000002d0: c25b 0cbf 7f5d eabe ee3a 513e f436 30be
000002e0: e230 a1be 30fd d1bd c5c4 ee3e ee69 0bbe
000002f0: 1bcf c73e 85dc 833e 3398 5f3e c744 e83e
00000300: 7033 1d3e 1274 b9be 1590 01bf 7ca7 a2be
00000310: 6e12 023f 34d0 11bf 641b fcbd 359b 993d
00000320: 0f16 113e ec6a 573e 10c0 ccbe bb75 9dbe
00000330: 4c4c 0fbf 4faa ff3e f21b 0cbf 32a3 6ebd
00000340: 4b2a bf3e ea87 4a3e 6c78 70be 44cf 16be
00000350: 8856 cc3e 6a8e 1fbe e8eb d1be 136a 523d
00000360: c544 e4bd a0c6 85bc 5834 893e 7ae6 b33e
00000370: a77d b33d 5bb4 983d c323 493e 2520 b5be
00000380: aa35 c83e 3696 e13d 49e3 9b3e 3c2a 25be
00000390: 5152 dc3e cd4c d3bd fc9b a4be b39b 4c3e
000003a0: d0a5 d8bd 17a4 983e 440d 54be 9e30 03be
000003b0: 3008 28be 438a aabe ec93 6a3e b7cd 393e
000003c0: e374 213e 450a 49be 6798 853d 9ec5 7cbe
000003d0: 0059 633e d076 5bbd 9aad dbbd 49ac 0a3f
000003e0: 40fd d1bd 7a8b 3cbe d51a 353e c526 d03e
000003f0: 129f d83e 2220 81be 906a 90bd 9672 833e
0.30865526 0.46895358 -0.110871166 0.165964 0.28005388 0.51518685 0.11943584 -0.21341033
0.5505149 -0.002298126 -0.20524816 -0.05587921 -0.516047 0.48392165 0.17754713 -0.23657721
-0.020963907 -0.4941032 0.36648905 -0.025327416 0.2637049 0.20561828 0.1444948 -0.20175043
-0.39891902 0.3707345 -0.033392966 -0.06088641 0.32094014 0.16236416 -0.12487709 -0.4356076
0.11499563 -0.18603233 -0.19420427 0.26120347 -0.07809481 0.026042016 -0.20096837 0.14006692
0.32051054 -0.11378145 -0.2897389 0.056692388 -0.0095255915 -0.4908445 0.017680386 -0.16188836
0.13910814 -0.29891396 0.045418974 0.4196744 0.4336921 0.45691618 -0.27029034 0.026462376
-0.31451648 -0.10432817 -0.34303284 0.065649584 -0.30175596 -0.35913193 0.38357812 0.027401365
-0.37918073 -0.3627929 0.07503535 -0.24987969 0.29403216 -0.33677822 0.081110604 0.32087734
-0.06382138 0.01569135 -0.21333916 -0.42435157 -0.5592888 -0.32591477 -0.22779867 -0.5348672
-0.46341065 -0.1156511 0.52809495 0.25168052 0.3543805 -0.102185175 -0.42057145 0.44084898
0.1940408 0.07840277 0.1795929 -0.372911 0.23718335 -0.14386132 0.47523007 0.484293
-0.45535636 0.13371581 0.52557456 -0.09161734 -0.36406183 -0.5425387 0.45703474 0.48767212
0.4299293 -0.20672202 0.10986291 0.019465057 0.10011089 -0.21915951 -0.13482878 0.01857183
-0.11341982 0.15401086 0.28944027 0.42595777 -0.3033721 0.2568222 0.2464026 -0.10328728
-0.48860273 -0.4036191 -0.20003083 0.028847184 0.037887145 0.0746826 0.35245332 -0.10069743
0.45527327 -0.20600668 0.051214576 0.47768563 -0.11217031 0.37850806 0.4326467 0.4635719
-0.4953656 0.17985094 0.037307527 0.030976243 0.39974862 -0.046439905 0.4898787 0.0848552
-0.5512632 -0.16315626 -0.53618824 -0.3339308 0.10187679 -0.066243485 -0.027469717 -0.068548284
-0.0594152 -0.5447627 -0.0672688 -0.1653696 -0.5378466 -0.12002877 0.18389489 0.43514112
0.43859524 -0.48847154 0.30337757 0.23493288 0.3015864 0.039040178 0.18935719 -0.19009036
0.0044103465 0.044374358 -0.35537222 -0.46618494 0.27102336 0.09821171 -0.038415466 0.002291344
0.3204331 0.16452706 -0.31084004 -0.097947724 -0.5482751 -0.45774457 0.20432636 -0.17208463
-0.31482607 -0.1025337 0.46634498 -0.13614628 0.39025196 0.2575418 0.21835403 0.45364973
0.15351653 -0.36221367 -0.50610477 -0.31768405 0.5080937 -0.5695832 -0.12309912 0.075003065
0.14168571 0.21036881 -0.39990282 -0.30753884 -0.55975795 0.49934623 -0.5473014 -0.058261104
0.37336954 0.1977841 -0.23483437 -0.14727503 0.39909768 -0.1558167 -0.41000295 0.05137069
-0.11145929 -0.016330063 0.26797748 0.35136777 0.08764201 0.07456275 0.19642548 -0.35376087
0.39103442 0.110149786 0.30446842 -0.16129392 0.43031552 -0.10317383 -0.32150257 0.1998127
-0.10578501 0.2981269 -0.20708185 -0.12811515 -0.16409373 -0.3330861 0.2290799 0.1814488
0.15767245 -0.19632824 0.06523209 -0.2468476 0.2220192 -0.053580105 -0.10726471 0.54169136
-0.10253382 -0.18412581 0.17686017 0.4065458 0.4230886 -0.25219828 -0.07051575 0.2567336

l2.weight f4 [300, 400]
00000000: 8ffd d3bc 47ad 093d 0e48 e23c cd59 0e3c
00000010: 1e81 eebc d6d7 98bc b211 c63c ffd9 053d
00000020: f41e 12bd 2fdf 0f3d 6a96 01bd df19 023d
00000030: 801f 153a fbc3 5c3c a6e0 293d 03e6 20bd
00000040: 9d65 46bd 586f 09bd fc86 353d 79de 7fbb
00000050: 8442 debc b1f3 b43b ef8a f53c 751e 1fbd
00000060: bd26 9dbc 02d8 b4bc 5a6f 03bd dc3c 8ebc
00000070: a311 17bd 25fa 793b 0955 cebc c0c1 3abd
00000080: 7b19 433c d634 a83c d713 003d 3a04 943b
00000090: 4ead 1abd 2b72 12bd d260 42bd a936 e73b
000000a0: ef92 9a3b ecab 06bd 9723 233d 28d4 d73b
000000b0: 28d0 1abc ba12 a23c 8d54 39bd ea91 19bd
000000c0: 2632 2ebd 40db 60bc f913 1abc a787 e63c
000000d0: ba8b 2b3d fb54 fa3c 408a 09bd 3112 2a3d
000000e0: ccee 75bc a944 3e3d 33f4 163d 67f2 10bb
000000f0: 82d2 ce3c fa6a b0bc 80c2 443d 8436 313c
00000100: bb77 28bd 7a0d 913c 5790 92bc 2a4b e8bc
00000110: dd4c e8bc 40fa 16bd 6dfd 2a3d 0c4b 1cbd
00000120: 806f 2fbd e315 153d 80f7 79ba 68e8 ecbb
00000130: d730 fabc 4894 06bc 8511 0d3d db48 483d
00000140: 3aa3 3cbd c0d6 b43b 0f9d 54bd 87ff 16bc
00000150: 3878 0bbd 8058 203d bef3 823c 5a4c 4ebd
00000160: 4540 0e3d 22d9 2abd aa9e 333d 7014 9c3b
00000170: 0071 1ebc 52d4 22bd c7b8 efbc c55e bd3c
00000180: ed50 05bd 4e1d fcba e795 143d a19a 36bd
00000190: 28fd b0bb 00cc 38bb bab4 12bd 0b81 c3bc
000001a0: ca14 273d 18e0 ad3b 8f09 ccbc 0ced 0a3d
000001b0: 31a1 943b ec26 573c 606e 38bd cc2a 45bc
000001c0: 4da5 a9bc 3e9d 0b3d db47 25bd b1a0 e8bc
000001d0: 2c00 67bc a74b 363d bd98 28bd 188a 963b
000001e0: 30e6 a5bb 922f e53c 4078 b93b e99d 203d
000001f0: 4dc2 f83b 8afe 2b3d c40f 2ebd 28fd b83b
00000200: df49 91bc 681f 7bbc 173f 243c b865 a2bc
00000210: 34c3 053c 10fe e93c 1349 b8bc c9bd 25bd
00000220: 3759 a7bc fbaf 22bb fb7e 54bd 565b 94bc
00000230: 5c8c 1bbd 5063 72bc 535a 383d efef ebbc
00000240: fc2c 773c e09a 0fbc de06 e73c 0728 3dbd
00000250: a141 68bc 9a6a b0bc b54d ba3c 6e66 ac3c
00000260: 9ddb b5bc 4002 823a 9008 b3bc 501c 89bb
00000270: ec60 35bc 0011 ca3a d85d f0bc 38ba f33c
00000280: eab5 b03c 108d 8f3b e793 883c d90f 41bd
00000290: 12e7 0ebd b97e 593c c44b 0abd 00a1 9239
000002a0: ec40 45bd 7695 25bc 7043 4abd 0097 fabc
000002b0: a54f 9fbb e75e 3abd cc21 80bb b043 47bd
000002c0: 7fb9 a5bb 7595 e63b d293 b03c 49bb 613c
000002d0: a2ff eb3c 8045 283a 6cf5 33bc 6e1d eb3c
000002e0: 70d6 01bd 00ea 8cb8 e684 88ba b49e 563c
000002f0: 61e0 3a3c ae75 313d f594 163d 69c2 b53c
00000300: 15ea 8ebc 7103 193d 0a62 acbc 1019 913b
00000310: 1f23 80bc 3428 5dbc c610 07bd 1fe2 373d
00000320: 4e82 613c 5b5c ee3c a079 473c f047 26bd
00000330: a0f9 cfbc a1f6 39bc 399a 1e3d 2387 0c3d
00000340: 1526 f7bc a8e6 523c 2035 d7bc 0dcd cfbc
00000350: efd3 e7bc d276 8d3c 2695 ec3c 5651 7a3c
00000360: 5475 513c 79d1 053d e4a4 213d 6fed 093c
00000370: fa4d 393d c870 223d 7aec 8fbc 206f 7cbc
00000380: 90df 173d 6237 2e3d 40f0 ee3b f6ee 14bd
00000390: 122f 483c 45f5 c63b bc8b 85bc 576b b1bc
000003a0: 13ff 3d3d 21f3 9c3c b0a5 13bb 69c0 3f3d
000003b0: 106c d43b 107e f13b 51b4 adbc 6831 52bc
000003c0: 8c37 053d 7e6d 18bd c851 a33c d0ec abbb
000003d0: b76f 23b9 7b30 31bd 69e5 bfbc 66b4 943c
000003e0: 4907 323d f09b ff3b bed7 ce3c c3e6 4fbb
000003f0: 21da 5cbd 370a bebc 6d82 23bd 9436 30bd
-0.025877742 0.033612516 0.027622249 0.008688402 -0.029114302 -0.018657606 0.02417836 0.0326786
-0.03567405 0.035124954 -0.031637587 0.031762954 0.0005688593 0.01347446 0.041474007 -0.039281856
-0.04843675 -0.03355345 0.044318184 -0.0039042516 -0.027131326 0.0055222143 0.029973475 -0.038847405
-0.01918351 -0.022075657 -0.032088615 -0.017363004 -0.036882054 0.0038143483 -0.025187032 -0.04559493
0.0119079305 0.020533007 0.03126892 0.0045171054 -0.037762932 -0.03575341 -0.047455616 0.0070560765
0.004717223 -0.0328788 0.039828863 0.0065865703 -0.009449042 0.01978432 -0.04524665 -0.03749267
-0.042528294 -0.013724148 -0.009404176 0.028140856 0.0418813 0.0305581 -0.03357911 0.041521255
-0.015010547 0.0464522 0.03685398 -0.002211714 0.025246862 -0.021535385 0.048037052 0.01081622
-0.04112981 0.017706621 -0.017891092 -0.028356154 -0.028356964 -0.03685975 0.041745592 -0.038157508
-0.042830944 0.036397826 -0.00095354766 -0.0072298534 -0.030540867 -0.008214064 0.034440536 0.048897605
-0.046054102 0.0055187643 -0.051907595 -0.009216196 -0.034050196 0.0391469 0.015985366 -0.050365783
0.03472926 -0.04171098 0.043852486 0.0047631785 -0.009670496 -0.039753266 -0.029262913 0.023116479
-0.03254788 -0.0019234808 0.03627577 -0.04458106 -0.0054012723 -0.0028197765 -0.035816886 -0.023865243
0.04079131 0.005306255 -0.024906902 0.03391747 0.004535817 0.013131838 -0.045027137 -0.012034129
-0.020708704 0.034085505 -0.04035173 -0.028396936 -0.014099162 0.04450574 -0.041161288 0.004594099
-0.005062841 0.027976785 0.005660087 0.039213095 0.007591522 0.041990794 -0.042495504 0.005645413
-0.01773542 -0.015327312 0.010024807 -0.019823894 0.008164216 0.02856353 -0.022495782 -0.040464196
-0.020428283 -0.002482413 -0.05187891 -0.018109959 -0.037975654 -0.014794186 0.045008015 -0.028800933
0.015086409 -0.008764952 0.028201517 -0.04618075 -0.014175803 -0.021535207 0.022742132 0.021044936
-0.022199446 0.0009918883 -0.021854669 -0.0041842833 -0.011070471 0.0015416443 -0.029341623 0.029751882
0.021571118 0.0043808296 0.016672088 -0.047134254 -0.034888335 0.013274842 -0.033763662 0.00027967244
-0.048157617 -0.010106435 -0.04938072 -0.03058958 -0.0048617893 -0.045500662 -0.003910279 -0.048648536
-0.0050575132 0.0070368596 0.021554861 0.013777562 0.028808419 0.0006419048 -0.010983806 0.028700557
-0.031698644 -6.719306e-05 -0.0010415583 0.013099361 0.011406035 0.04332512 0.03676315 0.022187429
-0.017445603 0.037356798 -0.021042842 0.0044280365 -0.015641747 -0.013498355 -0.03297498 0.04489338
0.013763977 0.029096773 0.012174994 -0.04059595 -0.025387585 -0.011350305 0.038721297 0.034308564
-0.030169526 0.012872376 -0.02627045 -0.02536633 -0.0282993 0.017268572 0.028879713 0.015278181
0.012784321 0.03267047 0.039463893 0.008418425 0.04524038 0.039658338 -0.017568815 -0.015407354
0.03707844 0.042533286 0.0072918236 -0.036360703 0.012218254 0.006071719 -0.016301982 -0.021657629
0.046385836 0.019158902 -0.0022529177 0.046814356 0.0064826086 0.007369764 -0.021204146 -0.012829162
0.032523677 -0.037213795 0.019936457 -0.005246736 -0.00015586508 -0.043259125 -0.023424821 0.018152427
0.04346398 0.0078005716 0.025249358 -0.0031723238 -0.05391896 -0.02319823 -0.039919306 -0.0430208

l2.bias f4 [300]
00000000: 4cfe 29bd 87e5 823b 4fdf 333d 2888 193d
00000010: 89fb c53c b64b 28bd da56 82bb 09fb 103d
00000020: 0a28 4bbc f235 38bd 86cd f83c a0af 2cbc
00000030: 6dfd 2b3d 7215 b83c a9a7 223d 15fa 0f3d
00000040: 8cfd 03bd d134 883c 98da e73b a95b 31bd
00000050: 8d29 49bc 8a8f 38ba bfb1 e13c e05f 1d3b
00000060: 5b65 043d b421 a43b 41d6 81ba 83f5 453d
00000070: da34 013d 96eb 223d 0aab c73c 3fa9 6ebc
00000080: c4ac a63c a632 d2bc 57b0 323d acb1 8ebb
00000090: 03fb 493d 5af4 2fbd 8724 bdbc 1439 11bc
000000a0: 8976 333d 629e f83c 8aae 8b3c 9835 9abb
000000b0: 684d a2bc 5620 4cbd eb7e 3dbd 85fd 333d
000000c0: db3c 91ba d053 2a3b d18e 203d dce0 063d
000000d0: e5b1 d93b 8005 98bc 7976 fc3c 934c 203c
000000e0: 86a7 b6bc 4059 a73b b4af c93c 9417 113c
000000f0: 78e1 fcbb 695d b4bb 48fb d23b 648a 21bd
00000100: b6b4 f2bc 9b73 dfbc 75d9 f2bb b00b 2a3d
00000110: 07bb c7bb e99c bf39 2a9b f3bc 2120 0bb9
00000120: 906d a8bc ba5b d0bc 260f fa3c c689 dcbc
00000130: 8433 003d 1e22 2e3c f8f6 38bc 16c5 023d
00000140: 2ae7 203d 5784 263d dbff 6dbd 6a89 debc
00000150: 36a4 243d 550e 8ebc 7852 413c 5e4e 58bd
00000160: 99a6 c33b 16f5 abbc 35a2 3dbd baa3 a5bc
00000170: 84b9 5f3c 40c5 9dbb 30f5 413c be67 11bd
00000180: e2dc f33c ee44 9c3c a735 36bd 302d bc3b
00000190: f6e1 233c a20f 1c3d 7fc2 22bd f744 163d
000001a0: 21d2 173b 8aa2 91bc f0df 9a3b 2aaa a23c
000001b0: 6e3b 3b3c f2b5 c83c 48b9 ac3b 1f51 0abd
000001c0: f2b5 ce3c 50df 743b 60e8 5e3b 5b10 1c3c
000001d0: bb35 2fbd e3c1 1abd ef32 a93c 201f 46bd
000001e0: 9508 ac3c a905 9bbc 42a1 d9bc 94fa 24bc
000001f0: 654d 0b3d 9d27 9e3c d0b3 a4bc 9e54 55bd
00000200: aacc 2abd 09c7 53bd 3406 6fbc 1e56 943c
00000210: dea4 e43c 6bb9 35bd 4575 02bd 477b 2f3c
00000220: 6589 c63c d173 36bd 1077 24bd 1280 33bd
00000230: ec85 063d ddc3 233c dd79 b3bc 22f8 d23c
00000240: 33e2 9abc 84e8 64bc a6bd a93c ad5d 863c
00000250: 1d8a fcbc 1cbf 683c d747 4cbd e839 81bc
00000260: 80ec 283c d0c0 5bbb 94e9 5c3c 09d1 5f3c
00000270: a1a9 3abd 550f 4abd 40b5 8bbc 0210 d53c
00000280: cf6d 10bc d8fe 833c 382d 2abd fa03 9f3c
00000290: a754 c5bc 5257 22bd b9b4 7c3b d439 2dbd
000002a0: e862 5cb8 e40a 4a3c 6785 213d c32b 42bc
000002b0: 5da0 abbc 4817 153c 0daa ee3c fcdd 1c3d
000002c0: 9164 2e3d dff1 9d3c e40e 85bc 5066 023b
000002d0: 2f9e cabb 80ff dcbc eb18 49bd e091 3bbc
000002e0: 01f0 2e3d 15ac 2d3d 0371 e4bc 0165 133d
000002f0: 6afa a63c d9d2 d6bc e5c7 0ebc 8019 073d
00000300: 5765 0e3d a00a 183c a4b9 1e3d 28b4 d33b
00000310: 457e 2a3d 76ff 903c 6841 c5bc 078f ddbc
00000320: e6cb 43bd c9d8 13bd 5d0f aabc 3a97 743c
00000330: 3fbc 2c3d 6337 50bc a741 6239 42af 46bd
00000340: 2d83 b83c c300 2bbd fa4b c23c 2a37 973c
00000350: 4968 033d 79cc 79bd cdbb 94bc 0c00 37bd
00000360: 742f bbbc 9884 a6bc 36c2 923a e9ab a8bc
00000370: bbdb 39bd 9ca0 33bc c2a3 a33c 4a03 ef3c
00000380: 8241 e13c c60b 8e3c 1266 b73c 362a 3f3c
00000390: 3002 56bb 5217 fb3c 002d c2bb f362 12bd
000003a0: 40ef 63ba 4d5e d13c 7434 453c 54d2 d43c
000003b0: 27f9 4a3c 1571 95bc 5f31 18bd 2c84 0c3c
000003c0: 796e 9c3c 913c 453d 9fe6 98bb 8fb1 eebc
000003d0: 3847 3bbd 2032 1abb 1ad1 883b 2982 62bd
000003e0: 239f 42bd 0673 03bd e2cc 1cbb 5c0b 1d3c
000003f0: de65 fb3c 9dd8 e43c 41ed 49bc abde 3dbb
-0.041502282 0.003994647 0.043914136 0.037483364 0.024167793 -0.04108783 -0.0039776387 0.035395656
-0.012399683 -0.04497332 0.030371439 -0.010539919 0.041989733 0.022471163 0.039710674 0.035150606
-0.032224223 0.016626747 0.007075619 -0.043300305 -0.012277973 -0.0007040432 0.027550576 0.0024013445
0.032323223 0.0050089005 -0.0009905772 0.04832984 0.031544544 0.039775454 0.02437355 -0.014566719
0.020346053 -0.025658917 0.043625202 -0.004354676 0.04931165 -0.04295764 -0.023088707 -0.008863706
0.043814216 0.03034896 0.017051 -0.004706096 -0.0198123 -0.049835525 -0.046263617 0.043942947
-0.0011080758 0.0025989898 0.0391987 0.032929286 0.006643521 -0.01855731 0.03081821 0.009783882
-0.022296678 0.005107075 0.024619915 0.008855719 -0.0077173077 -0.0055042994 0.0064386465 -0.03943862
-0.029627185 -0.027276805 -0.007411177 0.041515052 -0.0060952934 0.00036547266 -0.029737074 -0.00013268042
-0.020560056 -0.025434364 0.030524801 -0.026921164 0.03129913 0.010628251 -0.011289351 0.031926237
0.039282955 0.040653553 -0.05810533 -0.027165134 0.040195666 -0.017340818 0.011799447 -0.05280911
0.0059707877 -0.02099089 -0.04629727 -0.020219672 0.01365507 -0.004814774 0.011838242 -0.035499327
0.029768411 0.019075837 -0.04448476 0.0057426915 0.010002604 0.038100846 -0.039736267 0.036686864
0.0023166018 -0.0177777 0.0047264025 0.019856531 0.011427743 0.02450082 0.0052711107 -0.03376877
0.025233243 0.003736455 0.0034013018 0.009525384 -0.04277585 -0.03778256 0.02065417 -0.048369527
0.021000186 -0.018923597 -0.026566152 -0.010069508 0.034009356 0.019305998 -0.020105273 -0.05208265
-0.04169909 -0.051703487 -0.014588881 0.01810747 0.027910646 -0.04436628 -0.03185012 0.010710544
0.024235437 -0.044544045 -0.04015261 -0.04382331 0.03284256 0.009995428 -0.021908695 0.025753085
-0.018906688 -0.013971452 0.020720314 0.01640209 -0.030827576 0.01420572 -0.0498732 -0.015774682
0.010310292 -0.0033531673 0.013483424 0.013660678 -0.045571927 -0.049331028 -0.0170542 0.02600861
-0.008815243 0.01611273 -0.04154703 0.019411076 -0.024088217 -0.039634056 0.0038559868 -0.042291477
-5.25442e-05 0.012331698 0.039433863 -0.011851254 -0.02095049 0.009099789 0.02913382 0.03829764
0.042576376 0.019280372 -0.016242452 0.0019897409 -0.0061834077 -0.0269773 -0.04909603 -0.0114483535
0.042709354 0.04240044 -0.02788592 0.035984997 0.020383079 -0.026223587 -0.008714651 0.032983303
0.034764614 0.009279877 0.03875126 0.0064606853 0.041624326 0.017699938 -0.02407904 -0.02704574
-0.047801875 -0.036095414 -0.020759279 0.014928633 0.042171713 -0.012708518 0.00021577497 -0.048506983
0.022523487 -0.041748773 0.02371787 0.018458921 0.032081876 -0.060986016 -0.018155957 -0.04467778
-0.022849776 -0.020326898 0.0011196795 -0.020589786 -0.045375567 -0.010963585 0.019975547 0.029176373
0.027497057 0.017339598 0.022387538 0.011667779 -0.0032655112 0.030650768 -0.0059257746 -0.035738897
-0.0008695014 0.025557661 0.012036432 0.025979199 0.012388504 -0.018242398 -0.03715646 0.008576434
0.019095646 0.048153464 -0.004666164 -0.0291374 -0.045722216 -0.0023528412 0.0041753175 -0.05529991
-0.047515046 -0.032092117 -0.002392583 0.009585228 0.030688222 0.02793532 -0.012324632 -0.0028971832

l3.weight f4 [1, 300]
00000000: 8611 a63b 107c 99ba 3510 4dbb 8a48 8a39
00000010: 2330 c5bc 7980 c43a 622e 1fbc d654 723c
00000020: eeaa c8ba a864 fe3c 5cd4 163d 28af 29bc
00000030: 983f 3abb ca2c 11ba 54e7 a03c 0ef7 24bd
00000040: c0fb ee3c 978e daba aee8 84bc c138 1bbc
00000050: 6974 50bc 911b 53bd ab8a 35bd 30a7 f83b
00000060: bac1 c03b e615 7b3c e5d5 3cbc 9e57 5fbd
00000070: 22e5 1738 89c1 87bb 9050 583b 6049 ec3c
00000080: 7083 c63c 0591 033d e9a1 cd3b 5e55 9fbb
00000090: 0685 613d 5c50 2ebc 6072 86bb ad6c 28bd
000000a0: 60f2 ef3a c030 18ba 3255 28b8 7636 153d
000000b0: ecf6 30bb 0914 3ebb 80ab 0e3c 5ab3 d33c
000000c0: 9f05 3fbd 5a0e 3cbd 4c07 45bb 79f3 53bd
000000d0: 5650 41bd a8d5 b5bb 35f7 01bb 31a1 fcba
000000e0: 91e4 743a 1e64 653d f428 88bb 4097 993c
000000f0: 19d4 a8bb e396 97b9 f4ae 223d fa4a 2a3d
00000100: 981c 16ba 9959 0e3d 8c35 163a 04fa 493c
00000110: 4ddc b03c e98f a2bc 0e6c a8bc 355a a93b
00000120: 20ee 37bd 7eb6 693d 40b5 0d3d a8c1 073c
00000130: 27ea 31bc f6bb 613b 6ec0 50bd 7f9a e5ba
00000140: 757f 51bb a149 56bd 680f 543b 36a4 243d
00000150: b2ec 72bc a361 a73c 4128 1cbd e15c 3bbd
00000160: 1210 043d 3054 123d 87cc 63bd 8a8e 7eba
00000170: 0041 1e3a a449 1dbc 733a 843b 08ad aebc
00000180: de38 53bd 0dd3 75bb 6875 413d 567a 50bc
00000190: d3c0 58bc 947a 8bbc 6a60 a7bb 6729 0c3b
000001a0: b87e 6fbc 754d dabc 94af a93c a0b2 df3c
000001b0: 097a c93c 544e 533d 08c9 2b3b 787a 193d
000001c0: 0005 4a3d 80cf b2bb 484e 55bc 8b2a 8c3a
000001d0: 1393 1f3d ef99 13bd a6b3 cebb 6cc9 3cbd
000001e0: 5d53 163a 4c4e c8bc 0a62 963a 3333 0a3d
000001f0: 456f b63c 58dd c5bc ffb1 29bc 694e 73ba
00000200: 90cc b1bb 2c21 f339 40f6 e83c 3a95 3b3d
00000210: 84f7 4dbd 7abd 8d3c e4c9 74bc 201c c63b
00000220: 5d02 0f3d d222 8abb 27df d4ba 2e40 463d
00000230: ed69 41bb 3d5a 35bd be87 113d 4a91 303d
00000240: 58c2 2d3d 11ec 83bb ac74 adbc 207b 863c
00000250: 3374 2d3d 992b b1ba d255 2abd 060c 1b3d
00000260: c8ee 483c 9757 66bd d299 263d da3b 3abd
00000270: d9f9 c2bc 5bb1 debc 50da b53b ef9e 23bd
00000280: bbec 06bc daea 07bc 0897 91bc 48e5 553c
00000290: aca6 24bc 8d08 c93c ea2c 00bb 073e fd3c
000002a0: a394 123c 0373 843c 70f9 053d 1dea d33c
000002b0: 4468 2a3d 9141 b7bc 4408 bc3c b797 c639
000002c0: 18d8 36bd 0885 45bb 7570 c2ba 28f9 283c
000002d0: f08e 54bd ec9e 083d a0ba e6ba e3d1 6abc
000002e0: 954c 153d 1768 abbc d821 fbbc 8955 13bd
000002f0: 4f92 a5bb c93a d0b5 0d55 f3bc fce5 18bd
00000300: 0b3c cbbb b8fd 95bb 153d deb8 f4d8 823c
00000310: 80dd 663b b4f8 623d 1451 76b9 287f 21bd
00000320: 31ee ed3c edf8 3cba 8022 963a 8670 79bc
00000330: 6ca9 27bd b1cd f0bc 6edb 0fbd eed4 51bd
00000340: a188 173b 4147 67bc 232e b43b 45e9 53bd
00000350: 80d3 223d a396 bcbb 08a3 d4ba 5268 413d
00000360: 4c1d 1dbd 4174 abbb 7260 a7bb 4486 12bd
00000370: 45ed ad3c 42cd a9bb f0c3 8dbc e881 103c
00000380: aa93 4d3d bf52 4aba a03a a1bc 04e5 28bc
00000390: ecc2 273d e80c 5c3c 679f 69bd a3b5 65bd
000003a0: 5072 3ebd e0f2 873b 7c51 f63c b748 f5ba
000003b0: 445d dc3c 2ff3 93bb 2b0d 11bc fb54 0e39
000003c0: 9bb1 8b3c 6c76 29bd 07f6 90ba 65e2 a7bc
000003d0: 141b 103d fc8b 14bd 61b4 2ebd 51aa e4ba
000003e0: e47b 94bc 3c96 e33b c579 02ba 906d 2d3c
000003f0: 2aba 8b39 5071 97bc 4879 0c3c 0ed2 51ba
0.005068007 -0.0011709947 -0.0031290178 0.00026375457 -0.024070805 0.0014991901 -0.009715648 0.014790734
-0.001530973 0.031053856 0.036823615 -0.010356702 -0.0028419252 -0.0005537985 0.019641556 -0.040274672
0.029172778 -0.0016674575 -0.016224232 -0.00947398 -0.012723067 -0.05153996 -0.044321697 0.0075882897
0.005882469 0.015325045 -0.011525606 -0.054526918 3.6214602e-05 -0.0041429442 0.0033007003 0.028843582
0.024232596 0.032120723 0.0062754047 -0.0048624715 0.0550585 -0.010639276 -0.00410299 -0.041119266
0.0018306486 -0.0005805604 -4.0133666e-05 0.03642889 -0.0027002646 -0.002900364 0.008707881 0.025842357
-0.04663622 -0.045912124 -0.0030064164 -0.051745865 -0.047195755 -0.0055491515 -0.0019831185 -0.0019274113
0.00093419204 0.056003682 -0.0041552726 0.01874888 -0.005152237 -0.00028913384 0.03971763 0.04157541
-0.00057263067 0.034753416 0.0005730025 0.012327675 0.021589423 -0.019844012 -0.020559337 0.005168224
-0.044904828 0.057058804 0.03459668 0.008285917 -0.010859049 0.003444431 -0.050964765 -0.0017517357
-0.003196684 -0.05231631 0.0032357816 0.040195666 -0.01482694 0.020432299 -0.038124327 -0.045742873
0.03224189 0.03572482 -0.055614974 -0.0009710571 0.00060369074 -0.009600077 0.004035288 -0.021322742
-0.051567905 -0.003750983 0.047231108 -0.01272448 -0.013229567 -0.017026223 -0.005107929 0.0021386982
-0.014617614 -0.026648263 0.020713605 0.027306855 0.024594324 0.05158837 0.0026212353 0.03747031
0.049321175 -0.005456865 -0.013019152 0.0010693831 0.03895862 -0.036035474 -0.006308037 -0.04609053
0.0005734468 -0.024451397 0.001147331 0.033740234 0.022269854 -0.024153396 -0.010357379 -0.00092813984
-0.005425997 0.00046373287 0.028437734 0.04579661 -0.050284877 0.017302264 -0.014940713 0.006045833
0.034914363 -0.0042155767 -0.0016240821 0.04840105 -0.00295126 -0.04427551 0.035529844 0.04310731
0.04242167 -0.004025944 -0.021173798 0.016416132 0.042347144 -0.0013517021 -0.04158575 0.037853263
0.012263961 -0.056235876 0.04067404 -0.045467235 -0.023800777 -0.027184179 0.0055497065 -0.039946493
-0.008235152 -0.008295739 -0.017772213 0.013055153 -0.010049503 0.02454021 -0.001955802 0.030913366
0.008946571 0.016168123 0.032708585 0.02586847 0.04160334 -0.022370132 0.02295316 0.0003787854
-0.044639677 -0.0030139107 -0.001483454 0.01031331 -0.05189413 0.033354685 -0.0017603226 -0.014332267
0.036449987 -0.020923657 -0.030655786 -0.035970245 -0.0050528417 -1.5514316e-06 -0.029703641 -0.037328705
-0.006202226 -0.004577365 -0.00010597162 0.015972592 0.003522724 0.055412963 -0.00023490592 -0.039427906
0.029044243 -0.00072087237 0.0011454374 -0.015224582 -0.040933058 -0.029394956 -0.035121374 -0.051228456
0.0023122209 -0.014116109 0.005498664 -0.051736135 0.039752483 -0.005755262 -0.0016222904 0.04721863
-0.038358018 -0.0052323644 -0.0051079327 -0.035772577 0.021231303 -0.0051819393 -0.017305344 0.008820035
0.05018965 -0.00077180186 -0.019681275 -0.010308508 0.040957376 0.013430811 -0.057036784 -0.056081425
-0.046495736 0.004148826 0.030068152 -0.0018713687 0.026899941 -0.0045150737 -0.008853237 0.00013573833
0.017052462 -0.0413727 -0.001105965 -0.020493696 0.035182074 -0.036266312 -0.04265249 -0.0017445778
-0.018125482 0.0069453996 -0.00049772515 0.010585204 0.0002665085 -0.018486649 0.008573838 -0.0008004018
