models/TD3_BipedalWalker/actor.pth (torch, 527831 bytes, 6 tensors)

fc1.weight f4 [400, 24]
-0.06148487 0.10519446 -0.22945617 0.23983733 -0.09801563 -0.049667183 0.117482014 -0.075197026
0.12779002 -0.08208791 0.1262788 -0.14455633 -0.040293228 -0.17919138 -0.18446054 -0.2327991
-0.06957337 -0.06280705 -0.17888111 -0.16489498 -0.40232378 -0.21137522 -0.2373573 -0.32798186
-0.05966277 0.16089714 0.07006001 -0.014145794 -0.18065746 -0.07528249 0.03288353 0.009032355
0.058317762 -0.15753831 0.12064735 0.05287185 -0.09716172 -0.26783922 -0.26211601 -0.33011776
-0.33284655 -0.3236304 -0.48546046 -0.224536 -0.5209595 -0.21848403 -0.11839095 -0.391226
-0.025651583 0.11707955 0.08385091 0.160598 -0.12842056 -0.054827046 -0.114803866 0.07610069
-0.05558646 -0.080640025 -0.028516686 0.15447293 0.01712135 0.0873924 -0.25196978 -0.027719786
-0.20880605 -0.13593505 -0.115615144 -0.002277543 -0.22555786 -0.27762654 -0.20084278 -0.08611722
-0.69008934 -0.7775869 -0.0038571395 -1.0966064 0.3984059 -0.07306638 0.088115625 0.3719692
-0.0984862 -0.68613005 0.7258482 -0.91822237 -0.3893602 -0.24233763 0.05771728 0.1403646
0.1464305 -0.06517382 -0.18898149 -0.15914416 0.09877827 -0.020275887 -0.22598138 0.008565765
-0.09431312 -0.10618664 -0.047528848 0.11891779 -0.120256856 0.29954696 0.083548315 0.06255093
0.12507382 -0.06992819 0.2791947 0.033161446 -0.052646693 -0.07140783 -0.4537522 -0.28749245
-0.4766774 -0.30971554 -0.34817383 -0.15766026 -0.41832232 -0.07267765 -0.30253232 -0.1397519
-0.20155792 -0.16611034 -0.10213518 -0.11513977 0.12173799 0.14881968 0.4899964 0.16522554
-0.24140981 -0.48781794 -0.033986386 0.13918667 -0.14320697 -0.13126764 -0.22732271 -0.4296755
-0.42602834 -0.33825928 -0.29865465 -0.54631025 -0.26910558 -0.5117256 -0.25369814 -0.14367698
-0.21029936 0.1999655 -0.014609239 0.043564573 -0.33838823 0.22876225 -0.30569535 -0.40295303
-0.4536636 -0.13899083 -0.7707973 0.67572796 -0.5423924 -0.15306021 -0.19034715 -0.27019167
-0.19984539 -0.08782968 -0.115414254 -0.29984257 0.004313979 -0.31448552 0.051004972 -0.20239267
1.3974599 0.19755843 0.93738925 -0.99002457 -0.29911816 -1.0792546 -0.6281338 0.7386855
-0.35837567 -0.022321563 0.6687947 -0.20809191 0.22768272 -0.08864442 -0.06368125 -0.22472692
-0.1033422 -0.05435651 -0.31105906 -0.2554683 -0.2278982 -0.28760618 -0.114949904 -0.15690513
0.8238744 0.27884236 0.28574407 1.087238 -0.27404842 -0.61531246 -0.7608276 -0.24479912
-0.43133315 -0.7965369 -0.7296426 -0.12395455 0.16961423 -0.13087688 0.14525193 0.2499794
0.27372223 -0.016503993 0.01675192 0.08588132 0.1861353 0.21458331 0.079789706 -0.021113414
-0.33856475 -0.39125466 0.08995811 0.3166143 0.19336234 -0.35521686 0.34135205 0.6131378
-0.3223968 0.044833593 -0.09347717 0.12744078 0.4145548 0.50402904 -0.064069584 0.1042432
-0.22800532 -0.21315028 0.07660178 -0.17760456 -0.076047555 0.04305972 -0.23142275 0.050498728
0.92184895 0.99271846 -0.957114 0.29374257 0.76784474 -0.7706156 0.1689454 -0.23006494
-0.016688762 -0.8784659 -0.7787158 0.57512546 -0.049573798 -0.12283426 0.052088764 -0.21141702
00000000: 8fd7 7bbd 3170 d73d 8ff6 6abe eb97 753e
00000010: 6bbc c8bd d16f 4bbd 699a f03d e600 9abd
00000020: 63db 023e b51d a8bd 3b4f 013e 9306 14be
00000030: 830a 25bd f27d 37be 39e3 3cbe e362 6ebe
00000040: 7c7c 8ebd fca0 80bd 9c2c 37be 3bda 28be
00000050: 62fd cdbe bf72 58be cb0d 73be 3ded a7be
00000060: f360 74bd 38c2 243e 9f7b 8f3d c3c3 67bc
00000070: 45fe 38be b52d 9abd e1b0 063d 71fc 133c
00000080: 9bde 6e3d b951 21be f515 f73d 2790 583d
00000090: b9fc c6bd 3922 89be 1234 86be 3205 a9be
000000a0: dd6a aabe e2b2 a5be 468e f8be c4ec 65be
000000b0: 9a5d 05bf 47ba 5fbe f476 f2bd c64e c8be
000000c0: 4523 d2bc 67c7 ef3d 07ba ab3d cd73 243e
000000d0: ae80 03be 5392 60bd 4a1e ebbd aeda 9b3d
000000e0: a1ae 63bd 9926 a5bd d39b e9bc 272e 1e3e
000000f0: 1342 8c3c c9fa b23d 2f02 81be 9b14 e3bc
00000100: 41d1 55be 8f32 0bbe a2c7 ecbd d542 15bb
00000110: a4f8 66be 1125 8ebe bba9 4dbe 3a5e b0bd
00000120: b2a9 30bf ef0f 47bf 10c8 7cbb 995d 8cbf
00000130: dcfb cb3e d4a3 95bd f775 b43d bf72 be3e
00000140: 22b3 c9bd 38a6 2fbf 30d1 393f 9f10 6bbf
00000150: 385a c7be 5b27 78be f468 6c3d bdbb 0f3e
00000160: e1f1 153e da79 85bd 5d84 41be b0f6 22be
00000170: 434c ca3d 9e19 a6bc aa67 67be 6c57 0c3c
00000180: 3d27 c1bd 6278 d9bd 9cad 42bd 2c8b f33d
00000190: 3a49 f6bd 385e 993e 611b ab3d b41a 803d
000001a0: 5a13 003e 8336 8fbd 9cf2 8e3e 4cd4 073d
000001b0: 0fa4 57bd 453e 92bd 3552 e8be 3632 93be
000001c0: 0f0f f4be 0993 9ebe d743 b2be b171 21be
000001d0: 582e d6be 05d8 94bd 84e5 9abe 1f1b 0fbe
000001e0: 3365 4ebe d418 2abe 402c d1bd 66ce ebbd
000001f0: c451 f93d 3064 183e cfe0 fa3e e230 293e
00000200: 2234 77be 46c3 f9be 4f35 0bbd f386 0e3e
00000210: d9a4 12be 066b 06be 49c7 68be 6dfe dbbe
00000220: 6320 dabe 5230 adbe 43e9 98be fdda 0bbf
00000230: 35c8 89be 7300 03bf b9e4 81be 0f20 13be
00000240: b758 57be c2c3 4c3e 975b 6fbc c470 323d
00000250: 3941 adbe a740 6a3e 1a84 9cbe dc4f cebe
00000260: 9846 e8be 9d53 0ebe f952 45bf 82fc 2c3f
00000270: 3ada 0abf d1bb 1cbe 5dea 42be 9056 8abe
00000280: 45a4 4cbe 0ce0 b3bd 4f5e ecbd f784 99be
00000290: 475c 8d3b 3f04 a1be 97ea 503d 0640 4fbe
000002a0: f7df b23f c24c 4a3e bef8 6f3f 4072 7dbf
000002b0: 0426 99be 0425 8abf 60cd 20bf 7e1a 3d3f
000002c0: 047d b7be b6db b6bc 2136 2b3f 0c16 55be
000002d0: a925 693e 358b b5bd 516b 82bd d01e 66be
000002e0: 13a5 d3bd efa4 5ebd 2243 9fbe becc 82be
000002f0: 255e 69be 1e41 93be db6a ebbd bdab 20be
00000300: 6fe9 523f 6dc4 8e3e 0c4d 923e 9d2a 8b3f
00000310: 1350 8cbe 1e85 1dbf 99c5 42bf 9fac 7abe
00000320: b3d7 dcbe d8e9 4bbf dcc9 3abf e2db fdbd
00000330: 5aaf 2d3e 9704 06be ecbc 143e 9afa 7f3e
00000340: 5225 8c3e 6233 87bc 533b 893c 8ce2 af3d
00000350: 419a 3e3e babb 5b3e c968 a33d 0af6 acbc
00000360: 5c58 adbe 8852 c8be f53b b83d 451b a23e
00000370: c700 463e fcde b5be b2c5 ae3e 99f6 1c3f
00000380: 3211 a5be 6ea3 373d f570 bfbd d67f 023e
00000390: 8740 d43e 0c08 013f ea36 83bd 757d d53d
000003a0: 3a7a 69be 1144 5abe 65e1 9c3d f8dd 35be
000003b0: d2be 9bbd 645f 303d 16fa 6cbe c1d7 4e3d
000003c0: 4bfe 6b3f cc22 7e3f 6c05 75bf 6d65 963e
000003d0: 7991 443f 1047 45bf 0600 2d3e 2596 6bbe
000003e0: dfb6 88bc 24e3 60bf eb59 47bf 6c3b 133f
000003f0: e50d 4bbd 8790 fbbd 075b 553d b47d 58be

fc1.bias f4 [400]
-0.113156915 -0.14177537 -0.15297714 0.21437593 -0.36442125 -0.32078618 -0.1591762 -0.016681809
0.16893928 -0.125466 -0.22879593 -0.032519434 -0.080811754 -0.029824581 -0.25687155 -0.21042769
0.1850426 0.02544625 0.16936556 0.34112948 0.0070706746 -0.11009357 -0.32189447 0.2951116
-0.15193525 -0.11247728 -0.008041866 -0.17262952 -0.036801137 -0.24362297 -0.17888811 -0.10807194
0.0389558 -0.20936403 0.026182208 -0.15164132 -0.13746046 -0.07003155 -0.15830533 -0.23877288
0.07725417 -0.13562183 -0.24328786 -0.19472596 -0.32340974 -0.08913546 -0.15042485 -0.47829348
-0.08309579 -0.010731443 -0.29402664 0.15536042 -0.28080925 -0.060253598 -0.37778586 0.15878186
0.12576315 -0.20496652 0.05724794 -0.07529344 -0.48469284 0.16037177 -0.1671927 -0.10652307
0.00056585786 -0.18050069 -0.064218886 -0.24379964 0.20539555 -0.4942762 -0.09750018 0.33243927
-0.1633427 -0.20555702 -0.050654013 -0.12255353 -0.2444044 -0.23021948 -0.33471262 -0.007809774
0.02236161 -0.031085953 0.056659166 -0.07555763 -0.12742077 -0.25217453 -0.25102824 -0.27225178
-0.25248435 -0.07431809 -0.39823446 -0.21738215 -0.20424926 0.042370304 -0.25354978 -0.36046243
0.070991 -0.24543744 0.28709444 0.29068407 -0.18374752 0.012887996 -0.57087475 -0.05966041
-0.14752997 -0.07493403 0.031651005 -0.42581317 -0.15769573 0.34961775 -0.2242438 -0.067743964
-0.1581244 -0.017310089 -0.24188754 -0.061541323 -0.110428944 -0.31868178 -0.2495678 -0.387518
-0.13161102 -0.021867746 -0.22754447 -0.23255968 0.1768393 -0.27009568 -0.16561405 -0.28756005
-0.21415289 -0.078701325 0.04531366 -0.15341817 0.17859061 -0.15343532 -0.37587672 0.2080359
-0.26272383 0.15520613 -0.056028727 -0.05459693 -0.20136495 -0.43345034 0.09640896 0.117386095
-0.23684208 -0.3439314 -0.1491472 -0.38598898 -0.051795177 -0.55707335 -0.2150703 -0.2729894
-0.25983477 -0.4687917 -0.4508905 -0.35290396 -0.24814482 -0.18050908 0.11404446 -0.07176122
-0.031109715 -0.06170249 -0.16909887 -0.21255784 0.04270866 -0.055638768 -0.25653955 -0.13373072
0.16591886 -0.05733149 -0.3807785 -0.025107056 -0.116229564 -0.20338199 0.11738156 -0.21482323
-0.018263297 -0.08980976 -0.13730793 -0.022626145 -0.14074212 0.0037321225 -0.14356041 -0.3798494
-0.0023139045 -0.2551545 -0.12120639 -0.12027388 -0.22154377 -0.121089645 -0.025448754 -0.071060486
-0.16822295 0.018569598 0.09324714 -0.06872392 -0.1785018 -0.03553934 0.014273791 0.09239393
-0.18437208 -0.09831462 -0.4356424 -0.19505817 -0.0015560742 0.095834434 0.13538945 -0.2399101
0.10008486 -0.026830615 -0.17527443 -0.0426582 0.047265813 -0.24362594 -0.18344985 -0.28772604
-0.124106996 0.016119974 0.06094078 -0.2392086 -0.4270622 -0.13962159 0.08349593 -0.38775942
-0.0031530242 0.024277018 -0.012193043 -0.0289075 -0.28263155 -0.20680021 0.064877845 -0.21900147
0.14005288 -0.04294603 -0.094845414 0.028390465 -0.09139287 -0.12649207 -0.27801657 -0.19517551
-0.12819757 -0.14490831 0.13870867 -0.094091974 -0.09024949 -0.46467143 -0.15281244 -0.19464628
-0.33669907 -0.11539474 0.052671075 -0.33936447 0.2049686 -0.29222178 -0.24740134 0.056554772
00000000: d0be e7bd 902d 11be 0aa6 1cbe 5d85 5b3e
00000010: 6c95 babe 163e a4be 16ff 22be 4aa8 88bc
00000020: 6bfe 2c3e 297a 00be 7b49 6abe 1933 05bd
00000030: a280 a5bd ae52 f4bc ab84 83be 5b7a 57be
00000040: cf7b 3d3e a774 d03c 2a6e 2d3e 86a8 ae3e
00000050: 1eb1 e73b bd78 e1bd 5acf a4be de18 973e
00000060: ea94 1bbe 7d5a e6bd 08c2 03bc cbc5 30be
00000070: cabc 16bd 4d78 79be 722e 37be d254 ddbd
00000080: 1e90 1f3d 8663 56be 127c d63c dd47 1bbe
00000090: 6fc2 0cbe b46c 8fbd cb1a 22be e180 74be
000000a0: 6f37 9e3d 73e0 0abe 7420 79be 3e66 47be
000000b0: f695 a5be a78c b6bd f908 1abe e2e2 f4be
000000c0: 202e aabd efd2 2fbc a98a 96be cd16 1f3e
000000d0: 3bc6 8fbe 7acc 76bd 266d c1be b697 223e
000000e0: 0ec8 003e bee2 51be d17c 6a3d 7233 9abd
000000f0: a929 f8be 7f38 243e 9034 2bbe c428 dabd
00000100: 1456 143a 2cd5 38be 3185 83bd 9da6 79be
00000110: 3653 523e c511 fdbe 2dae c7bd 7b35 aa3e
00000120: 4f43 27be 8a7d 52be 957a 4fbd 58fd fabd
00000130: 2645 7abe a8be 6bbe 745f abbe 22e9 ffbb
00000140: b22f b73c f8a7 febc 7113 683d f5bd 9abd
00000150: 977a 02be 051d 81be c686 80be 9664 8bbe
00000160: a145 81be 1534 98bd 63e5 cbbe 6d99 5ebe
00000170: b826 51be 7c8c 2d3d 47d1 81be 888e b8be
00000180: bb63 913d f453 7bbe 0bfe 923e 8bd4 943e
00000190: 4f28 3cbe 2c28 533c d924 12bf 795e 74bd
000001a0: 1912 17be 0377 99bd 7ca4 013d 2f04 dabe
000001b0: fd7a 21be 1901 b33e 2ba0 65be 59bd 8abd
000001c0: 5deb 21be e3cd 8dbc 5eb1 77be c112 7cbd
000001d0: 9228 e2bd 422a a3be b48e 7fbe c268 c6be
000001e0: 0ac5 06be fd23 b3bc 6b01 69be 2024 6ebe
000001f0: 5d15 353e fb49 8abe bb96 29be 123b 93be
00000200: e54a 5bbe 292e a1bd d19a 393d a719 1dbe
00000210: 75e0 363e 261e 1dbe ea72 c0be 5d07 553e
00000220: bd83 86be 5bee 1e3e 617e 65bd 08a1 5fbd
00000230: 9d32 4ebe 34ed ddbe 1072 c53d 1f68 f03d
00000240: bb86 72be c717 b0be 0bba 18be 59a0 c5be
00000250: 2e27 54bd 5c9c 0ebf 643b 5cbe 44c5 8bbe
00000260: 1009 85be 7705 f0be 1fdb e6be d4af b4be
00000270: ad19 7ebe 5fd7 38be 2490 e93d 8cf7 92bd
00000280: cdd9 febc c0bb 7cbd 4128 2dbe c3a8 59be
00000290: 47ef 2e3d 7ae5 63bd 2759 83be b5f0 08be
000002a0: a2e6 293e 6dd4 6abd 66f5 c2be 50ad cdbc
000002b0: c409 eebd 5e43 50be be65 f03d 9ffa 5bbe
000002c0: e99c 95bc 2eee b7bd 739a 0cbe 775a b9bc
000002d0: b41e 10be a096 743b 8001 13be 9f7b c2be
000002e0: e0a4 17bb 9ca3 82be 0e3b f8bd 2752 f6bd
000002f0: 5fdc 62be d9fd f7bd e879 d0bc 2988 91bd
00000300: a342 2cbe 451f 983c 5bf8 be3d 20bf 8cbd
00000310: 2dc9 36be b391 11bd 9edc 693c 0739 bd3d
00000320: 09cc 3cbe 2d59 c9bd 850c dfbe 54bd 47be
00000330: 30f5 cbba d844 c43d 88a3 0a3e feaa 75be
00000340: 4bf9 cc3d e1cb dbbc 247b 33be 5dba 2ebd
00000350: cc99 413d 1479 79be 47da 3bbe d450 93be
00000360: cf2b febd 090e 843c 0a9d 793d 19f3 74be
00000370: e6a7 dabe f6f8 0ebe eaff aa3d 6788 c6be
00000380: f8a2 4ebb 99e0 c63c 54c5 47bc 6ccf ecbc
00000390: 15b5 90be 6fc3 53be adde 843d ec41 60be
000003a0: 066a 0f3e 2de8 2fbd 503e c2bd 1f93 e83c
000003b0: 2f2c bbbd 2387 01be 3058 8ebe 17dc 47be
000003c0: 3946 03be d862 14be a509 0e3e 4bb3 c0bd
000003d0: bad4 b8bd 6ae9 edbe dd7a 1cbe 5b51 47be
000003e0: d263 acbe 1454 ecbd a0bd 573d 2ec1 adbe
000003f0: 4ae3 513e 189e 95be c756 7dbe faa5 673d

fc2.weight f4 [300, 400]
0.06680919 -0.07186304 0.08422727 0.043826763 0.11140538 0.041490596 -0.08580342 -0.2905738
-0.77811897 0.21389139 -0.07306857 0.81363183 -0.113999225 0.0057547595 0.15816757 -0.2856849
0.06953999 0.2779383 -0.23351549 -0.2551793 -0.1117165 -0.20392644 0.030477542 0.015214258
0.007357679 -0.04391521 0.008432144 0.2844222 -0.08939563 0.22451389 0.017183015 0.04035504
-1.0161061 0.018129155 0.4872586 -0.664611 -0.0066493745 -0.68650407 0.022087753 0.082739085
-0.30345568 -0.039774846 -0.14897889 -0.027016515 -0.15359558 -0.22521982 -0.0082315225 -0.12345466
-0.018646043 0.050816078 -0.009664138 -0.12762107 -0.052711625 0.04053854 0.021019397 -0.28218576
-0.032861777 -1.1472737 -0.040765762 -0.0826978 0.039515097 -0.38916737 -0.035511248 0.04603379
-0.01678498 -0.0006824001 0.088482074 -0.9446199 0.14082873 -0.1768721 0.009957015 -1.5519853
-0.39115047 -0.07313588 0.1698843 4.8139176e-05 -0.20265405 -0.23125756 -0.05265714 -0.046116594
0.45652506 0.64466995 -0.01933875 0.115690656 0.022206897 -1.1501944 -0.4251783 0.28360948
0.6140101 -0.047378447 -0.032713685 -0.19923079 -0.39910412 0.02494895 0.02547776 0.5114322
-0.18931043 0.29788512 0.3240728 0.2310589 0.05112457 -0.6592797 -0.19884026 -0.9154887
0.15255362 -0.41544282 -0.511027 0.043262832 -0.5754194 0.35067457 -0.099953875 -0.4481728
0.020916682 0.2254997 -0.09642149 -0.10768542 -0.06540103 -0.12986957 0.35999432 0.38825208
0.40427047 0.09589455 0.105842635 0.17764221 -0.079442255 0.048451502 -1.2120665 0.05903981
-0.53438014 0.08842254 -0.25384828 -0.05528422 -0.45935047 0.46226737 -0.0693363 0.07847719
0.20979837 -1.1257751 0.03899107 0.21677685 -0.008566184 0.020627499 0.3667153 -0.3220767
0.7502821 -0.2163252 -0.028822541 0.029026262 0.038565263 -0.89577675 0.08164648 -0.1301423
0.4481797 0.41300976 -0.02379463 -0.835803 -0.40928257 0.05259941 0.052259658 0.0733901
-0.19120821 0.057308584 0.37726688 0.07787849 -0.39072564 -0.06229965 0.03596165 -0.8959978
0.031168872 0.32380813 -0.315613 -0.07956297 0.04402976 -0.039156873 -0.3541582 -0.5997022
-0.21379279 0.14513719 0.018542795 -0.095630474 -0.33758175 0.25657716 0.08837057 -0.3351699
-0.023422802 -0.20657828 0.09623126 -0.11308109 0.52310145 -0.18917312 -0.45224917 -0.93610287
-0.24077159 -0.44657078 0.5880912 -0.4030944 0.036243003 0.06412433 -0.39413157 0.10377904
-0.03882472 -0.16999173 -0.23978753 -0.0069934293 -1.187407 -0.27913848 0.4606782 -0.010013972
-0.31548855 -0.050477516 0.018768085 -0.037800234 -0.28350204 -0.15688635 0.07413323 -0.32943296
-0.20682572 0.5174063 0.070998095 0.18778026 0.28132945 -0.24422325 -0.9923612 -0.5509389
-0.033344276 0.19879675 0.18921857 0.02572223 -0.3933318 -0.023112424 0.23727624 0.10563509
-0.12510055 0.18070252 -0.36286452 0.08494493 -0.02359761 -0.059594076 0.6206449 -0.05618405
-0.1709754 -0.057097364 0.34197176 -0.03843205 0.20014483 -0.17978527 -0.06140615 -0.10472977
-0.04172581 0.0018695854 -0.31029603 -0.26899087 -0.9428575 0.00215187 0.033715006 -0.88855314
00000000: 42d3 883d ee2c 93bd 597f ac3d b183 333d
00000010: 8128 e43d 0bf2 293d b4b9 afbd 17c6 94be
00000020: ce32 47bf 5806 5b3e f9a4 95bd 2d4a 503f
00000030: 6d78 e9bd 6c92 bc3b aef6 213e 4b45 92be
00000040: fb6a 8e3d ee4d 8e3e af1e 6fbe dca6 82be
00000050: 9fcb e4bd 18d2 50be 0aac f93c 3945 793c
00000060: af18 f13b 6fe0 33bd fa26 0a3c c99f 913e
00000070: 0e15 b7bd f8e6 653e 65c3 8c3c 544b 253d
00000080: c40f 82bf 9883 943c f679 f93e f223 2abf
00000090: ffe2 d9bb bbbe 2fbf 60f1 b43c 1c73 a93d
000000a0: 8b5e 9bbe f3ea 22bd ec8d 18be bd51 ddbc
000000b0: 2948 1dbe 06a0 66be 82dd 06bc ccd5 fcbd
000000c0: 96bf 98bc 8524 503d 5556 1ebc 19af 02be
000000d0: 25e8 57bd bd0b 263d df30 ac3c a77a 90be
000000e0: 129a 06bd ddd9 92bf 00fa 26bd 775d a9bd
000000f0: 95da 213d f240 c7be 3e74 11bd ed8d 3c3d
00000100: a880 89bc 18e3 32ba 1736 b53d 9cd2 71bf
00000110: 6835 103e f61d 35be bf22 233c 74a7 c6bf
00000120: e044 c8be 44c8 95bd 26f6 2d3e 0ce9 4938
00000130: 8b84 4fbe c8ce 6cbe 03af 57bd c1e4 3cbd
00000140: a7bd e93e 1709 253f 4c6c 9ebc 39ef ec3d
00000150: 3deb b53c 9239 93bf f8b0 d9be 4335 913e
00000160: c42f 1d3f e70f 42bd c9fe 05bd 2803 4cbe
00000170: 6057 ccbe be61 cc3c bcb6 d03c 38ed 023f
00000180: 98da 41be 6684 983e dfec a53e b49a 6c3e
00000190: ff67 513d 8ec6 28bf c89c 4bbe 785d 6abf
000001a0: 0437 1c3e ecb4 d4be aad2 02bf 5e34 313d
000001b0: b04e 13bf 9e8b b33e 9eb4 ccbd e876 e5be
000001c0: 7659 ab3c 65e9 663e a178 c5bd 2c8a dcbd
000001d0: faf0 85bd 87fc 04be 2d51 b83e fac8 c63e
000001e0: 8afc ce3e 5d64 c43d 06c4 d83d d7e7 353e
000001f0: 9fb2 a2bd 1575 463d ff24 9bbf bad3 713d
00000200: 23cd 08bf e016 b53d 67f8 81be b571 62bd
00000210: fc2f ebbe 4fae ec3e 3100 8ebd a6b8 a03d
00000220: 62d5 563e 6619 90bf 1ab5 1f3d c0fa 5d3e
00000230: 2e59 0cbc 00fb a83c 1cc2 bb3e 3de7 a4be
00000240: 7d12 403f 5a84 5dbe 401d ecbc 7cc8 ed3c
00000250: 9cf6 1d3d a051 65bf 4536 a73d 0644 05be
00000260: cf77 e53e 0476 d33e f5ec c2bc 2ff7 55bf
00000270: 7c8d d1be 7b72 573d 390e 563d 8c4d 963d
00000280: 16cc 43be 68bc 6a3d 2029 c13e c27e 9f3d
00000290: 310d c8be eb2d 7fbd 864c 133d 1d60 65bf
000002a0: dd55 ff3c 2eca a53e 0798 a1be e9f1 a2bd
000002b0: 8d58 343d f562 20bd 3954 b5be 1586 19bf
000002c0: 7fec 5abe d89e 143e 0fe7 973c e9d9 c3bd
000002d0: 84d7 acbe 155e 833e a1fb b43d 649b abbe
000002e0: 2de1 bfbc 4289 53be e514 c53d 0f97 e7bd
000002f0: fae9 053f 99b6 41be 348d e7be 70a4 6fbf
00000300: d48c 76be eda4 e4be 258d 163f 6462 cebe
00000310: 8b73 143d 9e53 833d 9dcb c9be 1b8a d43d
00000320: ab06 1fbd 5012 2ebe dd8a 75be 2329 e5bb
00000330: f4fc 97bf 3deb 8ebe 03de eb3e a511 24bc
00000340: b787 a1be 83c1 4ebd 87bf 993c 6bd4 1abd
00000350: 2e27 91be d1a6 20be 2ad3 973d 70ab a8be
00000360: 1fca 53be bd74 043f 7367 913d 7849 403e
00000370: 6a0a 903e a915 7abe 620b 7ebf 550a 0dbf
00000380: 0294 08bd 6091 4b3e 83c2 413e 6db7 d23c
00000390: c962 c9be 4456 bdbc 8bf8 723e 3657 d83d
000003a0: 5c1a 00be 150a 393e 61c9 b9be 9cf7 ad3d
000003b0: c64f c1bc eb18 74bd 96e2 1e3f 3f21 66bd
000003c0: 2d14 2fbe edde 69bd ec16 af3e ed6a 1dbd
000003d0: c4f2 4c3e a119 38be 0485 7bbd 907c d6bd
000003e0: afe8 2abd e00c f53a 1fdf 9ebe 2cb9 89be
000003f0: 1c5f 71bf 6306 0d3b bf18 0a3d 3878 63bf

fc2.bias f4 [300]
0.38381556 -0.080893435 -0.36676297 -0.091235235 -0.06312054 -0.06564782 -0.047088787 -0.08944172
-0.08998193 -0.082673885 0.017633893 -0.18558364 -0.050513014 -0.170995 -0.08104624 -0.064782865
-0.07629857 -0.085165426 0.007916207 -0.006445592 -0.114878275 -0.43940684 -0.23880397 -0.39898494
-0.057735816 0.15330285 0.0025117244 0.0033969716 -0.28868893 -0.40546325 -0.34201643 -0.028043691
-0.049499683 -0.031319108 -0.029470652 -0.27676007 -0.081212215 -0.06815938 -0.17995882 -0.33980855
-0.5170833 -0.09930844 -0.045900196 -0.1059404 -0.13412984 -0.26682466 -0.19903548 0.02925878
-0.18834446 -0.027421646 -0.07843382 -0.13919237 0.050421864 -0.07519953 -0.1536386 0.31895778
-0.31533518 -0.040779456 -0.3605869 -0.26184353 -0.6970996 -0.47483307 0.08289751 -0.09035698
-0.04184519 -0.36901712 -0.0867072 -0.18475546 -0.029484997 -0.051483683 -0.0824069 -0.18705033
-0.4472855 0.4373328 -0.045127194 -0.4570097 -0.00052443385 -0.042142287 -0.1355322 -0.17756951
-0.32394046 -0.0723088 -0.044015255 -0.07791707 -0.038130444 0.14236595 -0.3948037 0.009394136
-0.069869995 -0.0586038 -0.08832882 -0.11815869 -0.08322708 -0.14052044 -0.08595849 -0.113440454
0.008295122 -0.24719799 -0.003576049 0.42631516 -0.27621293 -0.04530384 -0.111383125 -0.013215321
0.05971559 -0.02572243 -0.15197383 0.0017142014 -0.2382918 -0.4001768 0.28373367 -0.42370036
-0.056089222 -0.06732727 0.080147654 -0.24078037 -0.17772532 -0.37134284 -0.079818636 -0.09881527
-0.0764317 -0.091717884 -0.056669276 -0.06888715 -0.07994718 -0.053957175 -0.003970834 -0.6594879
-0.18276311 -0.17018773 -0.11045476 -0.10741304 -0.12936045 -0.24822176 0.0062916228 -0.5606591
-0.060274087 -0.10928938 -0.082277015 -0.0003998182 -0.012329796 -0.4019656 0.041321002 -0.13167965
-0.12469262 -0.2977779 0.036209844 0.124043934 -0.17214765 -0.23384175 -0.0695133 -0.23871532
-0.35913977 -0.009644717 0.0178826 -0.017465917 -0.14900114 -0.10956669 -0.032380283 -0.3815512
-0.12213188 0.4297416 0.04662903 -0.052382745 -0.12378311 -0.057746153 -0.025690874 -0.109619044
-0.24130945 -0.4384852 -0.027981225 -0.082250156 -0.47960883 -0.044153646 -0.08820857 -0.13144954
0.106242314 -0.19195092 -0.001587884 -0.049134403 -0.09077377 -0.30407187 -0.17481162 -0.08232772
-0.047046866 -0.66112256 -0.24063152 -0.2697732 -0.45098394 -0.037310123 -0.14879984 -0.5502149
-0.024373 0.5146965 -0.024250599 -0.2427236 -0.058434363 -0.12629852 -0.2813639 -0.16943584
-0.034590956 -0.062529765 -0.013971789 0.031436075 0.004703504 0.013152122 -0.06695203 0.46522567
-0.10007009 -0.10535049 -0.08001606 -0.2769679 -0.0542487 -0.20183775 -0.12049043 -0.33738348
-0.03824287 -0.064398915 -0.2512796 -0.044951804 -0.1899342 0.004059483 -0.051795132 -0.10241015
-0.26030996 -0.058483176 -0.036408346 -0.096662864 -0.08464961 -0.05455745 -0.13440906 -0.062027242
-0.08749489 -0.49832356 0.52585316 -0.08442729 -0.018841298 -0.79002565 -0.02785155 -0.16324528
-0.10098422 -0.06704134 -0.01776876 -0.23380569 -0.045957744 -0.105530076 0.008307645 -0.022081757
-0.32197967 0.4296473 -0.039952505 -0.26830518 -0.032997333 -0.004423059 -0.079514675 -0.048286073
00000000: 7983 c43e 75ab a5bd 5bc8 bbbe 8ad9 babd
00000010: 5745 81bd 5d72 86bd 2ce0 40bd 382d b7bd
00000020: 7248 b8bd ed50 a9bd f474 903c a309 3ebe
00000030: bce6 4ebd 5019 2fbe 92fb a5bd e1ac 84bd
00000040: 6d42 9cbd 366b aebd fbb2 013c 8b35 d3bb
00000050: 4d45 ebbd eff9 e0be 0789 74be c147 ccbe
00000060: 647c 6cbd 6cfb 1c3e be9b 243b ba9f 5e3b
00000070: 09cf 93be e198 cfbe c71c afbe e2bb e5bc
00000080: 2ec0 4abd 7748 00bd 706c f1bc 7fb3 8dbe
00000090: 9752 a6bd 2597 8bbd 2047 38be 63fb adbe
000000a0: 925f 04bf 3962 cbbd d801 3cbd 48f7 d8bd
000000b0: 5559 09be 3e9d 88be f5cf 4bbe 1cb0 ef3c
000000c0: 5fdd 40be 5ca3 e0bc e9a1 a0bd 7288 0ebe
000000d0: 2887 4e3d 3602 9abd 7053 1dbe 6f4e a33e
000000e0: 9d73 a1be 5c08 27bd d99e b8be 5b10 86be
000000f0: 1f75 32bf 521d f3be 2bc6 a93d 150d b9bd
00000100: dd65 2bbd d0ef bcbe 8b93 b1bd 8930 3dbe
00000110: 858a f1bc 8ee0 52bd f3c4 a8bd 1f8a 3fbe
00000120: 9b02 e5be 16ea df3e 4bd7 38bd 2dfd e9be
00000130: 297a 09ba 649d 2cbd f4c8 0abe c8d4 35be
00000140: 86db a5be a316 94bd 5749 34bd fc92 9fbd
00000150: ab2e 1cbd 61c8 113e b623 cabe dde9 193c
00000160: 0018 8fbd 8a0a 70bd bee5 b4bd 2ffd f1bd
00000170: f672 aabd 97e4 0fbe 010b b0bd 7853 e8bd
00000180: 43e8 073c 7821 7dbe 265c 6abb fb45 da3e
00000190: c86b 8dbe 8590 39bd d61c e4bd 1385 58bc
000001a0: 5698 743d d8b7 d2bc 079f 1bbe 0eaf e03a
000001b0: c402 74be f9e3 ccbe 8a45 913e 41ef d8be
000001c0: d0bd 65bd e1e2 89bd 7424 a43d 218f 76be
000001d0: a0fd 35be a620 bebe f477 a3bd a95f cabd
000001e0: 3988 9cbd 96d6 bbbd 0b1e 68bd b514 8dbd
000001f0: 59bb a3bd 3302 5dbd c51d 82bb 33d4 28bf
00000200: 4126 3bbe b145 2ebe 1b36 e2bd 5efb dbbd
00000210: 1177 04be d82d 7ebe f529 ce3b 5b87 0fbf
00000220: f6e1 76bd 1cd3 dfbd da80 a8bd b19e d1b9
00000230: ea02 4abc 6fce cdbe 3640 293d 08d7 06be
00000240: d85e ffbd 5876 98be c650 143d bf0a fe3d
00000250: 7947 30be 3674 6fbe fd5c 8ebd ca71 74be
00000260: 2be1 b7be e004 1ebc 887e 923c af14 8fbc
00000270: c193 18be 8064 e0bd 30a1 04bd ae5a c3be
00000280: 4720 fabd 1707 dc3e 15fe 3e3d 4a8f 56bd
00000290: 0082 fdbd 3b87 6cbd ab75 d2bc f37f e0bd
000002a0: d319 77be 2281 e0be e238 e5bc c572 a8bd
000002b0: 4a8f f5be 74da 34bd b2a6 b4bd b59a 06be
000002c0: 9295 d93d c88e 44be 8c20 d0ba 2841 49bd
000002d0: 99e7 b9bd 4faf 9bbe d101 33be 709b a8bd
000002e0: 37b4 40bd 543f 29bf 1c68 76be b61f 8abe
000002f0: 5ee7 e6be 80d2 18bd fc5e 18be e2da 0cbf
00000300: e3a9 c7bc 26c3 033f 31a9 c6bc 898c 78be
00000310: df58 6fbd 6654 01be ee0e 90be 9780 2dbe
00000320: 3faf 0dbd 9b0f 80bd eee9 64bc 1dc3 003d
00000330: da1f 9a3b ff7b 573c 251e 89bd 0f32 ee3e
00000340: 8cf1 ccbd ffc1 d7bd 76df a3bd bdce 8dbe
00000350: e333 5ebd 8eae 4ebe b0c3 f6bd 87bd acbe
00000360: 8ea4 1cbd 94e3 83bd b8a7 80be 621f 38bd
00000370: 1c7e 42be 6905 853b 2227 54bd 6abc d1bd
00000380: 5947 85be 0e8c 6fbd eb20 15bd 2ef7 c5bd
00000390: c65c adbd a277 5fbd 87a2 09be 4710 7ebd
000003a0: 8530 b3bd 4424 ffbe 509e 063f 37e8 acbd
000003b0: 1159 9abc 1f3f 4abf ef28 e4bc c529 27be
000003c0: d1d0 cebd f84c 89bd ca8f 91bc c26a 6fbe
000003d0: 303e 3cbd 2720 d8bd ca1c 083c cde4 b4bc
000003e0: 85da a4be bbfa db3e 3da5 23bd 4c5f 89be
000003f0: 3628 07bd 4fef 90bb 97d8 a2bd 9ec7 45bd

fc3.weight f4 [4, 300]
-0.7931345 -0.03431617 -0.8063065 -0.0415874 0.0669744 -0.012836086 0.027569694 0.22136842
-0.04475068 -0.06907165 -0.0004903448 -0.049392488 -0.121072344 0.26382065 0.03685486 0.051900625
0.02205338 -0.037128083 0.026962003 0.03126149 0.028920358 -0.045383792 0.030704452 0.18890849
-0.032724313 -0.6890316 0.014852221 -0.122333035 0.13651295 -0.08173577 0.5515279 -0.07609381
0.07549882 0.023640005 0.02188234 -0.0061270515 0.00880023 -0.024844443 0.042660892 0.26255202
-0.18409501 0.0162005 0.012425959 -0.009380399 0.051163282 0.20730847 0.30093655 -0.2737879
-0.10952416 -0.8179285 -0.08449761 -0.019009138 0.026180794 -0.017107941 0.070401706 -0.0043512937
0.23344764 -0.0523807 -0.58762664 1.3434632 0.5399811 -0.051336665 0.26330227 0.008729012
0.025313437 0.24286535 -0.037539992 0.22083534 -0.049286295 -0.0898621 -0.026419032 0.06677848
0.9110853 0.21772307 0.0009269772 0.3889043 0.22675419 -0.11666217 -0.28495094 -0.05030666
-0.8378155 -0.019699933 -0.029130105 -0.016425828 0.054829 0.029744457 0.034061387 0.2911972
-0.05154061 0.12315092 -0.036967672 -0.29239643 0.0066146227 0.045228235 0.037242696 -0.01865384
0.14728644 0.09382568 -0.024199778 -0.3693062 -0.007376648 -0.07944233 -0.029383885 -0.11847222
-0.40715444 0.24921012 -0.28499213 0.032606613 -0.36707696 0.1544701 -0.18069676 0.19974734
-0.21267217 -0.22416846 0.42955267 -0.6501714 0.028621797 -0.08130641 0.14505394 0.008671354
-0.093628325 0.082714565 0.00579715 0.104398355 -0.028939297 -0.036526497 -0.0029474306 -0.55609095
0.36714426 0.4995351 -0.36042014 0.014017738 -0.13517356 0.05957534 -0.02012172 -0.53299767
0.06370015 0.036342595 -0.06382679 -0.045708228 -0.017753607 0.30223167 0.19973958 0.013481668
0.041768923 0.511196 0.31876326 0.15039475 -0.031207578 0.050103787 -0.002626926 -0.46513408
-0.019648908 0.016581697 0.0011842815 -0.013556746 -0.6588624 -0.0007836563 0.06479231 0.95153916
-0.0071074343 -0.31377137 -0.11659705 0.06332064 -0.061945 -0.2560406 -0.028977137 0.03392692
0.91680914 -0.19783065 -0.012837367 -0.04302797 0.085142106 0.33836275 0.3428906 0.056510627
-0.22751072 -0.08940619 -0.027996298 -0.04038417 0.028754637 0.37123138 0.1929554 -0.0023288927
0.033484206 0.11983028 0.11474401 0.16579527 0.13587303 -0.88338536 0.24258438 -0.030326478
0.010829814 -0.11664488 0.001612831 0.09492567 0.04222556 0.05344202 0.1507855 -0.5206649
-0.010258075 -0.19363067 -0.48554894 -0.1598117 0.086047195 -0.3138751 -0.033412088 1.0200173
-0.006371708 -0.061988793 -0.025231436 0.03457031 0.11023243 0.15288031 0.16419818 0.11407131
0.008814664 -0.0136125535 0.019480199 0.013044011 0.2018406 0.074743696 -0.035624377 0.004272994
0.06255723 -0.008549604 -0.06509835 -0.029516354 -1.1760638 0.011944033 -0.10659669 -0.017089905
-0.21176575 -0.050406333 0.19650023 -0.019236058 -0.023664065 -0.18239473 -0.1283801 0.9704112
0.047782313 -0.066180274 -0.008551564 -0.29352212 0.65513384 -0.0054423427 0.9930178 -0.016743634
-0.2628108 0.8878164 -0.00042843065 -0.40346605 -0.4348482 0.036005087 -0.008458054 0.0023760174
00000000: dd0a 4bbf 1d8f 0cbd 1a6a 4ebf 8d57 2abd
00000010: e029 893d 724e 52bc d7d9 e13c 67ae 623e
00000020: 7d4c 37bd 7075 8dbd 7c8a 00ba c74f 4abd
00000030: c7f4 f7bd 8013 873e 1ff5 163d c095 543d
00000040: 4aa9 b43c 9e13 18bd 6bdf dc3c 0c0c 003d
00000050: 63ea ec3c 5be4 39bd e787 fb3c 3a71 413e
00000060: ee09 06bd 6064 30bf bb56 733c be89 fabd
00000070: 0dca 0b3e 1565 a7bd ef30 0d3f 12d7 9bbd
00000080: 209f 9a3d afa8 c13c 9842 b33c 6fc5 c8bb
00000090: d72e 103c 9386 cbbc 30bd 2e3d 386d 863e
000000a0: 6783 3cbe e9b6 843c 4096 4b3c 3fb0 19bc
000000b0: 9790 513d ac48 543e 5b14 9a3e ed2d 8cbe
000000c0: 344e e0bd c363 51bf 150d adbd 0db9 9bbc
000000d0: 1b79 d63c f425 8cbc c52e 903d 4c95 8ebb
000000e0: e60c 6f3e 258d 56bd b36e 16bf 9af6 ab3f
000000f0: 343c 0a3f 6546 52bd 8ecf 863e 2104 0f3c
00000100: 205e cf3c b2b1 783e 89c3 19bd a922 623e
00000110: 6de0 49bd 9f09 b8bd ba6c d8bc 28c3 883d
00000120: e33c 693f ccf2 5e3e 6300 733a 771e c73e
00000130: 4032 683e 93ec eebd 17e5 91be 5b0e 4ebd
00000140: 147b 56bf c161 a1bc 42a2 eebc 758f 86bc
00000150: 6094 603d a6aa f33c f483 0b3d cd17 953e
00000160: 3f1c 53bd 8d36 fc3d 6a6b 17bd fcb4 95be
00000170: 7abf d83b 3e41 393d cc8b 183d f0cf 98bc
00000180: 42d2 163e ae27 c03d 9d3e c6bc b415 bdbe
00000190: cfb7 f1bb a9b2 a2bd 79b6 f0bc 90a1 f2bd
000001a0: 8c76 d0be f030 7f3e 7dea 91be 838e 053d
000001b0: 83f1 bbbe 692d 1e3e 9208 39be 918a 4c3e
000001c0: bcc6 59be 6b8c 65be 54ee db3e a271 26bf
000001d0: 4278 ea3c fa83 a6bd 0589 143e 4b12 0e3c
000001e0: 35c0 bfbd 4166 a93d 05f6 bd3b cece d53d
000001f0: 1b12 edbc cf9c 15bd ae29 41bb fa5b 0ebf
00000200: 55fa bb3e 11c3 ff3e fd88 b8be a8aa 653c
00000210: f06a 0abe 4605 743d 4ed6 a4bc 8972 08bf
00000220: 3975 823d f9db 143d 9fb7 82bd 8d38 3bbd
00000230: 0370 91bc 1cbe 9a3e 8888 4c3e 37e2 5c3c
00000240: e415 2b3d bedd 023f f034 a33e 1501 1a3e
00000250: 09a7 ffbc a139 4d3d 8128 2cbb 0e26 eebe
00000260: bff6 a0bc 57d6 873c e539 9b3a 1d1d 5ebc
00000270: 35ab 28bf 496e 4dba d5b1 843d 1298 733f
00000280: 7be5 e8bb a4a6 a0be 6fca eebd 40ae 813d
00000290: 0aba 7dbd c117 83be 7661 edbc f4f6 0a3d
000002a0: 01b4 6a3f 1e94 4abe d253 52bc 193e 30bd
000002b0: fc5e ae3d e23d ad3e 5b8f af3e b077 673d
000002c0: 92f8 68be 981a b7bd 7e58 e5bc df69 25bd
000002d0: d88e eb3c 0a12 be3e 1a96 453e 56a0 18bb
000002e0: bc26 093d 9469 f53d e8fe ea3d 3cc6 293e
000002f0: 4d22 0b3e 8b25 62bf 0a68 783e 3c6f f8bc
00000300: 886f 313c 83e3 eebd a165 d33a 6468 c23d
00000310: b5f4 2c3d 05e6 5a3d 8467 1a3e 4b4a 05bf
00000320: 7c11 28bc 1e47 46be df99 f8be aea5 23be
00000330: 8339 b03d 3db4 a0be 1ddb 08bd ed8f 823f
00000340: c3c9 d0bb f6e7 7dbd 28b2 cebc 9999 0d3d
00000350: 8ac1 e13d a88c 1c3e 9123 283e 389e e93d
00000360: 616b 103c 3007 5fbc f094 9f3c 8cb6 553c
00000370: 4daf 4e3e 3913 993d deea 11bd 7904 8c3b
00000380: 011e 803d a313 0cbc 4952 85bd 48cc f1bc
00000390: 4289 96bf e8b0 433c 5e4f dabd 2100 8cbc
000003a0: 1fd9 58be df76 4ebd 5b37 493e f094 9dbc
000003b0: 24db c1bc afc5 3abe 1376 03be de6c 783f
000003c0: 63b7 433d 8689 87bd dc1b 0cbc 8848 96be
000003d0: dab6 273f ae55 b2bb 6a36 7e3f f229 89bc
000003e0: 238f 86be f047 633f fd9e e0b9 1a93 cebe
000003f0: 6ca4 debe 127a 133d a693 0abc f5b6 1b3b

fc3.bias f4 [4]
0.08358998 0.1428559 0.026640117 0.3158154
00000000: 3931 ab3d d148 123e 603c da3c 8eb2 a13e
