models/TD3_BipedalWalker/critic_1_target.pth (torch, 530647 bytes, 5 tensors)

fc1.weight f4 [400, 28]
0	0x3f7d691b	0.98988503
1	0x40abb256	5.3655195
2	0xbf61dbfa	-0.8822628
3	0xbfc66bc0	-1.5501633
4	0x3f854bdc	1.0413775
5	0xbefe15c3	-0.49625978
6	0x3ff94e54	1.9477029
7	0xbeb986f8	-0.36235785
8	0xbee8fdc3	-0.45506105
9	0xbe808502	-0.25101477
10	0x3eadc4cf	0.33939216
11	0x3ec53599	0.38517454
12	0xbecd12e0	-0.40053463
13	0xc023279e	-2.549293
14	0xbda2acf7	-0.07943147
15	0xbd9d9a86	-0.07695489
16	0xbe65fd03	-0.22459798
17	0xbeb65050	-0.3560815
18	0xbe0634ad	-0.13106032
19	0xbec8d749	-0.3922675
20	0xbe4f2f81	-0.20232965
21	0xbd9dcc86	-0.077050254
22	0xbebbd980	-0.36689377
23	0xbf2f934f	-0.6858415
24	0x3e64d8d3	0.22348337
25	0x3e8cbfad	0.27489987
26	0x3e43fc51	0.1913922
27	0x3eab01c7	0.33399794
28	0x3f369545	0.7132152
29	0xbe0378da	-0.1283907
30	0x3f2a581c	0.66540694
31	0x4024ac03	2.5729988
32	0xbddb2765	-0.10700873
33	0xbfada7fc	-1.356689
34	0x3e500ca0	0.20317316
35	0x3f27a184	0.6548083
36	0x3ea7b67d	0.32756415
37	0xbf1ecf89	-0.62035424
38	0xbee9a788	-0.4563563
39	0xbf19c08b	-0.6005942
40	0xbf0c235d	-0.5474146
41	0x3e5f844a	0.21827808
42	0xbead8c5e	-0.33896154
43	0xbf094d83	-0.536339
44	0xbea83e41	-0.32859996
45	0xbea42b65	-0.32064357
46	0xbeb9562d	-0.3619856
47	0xbf10ba48	-0.5653424
48	0xbea232d9	-0.3167942
49	0xbefc9141	-0.4932957
50	0xbf0e7868	-0.55652475
51	0xbe6928fb	-0.22769539
52	0xbf932466	-1.1495483
53	0xbf836972	-1.0266554
54	0x3e9206c4	0.28520787
55	0xbe96b855	-0.2943751
56	0x3edecfe5	0.43517986
57	0x3f01e593	0.5074093
58	0x3f276eb5	0.654033
59	0x405bc745	3.4340374
60	0x3fb3eaa7	1.4055985
61	0xbd92e913	-0.07173362
62	0xbe84791f	-0.25873658
63	0x3c15be8f	0.009139671
64	0x3f811127	1.008336
65	0xbf098083	-0.5371172
66	0xbeef04b9	-0.4668329
67	0x3e790b46	0.24320707
68	0xbee07dc4	-0.43845952
69	0x3e8886ee	0.26665443
70	0x3e28c09a	0.16479722
71	0x3dca9fb1	0.0989374
72	0x3e29496f	0.16531919
73	0x3e427ca9	0.18992867
74	0x3d915c66	0.07097702
75	0x3de8ef50	0.1137377
76	0x3f0b2041	0.5434609
77	0x3f98586e	1.1901987
78	0x3f6c6bee	0.9235219
79	0x3f3d1740	0.738636
80	0x3e40b979	0.18820752
81	0x3e1dc7e6	0.15408286
82	0xbd60e448	-0.054905206
83	0x3de62a41	0.11238528
84	0x3f19a431	0.6001616
85	0xbec05ca2	-0.37570673
86	0xbdd1de1b	-0.102474414
87	0x3f927809	1.1442882
88	0x3eef8dd3	0.4678789
89	0xbf7b57c2	-0.9818078
90	0xbf880f58	-1.0629683
91	0x3fd711cc	1.6802306
92	0xbfaff71c	-1.3747287
93	0xbed87752	-0.42278534
94	0x3f51f755	0.82018024
95	0xbf94f4c2	-1.1637194
96	0x3e0e7a24	0.1391378
97	0xbeb9caaa	-0.36287433
98	0xbe5f7a0d	-0.21823902
99	0xbecbb200	-0.3978424
100	0xbea533c6	-0.32266062
101	0xbe59c49b	-0.21266405
102	0xbea74724	-0.32671463
103	0xbe9a4345	-0.30129448
104	0xbee2286d	-0.44171467
105	0xbf027cba	-0.5097157
106	0xbf05957a	-0.5218121
107	0xbf304580	-0.6885605
108	0xbf798512	-0.97468674
109	0x3f1faa67	0.6236939
110	0xbd4f2dd2	-0.050580807
111	0x3eb53597	0.35392448
112	0x3f14d689	0.58139855
113	0xbff96651	-1.948435
114	0x3fedde46	1.8583457
115	0x3f8375ac	1.0270286
116	0xc020ee38	-2.5145397
117	0x3db26ab6	0.0871176
118	0x3ed09efd	0.40746298
119	0x3fc667e5	1.5500456
120	0x3f8ee49f	1.116352
121	0xbfb966b9	-1.4484473
122	0xbd332e73	-0.04374547
123	0xbf495d9e	-0.78658473
124	0xbf8f20e2	-1.118191
125	0xbf0220e3	-0.5083143
126	0xbef480db	-0.4775456
127	0xbf13e41c	-0.5776994
128	0xbf1651d2	-0.587186
129	0xbeb7b982	-0.3588372
130	0xbe998f2f	-0.29992053
131	0xbe6cc978	-0.23123729
132	0xbeaedfed	-0.34155217
133	0xbdecf29d	-0.11569712
134	0xbf0be37a	-0.54643977
135	0xbdc27137	-0.0949425
136	0xbe6128d3	-0.2198823
137	0xbe8cc07a	-0.27490598
138	0x3ea2227e	0.3166694
139	0x3f4febfb	0.8121945
140	0x3e2b1166	0.16705856
141	0xbcb89978	-0.022534117
142	0xbdc2d1e1	-0.095126875
143	0xbdb5c9ef	-0.088764064
144	0x3e3fc888	0.1872884
145	0x3d825c4d	0.06365261
146	0x3d0e3135	0.034714896
147	0x3e582ea2	0.21111539
148	0xbf3dce48	-0.74142885
149	0xbdfd691c	-0.12373564
150	0xbddc7142	-0.1076379
151	0xbd58ea21	-0.052957658
152	0x3c63f25b	0.0139127625
153	0xbdb2e6df	-0.087354414
154	0xbe7cb88c	-0.24679774
155	0xbeb48680	-0.35258865
156	0xbed0d62a	-0.40788394
157	0xbe7f40fc	-0.24927133
158	0xbe72e1cc	-0.23718947
159	0xbe1aaaf6	-0.15104279
160	0xbeb14d80	-0.3462944
161	0xbea5d017	-0.32385322
162	0xbebd00d0	-0.36914682
163	0xbea367af	-0.31915042
164	0x3cf7c174	0.030243613
165	0xbd19d0fd	-0.037552822
166	0x3dfda9f3	0.12385931
167	0xbe63ee72	-0.22258928
168	0x40691690	3.642002
169	0x406453d9	3.5676177
170	0x3e47c052	0.19506958
171	0xbfc5f3f2	-1.5465071
172	0x3e0b01b9	0.13574876
173	0xbc666009	-0.0140609825
174	0x3e8e08d5	0.27741113
175	0xbe82140c	-0.2540592
176	0x3e92e28d	0.2868847
177	0x3f21aa72	0.63150704
178	0xbe4c32b3	-0.19941215
179	0x3f95f3a2	1.1714976
180	0xbf08258e	-0.53182304
181	0xbefef453	-0.4979578
182	0x3d807184	0.062716514
183	0xbd29e405	-0.041477222
184	0x3e02eb9f	0.12785195
185	0x3e2cf8f1	0.16891839
186	0x3e91b69c	0.28459632
187	0x3e9a7dc1	0.30174068
188	0x3f25e12b	0.64796704
189	0x3f378b9b	0.71697396
190	0x3e82d87b	0.25555786
191	0xbf21c5a7	-0.6319222
192	0xbececfec	-0.40393007
193	0x3e77c893	0.24197607
194	0xbda0c2c1	-0.07849646
195	0x3e9132aa	0.28358966
196	0x405abb72	3.4176908
197	0x40511261	3.2667468
198	0xbf694a51	-0.9112902
199	0xc028e6f0	-2.6390953
200	0x3f17e9bf	0.59341043
201	0x3ddaa562	0.106760755
202	0xbd8b10e7	-0.06790333
203	0xbdb0c311	-0.08630956
204	0xbd12cf22	-0.03584207
205	0x3fa25890	1.2683277
206	0xbd52bb58	-0.051448196
207	0x3fabd9c6	1.3425834
208	0x3e94014c	0.2890724
209	0x3e6abb5d	0.22923036
210	0x3ce5cf1c	0.028052859
211	0xbdbefea9	-0.09325916
212	0xbdb05b1b	-0.08611127
213	0x3e28d118	0.16486013
214	0x3e102d78	0.14079845
215	0x3d99aca1	0.075036295
216	0x3e286da3	0.16448073
217	0xbe635cbc	-0.22203344
218	0x3d7d7319	0.061877344
219	0xbeb60c04	-0.35556042
220	0x3cf3485a	0.029697586
221	0x3e5650f9	0.20929326
222	0xbf6f9d9e	-0.9359988
223	0x3e80d348	0.25161195
224	0xbec19a28	-0.37812924
225	0x3fe9803b	1.8242258
226	0xbf1dce16	-0.6164259
227	0x3ea9f11f	0.33191773
228	0x3ea5d976	0.32392472
229	0xbf168605	-0.5879825
230	0xbef96ccc	-0.48715818
231	0xbe11d53e	-0.14241502
232	0xbfc0bc48	-1.5057459
233	0x3e5af8b1	0.2138393
234	0xbf7d966c	-0.9905765
235	0x3f448ff9	0.76782185
236	0xbf406d60	-0.75166893
237	0x3f0d703c	0.5524938
238	0xbf91cfc6	-1.1391532
239	0xbf8b84d5	-1.0899912
240	0xbf74ad2c	-0.9557674
241	0xbf94143e	-1.1568677
242	0xbf9da31e	-1.2315404
243	0xbf95548e	-1.1666429
244	0xbf99ec56	-1.2025249
245	0xbf84ba8d	-1.0369431
246	0xbf3753b0	-0.7161207
247	0xbf21db97	-0.6322569
248	0xbf431a88	-0.7621236
249	0x3e95994d	0.29218522
250	0x3e1c21f5	0.15247329
251	0x3eb6e330	0.35720205
252	0x3df36ffc	0.11886594
253	0x3daf0db7	0.08547538
254	0xbe7e0174	-0.24805242
255	0xbf323a37	-0.6962008

fc1.bias f4 [400]
0	0xbf6b8ecb	-0.9201476
1	0xbe919bb0	-0.28439093
2	0x3e0a2a2d	0.13492651
3	0xbebea0cb	-0.3723205
4	0xbe0565a7	-0.13027059
5	0xbe6c7d13	-0.23094587
6	0xbf8e71e4	-1.1128507
7	0xbf12a9f9	-0.5729061
8	0xbf89932d	-1.074804
9	0xbce3e063	-0.027816957
10	0xbee2690a	-0.44220763
11	0xbe92084f	-0.28521964
12	0xbe6fdf7b	-0.23425095
13	0x3db6167f	0.088910095
14	0xbe23ec7f	-0.16008185
15	0xbf48a6d8	-0.78379583
16	0xbf416b49	-0.7555433
17	0xbf422c8b	-0.7584922
18	0xbd3bc83d	-0.04584526
19	0xbe40fac9	-0.18845667
20	0xbee97483	-0.45596704
21	0xbf3fd9fb	-0.74941987
22	0xbeb9b1f0	-0.36268568
23	0xbdcb74d1	-0.0993439
24	0xbe17aafe	-0.14811322
25	0x3ef6bed1	0.48192456
26	0xbf8d18bd	-1.1023175
27	0xbec303e1	-0.38088897
28	0xbf0ee804	-0.5582278
29	0x3e8bad3d	0.27280608
30	0x3c5bebdf	0.013422935
31	0xbe5bf05a	-0.21478406
32	0xbf284b3f	-0.65739816
33	0xbeb81156	-0.35950726
34	0xbf05c9df	-0.52261156
35	0x3ebeedeb	0.37290892
36	0x3f52ce55	0.8234609
37	0xbe7672d8	-0.24067247
38	0xbe4ccbc9	-0.19999613
39	0xbd7693e8	-0.06019965
40	0xbeea8aa2	-0.45808893
41	0xbecfa359	-0.40554312
42	0xbdeda4e2	-0.116037145
43	0xbf2dc277	-0.67874855
44	0x3e9d3fcb	0.30712733
45	0x3d9cde3a	0.07659574
46	0x3d9aa8b0	0.07551706
47	0xbda13183	-0.07870772
48	0xbf0919f6	-0.5355524
49	0xbef106cc	-0.47075498
50	0x3ee93d3c	0.4555453
51	0x3e1a8e0e	0.15093252
52	0x3fa4ca5e	1.2874258
53	0xbf12ae5b	-0.57297295
54	0xbe130913	-0.1435893
55	0xbe848f95	-0.25890794
56	0xbf867f1c	-1.0507541
57	0xbe3059c0	-0.17221737
58	0xbf905527	-1.1275986
59	0xbeb9503a	-0.3619402
60	0xbf3029a0	-0.68813515
61	0xbea5bbc7	-0.32369825
62	0xbd808d37	-0.062769346
63	0xbf20cc5e	-0.6281184
64	0xbf3f25f7	-0.74667305
65	0x3ea7559c	0.32682502
66	0xbfc2aa6c	-1.5208259
67	0xbecf07d3	-0.40435657
68	0xbf2e2f0f	-0.68040556
69	0xbf33f918	-0.7030196
70	0xbf634b2c	-0.8878658
71	0x3ec28b9d	0.3799714
72	0xbf3eff2b	-0.74608105
73	0x3c1d4710	0.009599462
74	0xbe6048da	-0.2190279
75	0xbf6ef38b	-0.9334037
76	0xbf487358	-0.78301
77	0xbd7831d8	-0.06059441
78	0xbf53d5cc	-0.82748103
79	0x3d118c95	0.03553446
80	0xbea92f24	-0.33043778
81	0xbe2974e7	-0.16548501
82	0xbe0505c0	-0.12990475
83	0xbf092825	-0.5357688
84	0x3ded1a54	0.11577287
85	0x3eda4b16	0.4263541
86	0x3f7e43df	0.99322313
87	0x3c2e322e	0.010632081
88	0xbe919aa6	-0.284383
89	0xbe353710	-0.17696786
90	0xbe6ad5b4	-0.22933084
91	0x3e55d45d	0.20881791
92	0xbfb37a81	-1.402176
93	0x3ee4c01a	0.44677812
94	0xbe293ca7	-0.16527043
95	0x3da3d816	0.080001995
96	0xbf9bb461	-1.2164422
97	0xbf009ead	-0.5024212
98	0xbf202ea6	-0.6257118
99	0xbef3e84c	-0.47638166
100	0xbf7ceb16	-0.9879621
101	0x3e4d1867	0.2002884
102	0xbea9208e	-0.3303265
103	0xbd831575	-0.06400577
104	0x3f3d0355	0.7383321
105	0xbefffbb4	-0.49996722
106	0xbd6e634f	-0.058200177
107	0xbd86e85d	-0.065872885
108	0xbf4a7244	-0.79080606
109	0xbde46fd7	-0.11154144
110	0xbddeef8a	-0.10885532
111	0xbf562798	-0.83654165
112	0xbf457d79	-0.7714458
113	0xbef31b4f	-0.47481772
114	0xbee65b8b	-0.44991717
115	0x3f2f76eb	0.6854083
116	0xbda8a184	-0.08233932
117	0xbf729d57	-0.9477133
118	0xbf8ccc50	-1.0999851
119	0xbe10a876	-0.14126763
120	0xbd9939e0	-0.07481742
121	0xbe9d9cde	-0.30783743
122	0xbe21ad7f	-0.1578884
123	0xbe85824e	-0.26075977
124	0xbdde6f6a	-0.10861094
125	0xbe6b581b	-0.22982828
126	0xbe1b880e	-0.1518862
127	0xbe384130	-0.17993617
128	0xbe6110db	-0.21979086
129	0x3da92385	0.08258728
130	0xbf30eaf5	-0.69108516
131	0xbe5d8955	-0.2163442
132	0xbec19191	-0.3780637
133	0xbe2efd4f	-0.17088817
134	0xbb34c1e0	-0.0027581379
135	0xbf0bf837	-0.5467562
136	0xbe758b0c	-0.23978823
137	0xbe39caf0	-0.18143821
138	0xbd904913	-0.07045188
139	0x3f0ee5df	0.55819505
140	0xbeb9aeb2	-0.36266094
141	0xbeda90ca	-0.4268859
142	0xbf6d8b66	-0.9279083
143	0xbf3cec80	-0.7379837
144	0x3d8f5476	0.069985315
145	0xbe5b861a	-0.21437874
146	0xbe1078ce	-0.14108583
147	0x3eaf05e6	0.34184188
148	0xbe4155a1	-0.18880321
149	0xbd41f659	-0.047354076
150	0xbeceb5f8	-0.40373206
151	0x3e0ecb3d	0.13944717
152	0x3d35b0f0	0.044358194
153	0xbd8c8835	-0.06861917
154	0xbdb10667	-0.08643799
155	0xbf2255d0	-0.6341219
156	0xbf0c25ce	-0.54745185
157	0xbf1a145b	-0.6018731
158	0xbf20f673	-0.6287605
159	0xbe8d7bf5	-0.27633634
160	0xbee80a52	-0.45320374
161	0xbe8b8d6d	-0.27256337
162	0xbdfbdef3	-0.122983836
163	0xbf11f2fe	-0.570114
164	0xbe97aee6	-0.29625624
165	0xbcfaac53	-0.030599749
166	0xbed53dfc	-0.41648853
167	0xbe8e4382	-0.2778588
168	0x3ea4029d	0.32033244
169	0xbf4f20a4	-0.8090918
170	0xbe61301b	-0.21991007
171	0xbf101e0e	-0.5629586
172	0xbf62819a	-0.88479006
173	0xbfa747b3	-1.3068756
174	0xbf351b1b	-0.70744485
175	0xbf84b385	-1.0367285
176	0xbeac1fbf	-0.3361797
177	0xbedf2a7d	-0.43587103
178	0xbf26d377	-0.6516642
179	0xbf9a96a6	-1.2077224
180	0xbf1abaa0	-0.6044102
181	0xbeb57d60	-0.35447216
182	0xbd89c39d	-0.067267634
183	0xbef5ccac	-0.48007715
184	0x3e2a7e21	0.16649677
185	0x3d81890a	0.06324966
186	0xbee76784	-0.45196164
187	0xbf16eb96	-0.58953226
188	0xbea2145e	-0.31656164
189	0xbec2b9a9	-0.38032272
190	0xbeec9f73	-0.462154
191	0x3e28ac38	0.16471946
192	0xbe7b7765	-0.24557264
193	0xbed37222	-0.41298014
194	0xbf0c5fd6	-0.54833734
195	0xbf49b391	-0.7878962
196	0xbe5bd8e9	-0.21469463
197	0xbd999fc6	-0.075011775
198	0xbe8e23ed	-0.27761784
199	0xbf43c5f1	-0.7647391
200	0x3e3aefaa	0.18255487
201	0xbeb06dfc	-0.3445891
202	0xbf41ebcf	-0.7575044
203	0xbe9a1dbc	-0.3010081
204	0xbe020ce5	-0.12700231
205	0x3f10f528	0.5662408
206	0xbf4f2d62	-0.80928624
207	0xbd2273ef	-0.039661344
208	0xbea53d37	-0.32273266
209	0xbf1109a2	-0.56655324
210	0x3efbcc04	0.4917909
211	0xbee7d992	-0.4528318
212	0x3e7485ad	0.23879118
213	0xbf26ea06	-0.6520084
214	0xbfa1c1cf	-1.2637271
215	0xbedf3ce2	-0.43601137
216	0xbe5280ba	-0.20556918
217	0x3e8fcf62	0.28087908
218	0xbf1411e6	-0.5783981
219	0xbf75897c	-0.9591291
220	0xbe7ae4e0	-0.24501371
221	0xbe84ae0d	-0.2591404
222	0xbe1646be	-0.14675424
223	0xbed453ea	-0.4147027
224	0x3e788355	0.24268849
225	0x3e7ec522	0.24879888
226	0x3e82ea6f	0.25569484
227	0xbe8d1efd	-0.27562705
228	0xbe3c7c00	-0.18406677
229	0xbe2a15d7	-0.16609894
230	0xbe0538a9	-0.13009895
231	0xbe12ff76	-0.14355263
232	0xbf96ff35	-1.1796633
233	0x3ecc9e3f	0.39964482
234	0xbe39c0c8	-0.18139946
235	0xbf0103fe	-0.50396717
236	0xbf8b8985	-1.0901343
237	0xbf250478	-0.64459944
238	0xbee0f286	-0.4393503
239	0xbda331c7	-0.07968479
240	0xbe6e4deb	-0.23271911
241	0xbee97d86	-0.4560358
242	0xbefbe7f4	-0.49200404
243	0xbe6ba573	-0.23012333
244	0xbf38f4e0	-0.7224865
245	0xbda91c7d	-0.08257387
246	0xbe804bfb	-0.25057968
247	0xbe0309ae	-0.12796661
248	0xbe45d043	-0.19317727
249	0x3ea99dd7	0.33128235
250	0xbf939f56	-1.1533
251	0x3eefd3d1	0.4684129
252	0xbf17eef6	-0.59349
253	0xbe48bbf0	-0.19602942
254	0xbf02cb59	-0.51091534
255	0xbeb4a430	-0.35281515

fc2.weight f4 [300, 400]
0	0x3c8f2e54	0.017478146
1	0x3ccbd998	0.02488403
2	0xbca66b8f	-0.02031496
3	0xbcb9ae08	-0.022665992
4	0xbcab2fdf	-0.02089685
5	0x3cd77322	0.026300017
6	0x3ca6c49e	0.020357426
7	0xbcf4366c	-0.029811107
8	0x3c83c21c	0.01608377
9	0xbcf9717c	-0.030449621
10	0xbd024a54	-0.031809166
11	0xbd5f35da	-0.054494716
12	0x3d4837e9	0.048881445
13	0xbd520de2	-0.05128277
14	0xbd2719c7	-0.040796068
15	0xbd72b60c	-0.059255645
16	0x3d3589e0	0.04432094
17	0xbd5c464a	-0.05377797
18	0xbd86ee9d	-0.065884806
19	0xbd0ef485	-0.03490116
20	0xbd0f6825	-0.03501143
21	0xbc6cabf3	-0.014445293
22	0xbd411c61	-0.047146205
23	0x3d5a77ca	0.053336896
24	0xbba15e97	-0.004924606
25	0xb7a3dc17	-1.9533602e-05
26	0xbd2a6d57	-0.04160818
27	0xbd779424	-0.060444012
28	0xbd0476c2	-0.03233982
29	0xbc7e84b4	-0.015534569
30	0xbd1b7d1e	-0.037961118
31	0xbda3b75f	-0.0799396
32	0x3c98d6fd	0.018657202
33	0xbda8ba2f	-0.08238637
34	0xbd2a23e7	-0.041538145
35	0xbc93bd86	-0.018034708
36	0xbd916716	-0.0709974
37	0x3ca9db3e	0.020734426
38	0xbb5ff60a	-0.003417375
39	0xbca1b167	-0.019737912
40	0x3d06db14	0.032923773
41	0xbd58d9ba	-0.052942015
42	0x3c020594	0.0079359
43	0xbd3ed1a8	-0.046586663
44	0xbd060c0d	-0.032726336
45	0xbd8a8b9d	-0.0676491
46	0xbd630733	-0.055426788
47	0x3cc74e50	0.024329334
48	0x3c365fef	0.011131271
49	0xbd8e2c85	-0.06942085
50	0xbc757e8c	-0.014983784
51	0xbd14689e	-0.036232583
52	0xbd188bfe	-0.037242882
53	0xbd1f188e	-0.038841777
54	0xbd7f842c	-0.06238191
55	0xbcfe7dac	-0.031065784
56	0xbd6b9443	-0.05751444
57	0xbd6b1103	-0.05738927
58	0x3cf99e03	0.030470854
59	0xbd5c5202	-0.053789146
60	0xbd26be5f	-0.040708896
61	0xbd20448f	-0.039127883
62	0xbaedf7fb	-0.0018155569
63	0x3cb56c2f	0.022146313
64	0xbb96f780	-0.004607141
65	0xbd7b1374	-0.06129785
66	0xbcbb66a8	-0.022876099
67	0xbd902086	-0.07037453
68	0x3d081f4c	0.033232972
69	0xbb52199a	-0.0032058717
70	0xbd926116	-0.07147424
71	0x3c7c45b3	0.015397477
72	0xbd703954	-0.058648422
73	0xbd2d7777	-0.04235026
74	0xbbd85102	-0.0066014538
75	0x3ca5876f	0.020206181
76	0x3d2bf841	0.0419848
77	0xbd78cb14	-0.060740545
78	0x3c66bba2	0.014082821
79	0xbad52c52	-0.0016263819
80	0xbb1ccab6	-0.0023924536
81	0xbd947f46	-0.07250838
82	0xbc97c1a6	-0.018524956
83	0x3b885e94	0.004161665
84	0xbd05d0ad	-0.03266971
85	0xbd7f4fd4	-0.06233199
86	0xbd60429b	-0.05475102
87	0xbcf5ce3c	-0.030005567
88	0xbd274c8e	-0.040844493
89	0xbcf3b7f7	-0.029750807
90	0xbc421540	-0.011845887
91	0x3d9f5bbe	0.0778117
92	0x3cb85022	0.022499148
93	0xbd609c73	-0.0548367
94	0xbbf26fbc	-0.0073985737
95	0xbc589cca	-0.013220975
96	0x3bbd4eef	0.005777232
97	0x3c715a63	0.0147310225
98	0xbbf92104	-0.0076028127
99	0x3c6ea3da	0.014565432
100	0xbc95804e	-0.018249657
101	0xbd13ba66	-0.036066435
102	0xbd57518a	-0.052567996
103	0x3c6665b3	0.014062333
104	0xbd6797f3	-0.056541394
105	0xbcea451b	-0.028597405
106	0xbccb63a1	-0.02482778
107	0x3c83d02c	0.016090475
108	0xbd1cba4e	-0.03826361
109	0xbd1848ce	-0.037178807
110	0xbcdad4c2	-0.026712779
111	0xbd049a85	-0.032373924
112	0xbc8596dd	-0.016307289
113	0x3cf65adc	0.030072622
114	0xbb8c73e5	-0.0042862766
115	0xbd353af8	-0.04424569
116	0xbb4a7df0	-0.0030897819
117	0xbcd3e2a2	-0.025864903
118	0xbb7c0fcc	-0.0038461564
119	0xbd28356d	-0.041066576
120	0xbd31fa28	-0.04345146
121	0x3ccefcb9	0.025266992
122	0x3d08e26f	0.03341907
123	0xbd0da87d	-0.03458451
124	0xbd43f611	-0.04784209
125	0x3c3741b7	0.011185101
126	0xbbab5177	-0.005228217
127	0x3c62d78a	0.013845334
128	0x3c9f0f2e	0.019416418
129	0xb9e5951b	-0.00043789376
130	0xbd92ea96	-0.0717365
131	0xbd9439be	-0.07237576
132	0x3c18603d	0.009300289
133	0xbbbf5998	-0.005839538
134	0x3c845434	0.016153432
135	0x3cc068b0	0.023487419
136	0xbc6288a3	-0.013826522
137	0xbda043c7	-0.078254275
138	0xbb433b59	-0.0029790013
139	0xbb9bafe6	-0.0047511933
140	0xbb932dc6	-0.0044915406
141	0x3d3765a8	0.04477468
142	0xbd554552	-0.052068062
143	0xbb8daf85	-0.004323902
144	0xbcd92a32	-0.026509378
145	0x3bfb27c3	0.007664652
146	0xbcd02d6a	-0.02541228
147	0xbb2f70ef	-0.0026770195
148	0xbcbd1c7d	-0.023084873
149	0x3cf37a23	0.029721325
150	0xbc083cfd	-0.008315322
151	0x3a8b7e94	0.0010642582
152	0xbcb5c090	-0.022186548
153	0xbd63edab	-0.05564658
154	0xbd7576bc	-0.059927687
155	0xbd4fcd51	-0.050732914
156	0xbd40dc51	-0.04708511
157	0xbbc2ec71	-0.005948596
158	0xbccc3f29	-0.02493246
159	0x3d88019d	0.06640933
160	0xbcb21648	-0.02173914
161	0xbb01e655	-0.0019821126
162	0xbd095bea	-0.03353492
163	0x3ccd0278	0.025025591
164	0xbd78e5a4	-0.060765877
165	0xbd435841	-0.047691587
166	0xbcd8a6f2	-0.026446793
167	0xbaaa3b56	-0.0012987654
168	0xbd3d4a3f	-0.046213385
169	0x3d000e43	0.0312636
170	0x3d3762ed	0.044772077
171	0x3c3d92e8	0.01157067
172	0x3d0d4094	0.034485415
173	0xbce592c3	-0.028024083
174	0xbd789464	-0.06068839
175	0xbc368f98	-0.011142634
176	0xbd0c1945	-0.034203786
177	0xbd116715	-0.035498697
178	0xbd324aa0	-0.0435282
179	0xbac07211	-0.0014682432
180	0xbd50ba0a	-0.05095867
181	0x3d92203e	0.07135056
182	0x3ccb686a	0.024830062
183	0xbd8eae35	-0.06966821
184	0x3ba2adbe	0.0049645593
185	0x3cfa8ea3	0.030585593
186	0x3ccd56d8	0.025065824
187	0xbd777b24	-0.06042017
188	0x3b0e19c4	0.0021682838
189	0xbcbfda80	-0.023419619
190	0xbba0fdb6	-0.004913057
191	0xbd0e7f3b	-0.034789305
192	0xbda5b587	-0.08091264
193	0xbd087164	-0.033311263
194	0xbd6dbbd3	-0.05804045
195	0x3d03195d	0.03200661
196	0xbb557112	-0.0032568616
197	0xbd62e663	-0.055395495
198	0xbd1a5cb5	-0.03768607
199	0x3be4ea02	0.0069859037
200	0x3c0df2b4	0.008663822
201	0xbd5d16e2	-0.0539769
202	0xbd29ab97	-0.041423406
203	0x3c723dbb	0.0147852255
204	0xbd69ea7b	-0.057108384
205	0x3b9a2175	0.0047036954
206	0x3c2deefe	0.010616062
207	0xbd169a56	-0.03676828
208	0x3cb116cf	0.021617321
209	0x3d0cb64c	0.03435354
210	0xbc101bd6	-0.008795699
211	0xbd7e14fc	-0.06203173
212	0xbd7d277c	-0.061805233
213	0xbd704b4c	-0.05866556
214	0xbb9ee2a6	-0.004848796
215	0x3b7e7bb0	0.0038831048
216	0x3d27bab6	0.040949546
217	0x3c4e0448	0.012574263
218	0x3cf5d4c6	0.030008685
219	0xb854011a	-5.0545765e-05
220	0x3c320f3f	0.010867893
221	0xbd30ce28	-0.043165356
222	0xbc358dc8	-0.011081167
223	0xbd864e75	-0.06557933
224	0xbcf07003	-0.029350286
225	0xbc74f444	-0.014950816
226	0xbd43fde1	-0.04784954
227	0xbd700e5c	-0.058607444
228	0xbd12edeb	-0.035871428
229	0x3cec0a3a	0.02881347
230	0xbc905f06	-0.017623436
231	0xbd289577	-0.041158166
232	0x3c9ec74d	0.019382143
233	0xbd0a2ddd	-0.033735145
234	0xbd27144f	-0.040790852
235	0xbd55cbb2	-0.052196212
236	0xbd25cb67	-0.040477183
237	0xbd6e6943	-0.058205854
238	0xbcaeec1f	-0.021352826
239	0xbc00b7fd	-0.007856366
240	0xbd104476	-0.03522154
241	0x3bc6e7f9	0.0060701338
242	0xbc6c9c53	-0.0144415675
243	0xbd0aecde	-0.0339173
244	0xbce2c4cb	-0.027681729
245	0xbab81ae8	-0.0014046105
246	0xbd2812ff	-0.04103374
247	0xbc002ac6	-0.007822698
248	0x3c6fe42a	0.014641801
249	0xbd4bb0f9	-0.04972932
250	0xbc9d4a0d	-0.01920035
251	0x3d1f0375	0.038821656
252	0x39fe217b	0.000484716
253	0xbc4bab81	-0.012431026
254	0xbcf754dc	-0.030191831
255	0xbd9c1aee	-0.07622324

fc2.bias f4 [300]
0	0xbd380cd8	-0.044934124
1	0xbd2b7ec7	-0.04186895
2	0xbd274aff	-0.040843006
3	0xbc89a075	-0.016800145
4	0x3cffa113	0.031204736
5	0xbcc3ebe9	-0.023916202
6	0xbd1180de	-0.035523288
7	0xbc9913ee	-0.018686261
8	0xbc8b93ad	-0.01703819
9	0x3f712682	0.94199383
10	0xbc353198	-0.011059187
11	0x3d0daf84	0.034591213
12	0x3d38ef67	0.045150187
13	0x3bfcbc73	0.0077128946
14	0xbe6c72eb	-0.23090713
15	0x3daf439e	0.08557819
16	0xbbfdc86c	-0.0077448394
17	0xbd84374d	-0.0645586
18	0xbd95354e	-0.07285558
19	0x3be8abba	0.0071005495
20	0x3e006306	0.12537774
21	0xbcd9390a	-0.026516456
22	0x3e65b2ca	0.22431484
23	0x3fcf3c3f	1.6190261
24	0xbda70577	-0.08155339
25	0x3dc75a38	0.09734005
26	0xbe48ad19	-0.19597282
27	0xbe720da5	-0.23638017
28	0x3c031254	0.007999975
29	0xbe9c1896	-0.30487508
30	0xbd11d53e	-0.035603754
31	0xbcc688a9	-0.024235087
32	0x3e95cda5	0.29258457
33	0x3e9a25d8	0.30106997
34	0xbde8eeeb	-0.11373695
35	0xbf0b3525	-0.5437797
36	0xbda8daff	-0.08244895
37	0x3eca0b18	0.3946159
38	0xbd42c309	-0.04754928
39	0x3ceb80ba	0.028747905
40	0xbc918c96	-0.017767232
41	0xbddec622	-0.108776346
42	0x3f410c6b	0.75409573
43	0xbdcc2268	-0.099675
44	0xbd1cdf06	-0.03829863
45	0x3e884e2c	0.2662214
46	0xbd8ad8f5	-0.067796625
47	0x3e2c2aa6	0.16813144
48	0xbda4c0ff	-0.080446236
49	0xbd69272b	-0.05692212
50	0xbdaf9f07	-0.08575254
51	0xbe21dd02	-0.15806964
52	0x3f28ec39	0.6598545
53	0x3ecdfa9e	0.40230268
54	0xbc96d296	-0.018410962
55	0xbd0673f5	-0.03282543
56	0xbc34bad8	-0.011030875
57	0xbd5f3062	-0.0544895
58	0x3c3c0797	0.011476419
59	0xbd8ddff5	-0.06927482
60	0xbda2081f	-0.07911705
61	0xbcc2dc09	-0.023786562
62	0x3baefede	0.005340441
63	0xbb81d240	-0.0039618313
64	0x3ac280a0	0.0014839359
65	0x3f1922c7	0.5981869
66	0xbc214727	-0.009843624
67	0x3edc4711	0.4302297
68	0x3c156045	0.009117191
69	0x3c0447b4	0.008073736
70	0xbdb80698	-0.08985633
71	0xbd336a20	-0.04380238
72	0xbd1cf036	-0.03831502
73	0xbcdb4aba	-0.02676903
74	0x3f6ccb0f	0.9249734
75	0x3dadaa3e	0.08479737
76	0xbd943766	-0.07237129
77	0x3be4b672	0.006979757
78	0xbd6e9cd3	-0.058255028
79	0xbc242aff	-0.010020017
80	0xbdaf5c9f	-0.08562588
81	0xbda06d2f	-0.07833325
82	0x3c834e7c	0.016028635
83	0xbca3a567	-0.01997633
84	0x3db88c2f	0.09011113
85	0xbdf3aa94	-0.118977696
86	0xbcdaf592	-0.026728425
87	0xbc552d1a	-0.013011241
88	0xbd6e4553	-0.05817158
89	0x3e7d2073	0.2471941
90	0x3d1e0b05	0.038584728
91	0xbdadcb0f	-0.08485996
92	0xbd153eae	-0.03643673
93	0xbdce1bb9	-0.100638814
94	0xbd6cc9a3	-0.057809483
95	0xbd2d3e6f	-0.04229587
96	0xbeff97b4	-0.49920428
97	0x3e796f22	0.243588
98	0xbce4a60b	-0.027911207
99	0x3dba21a7	0.0908845
100	0xbceb95d3	-0.028757965
101	0xbd4d00e9	-0.050049696
102	0xbd91ee3e	-0.07125519
103	0xbda7e5af	-0.081981055
104	0xbc3dd168	-0.011585571
105	0xbd426229	-0.047456894
106	0x3d3fcdff	0.046827313
107	0x3e918fb5	0.28429952
108	0xbd39f070	-0.045395315
109	0xbd52bce2	-0.051449664
110	0x3e8ce6bc	0.27519786
111	0x3be97ac2	0.0071252296
112	0x3ea1a41e	0.31570524
113	0x3e8e3db4	0.2778145
114	0x3d02ba0c	0.03191571
115	0xbc3a7090	-0.011379376
116	0xbd88992d	-0.06669841
117	0xbcfcece4	-0.030874677
118	0xbe075bfd	-0.13218684
119	0xbd0391ad	-0.03212135
120	0xbca475ff	-0.020075796
121	0xbe7f3224	-0.24921471
122	0x3f26cdfa	0.65158045
123	0xbe6b4b9b	-0.2297806
124	0xbcc88364	-0.024476714
125	0x3e53a921	0.20669986
126	0x3dd7ed02	0.105432525
127	0xbd11c40e	-0.035587363
128	0xbd8cdd5d	-0.06878159
129	0xbcd27692	-0.025691304
130	0xbcf7f1e4	-0.03026671
131	0xbd68d90b	-0.056847613
132	0xbda9b4f7	-0.082864694
133	0xbd4fc969	-0.05072919
134	0x3eefc2f2	0.4682842
135	0xbd9d4d2e	-0.076807365
136	0xbb441939	-0.002992226
137	0x3e2f57ee	0.17123386
138	0xbdc90f89	-0.09817416
139	0x3d9e5dd5	0.07732741
140	0x3e7c07fb	0.2461242
141	0x3b5794b9	0.0032895042
142	0xbda7a0ef	-0.081849925
143	0xbda509a7	-0.08058482
144	0x3e105a55	0.14096959
145	0x3dba5e97	0.09100073
146	0x3c7a4b73	0.015276778
147	0xbb5c176a	-0.0033583292
148	0xbd8edddd	-0.06975911
149	0x3faa82df	1.3321189
150	0x3db687d9	0.0891263
151	0xbd9fa52e	-0.077951774
152	0xbd72dde4	-0.059293643
153	0xbe05b6e5	-0.1305805
154	0xbc2e04df	-0.010621279
155	0xbc55c31a	-0.013047004
156	0x3d8bcbec	0.068260044
157	0x3e2f808e	0.17138883
158	0xbd6b46eb	-0.05744068
159	0x3eca05a0	0.39457417
160	0xbbcde441	-0.0062833135
161	0xbd0431d5	-0.032274086
162	0xbc330878	-0.010927312
163	0x3fdcc683	1.7248081
164	0x3c1bb23d	0.009502945
165	0x3c8f53d4	0.017496027
166	0x3ec77240	0.38954353
167	0xbd38b8b8	-0.045098037
168	0x3d1de833	0.03855152
169	0xbd909746	-0.07060103
170	0x3d1a2305	0.037631053
171	0xbd80b0f5	-0.06283752
172	0xbd2c70f7	-0.04209992
173	0xbd7b51f4	-0.061357453
174	0x3c6ad5a4	0.014333162
175	0xbd8120ad	-0.063050605
176	0xbd8fc9cd	-0.07020912
177	0x3fa7b8a1	1.3103219
178	0xbd30ab00	-0.04313183
179	0xbcf84d4c	-0.030310296
180	0x3f9db1c1	1.2319871
181	0xbc85508d	-0.016273761
182	0xbd95e066	-0.07318191
183	0xbf4e97d6	-0.80700433
184	0xbd5252a2	-0.051348336
185	0xbcc92a19	-0.024556207
186	0xbd083aa5	-0.033259053
187	0x3fcd084a	1.6018155
188	0xbd2179ef	-0.039422926
189	0xbdfc37a4	-0.123153
190	0xbf3502ac	-0.707072
191	0xbd8d929d	-0.0691273
192	0xbc26adf7	-0.010173312
193	0xbd57cc32	-0.05268497
194	0xbd3f8c60	-0.04676473
195	0xbc506b22	-0.012720855
196	0x3d103985	0.035211105
197	0xbef3637c	-0.47536838
198	0xbcc44111	-0.023956807
199	0xbd7c642c	-0.06161897
200	0xbdd9d932	-0.1063713
201	0x3f3283a7	0.69732136
202	0xbdc58161	-0.09643818
203	0xbd811685	-0.063031234
204	0xbd5e14ca	-0.054219045
205	0xbc65b45b	-0.014020051
206	0x3d3ec2cf	0.046572503
207	0x3eedda17	0.46455452
208	0xbd8f067d	-0.069836594
209	0xbd22d33f	-0.03975224
210	0xbdb00d30	-0.08596265
211	0xbd4024b9	-0.04691002
212	0xbd85634d	-0.06513081
213	0xbc82b7b5	-0.015956739
214	0xbd4fd071	-0.050735895
215	0xbd69bc63	-0.057064425
216	0xbd072c55	-0.033001263
217	0x3d602d82	0.0547309
218	0xbcea9403	-0.02863503
219	0x3e5a6a81	0.2132969
220	0xbdf34504	-0.11878398
221	0xbefb9c2c	-0.49142587
222	0xbcfd966c	-0.030955516
223	0x3b635b92	0.0034692031
224	0xbdaf646f	-0.08564078
225	0xbd17fb76	-0.037105046
226	0xbd545eda	-0.05184827
227	0x3e707643	0.23482613
228	0xbcbd03f0	-0.023073167
229	0xbd012495	-0.031529028
230	0x3d4a9d30	0.049466312
231	0xbda026df	-0.07819914
232	0xbd815b45	-0.063162364
233	0xbd973ff6	-0.073852465
234	0xbd866c25	-0.06563596
235	0xbb5e5e3a	-0.0033930675
236	0xbd16b806	-0.036796592
237	0xbc17ea46	-0.009272164
238	0xbd219547	-0.039449003
239	0xbcd86232	-0.02641401
240	0xbd1a34fe	-0.037648194
241	0x3e167985	0.14694794
242	0x3b764d93	0.003758286
243	0xbd6f52db	-0.058428627
244	0xbe4477c1	-0.19186307
245	0xbdd81caa	-0.10552342
246	0xbe737192	-0.23773792
247	0xbd44b259	-0.048021648
248	0xbd1a8aee	-0.03773015
249	0x3fc338a7	1.5251664
250	0x3e539c51	0.20665099
251	0x3d87c2fa	0.06628986
252	0xbdb01050	-0.08596861
253	0xbcafb41f	-0.021448193
254	0xbb8ae705	-0.0042389655
255	0x3bfafa73	0.0076592504

fc3.weight f4 [1, 300]
0	0xbcbe524f	-0.023232607
1	0xbc964916	-0.018345397
2	0x3cfe92c3	0.03107584
3	0x3c42e631	0.011895702
4	0xbf7a5983	-0.97792834
5	0x3c871674	0.016490199
6	0xbc86e3ac	-0.016465984
7	0x3ce9146b	0.028452119
8	0xbbd9f48a	-0.006651466
9	0xbf8f76f9	-1.1208183
10	0xbcb9ebbf	-0.02269542
11	0xbd101405	-0.035175342
12	0x3c4a3868	0.01234255
13	0xbcd02662	-0.025408927
14	0xbc0fb004	-0.008769993
15	0x3bde62ea	0.006786694
16	0xbd08e10c	-0.033417746
17	0x3c37ae4f	0.011210992
18	0x3b2824f7	0.0025656798
19	0xbc94c33d	-0.018159503
20	0x3c43d9f1	0.011953817
21	0xbc8a0b7d	-0.016851181
22	0xbd00d0fc	-0.031449303
23	0xbf2324cc	-0.6372802
24	0xbcbc8c68	-0.02301617
25	0xbe759268	-0.23981631
26	0xbd603874	-0.054741338
27	0xbe3a9eb7	-0.18224607
28	0xbbd33dc9	-0.0064465743
29	0x3e343dd7	0.17601715
30	0x3cb4308f	0.02199581
31	0x3c9deee6	0.019278955
32	0xbbc6bd01	-0.0060650115
33	0xbf8a21bd	-1.0791546
34	0xbc75f3bc	-0.015011724
35	0x3f209c0e	0.6273812
36	0xbb7f7dec	-0.0038984967
37	0xbe31b6f7	-0.17354952
38	0xbd0f24f5	-0.034947354
39	0xbe4e8aa8	-0.2017008
40	0x3abe93f0	0.0014539938
41	0x3cee6f83	0.029105907
42	0xbf6e4d71	-0.93086916
43	0xbb18f2b2	-0.0023338017
44	0xbcf8664c	-0.030322216
45	0xbe67bfca	-0.22631755
46	0xbc343b7f	-0.011000513
47	0x3ce7684b	0.028247973
48	0x3c5ca27a	0.013466472
49	0x3aa6078f	0.0012667048
50	0xbc862da5	-0.016379187
51	0x3ebc963d	0.36833373
52	0xbef86c74	-0.48520243
53	0xbf10f940	-0.56630325
54	0xbda0e196	-0.07855527
55	0xbc8b4b05	-0.017003546
56	0x3d10fd9d	0.035398114
57	0xbca3a3d7	-0.019975586
58	0xbc2b8f2f	-0.010471149
59	0x3c214a46	0.009844368
60	0x3ca3f067	0.020012094
61	0x3c71e573	0.014764178
62	0xbc04cbbd	-0.008105216
63	0x3f23e939	0.64027745
64	0x3c88401d	0.016632134
65	0x3f1ace4d	0.6047104
66	0x3bb56528	0.0055357404
67	0xbee668d2	-0.45001847
68	0x3b6dedd2	0.0036305082
69	0xbc61a612	-0.013772504
70	0xbd3b9fb0	-0.045806587
71	0x3d42cf88	0.0475612
72	0xbbc28489	-0.0059362096
73	0x3c46bc39	0.012129837
74	0xbf89e5e3	-1.0773281
75	0xbc5dd0d1	-0.013538555
76	0xbbb784e7	-0.00560056
77	0xbbbf4d18	-0.0058380477
78	0x3cff81d4	0.031189837
79	0x3c1dfc2e	0.009642644
80	0xbba30797	-0.00497527
81	0xbca26ce7	-0.01982732
82	0x3cd6e109	0.026230352
83	0xbcdde77a	-0.027087916
84	0x3bc4c519	0.006004941
85	0xbbdf04a2	-0.006805972
86	0xbb33b390	-0.002742026
87	0xbc62a26b	-0.013832669
88	0xbceb8633	-0.028750515
89	0x39c61441	0.00037780593
90	0xbd696b22	-0.056986935
91	0x3d0061db	0.031343322
92	0x3ca81557	0.020517988
93	0x3cfdf1d4	0.030999102
94	0x3c267bf7	0.010161391
95	0x3be9a74a	0.007130538
96	0x3f77ed33	0.9684631
97	0xbe85bc5c	-0.2612027
98	0xbd05715c	-0.03257881
99	0x3c69f7c3	0.014280262
100	0xbbd4f02a	-0.0064983563
101	0xbc27707f	-0.010219692
102	0xbcac1977	-0.021008236
103	0xbc9e8676	-0.019351225
104	0x3ada9e12	0.0016679189
105	0xbcc554d9	-0.02408831
106	0xbe224b4e	-0.15849039
107	0xbdced756	-0.10099666
108	0xb9ff3ea3	-0.00048684058
109	0x37b0fb77	2.1097932e-05
110	0xbf2046e6	-0.6260818
111	0x3c18c75e	0.009324877
112	0xbe061b6d	-0.130964
113	0xbdcdad90	-0.1004287
114	0x3c9c7976	0.019100886
115	0xbb88979d	-0.0041684643
116	0x3cadd5ff	0.021220205
117	0xbcd5e002	-0.026107792
118	0x3b57a202	0.003290296
119	0xbcf9ffac	-0.030517422
120	0x3c9c25de	0.019061025
121	0x3b847d9d	0.0040432946
122	0x3f2d71fb	0.67752045
123	0xbc9390fd	-0.018013472
124	0x3e37a7a3	0.17935042
125	0xbf15d847	-0.5853314
126	0x3f10b4f6	0.56526124
127	0xbc816955	-0.015797297
128	0x3cd1131a	0.025521804
129	0x3c0d3d74	0.008620609
130	0x3c58373a	0.013196761
131	0xbb385008	-0.0028123874
132	0xbcbea458	-0.023271725
133	0xbad78cea	-0.0016445194
134	0xbe1eee3f	-0.15520571
135	0xbc1f4ce6	-0.009722924
136	0x3cec8b23	0.02887494
137	0x3c8af76d	0.016963685
138	0x3cfcbbac	0.030851208
139	0xbcd3b61a	-0.025843669
140	0x3bfa0cf4	0.0076309387
141	0xbd2e56e6	-0.04256334
142	0xbcfd2394	-0.030900754
143	0x3cb1cb48	0.021703377
144	0xbe15c1ed	-0.14624758
145	0xbfa25896	-1.2683284
146	0xbbb1fbb8	-0.0054316185
147	0xbacef290	-0.0015788842
148	0x3c80cf6c	0.015723906
149	0xbf8f0031	-1.1171933
150	0xbe9603ea	-0.2929986
151	0xbc8b714d	-0.0170218
152	0xbc461441	-0.01208979
153	0x3e5fe7f9	0.21865834
154	0xbc1597bd	-0.0091304155
155	0xbcea069a	-0.028567601
156	0xbca14727	-0.019687248
157	0x3a181926	0.0005802087
158	0xbbc21a49	-0.0059235436
159	0xbe9c5c8d	-0.3053936
160	0x3ccdf571	0.02514145
161	0x3cc242e9	0.023713546
162	0x3c8c93ec	0.017160378
163	0xbf1da7a4	-0.61583924
164	0x3c310b18	0.010805868
165	0x3ea1096e	0.31452507
166	0xbea87f96	-0.3290984
167	0x3cc1d651	0.023661764
168	0xbfebb17a	-1.8413537
169	0x3b8ff58c	0.004393285
170	0xbb705a23	-0.003667482
171	0xbcda588a	-0.026653547
172	0x3c29c307	0.01036144
173	0x3c8a78dc	0.016903333
174	0xbece6399	-0.40310362
175	0x3c848a1c	0.016179137
176	0x3b6494da	0.0034878762
177	0xbefe6a3a	-0.4969042
178	0x3c74cc6c	0.014941316
179	0xbc4daa70	-0.0125528425
180	0xbfd9398d	-1.6970688
181	0xbc11baae	-0.008894606
182	0x3bc53a49	0.006018911
183	0x3fb2b701	1.3962098
184	0x3be6fd42	0.0070492337
185	0x3a9ade86	0.0011815585
186	0xbc129315	-0.0089462
187	0xbf36502f	-0.712161
188	0xbd35d800	-0.044395447
189	0x3ce207bb	0.027591577
190	0xbf1c2962	-0.61000645
191	0x3c3b0437	0.011414579
192	0xbcacdcc7	-0.021101369
193	0xbc5d4432	-0.013505029
194	0xbce7d0fb	-0.028297892
195	0xbb7c642c	-0.0038511856
196	0x3c90a7ae	0.01765808
197	0x3e791b8b	0.24326913
198	0xbccff781	-0.025386574
199	0xba8e144d	-0.001083979
200	0x3cd5a3da	0.026079107
201	0xbe5dab51	-0.21647383
202	0x3dc5fcd0	0.09667361
203	0xbbe7364b	-0.007056033
204	0x3cbdc4e8	0.023165181
205	0xb87daea3	-6.0482544e-05
206	0xbe3cfce7	-0.1845585
207	0xbeb04745	-0.34429374
208	0xbcd4d1b2	-0.025978897
209	0x3cb15550	0.021647125
210	0x3babdede	0.0052450737
211	0x3caa7dbf	0.020811914
212	0xbc886a4d	-0.01665225
213	0xbeb2125f	-0.3477964
214	0x3b2147ee	0.0024609524
215	0xbc8b3b65	-0.016996095
216	0x3cbf1f00	0.023330212
217	0xbcc777b9	-0.02434908
218	0x3ccf9c19	0.025342988
219	0xbebc9117	-0.36829445
220	0x3bb141c8	0.005409453
221	0x3f5e1019	0.86743313
222	0xbcb720e7	-0.022354556
223	0x3c82c4fd	0.015963072
224	0x3cd894fa	0.026438225
225	0xbd00073b	-0.031256896
226	0xbb163015	-0.0022916843
227	0x3b8d74ed	0.004316917
228	0x3ce4c613	0.02792648
229	0xbca38b9f	-0.019964037
230	0x3cf6611c	0.030075602
231	0xbb755b63	-0.0037438504
232	0xbc455410	-0.012043968
233	0x3c904d0e	0.017614868
234	0x3c057225	0.00814489
235	0xbcc41c58	-0.023939297
236	0xbd003a67	-0.031305697
237	0xbf5a1301	-0.8518525
238	0x3cfea7db	0.0310859
239	0x3c5ab712	0.013349311
240	0x3d0b4c95	0.03400858
241	0xbe1285cd	-0.14308853
242	0xbcbff060	-0.02343005
243	0xbc1983a5	-0.009369765
244	0xbca83a0e	-0.020535495
245	0x3c70d4cc	0.014699172
246	0xbf2daf6a	-0.67845786
247	0x3b423a50	0.0029636808
248	0x3cd95b6a	0.026532847
249	0xbfeff6b5	-1.8747164
250	0x3eab4fe6	0.33459395
251	0xbf9607fe	-1.1721189
252	0xbbaf9286	-0.005358043
253	0xbc32c6d8	-0.010911666
254	0x3cc9a330	0.024613947
255	0xbb32f8d7	-0.0027308965
