models/TD3_BipedalWalker/critic_2_target.pth (torch, 530647 bytes, 5 tensors)

fc1.weight f4 [400, 28]
00000000: ca43 2d3f 7cc1 1bc0 5dbc 22c0 4bfd 1640
00000010: dd49 3bbe d323 8dbe b99f 33bf 17b3 6cbf
00000020: 004c 543e b1e4 f63e ac91 edbd ddde 61bf
00000030: c610 573e 4e9c 853e 2961 003f 2423 0e3f
00000040: b07d da3e 82ae d33e 41ac ed3e 577f c93e
00000050: 984d 583e 0a67 c83c b807 00bd 009f 42be
00000060: cc41 3abe 6ffd 72bd b1ae d93a d154 8d3d
00000070: 2d9b 10bd afcb bcbe 2398 6ebe cebd 913f
00000080: 49c2 d83e 4af8 683f f4a5 063f 95b4 9bbf
00000090: fa15 d0bf 19c2 513e 23ad 77bf de20 a1be
000000a0: 0849 b5bd d1c9 c1bf 6ac5 58bf 0896 3dbf
000000b0: 5905 4cbf e9f1 42bf d5c2 09bf dea2 1cbf
000000c0: 29e1 4abf c092 33bf 820d 5dbf 90a9 3dbf
000000d0: e537 163f 0c53 0f3e 8493 013f 89e9 c6bd
000000e0: 4f49 33be aed1 22bf 8b2f fe3c deec 983e
000000f0: 2e90 2fbe adcb 0a3e c10d c5bd d569 1c3b
00000100: 995a dcbc bb41 69be b612 91be 69f8 5cbe
00000110: bd3f 93be 6e0b 90bd 8d70 08bf be61 1ebf
00000120: 87b4 21bf bb79 e8be 392d 49bf b0f4 31bf
00000130: 456e 02bf 8f07 26bf bff9 26bf fc45 fabe
00000140: a3f7 75be d487 7ebd 945d 043e 1c66 f13d
00000150: a178 54be f1d2 403e 9f6d a8be 108d c8be
00000160: ad37 12be e916 c13e b35d f83d 86e8 293e
00000170: a61d 11bf f763 aabe 4fed 20be f3da f93d
00000180: 8d2a 9c3d 0965 c1be c892 30bf 413a 48bf
00000190: 0581 82bf a924 46bf d748 2ebf b51b 83bf
000001a0: 0224 53bf 2a4f 5abf f0c8 31bf 0a50 51bf
000001b0: ff60 b4be 9909 5dbe 73f5 e6bd 5cd5 85bd
000001c0: d716 3bc0 5f97 ddc0 21a8 353f de74 5140
000001d0: d405 4abf deb6 24be fe59 623e bf24 483f
000001e0: 8f87 033d 12b1 72bf 0b52 0abf 4f2d 31bf
000001f0: 9de1 11be 3bf4 6a3e e88f 18bf 3795 3cbf
00000200: 4d23 19bf ef23 fdbe b98f e0be d8f9 15bf
00000210: e267 c0be 006e 2bbf 8f23 2cbf c21e 22be
00000220: fd0a 343e 5676 b33e 7204 e63e dc48 11bf
00000230: ec23 f53e 216f 473f 1d51 9a3d bebc 2cbf
00000240: 4c44 86be c82e 49bf cc5d 083f a9a0 c23d
00000250: c9c8 d9bf ff8e 24be 173f b9bd ee1b 003d
00000260: 13ad 643e c505 09be dc41 76bf 2e4a 91bf
00000270: 0e16 95bf bab9 55bf 5b0b 64bf 44db 74bf
00000280: 4ded 87bf 4496 73bf 4510 81bf 4340 00bf
00000290: 563f a1be fc4d 013f 4c7c 053f a75e 343e
000002a0: 39ed 5bbd b699 20bc 0688 1ebe 23de f3bd
000002b0: 9bf2 64be 252f 8c3d 5497 8a3b 4581 1c3e
000002c0: 27c1 aebe 75b8 1ebe 5f77 363e 6626 1bbd
000002d0: 888a c1bd 3469 74be 2858 33be 3dde 83be
000002e0: 0d64 88be a31a ecbe 4d2a 02bf e535 8ebe
000002f0: b96a c5be 6d72 83be 5cfc 72be 9975 cbbe
00000300: cafb 5dbe 60fe c5bd e789 32be 04e7 0a3d
00000310: c435 81be ecd7 f03e 260c 16c0 a40d 83bf
00000320: 91a9 563f 8eed a13e cc06 8a3f abd1 70be
00000330: 19f4 d1bc 6d21 04bf 56d0 a6bd f85f cc3f
00000340: 4c33 0dbf 4a39 5abf 6d4e 89bf e55f 87bf
00000350: f69b 90bf 5758 a1bf 0563 87bf 1507 88bf
00000360: 7c20 7abf 35c5 86bf 313e 45bf 6fb5 aebe
00000370: 7006 c73e 0b7d efbe 1496 053f 04a9 73be
00000380: b0d7 3a3b ae3c 26be 312e 503e 4162 52bf
00000390: 1e5e 9c3e 1e5a 25bf a85a 3d3d 6953 52bf
000003a0: 8c91 0f3f d687 97be 572b b5be 9e10 abbd
000003b0: beb8 1c3f 852f 81bf 22eb 5cbf d141 47bf
000003c0: f188 44bf a6e8 1dbf b139 4cbf 6a99 57bf
000003d0: 29bb 48bf c68b 14bf c184 46bf 4bb8 62bf
000003e0: 3ae9 e4be d1c1 d3be 459d 8f3d 485c b73c
000003f0: eb09 713f 495f dc3f a510 8fbf 3637 26bf
0.6768156 -2.4336843 -2.5427468 2.3592098 -0.18289895 -0.27566394 -0.7016559 -0.9246077
0.20732117 0.48221353 -0.1160005 -0.8823069 0.21002492 0.26095814 0.50148255 0.5552237
0.42674017 0.41344076 0.46420482 0.39354965 0.2112335 0.024463195 -0.03125736 -0.19005966
-0.18189162 -0.059323724 0.0016607848 0.06900943 -0.035304237 -0.36874148 -0.23300223 1.1386049
0.42335728 0.9100386 0.52596974 -1.2164484 -1.6256707 0.20484199 -0.9674856 -0.31470388
-0.0885182 -1.5139714 -0.8467623 -0.74057055 -0.7969566 -0.76150376 -0.53812915 -0.61186016
-0.7924982 -0.701458 -0.86348736 -0.74086857 0.5867904 0.13996524 0.50615716 -0.09712512
-0.17508434 -0.63601196 0.03102853 0.29868215 -0.17144844 0.13554259 -0.09621764 0.0023866792
-0.02689867 -0.2277898 -0.28334588 -0.21579136 -0.28759566 -0.0703343 -0.5329674 -0.6186789
-0.6316609 -0.45405373 -0.7858463 -0.6951399 -0.5094951 -0.64855283 -0.6522483 -0.4888152
-0.24020247 -0.062141255 0.12926322 0.11787054 -0.20749141 0.18830468 -0.32896134 -0.39170122
-0.14279051 0.37712792 0.12127247 0.16592607 -0.56685865 -0.33279392 -0.15715526 0.121999644
0.076253034 -0.37772396 -0.6897397 -0.7821389 -1.0195624 -0.7739969 -0.68079895 -1.024283
-0.8247682 -0.85277045 -0.6944723 -0.81762755 -0.35230252 -0.21585692 -0.112772845 -0.06534836
-2.923269 -6.924728 0.7095967 3.272758 -0.78915143 -0.16085383 0.22104642 0.7818107
0.0321117 -0.9480144 -0.5403144 -0.6920976 -0.14246221 0.22944729 -0.59594584 -0.73665184
-0.5981949 -0.49441478 -0.43859652 -0.58584356 -0.37579256 -0.6696472 -0.6724176 -0.15832046
0.17582317 0.3505122 0.44925267 -0.567518 0.4787897 0.77903944 0.075350024 -0.674755
-0.2622398 -0.7858701 0.5326812 0.095033 -1.70144 -0.16070174 -0.090452366 0.031276636
0.22331648 -0.13381107 -0.96194243 -1.1350763 -1.1647356 -0.8348652 -0.8907983 -0.9564707
-1.0619293 -0.9515116 -1.008309 -0.50098056 -0.31493634 0.5050962 0.52142787 0.17614232
-0.05369303 -0.009802273 -0.15481576 -0.119076036 -0.22358172 0.068449296 0.0042294655 0.15283687
-0.3413174 -0.15500052 0.17818974 -0.037878416 -0.09450251 -0.23868257 -0.17514098 -0.25755492
-0.26638833 -0.46114072 -0.50845796 -0.27775493 -0.38557985 -0.25673237 -0.2372908 -0.39738157
-0.21678081 -0.09667659 -0.17435418 0.03391172 -0.25236332 0.47039735 -2.3444915 -1.0238538
0.8385249 0.31626552 1.0783324 -0.23517482 -0.02562909 -0.51613504 -0.08145206 1.5966787
-0.551564 -0.85243666 -1.0727059 -1.057614 -1.1297596 -1.2605084 -1.0577093 -1.0627161
-0.9770582 -1.0528933 -0.7704802 -0.34122798 0.388721 -0.46775088 0.52182126 -0.23794943
0.0028509907 -0.16234085 0.2033012 -0.82181174 0.30540556 -0.6459063 0.046229035 -0.82158524
0.5608146 -0.29595822 -0.35384628 -0.08352779 0.61219394 -1.0092627 -0.86296284 -0.778348
-0.76771456 -0.6168312 -0.7977553 -0.84218466 -0.78410584 -0.5802578 -0.77546316 -0.8856246
-0.44709188 -0.41358808 0.07012419 0.02238287 0.9415576 1.7216579 -1.1176955 -0.64927995

fc1.bias f4 [400]
00000000: 0b6c dcbe e131 ccbe 06d1 96be b5ec 0ebe
00000010: 0cd6 c2bd ea42 dbbe a157 cdbd 7286 d3be
00000020: 98cd 34bf c5c5 02bf f1a6 d83d 96d9 19be
00000030: 942f a9be 40cd 3cbe dde0 81be 99ae 4ebe
00000040: f8e3 36bf 7fd4 a7be 5777 f2be 0ecc 98be
00000050: 5036 32be 5a7a 5ebe 3372 febe 6217 dfbe
00000060: 558b 8cbf b62b 1b3f 2b5f bebe 535e 90bf
00000070: 156a 84bd ea93 bbbe cec4 14bf 2ad5 703f
00000080: 75f8 8bbd c441 ffbe 37c0 a4bf 910e c2be
00000090: 1bff 64be 7203 3a3f 1ff1 be3e 3c5f e2be
000000a0: ee82 13bf 3374 6ebf 8e10 98bf 1558 07bf
000000b0: 01be 06bf 01f4 11bf f754 a0be 3ca4 7cbf
000000c0: c6ce 2dbf 609b 083f c061 d53d 4224 6dbe
000000d0: 7fc8 fabe c44c 793e f1ae 46bf 2be2 9dbe
000000e0: bcac de3e 9a5d e5bd 8117 333d 5349 68bf
000000f0: 9e64 37be cbff edbd 0d00 88be 187c ccbb
00000100: 5716 a7be f78c 51bf 7ed0 17bf 496e cdbe
00000110: d851 b9be fa8c 51bf ba5b 993e 911a fcbe
00000120: cd69 23bf 9fd2 2cbe 78b7 b3be b82f 3abf
00000130: 99cc 8dbf 1651 9dbe 39d9 d6be 00ab b0be
00000140: 09d4 8bbf 49a5 6ebe 7122 d3be 3ed7 99be
00000150: cf44 3abf f3e5 0ebf d1b9 29bf cf15 05be
00000160: 9ece 9cbf 0a3c 2f3f 89bc 41be b865 3abe
00000170: 899d 42bf b3db 03bf a31f 91bf 5703 323f
00000180: 6ee0 ab3c ba02 893e daf0 5dbf 96b8 92be
00000190: ce15 94be eb50 9b3d 3e98 97bd 7ee8 13bf
000001a0: ced3 1ebe 915c cebd 6464 0ebe 4e4a 9ebe
000001b0: 4aad 41bf bfd5 2cbe 45ba 06bf 60ea 45bf
000001c0: ce54 96bd b209 54bf b1ce c8bd 63a9 cbbe
000001d0: 5708 9abe 07c6 a2be bfc8 2abf 0826 46bf
000001e0: df18 c93e dd33 09be 2f1e 29bf 6711 2bbf
000001f0: c28c 863e ae1f e7bd 8003 4e3d 52b7 dbbd
00000200: 5b89 e8be 41b0 b93e 1d58 04bf 254e 663f
00000210: ade5 ffbe 6262 28bf 6215 72bf 7f7e 2dbf
00000220: 298c 543d f98b 4dbf 52ca dcbe a7e6 87bf
00000230: 3c25 f4be 6c4d 46be a260 57bf 1b04 87bb
00000240: a004 cf3e d3e7 eebe 5fe9 a3be 18ce 4ebd
00000250: f5c4 05be 16b4 19bf cdf5 90bf f3ef 453f
00000260: 7926 c1be 3791 b0be d722 c5be 2bc1 173f
00000270: 4f39 adbe 8b22 63be 7020 32bf 8dad 82bf
00000280: 4dcd 04bf c82a 66be c356 6fbf 82aa a23d
00000290: 3b23 6cbe 0017 b8be dde9 d03e 7232 ebbe
000002a0: d479 f8bd 26ce 97bd 399a 82be de23 bbbe
000002b0: 2fb1 0cbf ccb8 7dbf be0e 17be e689 19bf
000002c0: 4300 66bf 11c3 58bf 4837 073f 22b7 d4be
000002d0: 16e0 44bf 32ea 0bbf 23ed 023f c98c 4abe
000002e0: e14f 1ebf 84ae 94be 3412 8fbf 7585 9bbd
000002f0: 5ee0 18bf 35a8 8fbd 3ae6 d03e 4e76 9fbe
00000300: 5e2c a6bc 9a85 59bf d7e7 20be 22a0 dcbe
00000310: 66a1 93bf 3133 cbbe c2f8 6d3d d50c 23bf
00000320: def8 223e 39b2 d0be a59c 3ebf 5681 16be
00000330: b03a c0bd 1826 b9bd 36cf 95bf cb34 e1be
00000340: 41d1 35bf e7e9 22bf 47da 22be dd01 89be
00000350: 0a99 623e 116f 7ebf 4a0a 93be 5ed6 233f
00000360: ff90 acbe 677c 08bf be8c 1bbf d20c 03bf
00000370: c436 8cbf d355 53be 2f57 db3a 9753 0dbf
00000380: 8289 59be b7f4 e23d cefa 8bbe eddb 00be
00000390: 6296 183e 2e02 98be 71a0 2bbf 699a ecbe
000003a0: 4c13 8a3e 4b59 d53e 65b0 9dbe 500a 31bf
000003b0: b04c b4be 1bf8 61be fe09 f8be 0297 4cbc
000003c0: 3181 e5be d087 40bf 54fe 193e 9eb3 11bf
000003d0: 3bcb 283f 9467 20bf 9324 51bf 5567 903e
000003e0: ee36 7cbf ddcd c0ba ece1 7fbf 7eaf 10be
000003f0: 0971 58bd 64c3 10be 1a58 e7be fd5a 03bf
-0.4305118 -0.39881805 -0.29456347 -0.13957484 -0.095134825 -0.4282449 -0.100264795 -0.4131351
-0.7062621 -0.5108302 0.105787165 -0.15024409 -0.33044112 -0.18437672 -0.2536687 -0.20183791
-0.714416 -0.3277931 -0.47356674 -0.2984318 -0.17403531 -0.21726361 -0.49696502 -0.43572527
-1.0980021 0.6061357 -0.37181982 -1.1278785 -0.06465546 -0.36636287 -0.581128 0.9407526
-0.06834499 -0.49854863 -1.2871159 -0.37901738 -0.2236294 0.7266151 0.37293336 -0.44213283
-0.5762166 -0.93146056 -1.1880052 -0.5286878 -0.5263367 -0.57012945 -0.31314823 -0.986881
-0.67893636 0.53362083 0.10419035 -0.23158363 -0.4898109 0.2434569 -0.7761069 -0.30836615
0.4349116 -0.11199494 0.043723587 -0.90736884 -0.17909476 -0.11621054 -0.2656254 -0.006240379
-0.3263423 -0.8185572 -0.5930251 -0.40123203 -0.36195254 -0.8185574 0.29952794 -0.4923902
-0.63833314 -0.1687722 -0.35100913 -0.72729063 -1.1078063 -0.30725926 -0.41962603 -0.34505463
-1.0924083 -0.23305239 -0.41237214 -0.3004703 -0.72761244 -0.55819625 -0.6629916 -0.129966
-1.2250555 0.6845099 -0.18919577 -0.18202865 -0.7602163 -0.5150711 -1.133778 0.69536346
0.02098104 0.26759893 -0.86695635 -0.28656453 -0.28922886 0.07583793 -0.07402085 -0.5777663
-0.15510485 -0.100762494 -0.13905483 -0.30916065 -0.75655043 -0.16878413 -0.52627975 -0.7731075
-0.07340394 -0.82827294 -0.09805048 -0.3977767 -0.30084488 -0.31791708 -0.66712564 -0.7740178
0.39276788 -0.1339869 -0.6606168 -0.6682343 0.26279265 -0.11285339 0.050296307 -0.10728325
-0.45417294 0.36267284 -0.5169695 0.8996299 -0.49979916 -0.6577512 -0.9456388 -0.6777114
0.05189148 -0.80291706 -0.43123108 -1.0617265 -0.47684658 -0.19365472 -0.84131825 -0.0041203625
0.40433216 -0.46661243 -0.32013986 -0.050489515 -0.13063414 -0.60040414 -1.1325012 0.7731926
-0.37724665 -0.3448579 -0.38503143 0.59279126 -0.33832785 -0.22181146 -0.69580746 -1.0209213
-0.51875764 -0.22477257 -0.9349176 0.07942678 -0.23060314 -0.35955048 0.40803424 -0.45936924
-0.12132612 -0.074123666 -0.25508288 -0.36550802 -0.5495786 -0.991101 -0.14751717 -0.5997604
-0.8984415 -0.8467265 0.5281873 -0.4154597 -0.7690443 -0.5465423 0.5114309 -0.19780268
-0.61840636 -0.29039395 -1.117743 -0.07593814 -0.5971736 -0.07014505 0.4080065 -0.31144947
-0.020284828 -0.84969485 -0.1571344 -0.43090922 -1.153363 -0.39687493 0.058098562 -0.63691455
0.15915248 -0.40760973 -0.7445777 -0.14697775 -0.09386194 -0.09040469 -1.1703861 -0.4398559
-0.7102242 -0.63638157 -0.15903579 -0.26759234 0.22128692 -0.99388224 -0.28718787 0.63998973
-0.33704373 -0.5331482 -0.6076163 -0.5119144 -1.0954213 -0.20638208 0.0016734357 -0.5520567
-0.21243861 0.11081832 -0.27339786 -0.12583895 0.14901116 -0.29689163 -0.6704169 -0.46211556
0.26967847 0.41669688 -0.3079864 -0.6915636 -0.35214758 -0.22067301 -0.48445123 -0.012487175
-0.44825128 -0.75207233 0.15038425 -0.569147 0.65935105 -0.6265805 -0.8169643 0.28203836
-0.98521316 -0.001470979 -0.99954104 -0.14129445 -0.052842174 -0.14137036 -0.45184404 -0.5131071

fc2.weight f4 [300, 400]
00000000: 3b8c e7bc 9d0e 8abd b3b4 d5bc 1867 a2bb
00000010: e680 a73c 52b4 cb3c 1da9 9c3c 6675 12bc
00000020: a529 0fbd 3a92 1ebd 3072 b4bc 38b9 3abd
00000030: 5848 f2bb ddb2 113d 165a 283b 1784 21bd
00000040: a0a4 8a3a 809c fb3b 8796 3a3d ad11 903c
00000050: f4b8 873c 6848 cb3b 1bbf 3abd ba60 fbbc
00000060: 4a0d 59bd 7d25 8ebc 7ca7 70bd 055d 88bd
00000070: 9f49 2ebd b058 32bb 0020 293c 2e67 213b
00000080: cb2f e6bc 0f31 363d 75b8 85bd 75c7 0f3d
00000090: 5a67 febc d87b 32bd 1da5 8cbd cf06 bc3c
000000a0: c7d4 be3c ed18 22bd 824a 57bd 4706 3d3a
000000b0: 4d2a 9b3c 16cf a13c fb0e 66bc 85bd 933c
000000c0: de35 813c b436 113c ce96 f53c f437 f7ba
000000d0: 6727 383c bd96 113b 9a0e 94bc 4bc4 793c
000000e0: 442b 093d 76ef 99bc b074 3ebd 3094 3fbd
000000f0: f78e a7bb a255 debc 0d3e 06bc 1226 d5bc
00000100: 2778 b63c 262d 9dbc 55f7 133d 557a 933b
00000110: 29db cbbc b0c5 b2bc 9a91 57bd ea10 dbbc
00000120: 9531 83bb 49a4 44bd 66d3 93bc dda5 8fbd
00000130: 5a3b 5cbd 3e2b 253d 04b2 7f3c d3c6 273d
00000140: b68f 91bd dd50 193c f0e2 ce3c d8ac 6dbc
00000150: 9c3a 72bd aeba 11bd 9389 42bd 6cce 7cbd
00000160: 8433 78bc 575f 3d3c b679 9e3c 3ecc 1fbc
00000170: df47 27bd 3809 36bd cb95 eebc 9dc0 963c
00000180: b615 1dbd 58b1 c03b 4f07 25bd 4ed7 d93c
00000190: 9582 82bc bd24 8bbc 335d e5bc 1289 d1bb
000001a0: 1891 a63b 56cd 9abc f6ee 973b 624f f93c
000001b0: 8854 31bd c34c dbbc 2a15 31bd 6d01 81bd
000001c0: e143 c9bc 6ca6 72bd 6cec f7bc 3640 1cbd
000001d0: df07 3a3a a70e 3bbd 4cb5 5c3c 624e 5abd
000001e0: 94f6 2abc f22b 913c bc45 f9bc 80aa 16bb
000001f0: 0ed9 9abc 30b9 3dbd b72f 21bd 5850 cabb
00000200: 3033 313b 5721 a6bc 3f63 24bc a65a 04bd
00000210: 18f5 3cbd b69e 1bbd 1429 7abc 404f 38bd
00000220: e0bd 81bc f631 11bc 9a08 d9bc 968e 19bd
00000230: 3928 4ebd 4c61 38bc b5b4 0fbd f95e 3d3d
00000240: 0084 8039 537d 1b3d ce72 2a3d 18b9 053c
00000250: a3a7 7a3c 23eb 2ebd af6c b73b b983 45bd
00000260: d2cf d9bc e7ad bdbc ee8e 2a3b 7e4a 253c
00000270: 7dd2 86bc e5a7 143c 4266 e23c df53 2f3d
00000280: a2dc b43c 8936 4fbd 746d 853c 8dfc 923b
00000290: f09e 383d 0414 f7bc b325 e0bc 979d 23bd
000002a0: 0ded 06bd 377b 243d e698 9d3c 3124 c1bc
000002b0: 54d6 0c3d ddc1 82bd 60fe c53c 6947 003d
000002c0: 986f 1dbd c167 4fbd 6666 213c b2ff 03bd
000002d0: 43c5 dabc 32f9 5cbc 56f0 10bd dd63 81bd
000002e0: 23f2 783c 941e 023d 3bb3 6dbd 15ee 87bd
000002f0: f4a4 173c 622d d3bc c9b4 d43c e810 25bd
00000300: 73ce 60bd f802 71bc 36b6 8ebc b75b bb3c
00000310: b212 5fbd cfed 183d 7724 26bd e05e 2ebc
00000320: f81a 74bc 964d a83b d603 94bd a473 0b3d
00000330: 0e9e a83c 814e 303d 95e7 86bc 2a38 ffbc
00000340: b484 7ebd 3c1b 7ebc a855 c23c a31a 0fbd
00000350: c955 313d e9b5 3d3d 8369 6fbc 70e8 cb3b
00000360: c0da ba3a 2fc1 2bbd 5276 c13c 800d 023c
00000370: 1df8 933c 07bc 26bd cf4d 2cbd 56b8 91bd
00000380: 3a25 dbbb 8b28 e2bc aeb4 12bc 4e7e 263d
00000390: 6543 123d 1b36 60bd b4b1 833c f3dd 013d
000003a0: ba44 c3bc fa3f e23c 508c 44bb 2871 33bd
000003b0: 8b2d 763c 297a 3c3d cd7d 0bbd 19a8 4dbd
000003c0: 9951 513c 8530 05bd 00fe adbc 398b 4abc
000003d0: ed52 02bd c0f5 c73b 551f 85bc 332b 133d
000003e0: c004 e53a 7f66 313c d9ca 5b3c 8c80 91bc
000003f0: e81a b8bc db83 6bbc f5eb 8bbd 1d22 8dbc
-0.02826511 -0.067410685 -0.02608714 -0.0049561374 0.020447206 0.024866257 0.019123608 -0.008939123
-0.034951825 -0.03871367 -0.022027105 -0.045586795 -0.007393878 0.035570968 0.002568846 -0.03943261
0.0010577627 0.0076785684 0.04555371 0.017586553 0.016567685 0.0062037 -0.04559241 -0.030685771
-0.05299119 -0.01735186 -0.058753476 -0.06658367 -0.04255068 -0.0027213506 0.010322571 0.002462815
-0.028098961 0.04448038 -0.06529323 0.035102326 -0.031055141 -0.043575138 -0.0686743 0.022952465
0.02329482 -0.039574552 -0.05256129 0.0007210713 0.018941069 0.019752067 -0.014041658 0.018034706
0.015772756 0.00886314 0.029979136 -0.001886128 0.011239863 0.002221509 -0.018073369 0.015244554
0.033488527 -0.018790942 -0.046498 -0.046772182 -0.0051134783 -0.027140442 -0.008193505 -0.02601913
0.02227409 -0.019186568 0.036124546 0.004500667 -0.024884777 -0.02182278 -0.05262909 -0.026741464
-0.0040037134 -0.048008237 -0.018045139 -0.07014058 -0.05376754 0.040324442 0.015606407 0.040961098
-0.07107489 0.009357658 0.025254697 -0.014506541 -0.059137926 -0.035578422 -0.047494482 -0.061720297
-0.015149001 0.011558375 0.019345146 -0.009753285 -0.040840026 -0.044442385 -0.029124161 0.018402392
-0.038350783 0.005880516 -0.040290173 0.026591923 -0.015931407 -0.016985292 -0.027998542 -0.006394514
0.0050832145 -0.01889674 0.0046366407 0.03043336 -0.043293506 -0.026770001 -0.043233074 -0.062991
-0.0245685 -0.059240744 -0.030264102 -0.038147174 0.000709651 -0.04566827 0.013470959 -0.053297408
-0.010434765 0.01772115 -0.03042876 -0.002298981 -0.018902328 -0.046319187 -0.039352145 -0.0061741285
0.0027038567 -0.02027957 -0.010033428 -0.03231301 -0.046132177 -0.037993155 -0.015268583 -0.044997454
-0.01583761 -0.008862009 -0.02649336 -0.037489496 -0.050331328 -0.011253666 -0.035084445 0.04623315
0.0002451241 0.037961315 0.041613393 0.008161806 0.015298757 -0.042704713 0.005597673 -0.048221324
-0.026588354 -0.023154212 0.0026025134 0.010088561 -0.01645779 0.009073232 0.027636651 0.042804595
0.022077862 -0.05058912 0.016287543 0.004485673 0.04507345 -0.030160911 -0.027361726 -0.03994521
-0.032940913 0.04015657 0.019237947 -0.023576828 0.034384087 -0.06384633 0.024169147 0.031318102
-0.038436502 -0.050636057 0.009851074 -0.032226272 -0.02670539 -0.013487147 -0.035385452 -0.063178755
0.015194449 0.031767443 -0.058032256 -0.066372074 0.0092556365 -0.025778476 0.025965111 -0.040299326
-0.054884385 -0.01471018 -0.01742087 0.022870881 -0.05446119 0.037336167 -0.04056212 -0.010642737
-0.014899008 0.005136202 -0.07227294 0.03404583 0.020583179 0.043043617 -0.016467849 -0.03115471
-0.062138274 -0.015509423 0.023722485 -0.034937512 0.0432947 0.04631606 -0.014612558 0.006222777
0.0014255866 -0.04193228 0.02361599 0.007937789 0.018062646 -0.04070666 -0.04206639 -0.071152374
-0.0066877874 -0.027607223 -0.00895421 0.040647797 0.035708804 -0.0547391 0.016075946 0.031705808
-0.023836482 0.027618397 -0.002999086 -0.043809086 0.015025507 0.04601494 -0.03405552 -0.05020914
0.012775802 -0.032516975 -0.02123928 -0.012362295 -0.031817365 0.0061022937 -0.016250292 0.03592987
0.0017472729 0.01082766 0.013415062 -0.017761491 -0.022473767 -0.0143746985 -0.068321146 -0.01722818

fc2.bias f4 [300]
00000000: c97d 40bd bdb1 00bd 0942 cbbc fc10 873e
00000010: c6c0 a03e f7a3 303d 02b9 683c 1f8b a1bc
00000020: 8343 edbc 3859 b1bc f732 2ebd 9f6b 00be
00000030: bfae a6bd a0d4 b4bd 1e38 9abc 37f0 353e
00000040: 0af4 57bd 5ff2 aebd 484f b13e d647 91bd
00000050: 1821 3ebd 78c6 24bd fe4d 65be 431b fb3c
00000060: bd77 df3d c0a5 b4bd 828e d4bc 8d8e 03be
00000070: ce8c 01be a624 94bd 66e6 14bd e826 36bc
00000080: e13d 4abd da35 dfbd 6daf 963e 37ed a9bc
00000090: b048 bdbd 67ba b03c 7176 45bd 19ff cbbd
000000a0: eb1a 6abc cedb 253c faa2 debd 276f 2bbd
000000b0: ce61 18be 37da a8bd 5f9e 23bd 858b 133f
000000c0: 5077 bcbc f1ee ccbd eb6b e9bc b15e 4abd
000000d0: a78e acbd 41aa df3b 4e73 2c3c 7449 72bd
000000e0: 0907 d93e 2d08 033f 3561 86bd 8eb2 96bd
000000f0: a72f 27bd 30f7 3bbd c12d 9c3f da5f 58bb
00000100: df99 aabd f1f3 47bc 04c4 fbba 0f8c 2bbe
00000110: eff0 a2bd c0b4 3ebd 13a1 ff3c b3e4 6ebd
00000120: 60f4 4f3c 1ff1 a9bd 0629 99bc 226d d8bd
00000130: 0eb2 14bd 0da2 06bd 3b84 60bd 3bbd e3bc
00000140: 3de0 8bbd 1ecd cc3f 55c8 86bd e69b 2f3d
00000150: 146c 73bd 08a0 33bd d602 6e3e 8536 04bd
00000160: 5ff8 adbd b553 82bd 398a 5f3b a77d 95bd
00000170: 0023 b6bd 382e 34bd f637 90bd f608 9cbd
00000180: ae8f 2d3a 898c c9bd d04e c93c 1e39 c63e
00000190: 3856 bebd b02d b5bc f9f5 4cbd a16c 563c
000001a0: 62d6 54bb 970e a6bd 2514 04bd 16af 1ebe
000001b0: efae 2dbd c981 04be d924 4dbd 0544 88bd
000001c0: c49c 74bd 51fa 543d 220e 53bd a2ca 57bd
000001d0: f115 df3e fae5 57bd 333f 62bd da95 223f
000001e0: 621c daba 06cd c63e de5e 1fbd 42f4 dbbc
000001f0: f470 0940 7e93 1dbb 79a8 c2bd 2eb0 99bd
00000200: 9336 e5bb 0da1 02bd ce0e 91bd 2902 523c
00000210: be52 94bd 24fe 3cbd c2f3 59bb d09c 3cbd
00000220: 9d6b 503f 179a aebc 117c cfbd 9967 c5bc
00000230: ea02 d5bd 84c7 893e 7ea5 9abd 66a8 16bd
00000240: e28c 5abf 5b82 65bd b047 39bc 39d1 4fbd
00000250: 6785 80bd 15be 8fbd 3920 47bd c060 cc3b
00000260: b7cc a4bd 45a0 9b3d 85c2 2f3d 1609 90bd
00000270: bd79 9a3b eed9 2a3d ef5c 2abd 9258 d7bc
00000280: 01d7 303f ad30 8fbc eff0 22bd 8961 4cbd
00000290: 6c62 0ebf 4e34 11bd 0a8c 803d 0777 a5bd
000002a0: 9c08 72bd 22b2 59bd 7b52 61bc 3ca3 78bd
000002b0: 0a4c 5abd 8c8c fbbc 8b7a e5bd 31a2 5e3a
000002c0: 0ae1 6f3c 2a1f e23b cece 233c f422 073c
000002d0: b223 58bd 9491 73bd 6066 bdbd 4db3 00bd
000002e0: 548b 233f 1573 8fbc 1b56 133f 94b0 72bc
000002f0: cba0 68bc d8f9 b6bd a0f3 b3bd 33fa f93d
00000300: aade 59bd 5e61 a93c 0715 2dbe 6d66 9e3c
00000310: 6748 26bd bc42 863b dca1 ffbc b97d c6bb
00000320: 056f 1e3c d202 debd 5b2a 103f c079 33bd
00000330: d0bb 3bbd 4ab6 dabc a6f3 97bc b802 35bd
00000340: 0df9 84bd a2c9 d3bd 86b0 11bc 4f4e 2ebd
00000350: f386 6ebd 5ce8 063d be36 213e 112a 4cbd
00000360: c3f8 6dbd d39a e6bc 9e44 1abd 0745 a5bd
00000370: 74a7 73bd d897 bebc a2cb cfbe d421 84bd
00000380: 4b69 6bbd 757a 87bd ca6c 603c 17dc bc3e
00000390: 64ec 7abd 8cda 873b 7817 3dbd 2f30 26bd
000003a0: 1004 31bd e37b e1bc 8b05 6cbc 862f 9abd
000003b0: b7f4 2ebd 87fa 26bd 3e08 16bd 86a0 1cbd
000003c0: f559 9b3b 8706 a5bb c03b b5bc 952f 143d
000003d0: d82e 64be a0d4 34bd b50e 9a3d 1534 8dbd
000003e0: 9f20 20bd d55c 1a3d fbaa 65bd 86a5 97bd
000003f0: 0dc3 0dbd 29cc c1b9 3534 81bd d061 31bf
-0.046994958 -0.031419504 -0.024811761 0.26380146 0.31397074 0.04312512 0.014204266 -0.019719658
-0.028962856 -0.021648988 -0.042529073 -0.12541054 -0.08138799 -0.088296175 -0.018825587 0.17767416
-0.05272297 -0.08542322 0.346308 -0.0709378 -0.04641828 -0.040228337 -0.22393033 0.030652648
0.1091151 -0.08820677 -0.02594686 -0.12847348 -0.12651369 -0.07233553 -0.036352538 -0.011117674
-0.04937542 -0.10898943 0.29430714 -0.020742996 -0.0924238 0.021573259 -0.048208658 -0.099607654
-0.014288644 0.010123206 -0.10870929 -0.04185405 -0.1488106 -0.08244746 -0.039945956 0.57634765
-0.023006111 -0.10006512 -0.028493842 -0.04940671 -0.08425646 0.006825716 0.010525538 -0.05915208
0.4238818 0.5118435 -0.065615095 -0.07358275 -0.04081693 -0.045890033 1.2201463 -0.0033016116
-0.0833013 -0.012204156 -0.0019208197 -0.16752647 -0.07956111 -0.046559095 0.031204736 -0.058323573
0.012692541 -0.08297943 -0.01869632 -0.105676904 -0.03630262 -0.032869387 -0.054813605 -0.027800193
-0.068298794 1.6000097 -0.06581179 0.042873286 -0.059429243 -0.04385379 0.2324327 -0.032278556
-0.08494639 -0.06363622 0.0034109487 -0.07299357 -0.088933945 -0.04398939 -0.07041924 -0.07618897
0.0006620836 -0.09841258 0.024573714 0.38715452 -0.09293789 -0.022116512 -0.050039265 0.013087423
-0.0032476415 -0.081082515 -0.032245774 -0.15496477 -0.042403158 -0.12940134 -0.05008397 -0.06653599
-0.059719816 0.051996533 -0.05152715 -0.05268348 0.43571427 -0.052709557 -0.055236053 0.63509905
-0.0016640539 0.38828295 -0.03890883 -0.02684987 2.147519 -0.002404421 -0.0950479 -0.07504307
-0.006995031 -0.03189187 -0.07082902 0.012817898 -0.07242344 -0.046140805 -0.0033256863 -0.046047986
0.81414205 -0.02131371 -0.10131086 -0.02409725 -0.104009464 0.2691003 -0.075510964 -0.03678169
-0.8537122 -0.05603252 -0.011308596 -0.05073664 -0.062754445 -0.07018677 -0.048614714 0.0062371194
-0.08046859 0.07598928 0.042910118 -0.07032983 0.0047142194 0.04171174 -0.041592535 -0.02628735
0.6907807 -0.017479265 -0.039780553 -0.049897704 -0.5561893 -0.035450272 0.0627671 -0.08079343
-0.05909024 -0.053148396 -0.013752575 -0.060702547 -0.053295173 -0.030706666 -0.11205014 0.00084927963
0.014641056 0.0069006877 0.009998037 0.00824808 -0.052768417 -0.059465006 -0.09248042 -0.031420995
0.6388447 -0.01751093 0.5755326 -0.014812607 -0.014198492 -0.08934373 -0.08786702 0.12205925
-0.053190865 0.020676311 -0.16902553 0.01933595 -0.040596392 0.004097311 -0.03120511 -0.006057468
0.009670024 -0.10840382 0.5631463 -0.04381728 -0.04583341 -0.02669825 -0.018548798 -0.044192046
-0.06492815 -0.10341193 -0.008892184 -0.04255515 -0.058234166 0.03293644 0.15743539 -0.049844805
-0.058098566 -0.028149998 -0.037663095 -0.080698065 -0.059485868 -0.023265764 -0.40585047 -0.06451765
-0.057473462 -0.06615154 0.013697812 0.36886665 -0.061260596 0.004145926 -0.04616496 -0.040573295
-0.043216765 -0.027524894 -0.014405618 -0.075285956 -0.042713847 -0.040766265 -0.036628954 -0.038239025
0.0047409483 -0.0050361785 -0.022123218 0.03617819 -0.22283494 -0.044148088 0.075223364 -0.068946995
-0.03909361 0.037686188 -0.056071263 -0.07404618 -0.034609843 -0.0003696394 -0.06308786 -0.69289875

fc3.weight f4 [1, 300]
00000000: 4ddb 8abc ad23 0dbd 1d59 88ba c4f5 fa3c
00000010: a86e c2be 8d5b 98bd c3c9 f9bd 964c a43c
00000020: c430 063c 2736 283b a493 0ebd dc75 7e3c
00000030: 28d7 bbbc 5e63 98bb 0eae 9d3c c31a 003d
00000040: e70e babc cc8a f4bc 2c83 f33e 904a 383c
00000050: fcee fb3c a0d5 b8bc 9776 fdbe c67c 23be
00000060: a6ff b8bf 6ca1 77bc 26cd 93bc 612d 533c
00000070: 9d57 89bf d38c 003d 2026 b6bc 79e8 c83c
00000080: 3c99 823c ba06 de3c 6583 18bf a0b5 4ebb
00000090: 8771 a83c cdbc 67bf 4601 903c 0c63 843f
000000a0: 66d2 a8bb 16fe 15bc fac0 d93c 21e9 54bd
000000b0: 7d4c 943e 061c 97bc b5aa 00bd 754d 1f3f
000000c0: 8385 e23c 664b 193c acd9 f73c 9fe3 a53c
000000d0: 71b2 54bc 3dd1 9abb ac94 8fbc 6b77 e5bc
000000e0: 362a 24bf c18e e23e 4c90 f13b ae11 a93b
000000f0: fd49 8abc 2174 dbbd 6486 e7bf 469e acbd
00000100: fd7b 8abc fe30 a33c 552b 1c3d 3661 1f3d
00000110: 961c 933c f4e3 84bc efa3 b3bd 4ffa a23c
00000120: 5543 98bc 5f91 213c f817 3fbd 8997 dcbb
00000130: 28d6 37be 0ba9 f0bd 7a38 5dbb 2f39 b13c
00000140: 8f92 2c3b 0946 b6bf e17d 50bc bbbb f6bd
00000150: b876 43bc ee3f 9abc 9532 f0bf 095d d3bd
00000160: 5eda 993c 1346 7139 b6e3 9cbc 6916 913f
00000170: e7c4 3dbc 95ed 9ebd 9378 f3ba 76b5 12bc
00000180: 59c1 ce3b 0183 58bb 7988 58bd f9bb e03e
00000190: a515 8abc a2a0 5e3c cada 56bc 9e2a afbd
000001a0: 8fb7 aa3c fcfb fdbc 7acf 7abb 138f 693c
000001b0: bf3c a0bc a521 0ebf 06fa a4bb 2e6e a4bd
000001c0: aae9 53bc 10a0 c9bd f18a 4c3c a3c0 613c
000001d0: c52c 003f 1ea8 5cbc 8470 72bc cf8b 9cbe
000001e0: e96e dcbd 8ee7 59be 98cd cdba e6f7 28bc
000001f0: d65a 93bf 6d89 94bd 5897 3cbc 5c2e f3bc
00000200: 4a1a dbbc 3a2f d13b a8e7 b2bc cf6f 37be
00000210: bdcc 08bc 94a6 a7bb 9996 d2bb 7779 353b
00000220: edc1 8cbf 52ff e8bd c223 d2bb 43c0 6c3c
00000230: 723e dfbc fd39 95be c85a b1bc 0faf 213d
00000240: 59e3 593f e599 8eba 1649 163d 0512 08bd
00000250: 8e21 2a3c 9d2a 96bb 1459 f23c eeaf 98ba
00000260: cb5c ebbc d855 c9bc 8eac 3ec0 4c9e 773b
00000270: 533b f839 ca7f 61bd a95c c53a d354 7abd
00000280: 20bd adbe 397d c43b 092d 423c 73e1 6139
00000290: 4e2e 923f 1604 95bc f441 06be 9401 f23c
000002a0: dabc d5bc 9b0d edbc 4360 e3bb 916c c33c
000002b0: f4db fdbc e56c 893c de81 15bb c2a6 d1bc
000002c0: 5a36 e1bc 963f a23b b481 0bbe 93e7 edbc
000002d0: 1077 3b3c 60e0 31ba c10e 493c c2a6 51bc
000002e0: ee42 d0bf 4f70 b9bd b401 2b3f 10be c4ba
000002f0: c193 d0bc cc96 72bc 62a4 d4bb c4de 02bf
00000300: 6ac0 5d3b 512e 443c bfdb abbc 7011 41bd
00000310: ba7d 5f3c 19ea 5b3c 8e88 9db8 e117 48bc
00000320: e29d d3bc 6d02 85bc 726a 243f da1f 6b3b
00000330: cd4d 933c 86e2 2a3c 20fb b83c 54f5 72bc
00000340: 3007 b1bc ac2f f2bc 22b1 d53c 4053 c83a
00000350: 9f35 a9bc 5e01 a0bd a7cf b6bf a7d1 be3c
00000360: 425a 643b 10c9 be3a 85d7 973c 2435 f23c
00000370: f4ad f4ba b364 fbbd 4cb3 4c3f ee62 a4bf
00000380: 780e b2bc bc99 843b 56cc afbd 314e 53be
00000390: 8a91 5dbc 181f b63b 804e 4e3c dd2e 0e3c
000003a0: 4290 db3c 734b e1bb 2638 173c d5b3 98bc
000003b0: ee3e 16bc d87c 363c 5c80 763c ca1f d8bc
000003c0: 450d 0e3b 5dc1 80ba 8b0a 67bc 296c d1bd
000003d0: 69fe 123f f499 88bd 6e0c adbd 9978 d7bc
000003e0: dec6 9639 1b74 77bd 1766 a6bc 8893 33bc
000003f0: 6111 c73c 74ca e9bc 46b2 183c 373a 323e
-0.016950274 -0.03445785 -0.0010402534 0.030634768 -0.3797505 -0.07439337 -0.12196686 0.02005605
0.008190338 0.0025667043 -0.03480877 0.01553103 -0.022929743 -0.0046505174 0.019248035 0.031275522
-0.022712184 -0.02985134 0.47561014 0.011248246 0.030753605 -0.022562802 -0.4950454 -0.15965566
-1.4453018 -0.01511417 -0.018042158 0.012889237 -1.0729862 0.0313843 -0.022234976 0.024524914
0.015942208 0.027102817 -0.5957549 -0.0031541362 0.020561947 -0.9052246 0.017578732 1.0342727
-0.0051520346 -0.009154817 0.026581276 -0.05198014 0.28964606 -0.01844598 -0.0314128 0.62227565
0.027651554 0.009356355 0.030255161 0.02025014 -0.012981997 -0.00472465 -0.017526947 -0.028011044
-0.6412691 0.44249538 0.007371938 0.0051595783 -0.016880983 -0.10715509 -1.8087888 -0.08428626
-0.016904825 0.019920822 0.038127262 0.038911067 0.017957967 -0.016221978 -0.08771502 0.019894747
-0.018586794 0.009861319 -0.046653718 -0.0067319316 -0.17952788 -0.117509924 -0.0033755586 0.021633713
0.0026332473 -1.4240123 -0.012725324 -0.120475255 -0.01193016 -0.018829312 -1.8765436 -0.103204794
0.018780883 0.00023009656 -0.01915155 1.1334964 -0.01158259 -0.07760159 -0.0018575363 -0.0089543965
0.00630967 -0.0033037069 -0.052864525 0.43893412 -0.016856024 0.013588103 -0.013113687 -0.085530505
0.02083948 -0.031003945 -0.0038270638 0.014255303 -0.019560216 -0.5552009 -0.005034688 -0.080288276
-0.012934128 -0.098449826 0.012484298 0.013778838 0.5006831 -0.013467817 -0.014797334 -0.30575415
-0.10763342 -0.21279737 -0.001570153 -0.01031301 -1.1512096 -0.072527744 -0.011510693 -0.029685192
-0.026745934 0.0063838037 -0.021838978 -0.17913745 -0.008349595 -0.005116293 -0.006426644 0.0027690807
-1.0996681 -0.113768235 -0.006412954 0.014450136 -0.027251456 -0.29145804 -0.021649733 0.03947359
0.8511253 -0.0010879604 0.036690794 -0.03322031 0.010383977 -0.0045827166 0.029583491 -0.0011649111
-0.02873077 -0.024577066 -2.979282 0.0037783561 0.00047346446 -0.05505351 0.0015057522 -0.06111605
-0.33933353 0.005996373 0.0118515575 0.00021541658 1.1420381 -0.018190425 -0.13111097 0.029541768
-0.026091028 -0.028937152 -0.0069389655 0.02385548 -0.03098867 0.016775558 -0.0022813003 -0.025592212
-0.027491737 0.0049514277 -0.13623697 -0.029041087 0.011441961 -0.00067854486 0.012271584 -0.012796106
-1.6270425 -0.09054624 0.66799474 -0.0015010256 -0.02546108 -0.014806461 -0.0064893225 -0.51121163
0.0033836612 0.011973933 -0.020978807 -0.04713577 0.013640815 0.013422512 -7.511779e-05 -0.012212724
-0.02583212 -0.016236508 0.6422492 0.003587714 0.017981434 0.010429984 0.022580683 -0.014828999
-0.021609873 -0.029563747 0.02608544 0.00152836 -0.020655451 -0.07812761 -1.428212 0.02329333
0.0034843837 0.0014555771 0.018535385 0.029566355 -0.0018667565 -0.12275066 0.79961085 -1.2842691
-0.021735415 0.004046647 -0.08583896 -0.20635296 -0.013523469 0.005557906 0.012591958 0.008678165
0.026802186 -0.0068754493 0.009229695 -0.018640438 -0.009170277 0.0111381635 0.015045252 -0.026382346
0.002167539 -0.0009823252 -0.014101635 -0.10225708 0.5741945 -0.06669989 -0.084496364 -0.026302623
0.00028758397 -0.06041346 -0.020312352 -0.010960467 0.02430028 -0.02853892 0.009319847 0.1740502
