models/BipedalWalkerHardcore/actor.pth (torch, 527831 bytes, 6 tensors)

l1.weight f4 [400, 24]
0.31443113 0.43109518 -0.5289345 -0.38517871 0.5167041 0.19613937 0.24019352 0.18407865
-0.19101864 -0.13653775 -0.10566612 -0.2775783 -0.004462687 0.00986127 0.049553562 -0.15055436
0.095699 -0.06585295 0.097868554 0.10775629 -0.18574946 -0.15069684 -0.12434505 0.017758172
0.13598505 0.36417076 -0.52582705 -0.2971979 -0.260156 0.27368066 -0.33940488 0.12888774
0.044170283 0.20447627 0.10034884 -0.3563752 0.15682402 0.24415971 -0.059709255 -0.2359473
-0.21076752 -0.16764991 -0.27638495 -0.17782678 -0.11297029 0.02347793 -0.13829814 -0.29175597
0.17127796 0.105457455 0.18101409 0.18687783 -0.13792956 0.005702322 -0.09188008 0.17847833
-0.19960941 -0.08653769 -0.03660924 -0.08568205 -0.40129182 -0.025974378 0.11754313 -0.030495305
0.20900013 0.30246302 -0.0014711705 0.17281829 0.28475532 -0.13063419 -0.13709292 0.15715861
0.30840647 0.59616053 -0.77510464 -0.1672519 -0.15603374 -0.061081484 0.022003856 0.09076843
-0.18918075 0.32865277 0.11222348 -0.20378783 0.16617769 0.10674217 -0.20110168 0.0014849713
-0.33395782 -0.21431477 -0.13718812 0.062206045 -0.23871714 0.0387099 -0.22387318 -0.27983445
0.034927037 0.042749763 0.029929826 -0.042033784 -0.37021688 0.1310252 -0.34478152 0.043650143
-0.123852566 -0.068539664 -0.3430999 0.0407017 0.04228615 0.26076785 0.036445018 0.20384616
0.116737135 -0.007290002 -0.09253863 -0.31915748 -0.28498656 -0.13551456 -0.3539673 -0.26652294
0.34255576 0.5147088 -0.71885145 -0.12693343 0.10196334 0.087433726 -0.27475935 -0.1582314
-0.32149473 -0.20378982 -0.1107507 -0.2143102 0.03510392 0.4183382 0.02089226 -0.24046047
-0.23771587 -0.29859194 0.06452231 -0.15239246 -0.1582235 -0.11837402 0.10369262 -0.09245464
-0.376373 -0.7387947 0.23338298 0.29608226 -0.1943556 -0.06436155 -0.2543673 0.10725216
-0.2219771 -0.0070230663 -0.026185159 -0.038130894 0.2056573 0.20310608 0.025637375 0.19480039
0.061561175 0.12175793 0.027102403 -0.14552228 -0.14563383 -0.08026391 -0.025254104 0.11212814
0.3456976 0.026941704 0.08878356 0.19814527 -0.07500371 0.28115895 -0.11301814 0.20068265
0.16432108 -0.09202763 0.07152147 0.00657126 0.30304223 -0.26422584 0.17219713 -0.12210618
0.05541663 0.040495228 -0.0321458 0.11852748 0.05599769 0.073040836 9.620754e-05 0.004061422
0.054182325 0.39144376 -0.20674057 0.30624074 0.16130194 -0.20237994 -0.3658463 0.016956467
0.12626973 0.08393193 0.117279224 -0.15456998 0.28625694 -0.17998554 0.21450564 -0.10636718
0.19551422 -0.041237928 0.20573093 0.30887064 0.10401904 0.21111849 0.056023236 -0.1346575
-0.2653762 -0.49084914 0.26119715 0.19395122 0.070608914 -0.32350537 -0.4133696 0.26984385
0.105219916 0.14372325 0.011961691 -0.0472807 0.1528686 0.22175775 0.16692139 -0.16229744
-0.12767594 0.12942615 -0.090248205 0.15391861 0.25478297 0.11620581 0.14776815 0.047244877
0.588391 1.3210015 -0.957509 -0.6201882 0.24255393 0.066423066 -0.032177404 0.026354477
0.05335799 0.042308208 0.0114046745 -0.020633971 -0.031556614 -0.1472694 -0.18461895 -0.22253802
00000000: 1efd a03e 82b8 dc3e 4068 07bf 2536 c5be
00000010: b846 043f c2d8 483e 4af5 753e 1d7f 3c3e
00000020: 649a 43be 8dd0 0bbe 7b67 d8bd be1e 8ebe
00000030: bb3b 92bb 2a91 213c adf8 4a3d ec2a 1abe
00000040: d6fd c33d e9dd 86bd 4f6f c83d 54af dc3d
00000050: 1b35 3ebe 4650 1abe 9ea8 febd 9679 913c
00000060: aa3f 0b3e 9774 ba3e 9a9c 06bf 532a 98be
00000070: 2b33 85be df1f 8c3e 7ac6 adbe 26fb 033e
00000080: e6eb 343d 3a62 513e b183 cd3d cf76 b6be
00000090: 7a96 203e 0105 7a3e b191 74bd 2b9c 71be
000000a0: 71d3 57be 6bac 2bbe 5482 8dbe 3918 36be
000000b0: f85c e7bd ca54 c03c 079e 0dbe 0a61 95be
000000c0: 7d63 2f3e 14fa d73d c25b 393e e75c 3f3e
000000d0: 683d 0dbe 8bda ba3b a02b bcbd 06c3 363e
000000e0: 6966 4cbe ac3a b1bd 92f3 15bd 127a afbd
000000f0: 1f76 cdbe 38c8 d4bc 74ba f03d 4ad1 f9bc
00000100: 2104 563e 6fdc 9a3e 4ad4 c0ba 47f7 303e
00000110: 73cb 913e f8c4 05be 1662 0cbe 30ee 203e
00000120: 74e7 9d3e fa9d 183f 426d 46bf 1544 2bbe
00000130: 4fc7 1fbe 9430 7abd 6e41 b43c cce4 b93d
00000140: 99b8 41be 2d45 a83e 6dd5 e53d c2ad 50be
00000150: 7c2a 2a3e a49b da3d 99ed 4dbe 5ea3 c23a
00000160: 85fc aabe 5575 5bbe 0b7b 0cbe c4cb 7e3d
00000170: 4472 74be 468e 1e3d 033f 65be 7646 8fbe
00000180: a70f 0f3d 601a 2f3d 652f f53c 9e2b 2cbd
00000190: 118d bdbe 782b 063e 3487 b0be 7eca 323d
000001a0: 6aa6 fdbd 865e 8cbd caaa afbe d3b6 263d
000001b0: 3e34 2d3d 5d83 853e 5f47 153d 0cbd 503e
000001c0: e113 ef3d f8e0 eebb e584 bdbd 9c68 a3be
000001d0: c2e9 91be 54c4 0abe 343b b5be b275 88be
000001e0: 7863 af3e f5c3 033f a606 38bf d6fa 01be
000001f0: 28d2 d03d 7410 b33d 42ad 8cbe 6a07 22be
00000200: f59a a4be 47ae 50be 43d1 e2bd 2274 5bbe
00000210: 21c9 0f3d 6d30 d63e 3f26 ab3c 453b 76be
00000220: ca6b 73be 0be1 98be 4624 843d c50c 1cbe
00000230: 5705 22be 146e f2bd cc5c d43d dc58 bdbd
00000240: f6b3 c0be a621 3dbf f3fb 6e3e 1898 973e
00000250: 2805 47be fdcf 83bd 6e3c 82be 05a7 db3d
00000260: f74d 63be c021 e6bb 4282 d6bc 242f 1cbd
00000270: d497 523e 0afb 4f3e 7905 d23c c179 473e
00000280: 9227 7c3d 395c f93d dc05 de3c cb03 15be
00000290: 0921 15be 6861 a4bd b2e1 cebc 70a3 e53d
000002a0: 47ff b03e d9b4 dc3c 28d4 b53d 98e6 4a3e
000002b0: 8c9b 99bd 11f4 8f3e 0e76 e7bd c17f 4d3e
000002c0: c943 283e fb78 bcbd d979 923d b953 d73b
000002d0: 5a28 9b3e 9c48 87be 7254 303e ce12 fabd
000002e0: 8cfc 623d 53de 253d 50ab 03bd 89be f23d
000002f0: d55d 653d 6f96 953d 08c3 c938 ad15 853b
00000300: 49ee 5d3d 516b c83e cdb3 53be 96cb 9c3e
00000310: 562c 253e b03c 4fbe 3550 bbbe 4ae8 8a3c
00000320: da4c 013e 81e4 ab3d 1730 f03d 9847 1ebe
00000330: 4590 923e 214e 38be 5ea7 5b3e 09d7 d9bd
00000340: e134 483e 1ae9 28bd 21ab 523e 4b24 9e3e
00000350: ef07 d53d 722f 583e 9f78 653d a8e3 09be
00000360: 64df 87be 9450 fbbe a2bb 853e 269b 463e
00000370: 689b 903d 7fa2 a5be 2ea5 d3be f928 8a3e
00000380: 8a7d d73d 302c 133e f8fa 433c 68a9 41bd
00000390: 9689 1c3e 7714 633e 71ed 2a3e 4d31 26be
000003a0: 7bbd 02be 4a88 043e 0dd4 b8bd d79c 1d3e
000003b0: ea72 823e 50fd ed3d 8950 173e d883 413d
000003c0: cba0 163f 9416 a93f 4f1f 75bf a7c4 1ebf
000003d0: 0f60 783e d108 883d 74cc 03bd 58e5 d73c
000003e0: e88d 5a3d 5f4b 2d3d acda 3a3c 9308 a9bc
000003f0: 8241 01bd cacd 16be c00c 3dbe 02e1 63be

l1.bias f4 [400]
0.07901371 0.13581896 0.11155867 0.061863385 0.08611165 -0.0037693074 0.12827148 -0.11765407
-0.17295113 -0.1319244 9.613271e-05 0.14894825 -0.067013666 -0.14812498 0.027091494 0.17137772
0.076484 0.08631841 0.017283127 0.031059137 0.005166402 -0.023573995 0.14666682 -0.17317282
-0.15168045 0.029967658 -0.17914516 -0.07751404 0.18364622 0.11930254 0.018985273 0.16796607
0.11851869 0.0969666 -0.15447994 -0.27953836 -0.05114424 -0.05623554 0.14373252 0.14450955
-0.096847735 0.073357336 -0.19955356 -0.29242462 0.18748394 -0.054144528 0.1640149 -0.038960498
-0.03849495 -0.21451235 -0.076762944 -0.06470402 -0.05211006 0.24832164 -0.242954 0.0041581006
-0.07613664 0.17489807 -0.26921746 -0.15643269 -0.222456 0.019180352 0.025837878 -0.08062423
0.0807895 -0.024041625 -0.009243172 0.0618993 -0.17831382 -0.14046147 0.12845752 0.086024985
-0.042644165 0.103335485 -0.09355589 0.09104468 -0.15088893 0.07250431 -0.22280751 -0.10072976
0.05418952 0.20122705 -0.2447872 -0.15688607 -0.05952695 0.11933529 -0.023721542 0.0018022544
0.1450761 0.18055293 0.2620177 0.07032411 0.30192038 0.0057187476 0.05713438 0.21884604
0.109485544 0.0903685 0.23114268 -0.08856685 0.24335061 0.077460565 -0.3145033 -0.31411454
-0.05012362 -0.10283246 0.017274627 0.119240806 0.0056754146 0.17483744 0.23781839 -0.14066185
-0.050321065 -0.043387547 -0.07095543 0.17757927 0.12382086 -0.08459963 -0.05265786 0.050952982
-0.25571826 -0.113697805 -0.19586378 0.083306625 -0.19686817 0.052321456 -0.044483855 -0.04466495
0.1158353 -0.06791698 0.03285424 0.038927656 -0.23423138 -0.050170746 -0.00065375026 0.110071324
-0.117499284 -0.15266864 -0.069832034 -0.058101803 0.14825508 0.20092884 0.044909485 0.12647817
0.13438447 -0.074424386 -0.007136677 -0.05562454 -0.19347182 0.15355991 -0.12973996 -0.17857786
-0.16563332 -0.18526883 -0.0636234 -0.017719842 -0.11240449 0.2951291 0.11435576 -0.002286755
0.055294696 0.007345959 -0.15122524 -0.19888346 -0.0091296695 -0.085495904 -0.0684467 -0.1832472
0.05794962 -0.058400445 -0.028413936 -0.1404633 0.14603435 -0.109274566 -0.12415693 0.009933123
-0.2264539 0.108878024 0.32499093 -0.108335614 -0.12659837 -0.10875983 0.04062666 -0.23207384
0.10343371 -0.084029555 0.026473928 0.17324491 -0.025280807 -0.011841182 -0.31034088 -0.09432172
-0.12128592 -0.033637792 0.017680023 -0.0413725 -0.13022462 0.05465679 0.089770794 -0.253114
-0.09145534 0.29503167 0.18659656 0.007395119 -0.11215829 -0.016998589 0.00848803 -0.11067088
0.13736565 -0.0051747276 0.14899457 -0.048104588 -0.14597927 0.21917708 0.046938255 0.1885881
-0.17653146 0.1697729 0.19477591 0.006342491 -0.115482464 0.1699245 0.01956409 0.23133528
0.047169995 -0.12896822 0.1306199 -0.029337531 0.012856438 0.05065337 0.017597271 -0.06812804
0.038462445 -0.09193215 -0.2656436 0.10232263 -0.007462373 -0.30021736 0.13080195 0.24370119
-0.30373564 -0.31819138 0.004601349 -0.097596556 -0.047739405 -0.05286426 -0.10212009 -0.13626558
-0.13940118 -0.22059257 0.16858548 0.11815031 -0.106719255 0.16878024 0.07038583 -0.14002466
00000000: f1d1 a13d 2014 0b3e df78 e43d 7664 7d3d
00000010: 4e5b b03d 7c06 77bb 9959 033e 9ef4 f0bd
00000020: 1a1a 31be 3117 07be db9a c938 e485 183e
00000030: 763e 89bd 13ae 17be fbee dd3c a47d 2f3e
00000040: a5a3 9c3d b5c7 b03d 5895 8d3c bb6f fe3c
00000050: ec4a a93b 401e c1bc d42f 163e 3754 31be
00000060: 1f52 1bbe bc7e f53c d471 37be aebf 9ebd
00000070: c10d 3c3e e454 f43d 0187 9b3c 4cff 2b3e
00000080: edb9 f23d 6d96 c63d fd2f 1ebe a71f 8fbe
00000090: 9f7c 51bd 3d57 66bd 9e2e 133e 50fa 133e
000000a0: 1b58 c6bd 5f3c 963d c557 4cbe aeb8 95be
000000b0: cafb 3f3e a7c6 5dbd 86f3 273e 0b95 1fbd
000000c0: e1ac 1dbd 20a9 5bbe e435 9dbd 8b83 84bd
000000d0: 5c71 55bd 0748 7e3e efc8 78be ad40 883b
000000e0: 87ed 9bbd 7b18 333e dfd6 89be e42f 20be
000000f0: 81cb 63be 1d20 9d3c f5a9 d33c 511e a5bd
00000100: f774 a53d f1f2 c4bc ac70 17bc 1f8a 7d3d
00000110: e697 36be 22d5 0fbe 5e8a 033e de2d b03d
00000120: a6ab 2ebd 8ea1 d33d 3b9a bfbd a275 ba3d
00000130: a182 1abe 247d 943d a727 64be 684b cebd
00000140: d5f5 5d3d 770e 4e3e 7fa9 7abe bea6 20be
00000150: 88d2 73bd 0f66 f43d ae53 c2bc 9f39 ec3a
00000160: d48e 143e dee2 383e 2f27 863e 1606 903d
00000170: 4f95 9a3e 5564 bb3b bd05 6a3d 2d19 603e
00000180: f539 e03d 1f13 b93d abb0 6c3e 8962 b5bd
00000190: e730 793e a5a3 9e3d 9406 a1be 9fd3 a0be
000001a0: 6d4e 4dbd d399 d2bd 8583 8d3c 8634 f43d
000001b0: d4f8 b93b 9608 333e aa86 733e a909 10be
000001c0: 761d 4ebd 24b7 31bd 1551 91bd 57d7 353e
000001d0: cb95 fd3d 9242 adbd c5af 57bd 13b4 503d
000001e0: 81ed 82be 65da e8bd 8490 48be aa9c aa3d
000001f0: cf97 49be 064f 563d b434 36bd 98f2 36bd
00000200: 0f3b ed3d 0f18 8bbd 2b92 063d 9b72 1f3d
00000210: 5ada 6fbe d77f 4dbd 7060 2bba 136d e13d
00000220: 77a3 f0bd 2b55 1cbe 1904 8fbd 28fc 6dbd
00000230: 2ed0 173e 4ac0 4d3e 02f3 373d 7e83 013e
00000240: 159c 093e d06b 98bd c9da e9bb 8fd6 63bd
00000250: 7a1d 46be cf3e 1d3e 8dda 04be 1ddd 36be
00000260: c89b 29be 1db7 3dbe fc4c 82bd 3429 91bc
00000270: 5334 e6bd 291b 973e 5a33 ea3d 62dd 15bb
00000280: b17c 623d 5fb6 f03b cada 1abe 1ba8 4bbe
00000290: 9c94 15bc 7a18 afbd c92d 8cbd 27a5 3bbe
000002a0: 955c 6d3d 4e35 6fbd 58c4 e8bc 9cd5 0fbe
000002b0: 078a 153e 58cb dfbd fd45 febd 8abe 223c
000002c0: 88e3 67be 71fb de3d 3665 a63e 10df ddbd
000002d0: 01a3 01be 79bd debd 2468 263d c4a4 6dbe
000002e0: 0ed5 d33d b017 acbd dadf d83c 1d67 313e
000002f0: b219 cfbc 8401 42bc 00e5 9ebe bf2b c1bd
00000300: c164 f8bd c8c7 09bd b2d5 903c 3676 29bd
00000310: 9a59 05be ccdf 5f3d c0d9 b73d 2998 81be
00000320: f04c bbbd 640e 973e 2b13 3f3e c152 f23b
00000330: 3fb3 e5bd a040 8bbc 6111 0b3c 6aa7 e2bd
00000340: 95a9 0c3e c390 a9bb 0892 183e 5109 45bd
00000350: 977b 15be f56f 603e 5442 403d 3d1d 413e
00000360: aac4 34be f2d8 2d3e 5673 473e acd4 cf3b
00000370: 1282 ecbd b000 2e3e df44 a03c 28e3 6c3e
00000380: 5335 413d 3f10 04be 39c1 053e 4355 f0bc
00000390: cfa3 523c e879 4f3d 2728 903c b786 8bbd
000003a0: cc8a 1d3d ec46 bcbd 7002 88be 878e d13d
000003b0: ec86 f4bb 17b6 99be f2f0 053e ce8c 793e
000003c0: 3d83 9bbe fbe9 a2be eac6 963b b4e0 c7bd
000003d0: 658a 43bd 3288 58bd 5624 d1bd 3489 0bbe
000003e0: 2fbf 0ebe 05e3 61be aca1 2c3e caf8 f13d
000003f0: a08f dabd bad4 2c3e 7226 903d a062 0fbe

l2.weight f4 [300, 400]
-0.074656315 -0.10927661 0.042215727 -0.03418111 -0.10815771 -0.03171856 -0.121627055 -0.011209406
-0.0668772 -0.021131968 0.08639234 -0.16364183 0.027289396 0.014648464 -0.06635669 -0.03866679
0.008135379 -0.09072336 -0.015303537 0.0727059 0.061720103 -0.035625737 -0.0014369448 -0.0324881
0.020896701 -0.046593014 -0.075062774 -0.25234243 -0.00642086 -0.025184482 -0.0682971 -0.1352458
-0.092822134 -0.009056112 0.1083308 0.040676042 -0.037506994 -0.09921919 -0.03648727 0.044711076
-0.074729696 0.008797087 0.026936784 -0.10367305 0.009432699 0.0042907703 -0.20551872 0.07394827
-0.10281295 -0.024717877 -0.0902078 -0.11775289 0.0020390407 -0.09859022 -0.16882218 -0.011808306
-0.05733718 -0.06644951 -0.06529431 0.023663374 0.05617923 -0.11799195 -0.03404572 0.025142381
0.039725557 -0.0015978299 0.03890222 -0.025694104 -0.028722398 0.012917342 0.004383498 -0.026690472
0.0027928746 0.05629486 0.008913492 0.04099503 -0.07053858 0.06524321 0.053133402 -0.06574522
-0.11594851 -0.13423236 0.0019768756 -0.10140579 -0.020653028 -0.14770822 -0.04153497 -0.06432867
0.023547245 -0.19222516 0.04329126 0.068837695 -0.007505999 -0.059070494 -0.05752996 0.10015716
-0.060527522 0.041129574 -0.041178957 -0.059507765 -0.054282513 -0.038700793 -0.034593873 -0.028408704
0.072964884 0.09000239 0.021380162 0.08457398 -0.033700805 -0.07787368 -0.066750295 -0.053698987
-0.09549012 0.14524445 0.010582187 -0.034921624 -0.10461706 0.062640965 -0.08710281 0.01760001
0.0146411285 -0.35370153 -0.00230663 -0.114414975 -0.23499507 0.05720191 0.085400194 0.09120817
-0.12406328 -0.06997058 -0.062924184 -0.08785646 -0.034424912 -0.08122681 -0.0036917217 0.033771634
-0.023395874 -0.026313417 -0.022585554 -0.13067058 0.094676994 -0.03627446 -0.14426337 -0.09148722
-0.095953375 -0.12816733 0.023506004 0.0025411842 -0.11353527 -0.072213 -0.03788291 -0.020117167
-0.06409898 -0.020609297 -0.027525071 -0.00581818 0.0039579477 0.012158737 -0.12418512 -0.04034649
0.0024564778 -0.07931841 -0.10878088 -0.10287546 0.062341787 0.06961741 -0.07438992 -0.106525846
-0.10175499 0.11545439 0.08637753 -0.060680926 -0.031445116 -0.067612365 -0.011342995 0.12659952
-0.08940874 -0.12718679 0.1040745 -0.07301065 -0.07590411 0.0018814646 -0.09350976 -0.1379136
-0.15410402 0.036330897 -0.14726709 0.109861545 0.038826797 -0.047356892 -0.039195012 -0.12722676
-0.029399728 -0.14039433 0.0059779077 -0.12320074 0.041081306 -0.0878477 0.09834321 -0.013285326
0.05299346 -0.040259894 0.05790926 -0.09088816 -0.105851665 0.17956264 0.038853295 -0.1817772
-0.013574411 -0.010288708 -0.051957272 0.09980542 -0.09404499 -0.17027864 -0.018896893 -0.0014844494
-0.0049289865 -0.059192322 -0.038465884 0.030673612 0.030946575 -0.024452565 -0.16698603 -0.101476654
0.008994524 -0.015313639 -0.022835752 0.046548765 -0.039605487 -0.022762375 -0.004521151 -0.0027696698
-0.11031666 -0.10010814 -0.046274923 -0.04337869 0.04253937 -0.015043691 -0.13559864 -0.07300788
-0.08511233 0.01580037 0.040361047 -0.14733794 -0.08844081 -0.146711 -0.21558525 -0.09660301
0.11393377 -0.039713386 0.10234715 0.08075655 -0.13488258 -0.04777634 0.02205164 0.004550977
00000000: 69e5 98bd 6acc dfbd 66ea 2c3d 7e01 0cbd
00000010: ca81 ddbd 52eb 01bd 9b17 f9bd a8a7 37bc
00000020: eaf6 88bd f31c adbc 78ee b03d b991 27be
00000030: 038e df3c 1c00 703c 04e6 87bd 1161 1ebd
00000040: 414a 053c 2bcd b9bd b0bb 7abc d5e6 943d
00000050: 38ce 7c3d 4bec 11bd de57 bcba 3e12 05bd
00000060: 8f2f ab3c 51d8 3ebd 83ba 99bd 0733 81be
00000070: 1466 d2bb b04f cebc 5adf 8bbd e07d 0abe
00000080: 8819 bebd 1660 14bc 8adc dd3d ec9b 263d
00000090: efa0 19bd 6e33 cbbd ad73 15bd f622 373d
000000a0: e20b 99bd a821 103c 88aa dc3c 8952 d4bd
000000b0: 9b8b 1a3c 9799 8c3b 8073 52be 3172 973d
000000c0: 998f d2bd 257d cabc debe b8bd 6d28 f1bd
000000d0: 6da1 053b abe9 c9bd b9df 2cbe a077 41bc
000000e0: 64da 6abd ae16 88bd 06b9 85bd b1d9 c13c
000000f0: 311c 663d c3a5 f1bd 8673 0bbd 65f7 cd3c
00000100: 44b7 223d 466e d1ba ef57 1f3d 717c d2bc
00000110: 3c4b ebbc 42a3 533c 72a3 8f3b faa5 dabc
00000120: a908 373b 7095 663d e509 123c 68ea 273d
00000130: 8876 90bd 3b9e 853d 69a2 593d 6ea5 86bd
00000140: 6a76 edbd 3574 09be 788e 013b d7ad cfbd
00000150: 8a30 a9bc d340 17be 9320 2abd c0be 83bd
00000160: 27e6 c03c acd6 44be 2d52 313d c7fa 8c3d
00000170: e2f4 f5bb e7f3 71bd 89a4 6bbd 321f cd3d
00000180: b5eb 77bd 7c77 283d 44ab 28bd 6abe 73bd
00000190: 5757 5ebd b984 1ebd 4eb2 0dbd 5fb9 e8bc
000001a0: 9d6e 953d 2c53 b83d 7325 af3c 1f35 ad3d
000001b0: db09 0abd 3c7c 9fbd 61b4 88bd 78f3 5bbd
000001c0: 5390 c3bd f6ba 143e e960 2d3c fa09 0fbd
000001d0: 7841 d6bd e849 803d f562 b2bd e52d 903c
000001e0: 58e1 6f3c 5e18 b5be d42a 17bb 6652 eabd
000001f0: 8ca2 70be 8d4c 6a3d 4ce6 ae3d 59cb ba3d
00000200: e414 febd bc4c 8fbd 65de 80bd 16ee b3bd
00000210: 2301 0dbd 3e5a a6bd d0f0 71bb 2054 0a3d
00000220: b4a8 bfbc 3c8f d7bc 5705 b9bc 82ce 05be
00000230: 03e6 c13d 8794 14bd c7b9 13be a75d bbbd
00000240: 3483 c4bd 4c3e 03be aa8f c03c ff89 263b
00000250: 2e85 e8bd 69e4 93bd 1c2b 1bbd c2cc a4bc
00000260: 5346 83bd d4d4 a8bc 427c e1bc 6ea6 bebb
00000270: acb1 813b 7035 473c c554 febd 5c42 25bd
00000280: dcfc 203b b171 a2bd 83c8 debd 5fb0 d2bd
00000290: 1a5a 7f3d 9393 8e3d be59 98bd 392a dabd
000002a0: ec64 d0bd 5a73 ec3d b4e6 b03d 908c 78bd
000002b0: 98cc 00bd 5a78 8abd f8d7 39bc 4ea3 013e
000002c0: ee1b b7bd 413d 02be 0325 d53d 9c86 95bd
000002d0: 9d73 9bbd 7a9b f63a 0c82 bfbd 3939 0dbe
000002e0: 72cd 1dbe b5cf 143d 2fcd 16be 17ff e03d
000002f0: d908 1f3d 4df9 41bd f38a 20bd bb47 02be
00000300: b3d7 f0bc 88c3 0fbe 53e2 c33b ab50 fcbd
00000310: df44 283d 7fe9 b3bd 2a68 c93d b2aa 59bc
00000320: ac0f 593d 8fe7 24bd 4332 6d3d 9223 babd
00000330: c2c8 d8bd 45df 373e a224 1f3d cd23 3abe
00000340: 3567 5ebc f891 28bc 26d1 54bd c966 cc3d
00000350: a99a c0bd 865d 2ebe a8cd 9abc db91 c2ba
00000360: 5683 a1bb a673 72bd 678e 1dbd 3a47 fb3c
00000370: ac83 fd3c bf50 c8bc 63fe 2abe fed2 cfbd
00000380: c55d 133c 0fe6 7abc 0b12 bbbc eba9 3e3d
00000390: 5d39 22bd 2978 babc 2a26 94bb 5983 35bb
000003a0: b3ed e1bd 7f05 cdbd c68a 3dbd daad 31bd
000003b0: c33d 2e3d d079 76bc 5fda 0abe 2885 95bd
000003c0: 604f aebd c76f 813c a051 253d c2df 16be
000003d0: 7520 b5bd 693b 16be 61c2 5cbe cdd7 c5bd
000003e0: 1c56 e93d 81aa 22bd 629b d13d b163 a53d
000003f0: a91e 0abe 20b1 43bd a4a5 b43c 5d20 953b

l2.bias f4 [300]
-0.121563956 0.0147031825 0.07634489 0.03546079 -0.0042495765 -0.018482873 -0.07948029 -0.03571601
-0.056075517 -0.10386041 -0.018683733 -0.008172178 0.078028806 0.04979124 -0.041460946 -0.010156863
0.0011500515 -0.047262065 0.057481907 0.056187686 -0.14567304 -0.054752585 -0.010612385 -0.061432682
0.016398853 -0.05372695 0.07068896 -0.00993417 -0.008634945 -0.042271 0.063136786 -0.021183277
-0.050430074 -0.019268103 0.038970064 -0.019748917 -0.02379293 0.022915227 -0.043078527 -0.0547906
-0.010921255 -0.023042595 0.041335244 0.0040102047 -0.039696764 -0.06636506 -0.034356732 0.056676496
-0.12957196 -0.10829066 -0.06475872 0.029710742 0.009145033 -0.05276527 0.043746762 0.118189074
-0.064492136 0.014468988 -0.021793364 -0.04759957 -0.04613623 -0.028104696 0.011737263 -0.037722792
0.037716143 -0.06945444 -0.03898232 0.0475913 -0.037690546 -0.034653585 -0.02991811 0.06892619
-0.016432397 0.0048611597 0.031662967 -0.047650438 -0.13559271 0.03675818 0.07052338 0.037710126
-0.0076357257 -0.049740817 0.07034446 0.06055866 0.06437902 0.02042891 -0.03720697 0.029879712
-0.039089262 -0.022010524 -0.016621405 -0.03138559 -0.11573503 -0.0013268644 -0.032274976 -0.04417904
0.025894245 -0.10415745 -0.0030727747 0.031769715 0.020767359 -0.07203725 0.032613736 0.022782244
0.03619904 0.03534266 -0.039594613 -0.034803405 -0.12191797 -0.0032266588 -0.030462373 -0.007332686
0.054835755 -0.027392566 -0.003915304 0.09229164 -0.027736166 -0.045884218 0.014662852 -0.039313797
-0.09108599 -0.11829844 -0.038027514 -0.039145812 -0.037520505 -0.0059777754 0.040604133 0.0028477493
0.10532516 0.0029362263 0.061264887 -0.14937957 0.0017769338 -0.025724487 0.01597503 -0.059699673
0.072294734 0.0405341 -0.01613928 -0.03986786 -0.0365574 -0.001819423 -0.050984118 0.07808275
-0.09717952 0.0144348275 -0.021806702 -0.0052228463 0.022626564 -0.031074952 -0.014788015 -0.039558668
-0.048217632 -0.08972306 0.069139324 -0.05184181 -0.10015298 -0.09026901 -0.02235494 -0.061561864
-0.0153861465 -0.09432043 0.028957134 0.0010213888 0.046659876 0.050640658 0.026438342 0.008165611
-0.0744899 -0.043892253 0.0029601564 0.035787202 -0.004476619 -0.012528435 -0.09945445 0.039568134
0.07450657 0.07578831 -0.061323643 -0.09567533 -0.10239208 -0.048146617 0.036697112 0.0026205005
0.012893457 -0.011419996 -0.12802097 0.00048890203 0.00229237 0.020342119 0.031726025 0.047417674
-0.013374672 -0.08728558 -0.054496195 -0.05183791 0.03288528 -0.037571684 0.038193826 -0.017537845
0.06033646 -0.06308877 0.08513119 0.08638266 0.06254009 -0.06790864 -0.11867694 0.022480533
0.013095091 -0.090466194 -0.032668237 0.045405626 -7.287082e-05 -0.042215437 0.027813368 -0.021480562
0.039323963 0.0844783 0.043741874 -0.10236421 -0.04542653 0.052282624 -0.06009666 0.074970126
-0.06531148 -0.11892539 0.04099427 -0.09674434 -0.019464156 -0.10755046 -0.053291034 0.03109076
-0.003021694 -0.014862671 -0.04427624 0.018162409 -0.06361134 -0.0015054585 -0.11004907 0.015401518
-0.09185307 -0.12431265 -0.039339907 0.053947326 0.029496567 0.054763954 0.074172094 -0.047865022
-0.022876643 -0.043889537 -0.04650618 -0.017687818 -0.016855396 -0.040527053 0.083415024 -0.048541494
00000000: 86f6 f8bd 9ee5 703c b65a 9c3d 553f 113d
00000010: 0840 8bbb 6569 97bc 90c6 a2bd f34a 12bd
00000020: 71af 65bd c4b4 d4bd a10e 99bc 99e4 05bc
00000030: 91cd 9f3d e6f1 4b3d f4d2 29bd f968 26bc
00000040: 53bd 963a de95 41bd 2672 6b3d 0f25 663d
00000050: 502b 15be 3f44 60bd 92df 2dbc d6a0 7bbd
00000060: e356 863c ca10 5cbd 60c5 903d eec2 22bc
00000070: 9679 0dbc 5b24 2dbd dc4d 813d 8d88 adbc
00000080: c48f 4ebd 24d8 9dbc 139f 1f3d 7bc8 a1bc
00000090: 64e9 c2bc b7b8 bb3c 1c73 30bd 1c6c 60bd
000000a0: 10ef 32bc d3c3 bcbc 254f 293d 0968 833b
000000b0: 1399 22bd 68ea 87bd a5b9 0cbd 9d25 683d
000000c0: 83ae 04be 7ec7 ddbd 38a0 84bd f163 f33c
000000d0: 0cd5 153c 6520 58bd ce2f 333d 1d0d f23d
000000e0: 7414 84bd 560f 6d3c ff87 b2bc c4f7 42bd
000000f0: 58f9 3cbd d23b e6bc a64d 403c 3783 1abd
00000100: 3e7c 1a3d 213e 8ebd edab 1fbd 18ef 423d
00000110: 6761 1abd ebf0 0dbd d316 f5bc 2d29 8d3d
00000120: 3c9d 86bc 5d4a 9f3b 07b1 013d 1b2d 43bd
00000130: d1d8 0abe bf8f 163d 906e 903d ef75 1a3d
00000140: 1c35 fabb 07bd 4bbd c210 903d 5c0c 783d
00000150: 26d9 833d 885a a73c 5666 18bd 4cc6 f43c
00000160: 101c 20bd 6a4f b4bc 9d29 88bc 2d8e 00bd
00000170: 7d06 edbd 2eea adba c432 04bd 15f5 34bd
00000180: 2b20 d43c 8050 d5bd 9b60 49bb f620 023d
00000190: 4f20 aa3c 4488 93bd fb95 053d d4a1 ba3c
000001a0: 7245 143d 77c3 103d f62d 22bd 048e 0ebd
000001b0: 21b0 f9bd 5a76 53bb 3a8c f9bc 0747 f0bb
000001c0: 759b 603d 6066 e0bc f34b 80bb 6603 bd3d
000001d0: f536 e3bc 17f1 3bbd 753c 703c 8107 21bd
000001e0: 4b8b babd 7446 f2bd bdc2 1bbd 5c57 20bd
000001f0: 1aaf 19bd 37e1 c3bb 8550 263d 4ea1 3a3b
00000200: b8b4 d73d b46d 403b e4f0 7a3d f5f6 18be
00000210: 01e8 e83a 29bc d2bc 11de 823c a587 74bd
00000220: 430f 943d 1607 263d 8636 84bc 7b4c 23bd
00000230: 36bd 15bd b579 eeba b9d4 50bd d9e9 9f3d
00000240: 0e06 c7bd 0e80 6c3c f8a3 b2bc 6924 abbb
00000250: 585b b93c e690 febc 6e49 72bc 4508 22bd
00000260: da7f 45bd b9c0 b7bd eb98 8d3d 1458 54bd
00000270: 011d cdbd f5de b8bd b521 b7bc 4b28 7cbd
00000280: 2d16 7cbc 122b c1bd 8337 ed3c 1fe0 853a
00000290: 6d1e 3f3d 946c 4f3d 3995 d83c 0ec9 053c
000002a0: 298e 98bd 5dc8 33bd 2fff 413b 9a95 123d
000002b0: 9ab0 92bb 1144 4dbc c6ae cbbd 3212 223d
000002c0: e796 983d e736 9b3d 802e 7bbd 6df1 c3bd
000002d0: f0b2 d1bd 6335 45bd b64f 163d b4bc 2b3b
000002e0: 143f 533c ef1a 3bbc ee17 03be a929 003a
000002f0: 963b 163b 84a4 a63c 26f3 013d 0939 423d
00000300: 7121 5bbc c8c2 b2bd 6737 5fbd fd53 54bd
00000310: b7b2 063d c4e4 19bd 2171 1c3d 87ab 8fbc
00000320: 5d23 773d af34 81bd 4359 ae3d 64e9 b03d
00000330: 0515 803d af13 8bbd e50c f3bd 1829 b83c
00000340: cb8c 563c 5746 b9bd 21cf 05bd 40fb 393d
00000350: 39d2 98b8 18ea 2cbd dcd8 e33c 01f8 afbc
00000360: 2a12 213d f502 ad3d ae2a 333d 54a4 d1bd
00000370: 2b11 3abd 4e26 563d ea27 76bd f089 993d
00000380: 06c2 85bd 288f f3bd 9ce9 273d e621 c6bd
00000390: 4b73 9fbc 6a43 dcbd b347 5abd 0db2 fe3c
000003a0: 9d07 46bb 8f82 73bc 015b 35bd 55c9 943c
000003b0: aa46 82bd ce52 c5ba 6861 e1bd a656 7c3c
000003c0: 761d bcbd a197 febd e222 21bd dff7 5c3d
000003d0: c9a2 f13c 2b50 603d 8ae7 973d 1d0e 44bd
000003e0: cc67 bbbc 84c5 33bd 447d 3ebd 0be6 90bc
000003f0: 5414 8abc b2ff 25bd 7fd5 aa3d 72d3 46bd

l3.weight f4 [4, 300]
-0.05562175 -0.39069843 -0.02283801 0.012743655 0.30945414 -0.0051397835 -0.2331348 -0.100000665
-0.0297465 0.019456264 0.11307788 0.13042025 -0.17669728 -0.10050491 -0.52866024 0.2778187
0.032928545 -0.7651357 -0.2472558 0.3044782 0.2212752 0.011669437 -0.08563663 0.5668501
0.31888005 -0.12972417 -0.0064345347 0.0023807008 0.26346502 0.35032058 -0.19156848 -0.3335248
-0.21637364 -0.12602133 0.03001837 0.081184536 0.14117552 0.016558722 0.31200153 0.30336347
0.29486302 -0.08134843 0.08686858 0.018365914 -0.021534476 0.29798463 0.18358998 0.22487509
-0.13056031 -0.073437475 -0.056067467 0.2668923 0.32538942 -0.06715833 -0.2763793 -0.6260577
0.12848245 -0.035705835 0.055282436 0.11539366 0.01075518 -0.20461397 0.20386279 -0.051718473
-0.024059942 -0.034038402 0.21335033 -0.47153234 0.0997079 -0.026663227 -0.16846217 -0.5217395
0.031204563 0.010934547 0.043768667 0.16190253 0.28503177 -0.009650456 -0.18449956 -0.20556453
0.027659165 0.1571469 0.15985802 0.13322252 -0.026295418 -0.026944086 -0.036515657 -0.03778289
-0.1524322 0.440248 -0.43795806 -0.022292903 0.19945645 0.010129706 -0.1308441 -0.3394513
0.04339139 -0.24226229 0.0055390154 0.18780386 -0.105738856 -0.36149395 -0.9230758 -0.055412423
-0.23574658 0.01738905 0.0688221 0.008642623 -0.0016764179 0.045240313 -0.31825736 0.087763935
-0.2622132 0.24614833 0.033278238 0.031617697 -0.012129013 -0.17467776 -0.4045353 -0.08936891
0.4042468 -0.036614385 0.00830117 -0.022395706 0.45663643 0.10423165 -0.09112615 -0.038529616
-0.10352246 0.336777 0.3605119 0.1720179 0.51709855 0.019543855 0.32612664 0.2674881
-0.24516074 0.04235607 0.11800271 -0.2147172 0.33341914 -0.1889157 -0.007001116 -0.22954077
0.10029208 0.00593284 0.44081163 -0.4601044 0.39639798 -0.024701022 0.050701473 0.01932496
0.024878392 0.104353055 0.21965557 -0.020488955 -0.4181202 -0.083303414 -0.13033338 0.539068
-0.079759955 0.21637361 0.14157318 0.18493286 -0.11296867 0.53846157 -0.04604319 0.20840415
-0.08140354 -0.15125228 -0.024617832 0.029549515 0.20356941 0.3090124 0.097224124 -0.59723264
0.0031214585 -0.20917729 0.22549936 0.12271972 -0.35827553 0.010966236 -0.4891153 -0.14920999
0.035258144 -0.033628058 -0.09072511 0.014335296 -0.0027759897 -0.56159955 -0.06648079 -0.55183387
0.34043297 0.0043422547 0.07720177 0.03758641 -0.070097096 -0.3077139 -0.33851495 0.34457156
-0.16762812 0.5828245 0.056305863 -0.18715617 -0.10382257 0.2623743 0.2946474 0.07819567
0.010483566 -0.40918413 -0.008389015 0.059316535 0.008564977 0.0044728713 -0.3612871 0.23748745
0.040723737 0.19253804 -0.027342634 0.25514093 0.006278655 0.14334428 -0.36781868 -0.18051025
0.5246404 -0.10445275 0.017180402 0.266229 -0.14854433 -0.28328162 -0.1453704 -0.20575574
0.31200328 -0.022607246 -0.11176293 -0.3547843 0.35995543 0.11196287 -0.42593774 -0.36559713
0.0013979478 0.06278792 0.18931706 -0.04303083 -0.22038074 -0.10484733 -0.33574882 -0.07150081
0.20718087 0.049860977 -0.8207368 0.22605124 0.31880346 0.24881761 0.1152219 -0.006469759
00000000: a2d3 63bd a009 c8be c716 bbbc c3ca 503c
00000010: c670 9e3e a16b a8bb e4ba 6ebe 26cd ccbd
00000020: efae f3bc be62 9f3c 6095 e73d e38c 053e
00000030: 22f0 34be 85d5 cdbd 4756 07bf 413e 8e3e
00000040: 15e0 063d efdf 43bf a030 7dbe 91e4 9b3e
00000050: f795 623e 2b31 3f3c 4262 afbd 171d 113f
00000060: 3f44 a33e 6ad6 04be cad8 d2bb 8805 1c3b
00000070: e3e4 863e 385d b33e 872a 44be c3c3 aabe
00000080: 0d91 5dbe bc0b 01be 16e9 f53c 1444 a63d
00000090: 5190 103e 28a6 873c aabe 9f3e 7552 9b3e
000000a0: 49f8 963e 019a a6bd 27e8 b13d 1d74 963c
000000b0: 1269 b0bc 7191 983e 03ff 3b3e a845 663e
000000c0: 9ab1 05be 6366 96bd 00a7 65bd 1ca6 883e
000000d0: 7199 a63e 4e8a 89bd 9681 8dbe 5145 20bf
000000e0: e790 033e 4840 12bd d66f 623d 8353 ec3d
000000f0: 7f36 303c 5386 51be 68c1 503e c0d6 53bd
00000100: 5b19 c5bc da6b 0bbd 8278 5a3e b06c f1be
00000110: a833 cc3d d76c dabc 5981 2cbe b890 05bf
00000120: b6a0 ff3c d026 333c c646 333d c7c9 253e
00000130: afef 913e f21c 1ebc 74ed 3cbe 827f 52be
00000140: 7995 e23c 1eeb 203e d2b1 233e 7c6b 083e
00000150: 7d69 d7bc d8b9 dcbc 7191 15bd 3bc2 1abd
00000160: 3017 1cbe 3068 e13e 0a3c e0be 9b9f b6bc
00000170: 503e 4c3e 11f7 253c fffb 05be 90cc adbe
00000180: 2cbb 313d 9b13 78be a180 b53b a84f 403e
00000190: 9d8d d8bd bc15 b9be b24e 6cbf 23f8 62bd
000001a0: 8d67 71be 7b73 8e3c 9af2 8c3d ca99 0d3c
000001b0: 40bb dbba e84d 393d a1f2 a2be 94bd b33d
000001c0: cf40 86be 4f0e 7c3e c34e 083d 8f81 013d
000001d0: c5b8 46bc bade 32be 401f cfbe 0c07 b7bd
000001e0: 70f9 ce3e f7f8 15bd a101 083c 3377 b7bc
000001f0: 40cc e93e 6777 d53d 59a0 babd 3bd1 1dbd
00000200: 9503 d4bd 096e ac3e 0495 b83e 7625 303e
00000210: 9260 043f 6f1a a03c 12fa a63e 33f4 883e
00000220: 6b0b 7bbe 8f7d 2d3d 68ab f13d d3de 5bbe
00000230: eab5 aa3e 1e73 41be 9e69 e5bb bc0c 6bbe
00000240: ef65 cd3d 4568 c23b 10b2 e13e ce92 ebbe
00000250: adf4 ca3e cc59 cabc 59ac 4f3d 614f 9e3c
00000260: c5cd cb3c 0eb7 d53d 64ed 603e 74d8 a7bc
00000270: da13 d6be fb9a aabd 1d76 05be 5c00 0a3f
00000280: 3059 a3bd 0b91 5d3e 8ff8 103e 0a5f 3d3e
00000290: 1e5c e7bd 9ed8 093f c997 3cbd e667 553e
000002a0: e6b6 a6bd e1e1 1abe 56ab c9bc d311 f23c
000002b0: 8074 503e e036 9e3e 711d c73d 3de4 18bf
000002c0: 6291 4c3b 9232 56be 4ee9 663e 7a54 fb3d
000002d0: e46f b7be baab 333c 526d fabe 81ca 18be
000002e0: d86a 103d 93bd 09bd 16ce b9bd 97de 6a3c
000002f0: 61ed 35bb fdc4 0fbf 1527 88bd fc44 0dbf
00000300: 3b4d ae3e 7949 8e3b f61b 9e3d 35f4 193d
00000310: 118f 8fbd ad8c 9dbe d551 adbe af6b b03e
00000320: b5a6 2bbe fd33 153f faa0 663d dea5 3fbe
00000330: eda0 d4bd ed55 863e 06dc 963e 0d25 a03d
00000340: 43c3 2b3c 9580 d1be 1472 09bc e5f5 723d
00000350: 1e54 0c3c 2a91 923b 9ffa b8be e92f 733e
00000360: efcd 263d b128 453e a9fd dfbc d5a1 823e
00000370: 2dbd cd3b d8c8 123e bb52 bcbe aed7 38be
00000380: d54e 063f 53eb d5bd eabd 8c3c 2b4f 883e
00000390: 011c 18be 4a0a 91be fadb 14be a2b1 52be
000003a0: e5be 9f3e d532 b9bc f7e3 e4bd 4aa6 b5be
000003b0: 144c b83e ca4c e53d 8314 dabe 8c2f bbbe
000003c0: 583b b73a f496 803d 55dc 413e 1841 30bd
000003d0: 7dab 61be 32ba d6bd 45e7 abbe 046f 92bd
000003e0: 3927 543e 063b 4c3d cf1b 52bf fa79 673e
000003f0: 353a a33e 0bca 7e3e 76f9 eb3d 4600 d4bb

l3.bias f4 [4]
-0.0053743795 -0.030633358 0.00865033 -0.012684432
00000000: 901b b0bb cff2 fabc 1dba 0d3c 5dd2 4fbc
