models/BipedalWalkerHardcore/actor.pth (torch, 527831 bytes, 6 tensors)

l1.weight f4 [400, 24]
0.5701089 0.8873664 -0.7446505 -0.16986181 0.52377814 0.076986685 0.29712436 0.07004382
-0.19295973 -0.25676447 -0.103079505 -0.16168405 0.01797396 -0.11950516 0.124851756 -0.014346977
0.20594952 -0.01836145 0.025905289 0.000535889 -0.21836573 -0.08378151 -0.057139393 0.03717037
0.35726032 1.1562189 -1.0984747 -0.23877047 -0.43151262 -0.00051068264 -0.18809871 0.058429617
0.017537883 0.1748134 0.0071522505 -0.4541219 0.046778042 0.24456103 0.0065479176 -0.14487295
-0.21743453 -0.289055 -0.39247912 -0.22970428 -0.12730756 0.07357012 0.057651214 -0.11036406
0.17850006 0.38020146 0.10353845 0.27073753 -0.25952226 -0.023103291 0.06933485 0.1266011
-0.16104142 -0.058351137 -0.16693738 -0.041279387 -0.26117 -0.1702811 0.02834014 -0.065573856
0.23388194 0.289371 -0.03544872 0.109543115 0.18463095 -0.1473305 -0.17006071 0.09265541
0.4839581 0.6497627 -1.1355565 -0.3227852 -0.33913037 -0.04668595 -0.034418385 -0.0010942258
0.08036362 0.40231755 0.104076676 -0.2410363 0.12779912 0.39677963 0.01157021 0.09539279
-0.3083079 -0.15820159 -0.10605849 0.016231954 -0.23531352 0.017256299 -0.24060373 -0.2334249
-0.20842071 -0.057258032 -0.19512954 0.3378829 -0.47301912 0.11804661 -0.29686427 -0.16965318
-0.13128866 0.0661338 -0.32654417 0.0063085007 -0.027317068 0.111143194 0.28682238 0.3838717
0.23218222 0.084296204 -0.07072868 -0.33453783 -0.27810702 -0.12682733 -0.35094398 -0.13759072
0.28538638 0.96638435 -1.0514348 0.4110166 0.03294815 0.15385143 -0.17184572 0.09721918
-0.2863442 -0.119222075 -0.25294825 -0.33281997 0.17629656 0.4822816 0.14171953 -0.17787398
-0.21044843 -0.30932215 0.05024763 -0.17517452 -0.14754304 -0.14265221 0.10051619 -0.036253124
-0.69799066 -1.298736 0.13766362 0.5382438 -0.39940983 -0.43917412 -0.20335844 0.16381626
-0.17031911 0.1393342 -0.009744143 0.0016655799 0.116221964 0.007703545 -0.07884639 0.19426745
0.16541035 0.19665635 0.05420052 -0.12295884 -0.122198716 -0.08670978 -0.12004523 0.028568307
0.18566898 0.041119955 0.02123962 0.6218465 -0.072982326 0.16247013 -0.2523407 0.21996547
0.03598214 -0.035502356 0.11018 0.20028493 0.21424401 -0.13630423 0.100604385 -0.18618253
0.01714872 0.04389445 0.004754142 0.18189 0.14618757 0.19028434 0.11518435 0.062198013
0.0055774744 0.3021931 -0.078956 0.07962564 0.0466579 -0.09880887 -0.4680487 -0.10204786
-0.06002484 0.5193008 0.07794101 -0.5166533 0.22201793 -0.05797099 0.1263153 -0.24602821
0.08120425 -0.039630722 0.26536104 0.35360375 0.09191647 0.17439589 -0.033150584 -0.25670484
-0.19383454 -0.628934 0.06927404 0.2542883 -0.007451057 -0.32241857 -0.3859483 0.3043157
0.15873374 0.09639198 -0.033681355 -0.087243214 0.15045433 0.26065484 0.001037533 -0.3093045
-0.18557411 0.109957606 -0.10964546 0.15025838 0.2875876 0.12685563 0.07680061 0.094049275
0.78328633 1.751866 -1.1937504 -0.5002083 0.37272477 0.14886238 -0.36122382 -0.06045115
0.077739134 0.07937491 0.07341038 0.23300806 0.040645055 -0.15773715 0.033143558 -0.12195697
00000000: a8f2 113f 722a 633f 6aa1 3ebf 41f0 2dbe
00000010: 5316 063f 32ab 9d3d af20 983e 2273 8f3d
00000020: 3c97 45be a276 83be 591b d3bd 8190 25be
00000030: 203e 933c 1fbf f4bd 47b2 ff3d 950f 6bbc
00000040: 6ee4 523e c06a 96bc 5437 d43c e77a 0c3a
00000050: 449b 5fbe a495 abbd ff0a 6abd f53f 183d
00000060: d3ea b63e fbfe 933f d29a 8cbf 3f80 74be
00000070: 39ef dcbe 55df 05ba f39c 40be e553 6f3d
00000080: 9bab 8f3c 4902 333e 6d5d ea3b aa82 e8be
00000090: 559a 3f3d 356e 7a3e ea8f d63b 9359 14be
000000a0: 28a7 5ebe 04ff 93be 06f3 c8be 9937 6bbe
000000b0: ea5c 02be eeab 963d ae23 6c3d 8d06 e2bd
000000c0: b8c8 363e c4a9 c23e f80b d43d 1c9e 8a3e
000000d0: 1ae0 84be 1d43 bdbc 6eff 8d3d b8a3 013e
000000e0: 0be8 24be 9a01 6fbd a2f1 2abe 9314 29bd
000000f0: 13b8 85be 2b5e 2ebe 9529 e83c 964b 86bd
00000100: bf7e 6f3e 7028 943e ad32 11bd 2458 e03d
00000110: e50f 3d3e cedd 16be 6524 2ebe 1fc2 bd3d
00000120: 5bc9 f73e d956 263f ea59 91bf 1a44 a5be
00000130: 7fa2 adbe c439 3fbd 4bfa 0cbd 206c 8fba
00000140: ae95 a43d 91fc cd3e 2726 d53d 38d2 76be
00000150: c6dd 023e b326 cb3e fa90 3d3c 4c5d c33d
00000160: 88da 9dbe 99ff 21be 3235 d9bd e0f8 843c
00000170: 07f6 70be 155d 8d3c d360 76be f006 6fbe
00000180: 3d6c 55be 6687 6abd 0ad0 47be fdfe ac3e
00000190: 902f f2be 6cc2 f13d 98fe 97be 90b9 2dbe
000001a0: 8970 06be 2871 873d cc30 a7be 8ab7 ce3b
000001b0: 0bc8 dfbc 0b9f e33d 62da 923e d58a c43e
000001c0: 2dc1 6d3e 7da3 ac3d 33da 90bd 8b48 abbe
000001d0: 0b64 8ebe 06df 01be eeae b3be 95e4 0cbe
000001e0: 2a1e 923e f764 773f 6a95 86bf c570 d23e
000001f0: a4f4 063d 3b8b 1d3e 53f8 2fbe d91a c73d
00000200: b59b 92be b42a f4bd 6f82 81be 6167 aabe
00000210: 1687 343e 9ded f63e ed1e 113e 9924 36be
00000220: cb7f 57be 795f 9ebe 75d0 4d3d f360 33be
00000230: 8615 17be 6c13 12be 6fdb cd3d 287e 14bd
00000240: 84af 32bf fb3c a6bf b1f7 0c3e 58ca 093f
00000250: 727f ccbe 6edb e0be 323d 50be 73bf 273e
00000260: 2268 2ebe a0ad 0e3e e6a5 1fbc 964f da3a
00000270: c805 ee3d 056e fc3b 377a a1bd 0cee 463e
00000280: 5561 293e 4860 493e 5d01 5e3d d8d1 fbbd
00000290: 5243 fabd e694 b1bd 46da f5bd 1508 ea3c
000002a0: 0220 3e3e 666d 283d b6fe ad3c 5531 1f3f
000002b0: c277 95bd 925e 263e cd32 81be a13e 613e
000002c0: 0262 133d eb6a 11bd 0da6 e13d 7e17 4d3e
000002d0: c862 5b3e 5693 0bbe ac09 ce3d a2a6 3ebe
000002e0: 797b 8c3c abca 333d a2c8 9b3b 5f41 3a3e
000002f0: 32b2 153e e6d9 423e c6e5 eb3d 58c3 7e3d
00000300: 3fc3 b63b 0eb9 9a3e afb3 a1bd c412 a33d
00000310: 5b1c 3f3d 4e5c cabd 14a4 efbe 78fe d0bd
00000320: 9bdc 75bd e6f0 043f 899f 9f3d 6443 04bf
00000330: ab58 633e fd72 6dbd cc58 013e d2ee 7bbe
00000340: 6a4e a63d d353 22bd 67dd 873e 8d0b b53e
00000350: b43e bc3d d694 323e e8c8 07bd d16e 83be
00000360: 907c 46be d201 21bf 8cdf 8d3d 1332 823e
00000370: ff27 f4bb 0c14 a5be 049b c5be 44cf 9b3e
00000380: 198b 223e 2969 c53d 76f5 09bd 92ac b2bd
00000390: b310 1a3e 8d74 853e d5fd 873a 295d 9ebe
000003a0: 2407 3ebe 7431 e13d cd8d e0bd 55dd 193e
000003b0: af3e 933e 71e6 013e a349 9d3d e89c c03d
000003c0: 7485 483f 253d e03f d0cc 98bf a70d 00bf
000003d0: c8d5 be3e 616f 183e 54f2 b8be a09b 77bd
000003e0: b235 9f3d 508f a23d 2e58 963d aa99 6e3e
000003f0: 6e7b 263d d985 21be 8ac1 073d 93c4 f9bd

l1.bias f4 [400]
0.12534083 0.19115305 0.022149904 0.11495201 0.16269925 0.040732354 0.0991917 -0.13384257
-0.27585706 -0.16459632 -0.013573386 0.103293054 0.06711889 -0.20589012 -0.085006624 0.26732507
0.08427371 0.23174833 0.18459368 0.10682399 -0.11053378 0.031670153 -0.0012164633 -0.35286307
-0.0866913 0.23110068 -0.3104284 -0.08476348 0.20024297 0.1066751 -0.026825259 0.052727483
-0.024050608 0.07020937 -0.1264163 -0.41672343 -0.061233778 -0.018571042 0.18124613 0.17705423
-0.13069235 -0.012023713 -0.15470022 -0.21285233 0.21545136 0.036966503 0.10450837 0.08649604
-0.15296325 -0.26456568 -0.01163698 -0.069737814 0.04572961 0.26627156 -0.3710408 -0.1622097
-0.07762739 0.18526182 -0.15460066 -0.20672342 -0.21234721 -0.05937426 0.041721385 -0.12783028
0.02295145 -0.1241136 -0.14669245 -0.019222543 -0.29696944 -0.17883162 0.11259342 0.018119678
-0.005766484 0.19315426 -0.29298627 0.2057335 -0.22845957 0.068555586 -0.26388866 -0.07623623
0.03376516 0.24231702 -0.33160844 -0.1295274 -0.043228254 0.18699095 -0.12449834 0.13570118
0.06347575 0.21817383 0.25040522 0.11224644 0.2142175 -0.043776806 0.06904723 0.19637662
0.18860586 0.029589767 0.33734927 -0.04099784 0.30995235 -0.061869726 -0.33573467 -0.26008126
-0.11553225 -0.14761448 -0.16185726 0.19370565 0.061404247 0.26784378 0.23002036 -0.13110724
0.06333739 -0.038019728 0.08724644 0.24348675 0.038255084 -0.03518919 -0.1163677 0.09900143
-0.22214247 -0.17341112 -0.3472 0.10440173 -0.21361473 -0.0158376 -0.019772278 -0.041744385
0.11358144 -0.015207078 0.16628411 0.07545873 -0.27121264 -0.10508906 -0.06998223 0.13150448
-0.1628951 -0.29869592 0.039414022 -0.14131272 0.03551273 0.02772342 0.09320046 0.047128692
0.20066538 -0.0068508 0.0009526854 -0.07355379 -0.28789207 0.26906708 -0.11714491 -0.11438809
-0.19104218 -0.10644206 0.033160225 -0.046268776 -0.06006823 0.3112704 0.06521421 -0.098744504
0.1395859 0.12628472 -0.25905496 -0.3516763 -0.09596927 -0.25410166 -0.20448403 -0.1725326
-0.0024065638 -0.03466969 -0.03277842 -0.21193849 0.2291475 -0.25594988 -0.12115927 -0.016622532
-0.09519794 -0.029381271 0.36042723 -0.015963607 0.021500943 -0.14704147 0.021503981 -0.27887148
0.021760685 -0.13412385 -0.043469187 0.07410571 -0.11732761 -0.081362784 -0.2775761 -0.21235584
-0.15899822 -0.100281104 0.005270609 0.1371474 -0.26127318 0.14346133 0.121186905 -0.32681036
-0.086318165 0.22672777 0.15954147 -0.052492097 -0.07972398 -0.071733385 0.10734105 -0.17029774
0.14844911 -0.030246941 0.19517739 -0.095956616 -0.06896034 0.32717425 -0.01793543 0.21285273
-0.29304704 0.1443183 0.15046768 -0.030175976 -0.21376033 0.2194469 0.074055724 0.22842404
0.14671482 -0.06096 0.13120219 -0.013591169 -0.014786067 0.20813984 0.018279698 -0.13211672
0.046868518 -0.0715785 -0.33245906 0.17928559 -0.063356526 -0.3544505 0.07802949 0.3062178
-0.30470958 -0.4362722 -0.16302736 -0.10797872 -0.06969595 -0.13494483 -0.098404795 -0.13749173
-0.06673534 -0.19131686 0.18748845 0.06729228 -0.13608097 0.0907839 0.07527598 -0.07132811
00000000: 5959 003e a0bd 433e b773 b53c f66b eb3d
00000010: a29a 263e f8d6 263d 0525 cb3d 070e 09be
00000020: 233d 8dbe f08b 28be e862 5ebc 4f8b d33d
00000030: a175 893d dcd4 52be f417 aebd d5de 883e
00000040: b297 ac3d 6f4f 6d3e 2006 3d3e 89c6 da3d
00000050: 895f e2bd 90b8 013d bc71 9fba 78aa b4be
00000060: 358b b1bd a8a5 6c3e 79f0 9ebe 7a98 adbd
00000070: 7e0c 4d3e 7a78 da3d a5c0 dbbc c6f8 573d
00000080: c805 c5bc eec9 8f3d 4673 01be c65c d5be
00000090: 45d0 7abd 4c22 98bc 9698 393e b44d 353e
000000a0: 37d4 05be 1cff 44bc bc69 1ebe f6f5 59be
000000b0: 489f 5c3e 306a 173d 7c08 d63d d624 b13d
000000c0: 66a2 1cbe 2775 87be 08a9 3ebc b3d2 8ebd
000000d0: f94e 3b3d bf54 883e 0ff9 bdbe 4d1a 26be
000000e0: 1cfb 9ebd 46b5 3d3e a34f 1ebe 4eaf 53be
000000f0: 8c71 59be 6d32 73bd 0be4 2a3d f1e5 02be
00000100: ae04 bc3c 452f febd 8c36 16be 9878 9dbc
00000110: 610c 98be a31f 37be 6197 e63d b86f 943c
00000120: c6f4 bcbb 3bca 453e 4c02 96be cdab 523e
00000130: 4ef1 69be df66 8c3d 6a1c 87be be21 9cbd
00000140: 564d 0a3d f421 783e 95c8 a9be d5a2 04be
00000150: 1c10 31bd 8e7a 3f3e fcf8 febd 40f5 0a3e
00000160: 93ff 813d f668 5f3e 1d35 803e 76e1 e53d
00000170: d55b 5b3e 4f4f 33bd a268 8d3d f416 493e
00000180: e521 413e 3d66 f23c 0bb9 ac3e 5aed 27bd
00000190: 13b2 9e3e 1c6b 7dbd 6ae5 abbe 5f29 85be
000001a0: 2c9c ecbd 4028 17be e9bd 25be c65a 463e
000001b0: 0583 7b3d d222 893e 758a 6b3e fa40 06be
000001c0: 09b7 813d 93ba 1bbd 43ae b23d 9754 793e
000001d0: 5db1 1c3d 8a22 10bd 3052 eebd 43c1 ca3d
000001e0: 5179 63be af92 31be 33c4 b1be 93d0 d53d
000001f0: d2bd 5abe dbbd 81bc 79f9 a1bc 29fc 2abd
00000200: 639d e83d 1c27 79bc 6246 2a3e 1b8a 9a3d
00000210: 62dc 8abe ef38 d7bd d852 8fbd 1ca9 063e
00000220: f9cd 26be acee 98be 9970 213d 48b4 10be
00000230: cc75 113d 3a1c e33c e2df be3d 040a 413d
00000240: 3a7b 4d3e ad7c e0bb a3bd 793a 5fa3 96bd
00000250: 9766 93be 29c3 893e ace9 efbd 4e44 eabd
00000260: 90a0 43be 4bfe d9bd 04d3 073d 5484 3dbd
00000270: 1b0a 76bd d55e 9f3e 078f 853d 8f3a cabd
00000280: 9bef 0e3e c850 013e daa2 84be ea0e b4be
00000290: 898b c4bd 9d19 82be 4364 51be 63ac 30be
000002a0: 71b7 1dbb ce01 0ebd aa42 06bd 6706 59be
000002b0: a4a5 6a3e dd0b 83be 5a22 f8bd fa2b 88bc
000002c0: 23f7 c2bd feb0 f0bc eb89 b83e 1cc6 82bc
000002d0: bf22 b03c 0a92 16be 1e29 b03c 3ec8 8ebe
000002e0: 7743 b23c c357 09be bf0c 32bd bcc4 973d
000002f0: 7549 f0bd 88a1 a6bd 741e 8ebe cf73 59be
00000300: 6ed0 22be 2e60 cdbd 13b5 ac3b 5e70 0c3e
00000310: 99c5 85be 87e7 123e d730 f83d b053 a7be
00000320: 94c7 b0bd 532b 683e d75e 233e f401 57bd
00000330: 5346 a3bd f4e8 92bd a0d5 db3d 8862 2ebe
00000340: 0b03 183e 6fc8 f7bc 95dc 473e e784 c4bd
00000350: 143b 8dbd 6283 a73e 53ed 92bc 11f6 593e
00000360: 430a 96be 2dc8 133e 3314 1a3e 9c33 f7bc
00000370: fde3 5abe b0b6 603e 87aa 973d fee7 693e
00000380: 693c 163e 31b1 79bd de59 063e 7fad 5ebc
00000390: 4341 72bc 9c22 553e 4ebf 953c 9b49 07be
000003a0: 34f9 3f3d c097 92bd 1338 aabe a496 373e
000003b0: 11c1 81bd 897a b5be edcd 9f3d 94c8 9c3e
000003c0: e502 9cbe 125f dfbe a5f0 26be f223 ddbd
000003d0: c0bc 8ebd fa2e 0abe 7488 c9bd a2ca 0cbe
000003e0: 8aac 88bd 91e8 43be f9fc 3f3e 89d0 893d
000003f0: cf58 0bbe e9ec b93d 4b2a 9a3d 7914 92bd

l2.weight f4 [300, 400]
-0.074656315 -0.10927661 0.042215727 -0.03418111 -0.10815771 -0.03171856 -0.121627055 -0.011209406
-0.0668772 -0.021131968 0.08639234 -0.16364183 0.027289396 0.014648464 -0.06635669 -0.03866679
0.008135379 -0.09072336 -0.015303537 0.0727059 0.061720103 -0.035625737 -0.0014369448 -0.0324881
0.020896701 -0.046593014 -0.075062774 -0.25234243 -0.00642086 -0.025184482 -0.0682971 -0.1352458
-0.092822134 -0.009056112 0.1083308 0.040676042 -0.037506994 -0.09921919 -0.03648727 0.044711076
-0.074729696 0.008797087 0.026936784 -0.10367305 0.009432699 0.0042907703 -0.20551872 0.07394827
-0.10281295 -0.024717877 -0.0902078 -0.11775289 0.0020390407 -0.09859022 -0.16882218 -0.011808306
-0.05733718 -0.06644951 -0.06529431 0.023663374 0.05617923 -0.11799195 -0.03404572 0.025142381
0.039725557 -0.0015978299 0.03890222 -0.025694104 -0.028722398 0.012917342 0.004383498 -0.026690472
0.0027928746 0.05629486 0.008913492 0.04099503 -0.07053858 0.06524321 0.053133402 -0.06574522
-0.11594851 -0.13423236 0.0019768756 -0.10140579 -0.020653028 -0.14770822 -0.04153497 -0.06432867
0.023547245 -0.19222516 0.04329126 0.068837695 -0.007505999 -0.059070494 -0.05752996 0.10015716
-0.060527522 0.041129574 -0.041178957 -0.059507765 -0.054282513 -0.038700793 -0.034593873 -0.028408704
0.072964884 0.09000239 0.021380162 0.08457398 -0.033700805 -0.07787368 -0.066750295 -0.053698987
-0.09549012 0.14524445 0.010582187 -0.034921624 -0.10461706 0.062640965 -0.08710281 0.01760001
0.0146411285 -0.35370153 -0.00230663 -0.114414975 -0.23499507 0.05720191 0.085400194 0.09120817
-0.12406328 -0.06997058 -0.062924184 -0.08785646 -0.034424912 -0.08122681 -0.0036917217 0.033771634
-0.023395874 -0.026313417 -0.022585554 -0.13067058 0.094676994 -0.03627446 -0.14426337 -0.09148722
-0.095953375 -0.12816733 0.023506004 0.0025411842 -0.11353527 -0.072213 -0.03788291 -0.020117167
-0.06409898 -0.020609297 -0.027525071 -0.00581818 0.0039579477 0.012158737 -0.12418512 -0.04034649
0.0024564778 -0.07931841 -0.10878088 -0.10287546 0.062341787 0.06961741 -0.07438992 -0.106525846
-0.10175499 0.11545439 0.08637753 -0.060680926 -0.031445116 -0.067612365 -0.011342995 0.12659952
-0.08940874 -0.12718679 0.1040745 -0.07301065 -0.07590411 0.0018814646 -0.09350976 -0.1379136
-0.15410402 0.036330897 -0.14726709 0.109861545 0.038826797 -0.047356892 -0.039195012 -0.12722676
-0.029399728 -0.14039433 0.0059779077 -0.12320074 0.041081306 -0.0878477 0.09834321 -0.013285326
0.05299346 -0.040259894 0.05790926 -0.09088816 -0.105851665 0.17956264 0.038853295 -0.1817772
-0.013574411 -0.010288708 -0.051957272 0.09980542 -0.09404499 -0.17027864 -0.018896893 -0.0014844494
-0.0049289865 -0.059192322 -0.038465884 0.030673612 0.030946575 -0.024452565 -0.16698603 -0.101476654
0.008994524 -0.015313639 -0.022835752 0.046548765 -0.039605487 -0.022762375 -0.004521151 -0.0027696698
-0.11031666 -0.10010814 -0.046274923 -0.04337869 0.04253937 -0.015043691 -0.13559864 -0.07300788
-0.08511233 0.01580037 0.040361047 -0.14733794 -0.08844081 -0.146711 -0.21558525 -0.09660301
0.11393377 -0.039713386 0.10234715 0.08075655 -0.13488258 -0.04777634 0.02205164 0.004550977
00000000: 69e5 98bd 6acc dfbd 66ea 2c3d 7e01 0cbd
00000010: ca81 ddbd 52eb 01bd 9b17 f9bd a8a7 37bc
00000020: eaf6 88bd f31c adbc 78ee b03d b991 27be
00000030: 038e df3c 1c00 703c 04e6 87bd 1161 1ebd
00000040: 414a 053c 2bcd b9bd b0bb 7abc d5e6 943d
00000050: 38ce 7c3d 4bec 11bd de57 bcba 3e12 05bd
00000060: 8f2f ab3c 51d8 3ebd 83ba 99bd 0733 81be
00000070: 1466 d2bb b04f cebc 5adf 8bbd e07d 0abe
00000080: 8819 bebd 1660 14bc 8adc dd3d ec9b 263d
00000090: efa0 19bd 6e33 cbbd ad73 15bd f622 373d
000000a0: e20b 99bd a821 103c 88aa dc3c 8952 d4bd
000000b0: 9b8b 1a3c 9799 8c3b 8073 52be 3172 973d
000000c0: 998f d2bd 257d cabc debe b8bd 6d28 f1bd
000000d0: 6da1 053b abe9 c9bd b9df 2cbe a077 41bc
000000e0: 64da 6abd ae16 88bd 06b9 85bd b1d9 c13c
000000f0: 311c 663d c3a5 f1bd 8673 0bbd 65f7 cd3c
00000100: 44b7 223d 466e d1ba ef57 1f3d 717c d2bc
00000110: 3c4b ebbc 42a3 533c 72a3 8f3b faa5 dabc
00000120: a908 373b 7095 663d e509 123c 68ea 273d
00000130: 8876 90bd 3b9e 853d 69a2 593d 6ea5 86bd
00000140: 6a76 edbd 3574 09be 788e 013b d7ad cfbd
00000150: 8a30 a9bc d340 17be 9320 2abd c0be 83bd
00000160: 27e6 c03c acd6 44be 2d52 313d c7fa 8c3d
00000170: e2f4 f5bb e7f3 71bd 89a4 6bbd 321f cd3d
00000180: b5eb 77bd 7c77 283d 44ab 28bd 6abe 73bd
00000190: 5757 5ebd b984 1ebd 4eb2 0dbd 5fb9 e8bc
000001a0: 9d6e 953d 2c53 b83d 7325 af3c 1f35 ad3d
000001b0: db09 0abd 3c7c 9fbd 61b4 88bd 78f3 5bbd
000001c0: 5390 c3bd f6ba 143e e960 2d3c fa09 0fbd
000001d0: 7841 d6bd e849 803d f562 b2bd e52d 903c
000001e0: 58e1 6f3c 5e18 b5be d42a 17bb 6652 eabd
000001f0: 8ca2 70be 8d4c 6a3d 4ce6 ae3d 59cb ba3d
00000200: e414 febd bc4c 8fbd 65de 80bd 16ee b3bd
00000210: 2301 0dbd 3e5a a6bd d0f0 71bb 2054 0a3d
00000220: b4a8 bfbc 3c8f d7bc 5705 b9bc 82ce 05be
00000230: 03e6 c13d 8794 14bd c7b9 13be a75d bbbd
00000240: 3483 c4bd 4c3e 03be aa8f c03c ff89 263b
00000250: 2e85 e8bd 69e4 93bd 1c2b 1bbd c2cc a4bc
00000260: 5346 83bd d4d4 a8bc 427c e1bc 6ea6 bebb
00000270: acb1 813b 7035 473c c554 febd 5c42 25bd
00000280: dcfc 203b b171 a2bd 83c8 debd 5fb0 d2bd
00000290: 1a5a 7f3d 9393 8e3d be59 98bd 392a dabd
000002a0: ec64 d0bd 5a73 ec3d b4e6 b03d 908c 78bd
000002b0: 98cc 00bd 5a78 8abd f8d7 39bc 4ea3 013e
000002c0: ee1b b7bd 413d 02be 0325 d53d 9c86 95bd
000002d0: 9d73 9bbd 7a9b f63a 0c82 bfbd 3939 0dbe
000002e0: 72cd 1dbe b5cf 143d 2fcd 16be 17ff e03d
000002f0: d908 1f3d 4df9 41bd f38a 20bd bb47 02be
00000300: b3d7 f0bc 88c3 0fbe 53e2 c33b ab50 fcbd
00000310: df44 283d 7fe9 b3bd 2a68 c93d b2aa 59bc
00000320: ac0f 593d 8fe7 24bd 4332 6d3d 9223 babd
00000330: c2c8 d8bd 45df 373e a224 1f3d cd23 3abe
00000340: 3567 5ebc f891 28bc 26d1 54bd c966 cc3d
00000350: a99a c0bd 865d 2ebe a8cd 9abc db91 c2ba
00000360: 5683 a1bb a673 72bd 678e 1dbd 3a47 fb3c
00000370: ac83 fd3c bf50 c8bc 63fe 2abe fed2 cfbd
00000380: c55d 133c 0fe6 7abc 0b12 bbbc eba9 3e3d
00000390: 5d39 22bd 2978 babc 2a26 94bb 5983 35bb
000003a0: b3ed e1bd 7f05 cdbd c68a 3dbd daad 31bd
000003b0: c33d 2e3d d079 76bc 5fda 0abe 2885 95bd
000003c0: 604f aebd c76f 813c a051 253d c2df 16be
000003d0: 7520 b5bd 693b 16be 61c2 5cbe cdd7 c5bd
000003e0: 1c56 e93d 81aa 22bd 629b d13d b163 a53d
000003f0: a91e 0abe 20b1 43bd a4a5 b43c 5d20 953b

l2.bias f4 [300]
-0.121563956 0.055159926 0.08462154 0.03546079 -0.03329081 -0.018482873 -0.07948029 -0.039634064
0.03229123 -0.15599266 -0.099914536 0.07680021 -0.027486376 -0.025489978 -0.041460946 -0.0848579
0.07197068 0.018329374 0.121525384 0.03592634 -0.22183138 -0.054752585 -0.03751734 -0.1326818
0.109382674 0.050964072 0.044827633 -0.00993417 0.10035811 -0.054561425 0.14503989 0.014284475
-0.056564618 0.053529046 0.12594295 -0.12740356 -0.053949196 0.031343166 -0.06814905 -0.14497979
-0.010921255 -0.023042595 -0.023353843 -0.06462497 -0.040700354 -0.123707786 0.038808357 -0.04568763
-0.058338355 -0.16966924 -0.06475872 0.057611734 0.039487094 0.11176035 0.052701112 0.11978376
-0.070844874 0.0636079 -0.051572166 -0.06036456 -0.04613623 -0.1260808 0.027243441 0.07393314
0.03478175 -0.08231265 -0.0648724 0.019909695 -0.018779261 -0.05063982 -0.021917498 0.14381935
-0.018103395 -0.046860296 0.031662967 -0.043661464 -0.13559271 0.03675818 0.024899373 0.06769835
-0.010805862 -0.014543823 -0.025483605 -0.012704996 0.0905212 0.011040377 -0.040705208 0.045056626
0.03274176 0.01380309 0.06378575 -0.030199451 -0.055429902 -0.0013268644 -0.03800944 -0.07232055
-0.0029149286 -0.23512957 -0.0030727747 -0.026021594 0.020767359 -0.036212064 0.07576053 0.022782244
-0.06166867 0.030209158 -0.032467354 0.08616655 -0.12191797 -0.0032266588 -0.027025212 0.06527473
0.08744444 -0.1737407 0.0046217614 0.08311345 -0.027736166 -0.043872233 0.020526921 -0.04533224
-0.06729327 -0.11829844 -0.019966442 -0.0015667691 -0.0961113 0.016916623 0.16741973 0.0028477493
0.08438827 -0.104379885 0.027171008 -0.18115415 0.052018635 -0.021704013 0.016163172 -0.012007258
0.12529656 -0.05631374 -0.0024165122 0.120452315 -0.109110385 0.0043027364 -0.050984118 0.158045
-0.09717952 0.0144348275 -0.14618468 -0.057398595 -0.061353397 -0.031074952 -0.018668607 -0.039558668
-0.048217632 -0.01684262 0.15418696 -0.07142761 -0.10332714 -0.05398907 -0.07429375 -0.061561864
0.0086758 -0.031781025 0.036229514 -0.08338615 0.09791217 0.022412525 0.026438342 0.019685373
-0.07650249 -0.022036007 -0.045629267 0.035787202 0.10051352 -0.024335107 -0.09179224 0.14295393
0.093313515 -0.022079118 -0.010560681 -0.079146 -0.03182248 -0.048146617 0.057014346 0.027142895
0.012893457 0.0749159 -0.12943402 -0.07590353 -0.04790962 0.020342119 -0.040839914 0.05711837
-0.0982056 -0.13608786 -0.060267765 -0.05183791 0.022840902 -0.037571684 -0.093466625 -0.14308222
0.09916727 -0.09544928 0.08772735 0.08312034 -0.06887893 0.044524647 -0.08847073 0.016811967
0.013095091 -0.13874981 -0.035693977 0.016988387 -0.003227286 -0.18207137 0.072315164 0.01607035
0.039323963 0.10584047 -0.058207776 -0.10236421 -0.04542653 -0.023401394 -0.020963173 0.18447863
-0.10862306 -0.077503 -0.010204147 -0.04277478 0.071407825 -0.07537893 -0.015721496 0.047492065
-0.19010939 -0.035154767 -0.014897882 0.052523457 -0.06599646 0.013799703 0.03405548 0.051589355
-0.07327138 -0.09192394 -0.13092639 0.0028739115 0.029496567 0.15856107 0.05574315 0.00038627663
-0.0076453257 -0.044373147 -0.027784891 -0.072523154 -0.02317709 -0.14461991 0.090575226 -0.048541494
00000000: 86f6 f8bd 60ef 613d 0f4e ad3d 553f 113d
00000010: f25b 08bd 6569 97bc 90c6 a2bd 5457 22bd
00000020: cf43 043d 8abc 1fbe fe9f ccbd 6e49 9d3d
00000030: 1c2b e1bc 5cd0 d0bc f4d2 29bd fbc9 adbd
00000040: 5d65 933d 7c27 963c 4de2 f83d 7f27 133d
00000050: c427 63be 3f44 60bd c8ab 19bd bddd 07be
00000060: 0604 e03d b4bf 503d 2e9d 373d eec2 22bc
00000070: 8e88 cd3d cd7b 5fbd 5685 143e 6e09 6a3c
00000080: 4db0 67bd 4641 5b3d 30f7 003e 1476 02be
00000090: d5f9 5cbd b161 003d bb91 8bbd 9575 14be
000000a0: 10ef 32bc d3c3 bcbc 8f50 bfbc 195a 84bd
000000b0: 6ab5 26bd 825a fdbd 83f5 1e3d f422 3bbd
000000c0: 33f4 6ebd c6bd 2dbe 38a0 84bd 48fa 6b3d
000000d0: 38bd 213d 9ce2 e43d 1fdd 573d 3051 f53d
000000e0: 1e17 91bd dc44 823d 563d 53bd d440 77bd
000000f0: 58f9 3cbd 531b 01be a32d df3c 426a 973d
00000100: 4f77 0e3d 8993 a8bd d2db 84bd a819 a33c
00000110: f7d6 99bc b36b 4fbd 538c b3bc 6145 133e
00000120: 924d 94bc 95f0 3fbd 07b1 013d 5dd6 32bd
00000130: d1d8 0abe bf8f 163d c5f9 cb3c 6fa5 8a3d
00000140: 120b 31bc 3749 6ebc fec2 d0bc 9e28 50bc
00000150: 2e63 b93d b3e2 343c 81ba 26bd 4c8d 383d
00000160: 391c 063d 5b26 623c 1aa2 823d d764 f7bc
00000170: 770a 63bd 2eea adba c9af 1bbd cc1c 94bd
00000180: 6308 3fbb cec5 70be 9b60 49bb 3d2b d5bc
00000190: 4f20 aa3c 1a53 14bd 5628 9b3d d4a1 ba3c
000001a0: 4a98 7cbd 3279 f73c 7dfc 04bd 1778 b03d
000001b0: 21b0 f9bd 5a76 53bb fa63 ddbc c2ae 853d
000001c0: 1216 b33d 15e9 31be 2572 973b 6237 aa3d
000001d0: f536 e3bc 5fb3 33bd 1328 a83c 4dae 39bd
000001e0: 0ed1 89bd 7446 f2bd aa90 a3bc 0c5c cdba
000001f0: 00d6 c4bd bb94 8a3c 1470 2b3e 4ea1 3a3b
00000200: c2d3 ac3d 1fc5 d5bd bc95 de3c 7980 39be
00000210: 7e11 553d 9dcc b1bc a168 843c 17ba 44bc
00000220: be4d 003e 3ca9 66bd 595e 1ebb b4af f63d
00000230: 4475 dfbd f8fd 8c3b b9d4 50bd 8cd6 213e
00000240: 0e06 c7bd 0e80 6c3c 70b1 15be ca1a 6bbd
00000250: b34d 7bbd e690 febc e8ee 98bc 4508 22bd
00000260: da7f 45bd 89f9 89bc 30e3 1d3e a448 92bd
00000270: 2e9d d3bd a523 5dbd 5227 98bd 4b28 7cbd
00000280: f124 0e3c d22c 02bd 6665 143d 5cc6 aabd
00000290: 2d86 c83d 799a b73c 3995 d83c 3843 a13c
000002a0: 56ad 9cbd db84 b4bc c1e5 3abd 9a95 123d
000002b0: 08da cd3d 6b5a c7bc 92fd bbbd 8462 123e
000002c0: 281b bf3d 44df b4bc b506 2dbc 4c17 a2bd
000002d0: 4a58 02bd 6335 45bd e087 693d c75a de3c
000002e0: 143f 533c 826d 993d 5a8a 04be 4f73 9bbd
000002f0: e13c 44bd 84a4 a63c c147 27bd f4f4 693d
00000300: 0520 c9bd 9e5a 0bbe 55db 76bd fd53 54bd
00000310: d81c bb3c c4e4 19bd 6e6b bfbd 2584 12be
00000320: 3618 cb3d ea7a c3bd 66aa b33d ff3a aa3d
00000330: 6510 8dbd 7a5f 363d 2430 b5bd 40b9 893c
00000340: cb8c 563c 6e14 0ebe d933 12bd 3b2b 8b3c
00000350: e080 53bb eb70 3abe f919 943d f7a5 833c
00000360: 2a12 213d e3c2 d83d 476b 6ebd 54a4 d1bd
00000370: 2b11 3abd 48b4 bfbc f6ba abbc f7e7 3c3e
00000380: c475 debd e5b9 9ebd 4b2f 27bc 9c34 2fbd
00000390: 443e 923d 4560 9abd 5eca 80bc 0a87 423d
000003a0: 09ac 42be 72fe 0fbd 3f16 74bc d622 573d
000003b0: 2729 87bd 2618 623c c27d 0b3d 5c4f 533d
000003c0: 4e0f 96bd 9e42 bcbd 9111 06be 3c58 3c3b
000003d0: c9a2 f13c d55d 223e ee52 643d 2c85 ca39
000003e0: a485 fabb 9ec0 35bd 249d e3bc 0587 94bd
000003f0: e1dd bdbc 3e17 14be 817f b93d 72d3 46bd

l3.weight f4 [4, 300]
-0.05562175 -0.4610295 -0.11047908 0.012743655 0.45324928 -0.0051397835 -0.2331348 -0.123913646
-0.06962159 0.12640671 0.12431238 0.20681192 -0.34565094 -0.17033301 -0.52866024 0.83791506
-0.012737476 -1.1233337 -0.1709877 0.4237492 0.45749208 0.011669437 -0.19771619 0.78553754
0.5322332 -0.23601735 -0.23347248 0.0023807008 0.41594905 0.44777966 -0.36273095 -0.55954003
-0.21637364 -0.25642246 -0.01520154 0.6300967 0.3265553 -0.0041583204 0.6088082 0.41068438
0.29486302 -0.08134843 0.5098258 0.18612732 0.017752774 0.71097755 0.23936453 0.37647352
-0.24483591 0.00815315 -0.056067467 0.14358124 0.29559684 -0.035813957 -0.25517258 -1.0087638
0.12216417 -0.059347864 0.02179688 0.32933998 0.01075518 -0.6519887 0.5203893 -0.18126313
-0.023648113 -0.5023831 0.21491057 -1.6713798 0.36588988 -0.17706606 -0.033841107 -0.47869992
0.021539507 -0.002549945 0.043768667 0.3694006 0.28503177 -0.009650456 -0.49915993 -0.342117
0.027659165 0.24367845 0.17993641 0.6112803 -0.03691689 -0.037354663 -0.039538145 -0.0019022285
0.32134858 0.6397178 -0.5125787 -0.10359314 0.29273167 0.010129706 -0.12273925 -0.98375964
0.030262373 -0.30242202 0.0055390154 0.26333472 -0.105738856 -0.5538364 -1.085217 -0.055412423
-0.6195925 0.004332074 0.074763484 0.069109574 -0.0016764179 0.045240313 -0.43083978 0.29049164
-0.5694851 0.66271764 -0.53274786 0.034063883 -0.012129013 -0.605106 -0.79148746 -0.11590339
0.6779194 -0.036614385 0.018837275 0.04558137 0.43005642 0.12117162 -0.24186303 -0.038529616
-0.16171084 0.47332516 0.2603767 0.14491996 0.56722295 -0.021886105 0.50516546 0.29649994
-0.34579137 0.0872492 0.37324378 -0.3057472 0.41687357 -0.397335 -0.007001116 -0.23967044
0.10029208 0.00593284 0.6633141 -0.4337983 0.4777113 -0.024701022 0.054448 0.01932496
0.024878392 0.18799762 0.1930174 -0.1272052 -0.414987 -0.23248936 -0.25884676 0.539068
-0.122383356 0.20481393 0.16801211 0.18699872 -0.13092944 0.5824727 -0.04604319 0.27941316
-0.08140354 0.009766179 0.00838846 0.029549515 0.27956533 0.5122001 0.07423304 -0.5681565
0.0142937545 -0.33574626 0.22111674 0.058405418 -0.34819403 0.010966236 -0.6523637 -0.15192798
0.035258144 -0.040024318 -0.08469787 0.086644106 0.0064277994 -0.56159955 -0.2464089 -0.80113536
0.15522078 0.1529979 0.07863759 0.03758641 -0.17844988 -0.3077139 -0.35188586 0.3707345
-0.23320395 1.2977277 0.038979545 -0.77282065 -0.20661904 0.32267132 0.41820422 0.04230453
0.010483566 -0.37510732 -0.0052142674 0.23262848 0.011191887 -0.062119637 -0.70548 0.1981509
0.040723737 0.15118997 0.0067581823 0.25514093 0.006278655 0.25974625 -1.1080161 -0.18919691
0.6825232 -0.1330289 0.19233344 0.5344556 0.047641348 -0.56464255 -0.3181414 -0.3727926
0.70116 0.05815379 0.021497525 -0.25031656 0.34974137 0.17464082 -0.5064927 -1.0083492
0.0535753 0.1544617 0.29024187 -0.22203943 -0.22038074 -0.24927792 -0.4531578 -0.121860184
0.19304106 0.05092797 -1.1087599 0.21243785 0.29851422 0.48505583 0.24033782 -0.006469759
00000000: a2d3 63bd 0f0c ecbe db42 e2bd c3ca 503c
00000010: 4a10 e83e a16b a8bb e4ba 6ebe 70c6 fdbd
00000020: c495 8ebd c370 013e 7d97 fe3d 81c6 533e
00000030: 29f9 b0be c76b 2ebe 4756 07bf 9a81 563f
00000040: d9b0 50bc 66c9 8fbf 6617 2fbe a8f5 d83e
00000050: 673c ea3e 2b31 3f3c 1d76 4abe fd18 493f
00000060: 6f40 083f 88ae 71be 6913 6fbe 8805 1c3b
00000070: 46f7 d43e 6043 e53e dfb7 b9be 043e 0fbf
00000080: 0d91 5dbe ce49 83be e10f 79bc 044e 213f
00000090: 4232 a73e 8542 88bb dbda 1b3f 3945 d23e
000000a0: 49f8 963e 019a a6bd f283 023f 2998 3e3e
000000b0: 446e 913c a002 363f fa1b 753e 23c1 c03e
000000c0: 44b6 7abe ca94 053c 00a7 65bd f606 133e
000000d0: 7858 973e a8b1 12bd fba5 82be 2c1f 81bf
000000e0: 3531 fa3d bf16 73bd 5f8f b23c 409f a83e
000000f0: 7f36 303c bbe8 26bf 3c38 053f 0b9d 39be
00000100: b0b9 c1bc 2e9c 00bf 8411 5c3e c6ef d5bf
00000110: eb55 bb3e ce50 35be f99c 0abd 2818 f5be
00000120: 9f73 b03c fa1c 27bb c646 333d 1322 bd3e
00000130: afef 913e f21c 1ebc e491 ffbe f629 afbe
00000140: 7995 e23c d886 793e 4041 383e de7c 1c3f
00000150: 2a36 17bd 3401 19bd c0f2 21bd 3254 f9ba
00000160: cd87 a43e 8cc4 233f 5c38 03bf a428 d4bd
00000170: ede0 953e 11f7 253c b75e fbbd acd7 7bbf
00000180: cce8 f73c 0fd7 9abe a180 b53b cfd3 863e
00000190: 9d8d d8bd 39c8 0dbf 64e8 8abf 23f8 62bd
000001a0: 9d9d 1ebf 12f4 8d3b 991d 993d 5289 8d3d
000001b0: 40bb dbba e84d 393d 0897 dcbe 52bb 943e
000001c0: c7c9 11bf dda7 293f 2a62 08bf 9286 0b3d
000001d0: c5b8 46bc 3ae8 1abf ec9e 4abf c25e edbd
000001e0: 208c 2d3f f7f8 15bd a150 9a3c 88b3 3a3d
000001f0: 5b30 dc3e d428 f83d f1aa 77be 3bd1 1dbd
00000200: 8797 25be ad57 f23e 1850 853e e665 143e
00000210: 8635 113f 7d4a b3bc 8652 013f d7ce 973e
00000220: 910b b1be b5af b23d cf19 bf3e e68a 9cbe
00000230: 7470 d53e 7e6f cbbe 9e69 e5bb 2b6c 75be
00000240: ef65 cd3d 4568 c23b f4ce 293f d01a debe
00000250: 9396 f43e cc59 cabc de04 5f3d 614f 9e3c
00000260: c5cd cb3c 7382 403e 5aa6 453e 1442 02be
00000270: 2d79 d4be b111 6ebe 9087 84be 5c00 0a3f
00000280: 20a4 fabd beba 513e 5e0b 2c3e 987c 3f3e
00000290: 5e12 06be ee1c 153f c997 3cbd 3e0f 8f3e
000002a0: e6b6 a6bd 5302 203c c06f 093c d311 f23c
000002b0: 3023 8f3e 8c1f 033f 7e07 983d b472 11bf
000002c0: 5a30 6a3c efe6 abbe 6d6c 623e 853a 6f3d
000002d0: 7d46 b2be baab 333c 4f01 27bf 0293 1bbe
000002e0: d86a 103d 8af0 23bd 1476 adbd 7772 b13d
000002f0: 4aa0 d23b fdc4 0fbf 9d52 7cbe 3517 4dbf
00000300: 32f2 1e3e 7bab 1c3e bf0c a13d 35f4 193d
00000310: 91bb 36be ad8c 9dbe 622a b4be ead0 bd3e
00000320: 04cd 6ebe f11b a63f 04a9 1f3d 93d7 45bf
00000330: f193 53be 2d35 a53e dd1e d63e 8447 2d3d
00000340: 43c3 2b3c 110e c0be 72dc aabb 2936 6e3e
00000350: 2d5e 373c 2971 7ebd 569a 34bf 12e8 4a3e
00000360: efcd 263d 8bd1 1a3e be73 dd3b d5a1 823e
00000370: 2dbd cd3b 76fd 843e 79d3 8dbf d6bc 41be
00000380: d7b9 2e3f ba38 08be 0ff3 443e 15d2 083f
00000390: 9323 433d 6a8c 10bf 6ee3 a2be acde bebe
000003a0: 397f 333f ab32 6e3d 941b b03c 7e29 80be
000003b0: 4d11 b33e 0bd5 323e 81a9 01bf 9611 81bf
000003c0: c671 5b3d 352b 1e3e 959a 943e 4e5e 63be
000003d0: 7dab 61be b642 7fbe 4d04 e8be d591 f9bd
000003e0: 8eac 453e d999 503d d8eb 8dbf 4f89 593e
000003f0: dbd6 983e 3d59 f83e 1e1b 763e 4600 d4bb

l3.bias f4 [4]
-0.051110394 -0.065599576 -0.0521314 -0.014610727
00000000: 2259 51bd 1259 86bd bc87 55bd d561 6fbc
