models/BipedalWalkerHardcore/critic.pth (torch, 530647 bytes, 5 tensors)

l1.weight f4 [400, 28]
000000 4f 6f c3 be 71 c8 9a bf 8b aa ec 3e 2e ac 3a be
       -0.3817086 -1.209242 0.46223864 -0.18229744
000010 01 8d 37 be 5b 37 5a bd cc be 72 be ec 81 dd 3d
       -0.17924882 -0.053275447 -0.23705596 0.10815796
000020 04 03 da bd c9 f6 c3 be 81 ac e5 3d ab 39 77 bc
       -0.106451064 -0.3827422 0.11214543 -0.015089433
000030 38 13 6a bc 81 ad 99 bc f6 31 37 3e 2f 6b 1a bd
       -0.014286809 -0.01875949 0.17890152 -0.037699874
000040 fe 03 75 3c b0 e8 9e bd a2 fa 03 3e 64 c8 9a 3e
       0.014954565 -0.07759225 0.12888578 0.3023101
000050 24 8b 3c 3e f0 11 90 3d d8 84 8c bd 1a f6 64 3b
       0.18412453 0.07034671 -0.068612754 0.0034936727
000060 a9 9f 80 3e 3d fc 7e 3e c2 0e 72 bd ec 88 51 be
       0.2512181 0.24900909 -0.059096105 -0.20462388
000070 20 8f 0e 3f ec 44 5e 3f 15 62 99 bf da 76 3b be
       0.5568714 0.86823916 -1.1983057 -0.18307057
000080 a8 8a e8 3e 0d 4e 15 3e 04 1f 5f 3e 6a 3c e9 bd
       0.45418286 0.14580555 0.21789175 -0.11388476
000090 aa 28 5c bb 72 bc b0 3e c4 19 e1 3d b2 8a 8f bd
       -0.0033593574 0.34518772 0.109912425 -0.07008876
0000a0 18 f3 42 bd ec 0d 77 3d bc 19 f9 bd 77 f4 ad bd
       -0.047595114 0.06031601 -0.121631116 -0.084938936
0000b0 2f 81 61 be 84 c7 e7 be 99 1c e2 be 23 89 dd bd
       -0.22021936 -0.45269406 -0.44162443 -0.108171724
0000c0 01 0f de be 08 51 f7 bd 45 80 22 be c4 80 73 3d
       -0.43370822 -0.12076002 -0.15869243 0.059448972
0000d0 0e b4 cf bd 40 48 69 bd f6 ba 06 3e c6 00 68 bd
       -0.101417646 -0.05695367 0.13157257 -0.056641363
0000e0 f0 be ff 3e 95 6d 36 bf 6a 9d f2 3e 6a 50 ed be
       0.4995036 -0.7126096 0.47385722 -0.46350414
0000f0 88 f8 92 be da d9 10 3f 91 a3 e4 be 90 63 ac 3e
       -0.2870524 0.56582415 -0.4465604 0.3366971
000100 9a 0b 0f be 49 7a 02 3f 07 18 af 3e ab 44 ae be
       -0.1396927 0.5096784 0.3419802 -0.34036765
000110 55 78 66 3e 42 a2 39 3e 44 6f 58 be 16 ab 07 3e
       0.2250684 0.18128303 -0.21136194 0.13248858
000120 63 44 69 3e 0c 3c c9 bd ff 1b ab be eb e3 61 be
       0.22779994 -0.09825906 -0.33419797 -0.220596
000130 ab 48 09 bf 41 c5 a2 be 82 d8 66 be 81 85 90 be
       -0.5362651 -0.31791118 -0.22543529 -0.28226855
000140 fc c4 31 3d 97 6f 3d 3e b9 08 f4 bd ec a6 21 3e
       0.04340075 0.184996 -0.11915726 0.15786332
000150 3f 03 e5 3e 3e b4 af 3f d5 54 56 bf 37 10 56 3e
       0.4472904 1.372688 -0.83723193 0.20904623
000160 c1 e9 41 bd 8b d3 dd 3d 62 75 b0 3d 37 a5 f7 bc
       -0.047342066 0.10831364 0.08616139 -0.030230148
000170 0f 9c 00 bd 07 ac 71 3e 63 f3 85 3e ca f5 23 be
       -0.03139883 0.2360078 0.26162252 -0.1601173
000180 3d f2 5b 3e a7 ec 97 3e a7 06 92 3e 79 a7 1f 3e
       0.21479125 0.2967274 0.285207 0.1559123
000190 d1 66 71 3e 6a 5f 08 3e 5b 00 4d 3d ad 2c 54 be
       0.23574378 0.13317648 0.050049167 -0.20720167
0001a0 9a 71 1e bd 32 35 05 be 7f 49 00 3e ad 69 21 be
       -0.038682558 -0.13008574 0.12528037 -0.15762968
0001b0 79 19 91 3c 5d a0 7e bd 9d f8 19 be 45 51 e6 3b
       0.017712342 -0.062164653 -0.15036245 0.007028731
0001c0 1b 39 05 bf e6 fa a8 bf 02 4c 71 3f 17 a0 8a be
       -0.5204026 -1.3201568 0.94256604 -0.27075264
0001d0 88 3a 4b be df fc 85 bd b1 48 5a bd f2 76 2b bd
       -0.19846547 -0.06542372 -0.05329198 -0.041861482
0001e0 6f 18 46 3e 93 85 3d be b5 a6 9f 3d 60 48 50 3d
       0.19345258 -0.18507986 0.07795469 0.050850272
0001f0 52 93 bd 3d eb cd 7a 3e ce 2d 85 bd 7f da 9b 3d
       0.09256615 0.24492614 -0.06502877 0.07610034
000200 0e 22 74 3c ba ea 1c 3e 3c c5 dd bd 31 10 4c bc
       0.014900697 0.15323916 -0.10828635 -0.012455032
000210 8c 22 2e 3d d9 02 91 bd 0d 71 c9 3d 27 52 67 3d
       0.042513415 -0.07080621 0.09836016 0.05647483
000220 02 6b 53 3d 6f b3 c4 bd df 57 c1 bc 32 ac 97 3d
       0.051615722 -0.09604537 -0.02360147 0.074058905
000230 50 0d 34 3e 52 b3 4e bf 04 1b 97 3e 89 84 06 3f
       0.17583203 -0.8074237 0.295128 0.5254598
000240 84 00 a4 bd c5 4a d7 3e 0e e2 01 bf 36 d6 d5 3e
       -0.08007911 0.42049232 -0.5073556 0.41764992
000250 04 4b 37 bd fc 26 5d 3d 08 5f c9 be cd a1 94 3d
       -0.044749275 0.053992257 -0.39330316 0.072574235
000260 37 75 b7 3d 08 a5 ed be 6d ac 9a bd 05 ef 02 3e
       0.08957904 -0.4641497 -0.07552419 0.12786491
000270 5c 70 aa 3d 54 94 19 be 41 b8 32 3e 48 92 32 3e
       0.08322212 -0.14997989 0.174531 0.17438614
000280 7f 46 20 be 42 fa 31 3e 35 ef 30 bd 71 e8 b2 bd
       -0.15651892 0.17380622 -0.043196876 -0.08735741
000290 18 4f ad 3d 10 48 ab 3e df df 96 bd 01 1e 4f be
       0.084623516 0.33453417 -0.07366919 -0.2022629
0002a0 2b 71 82 3d 16 92 3f bf c8 06 d0 3e d8 e4 7f be
       0.06369241 -0.74832284 0.40630174 -0.2498964
0002b0 48 51 9c be 86 b3 9a 3e 08 45 c1 bc ec ad e6 3b
       -0.30530763 0.3021509 -0.023592487 0.007039776
0002c0 b5 cb ea 3d bf 11 9f bd 2f 27 f6 bc 8a 72 9b bd
       0.11464635 -0.07767057 -0.030047981 -0.07590206
0002d0 fe cd ab 3e 19 06 17 bf 24 ad bc be 05 89 30 be
       0.33555597 -0.5899368 -0.36850846 -0.17239769
0002e0 54 5a b9 be 9e 66 9f bd 13 33 46 be f8 23 a4 be
       -0.36201727 -0.077832446 -0.19355421 -0.32058692
0002f0 62 63 e0 bd 11 e3 51 bd b4 c3 0d bc f8 cd 55 3d
       -0.10956456 -0.051241938 -0.008652616 0.05219838
000300 e1 e2 fd 3d 7a 49 fc 3d 33 36 72 3d de 02 bd bd
       0.12396789 0.12318702 0.05913372 -0.092290625
000310 23 37 f7 be 8a cb 20 be 2c cf ec 3e 49 a0 3a be
       -0.48284253 -0.15702644 0.4625181 -0.18225206
000320 72 6e d9 be 51 b3 33 bd 06 ae fd bd 14 55 51 3d
       -0.42467076 -0.04387218 -0.12386708 0.051106527
000330 4a c4 99 be f8 b3 bf 3c d1 da fd be 03 e9 25 3e
       -0.3003257 0.023401245 -0.49581006 0.16202168
000340 95 ec 87 3d 71 fd 87 bd ee a4 d2 be 8f de 83 be
       0.06636921 -0.06640137 -0.41141456 -0.25755736
000350 d7 94 4b be 82 d2 aa be da 5c 50 be b0 bf 66 be
       -0.19880997 -0.3336373 -0.2034792 -0.2253406
000360 18 d3 c9 be 6e bb b6 be 79 76 ec be 52 a8 ab be
       -0.39418864 -0.35689873 -0.46184137 -0.33526856
000370 72 47 7f bd 45 1e 4e 3c eb e3 26 be f4 93 98 be
       -0.062323995 0.012580459 -0.16297881 -0.2980038
000380 6b 76 25 bf 71 01 ab bf 35 43 45 3f e7 5b 46 bb
       -0.64633816 -1.3359815 0.77055675 -0.003026718
000390 42 0d 10 be 09 ad 8d 3d 74 1c 15 be e4 db 29 be
       -0.14067557 0.069177695 -0.14561635 -0.16587788
0003a0 2b ff c8 bd 6b f8 9f be 8a 24 2f be 97 a9 70 be
       -0.098142944 -0.31244215 -0.17103782 -0.23502193
0003b0 8c 06 b6 bd 06 45 45 3e e4 59 d8 bd 22 f6 02 bb
       -0.088879675 0.19264612 -0.1056402 -0.0019983132
0003c0 dd d0 fc bb 7c ff 66 be 58 04 6d 3d 9b 64 a9 bd
       -0.007715328 -0.22558397 0.05786547 -0.08271142
0003d0 27 6d 10 3d ce 5f 49 be 0f 8a 64 bb 43 c3 ea 3c
       0.035260346 -0.19665453 -0.0034872328 0.028657561
0003e0 4e 61 a7 3d f7 b7 c5 bb 6f e8 83 3d ad 77 2a 3d
       0.08172856 -0.006033893 0.064408176 0.041618038
0003f0 34 19 f3 be 40 23 1b bf 16 a7 4c 3e 1a fe 94 3d
       -0.47480166 -0.6060066 0.19985613 0.072750285

l1.bias f4 [400]
000000 ee 6a 62 3e 09 6e 4c 3e af 8a 0a be b2 3c f8 be
       0.22111103 0.1996385 -0.13529466 -0.48483807
000010 7e cd b9 3e 16 5d 38 be 8c f4 80 3e 99 1c 4a 3c
       0.3628959 -0.1800426 0.25186574 0.01233592
000020 73 fe 02 3e 71 47 02 be af de dc 3b bb 7e f2 bc
       0.12792377 -0.12722565 0.006740413 -0.029601445
000030 83 0f 10 3e 36 7b a8 bd cb 45 27 be 25 55 9a be
       0.14068417 -0.082266256 -0.16335218 -0.30143085
000040 18 84 57 be c0 b8 85 be 54 e5 ab be 31 8f cd 3d
       -0.21046484 -0.26117516 -0.335734 0.10037077
000050 d0 a2 ab bb fa 91 19 3e 5b 7b 89 be ed b9 12 be
       -0.0052379146 0.14997092 -0.26851925 -0.14328738
000060 bb ad 84 3e 6c b0 41 bc 61 ed 85 be 8d 5e 29 3c
       0.25913796 -0.011821847 -0.26157668 0.010337484
000070 a2 4f 20 bd a3 d6 08 be da a7 77 be 3d a1 01 be
       -0.039138444 -0.13363127 -0.24185124 -0.12659164
000080 4c b7 c1 be 04 1a 1c 3e 81 7f 0e 3e 39 07 10 3e
       -0.37835157 0.15244299 0.13915826 0.14065255
000090 0e 49 ab 3d cc 36 28 3d b0 17 1d be 96 d5 9d bd
       0.083635435 0.041067883 -0.15341067 -0.07706754
0000a0 59 3f 2f be 83 e8 77 be 36 92 16 bc 47 6c 95 be
       -0.17114009 -0.2420979 -0.009190133 -0.29184172
0000b0 f4 29 0a bb 94 13 21 bd a9 23 99 39 43 aa d6 3e
       -0.0021082135 -0.03932531 0.00029209003 0.41926774
0000c0 30 d0 c0 3e 11 65 65 bd 52 1f 10 3d 51 8d 46 be
       0.37658834 -0.056004588 0.03518612 -0.19389845
0000d0 a4 e2 ba 3b 31 a2 b3 be b6 a8 3f bb c2 e2 5e be
       0.005703287 -0.3508468 -0.0029244847 -0.21766189
0000e0 29 0c 62 be 9b 1c c8 3d 0c 8a 6f be 18 25 26 3d
       -0.22074951 0.09771081 -0.23392504 0.04056272
0000f0 47 1d 0d 3c b6 09 d3 bd a7 49 8a bc 7c 7b c7 3e
       0.008612937 -0.103045866 -0.016880823 0.389614
000100 50 5e 01 be 72 ba 91 bc 6b d4 a1 bc b4 81 cf 3d
       -0.12633634 -0.0177891 -0.01975461 0.10132161
000110 e4 92 bc 3e b7 10 0b be ee a0 25 be 1a 0a 41 3d
       0.3683082 -0.13580595 -0.16174671 0.047128774
000120 d4 cd 66 bd 7c 2d 21 3e f9 a2 de 3c 74 34 61 be
       -0.056348637 0.15740007 0.02717732 -0.21992666
000130 84 8e 98 3e b6 38 9c be 63 4c 3e be 13 39 12 3d
       0.2979623 -0.30512017 -0.18583827 0.03569896
000140 34 ec 7d be 1b 8c 08 be 98 d1 19 be 90 1e 8b 3e
       -0.24797136 -0.13334696 -0.1502136 0.27171755
000150 73 97 25 3d ea ff 0d bd ba fa 82 be 2c 33 17 3e
       0.040427636 -0.034667887 -0.25581914 0.14765614
000160 fd e3 74 bd d3 d6 5f be 0b 47 3a be b6 08 87 be
       -0.05978774 -0.21859293 -0.18191163 -0.26373833
000170 84 04 29 3e d2 40 f4 3d fa b2 f6 3d 78 4e 24 3d
       0.16505629 0.11926426 0.12045856 0.040113896
000180 5e 0e ab bd ab cb d3 3d 47 ef f4 bd de b3 b6 bd
       -0.0835235 0.10341581 -0.11959701 -0.08921026
000190 b3 c0 4d be f7 fe cd bb a6 01 24 3e fd a5 1b 3e
       -0.2009304 -0.0062864977 0.16016254 0.15200038
0001a0 15 3a c8 3c 02 ea eb be e9 31 6c be 02 f6 17 bd
       0.024441758 -0.4607697 -0.23065914 -0.037099846
0001b0 f1 5d 6e 3e 7b 5f 06 3e 17 38 87 be 55 8d da 3d
       0.23278023 0.1312236 -0.2640998 0.10671488
0001c0 e4 2f 62 3e f6 49 4e be 18 be 4f be b4 61 16 be
       0.22088581 -0.20145401 -0.20287359 -0.14685708
0001d0 6e fb 4e 3d 26 d0 18 be 16 cf 3d bc b3 b8 ac bd
       0.05053275 -0.14923152 -0.011585018 -0.08433666
0001e0 e9 36 85 3e 80 1c 45 3d ab 0b 2c bd 3a 94 2f 3e
       0.26018456 0.048122883 -0.042003315 0.17146388
0001f0 4e 6e 68 3e ec 02 b1 be d1 92 00 bf e7 71 d0 3e
       0.22698328 -0.34572542 -0.50224024 0.407119
000200 7a 18 a6 3d b5 ff 1c bd 47 7e 7f bd 0c 44 3f 3c
       0.08110137 -0.0383298 -0.062376287 0.0116739385
000210 4f 9e 18 be 3b 8c 1e be a4 24 3d be 55 2b 52 bd
       -0.1490414 -0.15483181 -0.18471009 -0.051310856
000220 b3 cc ac bd bc 24 d6 3d fc ac 43 3e c5 06 38 3b
       -0.08437481 0.10456225 0.19108957 0.0028080207
000230 f0 ca 41 bd 68 21 ad be 48 e8 24 3e 48 b8 2e be
       -0.047312677 -0.3381455 0.16104233 -0.17062485
000240 b7 bc d9 bd 24 7f dc bd 42 6d 61 be e8 7d 6f be
       -0.106316976 -0.10766438 -0.22014335 -0.23387873
000250 1e 36 ad bd a2 ae 91 3e 0a 84 9f be 0f 2b 46 be
       -0.08457588 0.28453547 -0.31155425 -0.19352363
000260 c5 2d 82 be 10 cf 8e 3e 67 bd 1b bb cc 50 69 be
       -0.25425544 0.2789235 -0.0023764016 -0.22784728
000270 7a 31 12 be 60 02 9f 3d 25 1c 2f bd fc ea 6b be
       -0.14276686 0.07764125 -0.04275145 -0.23038858
000280 4e b8 99 3e d0 8f c1 be 06 4e dc 3e a9 eb b6 3e
       0.30023426 -0.37805033 0.43028277 0.3572667
000290 08 52 4e be 75 14 88 3e 50 40 62 3e 5f 40 41 be
       -0.2014848 0.26578107 0.22094846 -0.18872212
0002a0 99 db 05 be 42 b6 5e 3e 24 b3 f6 3d 25 d0 42 3e
       -0.13072051 0.21749213 0.12045887 0.19024713
0002b0 70 f6 ba be 4d 19 80 3d e0 8e 0e be 5d 3f ce 3e
       -0.36516142 0.06254826 -0.1392169 0.40282717
0002c0 19 e9 e6 3d 1d d6 18 be 84 67 9d be 9d 54 bc bd
       0.112749286 -0.14925428 -0.3074304 -0.09195826
0002d0 11 a7 6a bc 61 ba a7 bd 9c 1a 7b be fd e4 43 be
       -0.014322058 -0.08189846 -0.2452187 -0.19130321
0002e0 30 0c cd be af 52 04 3e 5d 29 a3 be 0b fb e1 3d
       -0.4004836 0.12922166 -0.31867495 0.11034211
0002f0 a2 b3 e3 bd fd 19 85 be d5 12 3a be b8 c3 c6 be
       -0.111182466 -0.2599639 -0.18171246 -0.38821197
000300 2f 1b 37 be 6e f0 05 3c 77 af 2a bc 0f 03 be 3c
       -0.17881463 0.008174999 -0.010417811 0.023194818
000310 93 34 89 3d 90 f7 0d bf 66 f9 25 3e 7b de 96 be
       0.06699481 -0.55455875 0.16208419 -0.29466614
000320 46 7d b7 3d 4a 68 e3 bd b4 89 45 be cb 7b b1 3d
       0.08959441 -0.11103876 -0.19290811 0.0866619
000330 58 d9 89 3d 3e 4a e0 bd af 00 bf 3d e1 75 94 3c
       0.06730908 -0.109516606 0.09326302 0.018122615
000340 fd 87 2f 3d 69 5b 3e be 9d e3 e5 3e e8 ac a2 3e
       0.042854298 -0.18589558 0.44900218 0.31772542
000350 6c 17 01 be 68 69 a5 3e 92 7a 0f 3e 91 49 c2 3d
       -0.12606591 0.3230698 0.140116 0.09486688
000360 76 cf 27 3e 26 b6 9f 3d 8e cb d0 bd 59 30 04 3e
       0.16387734 0.07798414 -0.10195075 0.12909068
000370 c2 d9 90 be 01 34 52 be 43 a3 7a be 12 4a 1d 3e
       -0.28291136 -0.2052765 -0.24476342 0.15360287
000380 3a 8d 87 3e 0a 8d ae 3e 8e 7b 5a be ac 44 08 3e
       0.26474935 0.3409198 -0.21336195 0.13307446
000390 1d a0 c3 3d 73 33 22 3e dc f6 26 bd 3c ce 08 3e
       0.095520236 0.15839939 -0.040762767 0.13359922
0003a0 ec ce d5 bd e3 99 f3 3c 0f af 12 3e 4f cb 85 bd
       -0.10439858 0.029736465 0.14324592 -0.06532919
0003b0 82 21 e3 3d f8 70 09 be 98 69 29 bd 9d 1c c2 bd
       0.110903755 -0.13422 -0.041360468 -0.09478114
0003c0 28 12 82 be ba 25 37 be 83 62 2f 3e 7e 6c 05 be
       -0.25404477 -0.17885485 0.17127423 -0.13029668
0003d0 6f 33 b9 be 96 4c af bc 16 f5 a1 3e 01 02 28 3e
       -0.36172053 -0.021398824 0.31632298 0.16407014
0003e0 70 3c 6a be c3 57 3f bd de dd ca 3e d7 78 61 be
       -0.22874618 -0.046714555 0.39622396 -0.22018753
0003f0 44 52 9f 3d 4d 39 55 bd b0 cf f0 bd a3 35 1c be
       0.07779363 -0.0520566 -0.11758363 -0.15254836

l2.weight f4 [300, 400]
000000 cf ac 72 bd a1 bc 06 3c f7 72 b9 bc 03 a5 57 bd
       -0.059246834 0.008223684 -0.022637827 -0.0526476
000010 05 d0 3f bd 8e 87 9a 3c ff 6e 28 3d 02 ad f6 3c
       -0.046829242 0.018863466 0.04112148 0.030111793
000020 12 cc 31 bb ae 97 a6 3c 83 7d 38 3c e0 c9 55 bb
       -0.0027129692 0.020335998 0.011260393 -0.0032621548
000030 4e 08 43 bd 43 a0 1f 3d 08 c6 27 bc b1 71 36 3c
       -0.04761534 0.038971197 -0.010240085 0.011135505
000040 32 f7 9e 3c 74 2d 58 bc b9 d1 5b bb 58 21 01 bd
       0.019404981 -0.013194431 -0.0033541752 -0.03152594
000050 12 cb 75 3c 49 50 35 bd 05 72 e0 3c e2 8b b1 3c
       0.015002029 -0.04426602 0.027398119 0.021673147
000060 c8 16 5c bc 7d 7a 3f bc ca 16 d4 bc 18 05 32 3c
       -0.013433166 -0.011686918 -0.025889773 0.010865472
000070 04 bf 24 3c f9 45 85 bd 3a 1a 2e bd d4 9c 20 bc
       0.010055307 -0.06507487 -0.04250548 -0.009803016
000080 8f 7f 42 bd 9f c5 6f 3c 67 22 3a bd d6 64 a0 bd
       -0.04748493 0.014634519 -0.045442965 -0.07831733
000090 56 68 cb 3c c1 da 4d bd 74 2e a8 3b 80 b6 90 ba
       0.024830025 -0.050257448 0.005132491 -0.0011040717
0000a0 f2 ca 9b 3c f9 aa 34 3d ff df bb bc 26 fb 39 bd
       0.01901767 0.044108365 -0.022933958 -0.04540553
0000b0 9c 67 67 3c cb d8 3e 3d 57 e7 9e bc df 7b ec bc
       0.0141238235 0.04659347 -0.01939742 -0.02886766
0000c0 5f 62 cc 39 c1 98 1e 3d d2 d7 86 bb 84 8c 45 bd
       0.00038983204 0.038719896 -0.0041150833 -0.04822971
0000d0 80 e4 df bb 6e 5c a2 3c 33 85 04 3d 3b 01 d4 3b
       -0.0068326592 0.019819465 0.03235359 0.0064698732
0000e0 47 57 d6 38 1d 8c 11 bd a3 20 39 bd 86 9b 92 bc
       0.00010220572 -0.035534013 -0.04519714 -0.017896425
0000f0 8c cb 3a bc ba b3 38 3b 14 1f 80 bb 94 f6 98 bc
       -0.011401068 0.0028183297 -0.003909955 -0.018672265
000100 0e b1 38 3c d1 a8 f2 3c a4 91 b4 bc 92 ff 1e bd
       0.011272682 0.029621514 -0.022042103 -0.03881795
000110 5b c6 01 3d 91 b6 c4 3b e3 36 5a bd 87 87 e3 bc
       0.031683307 0.006003209 -0.053275 -0.027774585
000120 9c e1 60 3c 42 ea 4c bd 41 8c 4e 3c 33 93 56 bd
       0.0137256645 -0.050028093 0.012606681 -0.052386474
000130 50 16 1c bd f5 d7 3e 3d 27 57 32 bd 54 37 69 3c
       -0.038107216 0.04659267 -0.043540146 0.014234383
000140 10 df da 3b e3 63 72 3c af df 3c bd 17 46 ad bc
       0.006679423 0.014794323 -0.04611176 -0.021151586
000150 97 9e 16 bd 8a bb dc 3c eb 75 cb bc 35 c9 19 3c
       -0.036772337 0.026944894 -0.024836501 0.00938635
000160 ee 0a 09 ba c9 f4 15 3d 6f 50 80 bd 98 36 a1 bc
       -0.0005227764 0.0366104 -0.062653415 -0.019679353
000170 d3 5e ec bc 61 e2 d6 3c ad 5a 3a bd 5d a9 2a bc
       -0.02885381 0.026230993 -0.04549663 -0.010416356
000180 2c d7 48 bd 0b bd 0e bd 73 de 3f bd 1e 6c 90 3c
       -0.04903333 -0.034848254 -0.046843003 0.01762968
000190 e9 bc 14 bd 21 e3 44 bc ba be 55 bc a3 bc 25 3d
       -0.03631297 -0.012017042 -0.013045961 0.0404631
0001a0 a8 7f ad b9 fb 46 aa 3c 01 c0 5e bc d2 e6 4e bb
       -0.00033092243 0.0207858 -0.013595582 -0.0031570685
0001b0 cc 74 46 bd d6 af 45 bd 08 d8 28 bd d7 03 33 ba
       -0.04845123 -0.048263393 -0.04122165 -0.000682888
0001c0 ef c6 8a 3c a9 86 00 bd d5 3a 2a bd 2f ad a8 bc
       0.016940562 -0.031378422 -0.041560013 -0.020590393
0001d0 12 ed bf 3b 2c a8 94 bc 01 01 46 3c 0a f0 d6 3c
       0.0058571184 -0.018146597 0.0120852 0.026237506
0001e0 74 51 ec 3b 46 54 15 bd bd 53 16 bc 9e 68 fd bc
       0.0072118584 -0.036457323 -0.009175238 -0.030933674
0001f0 5c 5f 67 bc 4a 84 41 bd d0 f5 5c bd 02 33 11 bd
       -0.014121857 -0.0472453 -0.053945363 -0.035449035
000200 d2 bd cf 3c e3 df 7b bd 32 e9 95 bb 21 f7 7b bc
       0.025359068 -0.061492812 -0.004574918 -0.015378744
000210 8c b1 0e 3d 20 69 9d bc 84 98 71 3c 67 b3 91 bd
       0.03483729 -0.019215167 0.014745835 -0.071142964
000220 58 3d 9f bc f8 e5 cc bc b3 50 5b bd d9 d8 12 3d
       -0.01943843 -0.025012001 -0.053543758 0.035851333
000230 7e b9 11 bd 1c cc 95 bc 92 36 09 3d d4 77 98 3c
       -0.03557729 -0.018285803 0.033499308 0.018611826
000240 b5 61 2e 3c 80 54 39 3c 80 2e b7 bc 52 1d b9 bc
       0.010643412 0.01131165 -0.02236104 -0.022596989
000250 5e dd 3f 3d b3 f8 49 bd be 61 8a bd fa 8e a4 3c
       0.04684197 -0.049309444 -0.06756924 0.020087708
000260 5b a6 aa bd 86 75 e7 3c 9c a9 1f 3d 4a cb f6 3c
       -0.08332511 0.028254282 0.03898011 0.030126233
000270 c3 0d f5 bc 89 f7 28 3d ef 7f 51 bd 58 98 fb bc
       -0.029913789 0.041251693 -0.051147398 -0.030712292
000280 b7 e5 05 bc 96 6e 03 3c 2b 55 42 bc 4e f0 b6 bc
       -0.008172444 0.008021971 -0.011861126 -0.022331383
000290 c6 73 8d 3c 60 3a 98 bd 73 c0 ef bc 5a d4 b8 3c
       0.01726712 -0.07433009 -0.029266572 0.022562195
0002a0 a0 df 6b bc bc 07 4f 3b 00 5b 27 3c be 1b 40 bd
       -0.014396578 0.0031590303 0.010214567 -0.046901457
0002b0 9a 30 8b 3c 32 9d 1a bd e8 a0 52 bd fb 1a 84 39
       0.016990948 -0.03774757 -0.051422983 0.00025197104
0002c0 52 22 fb bc 38 21 2a bc 80 d1 c2 3b b2 bf 99 3c
       -0.030656014 -0.0103838965 0.0059453845 0.018768165
0002d0 b4 a9 24 3c 1c 86 69 bb 47 c6 6b bd 4e 7d a7 3c
       0.010050226 -0.0035632914 -0.05756214 0.020445492
0002e0 74 3b d9 bc 68 c8 6d 3c e9 a7 43 bd 33 5c 22 3d
       -0.026517607 0.014513113 -0.047767553 0.03963871
0002f0 d6 e5 16 bc c6 27 af bd fb 5a f2 bc 9a e1 27 bd
       -0.009210071 -0.08552508 -0.029584398 -0.040986635
000300 e3 6e 4c bd 68 cf 81 bd 56 82 cb 3c b2 a2 ec 3c
       -0.049910437 -0.06338388 0.024842422 0.028886173
000310 a1 37 b2 3c d6 f8 e9 bc f1 ff 32 bc f3 2e 7c bd
       0.021755042 -0.028561037 -0.010925279 -0.06156821
000320 26 ff 2e bd 1b 61 e1 3c dd 4a ea 3a be 0a 25 bd
       -0.042723797 0.027512124 0.0017875094 -0.040293448
000330 77 01 52 3c ff e1 42 bd 31 41 88 bc a0 d0 1d bd
       0.012817732 -0.047578808 -0.016632648 -0.03852904
000340 92 a6 b9 3c f0 bb e2 bb 50 9c 03 bd 4c 85 38 bc
       0.022662435 -0.0069193766 -0.032131493 -0.011262249
000350 7d 16 3d bd 38 90 28 bb 2d a8 19 bd 43 b4 08 bd
       -0.046164025 -0.0025720727 -0.0375139 -0.033375036
000360 30 c9 e1 bc 2b 74 dd bc 8a d0 12 bd 90 63 2c 3d
       -0.027561754 -0.027032932 -0.03584341 0.042087138
000370 a2 0d f4 3c dd 9a a5 bc e6 fc f7 bc 14 06 5e bd
       0.029791657 -0.020215446 -0.030271959 -0.054205015
000380 9a 55 ac bc 02 9a d5 3c 5e f9 1c bd fc 0a 4f bd
       -0.021036912 0.026074413 -0.038323753 -0.050547585
000390 e0 be 1b 3c 04 0b d2 bc 18 7d 19 bd 30 f8 24 bb
       0.009505957 -0.025640018 -0.037472814 -0.0025172345
0003a0 e4 35 60 3c 08 cb 36 bd 91 f7 45 bd e0 70 03 bb
       0.0136847235 -0.04462722 -0.0483318 -0.0020056292
0003b0 30 cf 1d 3d 52 af d3 bc 96 37 bc 3c ec 5e 5d bc
       0.038527668 -0.025840435 0.022975724 -0.013511401
0003c0 94 7d 2f 3d f9 92 68 bc 46 61 43 bb 55 94 7f bd
       0.04284437 -0.014195197 -0.0029812618 -0.06239732
0003d0 9a a9 91 bd 7b 24 25 3d 52 42 31 bd 01 35 0e 3d
       -0.07112427 0.040317994 -0.04327614 0.034718517
0003e0 c0 eb ce 3a 6c 54 8d bc 83 bc 6f bd 76 32 f9 bc
       0.0015786812 -0.01725217 -0.05852939 -0.03041957
0003f0 2b 81 96 3c 65 3d 81 3c c5 14 67 bc 8b bb 2e 3d
       0.018372139 0.015776346 -0.014104073 0.042659324

l2.bias f4 [300]
000000 f6 2a 88 bd 1a 00 8f 3c f4 2b a0 bc ea 70 3f bd
       -0.06648819 0.017456103 -0.019552208 -0.046738543
000010 a9 f8 93 bd 72 7d e3 bc df 53 0a be 5e ae ba bd
       -0.072251625 -0.027769778 -0.13508557 -0.09115289
000020 1e b6 18 be 9b 26 94 3c 42 0d c1 bd 94 d5 55 bd
       -0.14913222 0.018084815 -0.09426357 -0.052205637
000030 0a 4e 34 3c d5 43 1d bd a9 89 ac bc dd 7c 80 bc
       0.011004934 -0.038394768 -0.021061735 -0.01568454
000040 21 fb 4c bd 32 40 97 bd 12 7d 8b 3c 26 02 53 3c
       -0.050044183 -0.07385291 0.017027412 0.01287893
000050 b0 48 2c bc 54 e6 31 bd 7c 9d d6 bc 84 49 de 3b
       -0.010515377 -0.04343255 -0.026198141 0.006783666
000060 17 52 88 bd 30 03 03 bc 9d c9 03 3f 19 ee 24 3e
       -0.066562824 -0.007996365 0.5147951 0.16106452
000070 f7 59 05 3c 1e 99 1a bd 1b ef fc bc 9f bc 03 bd
       0.008139125 -0.03774368 -0.030875733 -0.032162305
000080 a8 ee 0b 3f ef c2 10 3f 7c 59 08 bd 4f 0b 0f 3c
       0.54661036 0.56547445 -0.033288464 0.0087307235
000090 f0 38 31 bd 2b 71 48 bc aa af 2f bd 25 81 4c bd
       -0.04326719 -0.012234013 -0.042892136 -0.04992785
0000a0 09 a3 e5 3d 85 31 39 3e 76 f7 5a be 5c 36 b3 3d
       0.11212737 0.18085296 -0.21383461 0.087506026
0000b0 f7 8f b8 bd b4 4d 0c bd d4 00 4b bd fe 0b 8c bd
       -0.09011834 -0.03425379 -0.049561337 -0.06838225
0000c0 e7 8b 6f 3a de a7 90 bd 92 18 33 bd 39 6c 06 3e
       0.00091379735 -0.07063268 -0.043724604 0.13127221
0000d0 29 f6 08 3c 11 68 fc 3e 53 81 2a bc 84 11 5c 3c
       0.00835947 0.49298146 -0.01040681 0.01343191
0000e0 c2 08 a4 3d 05 64 7b bd c4 31 72 bd 9c ff 9e bd
       0.08009483 -0.061374683 -0.05912949 -0.07763597
0000f0 1a 3d 9b 3c 07 ab c3 3c 0d ad 06 bc a2 88 0f bd
       0.018950034 0.023885263 -0.008219969 -0.035042413
000100 73 d9 c1 3d db 72 56 3c 9a 92 13 3f 44 55 b4 3d
       0.09465303 0.013088907 0.5764557 0.088053256
000110 0d 4a 59 3e 7d 50 01 3f a7 ad a8 3c 82 2c 40 bc
       0.21219654 0.5051344 0.020590616 -0.0117293615
000120 2f 66 8d bd 50 df 41 bc 2e bb 25 3e 9d 0c 52 3c
       -0.069042556 -0.011833027 0.16184685 0.01282039
000130 f5 03 ef 3d d0 6a 0e bd 7b bf b3 bc 45 5e f3 3c
       0.116706766 -0.034769833 -0.021941891 0.029708037
000140 f6 c6 56 bd 83 17 f6 bc 99 f4 1b bd 59 c9 9d 3c
       -0.052435838 -0.030040508 -0.038075063 0.01926105
000150 45 00 a9 3b 6d 3f 99 bd 53 c3 c6 3b 14 59 87 3d
       0.005157503 -0.07482801 0.006065765 0.06608787
000160 4a f1 36 bd 55 07 61 bd 8e ba 3a 3b f6 d4 8a bd
       -0.044663705 -0.054938633 0.0028492543 -0.067789
000170 5b ac a9 3c 12 89 eb bc b9 31 30 bd ad f7 2e bd
       0.020712068 -0.028751884 -0.04301617 -0.04271667
000180 1b 53 19 bd 31 e2 48 3e 3c a1 5e bd 9c d7 95 bd
       -0.03743277 0.19617535 -0.054352984 -0.07316515
000190 2d 05 26 bc 4d 06 9f 3c eb ea 93 bd fa 03 80 bd
       -0.01013307 0.019412184 -0.072225414 -0.062507585
0001a0 ef 14 06 3f 0c 2b bb bd 1a e4 88 bd 31 ee 2d bc
       0.5237569 -0.0913907 -0.06684132 -0.010615871
0001b0 29 db 5c bd 65 cd a7 bd d9 d2 28 be 52 2f e0 bc
       -0.053919945 -0.08193473 -0.16486682 -0.027366314
0001c0 d4 73 d0 bb 6a a2 dc bc b4 0a 23 bd 54 b7 a1 bc
       -0.006361464 -0.026932914 -0.03980513 -0.019740738
0001d0 02 39 41 bd d1 11 ee 3e 59 91 32 bd e7 55 8f bd
       -0.047173508 0.46497968 -0.043595646 -0.069988064
0001e0 d8 9d 34 3e 64 6a 49 bd 2d 0c 44 bd 4e f6 51 3c
       0.17638338 -0.049173728 -0.047863174 0.012815071
0001f0 c7 9f 61 3e 42 31 10 bd 0c 7e de 3c d5 83 42 bd
       0.22033606 -0.035203226 0.027159713 -0.047489006
000200 af 0b ac bc d5 0f fc bc d0 6e 04 3f 60 53 f1 3e
       -0.021001665 -0.030769268 0.51731586 0.47133923
000210 c7 86 69 bd 29 f9 e3 3e d9 7f 7e 3e c4 2f 13 bd
       -0.0570133 0.44526032 0.24853458 -0.035934225
000220 73 0d dd bc c6 5a 90 bc b9 9f 2f bd 41 92 d8 3d
       -0.026983952 -0.01762141 -0.042876933 0.10574771
000230 33 d5 bf bc 81 97 c0 bd a1 32 cc 3c 83 bb ba bd
       -0.023417091 -0.09403897 0.024926485 -0.09117796
000240 28 46 e5 bd 89 c1 71 bd d6 28 de bb 47 73 99 bd
       -0.11195022 -0.05902246 -0.0067797704 -0.074926905
000250 24 19 ad 3e 5c 80 d4 3e 58 c4 01 3f 23 29 f9 bb
       0.33808243 0.4150418 0.5069022 -0.007603781
000260 29 ac 14 bd 5e 19 f4 3c af 52 41 bd 95 2a 87 bc
       -0.036296997 0.029797252 -0.047197994 -0.016499797
000270 6d 06 bc 3c 8c 41 99 bd 38 25 64 bd fe 1f c2 bd
       0.022952283 -0.07483205 -0.055699557 -0.09478758
000280 4f ce ec 3e 4b 96 33 bc 62 89 0e 3f 0c d9 39 3c
       0.4625115 -0.010961126 0.5567838 0.011343252
000290 c3 41 1f bc 54 7a a2 bd d1 50 fb bd 30 50 2c be
       -0.009720269 -0.079334885 -0.12271274 -0.16827464
0002a0 aa 96 15 bd d4 29 9c bc 6a 39 8e bd 43 99 0e 3f
       -0.036520638 -0.019062914 -0.069445446 0.5570261
0002b0 50 84 dc ba 5a 21 7e bb bf 69 9c 3c 22 06 d0 3e
       -0.00168241 -0.0038777203 0.019093392 0.4062968
0002c0 65 9e 06 3d 8e df 8d 3e d0 7d 07 3f 2b c9 ab 3d
       0.0328659 0.2770962 0.5292635 0.08387979
0002d0 59 ae 4b 3c 76 50 8a bd 37 06 71 bd 23 ed a3 bc
       0.012431704 -0.06753628 -0.058843818 -0.020010537
0002e0 c9 9d 07 bb 4b cd ee 3e b0 53 14 3f 23 c8 30 3e
       -0.0020693413 0.46641 0.57940197 0.17263846
0002f0 34 52 09 bd 2c b2 30 bd 44 1c 9a bc 81 f4 14 3d
       -0.03352566 -0.043138668 -0.018812306 0.03636599
000300 43 f9 1d bd 5a a1 c9 3c 16 e6 0c be de eb 62 3d
       -0.038567793 0.024613071 -0.13759646 0.05540072
000310 b8 f8 77 bd fa a1 df bc c2 20 e5 bc 14 7b df be
       -0.06053993 -0.027298916 -0.027969722 -0.4364859
000320 ec a3 e9 3c b2 4c f0 bb 6e 95 79 bd ba 92 c0 bc
       0.028520547 -0.0073333615 -0.060933523 -0.023507465
000330 61 ce 7f bd 18 2f 9d 3d 42 c2 be 3c 2e 24 87 bd
       -0.062452678 0.07674998 0.023285989 -0.065986976
000340 76 69 dc ba b6 fc 42 bc e6 75 91 3c e6 fa 04 bd
       -0.0016816098 -0.011901071 0.017756414 -0.032465838
000350 8e c0 1a 3d e6 a9 53 bd c9 34 2a bd 7d 7b 92 bd
       0.03778129 -0.0516757 -0.041554246 -0.0715246
000360 cb 40 82 bd e0 6f 15 3e 3e a2 43 ba 06 b8 a8 3e
       -0.063600145 0.14593458 -0.00074628356 0.329529
000370 c6 f8 12 3f 48 f2 4d bd b8 fb 53 bd 7e df 95 3c
       0.5741085 -0.050279886 -0.05175373 0.018295046
000380 66 d6 51 3c a8 6b cf bc ba 24 d3 bc 20 db 29 be
       0.012807464 -0.02531989 -0.025774349 -0.16587496
000390 dc f6 11 3e 03 6d e4 bc e8 32 16 3f 83 43 8e bd
       0.14254326 -0.027884012 0.58671427 -0.069464706
0003a0 7d bf f4 bc 51 e9 98 bd 20 5c df bc 51 b6 47 bc
       -0.029876465 -0.074663766 -0.027265608 -0.012189464
0003b0 50 53 09 bd 8e 63 61 bc f5 ee 69 bc c5 60 6b 3c
       -0.03352672 -0.013756646 -0.014278163 0.014366333
0003c0 3e b2 db 3e 2c 0b 91 bd c9 29 b7 bc 43 9d 63 bd
       0.42909425 -0.07082209 -0.022358792 -0.0555699
0003d0 50 b8 83 bd 7d a5 3e bd 86 78 fe 3e e4 01 02 3f
       -0.06431639 -0.04654454 0.49701327 0.50784135
0003e0 44 74 ba bd 4c 40 22 bc 82 63 6f bd 91 b9 14 bc
       -0.09104207 -0.009903025 -0.058444507 -0.009077446
0003f0 c8 06 e7 3d b7 a5 89 bd 36 a9 b0 3e 9b 23 76 3d
       0.1128059 -0.06721061 0.34504098 0.06009255

l3.weight f4 [1, 300]
000000 b9 0f 24 bc b2 d4 b1 3a 18 9c fa 3b 9c c6 bf 3c
       -0.010013514 0.0013567416 0.0076480024 0.023410134
000010 ee cc 13 3c 75 87 19 3d 2b 91 8e bb 08 f1 12 bd
       0.009021027 0.037482698 -0.0043508015 -0.035874397
000020 fc dc 6a 3b 1a 29 1b bc 6a fd 6a bc 61 b2 9d bb
       0.0035837283 -0.009470249 -0.014342645 -0.004812524
000030 81 ec 71 bc 3f 8b 17 3b 19 14 21 3d ea 7f 87 3c
       -0.01476586 0.0023123769 0.039325807 0.016540486
000040 b5 71 7c bb 1c 1b ca bc 72 d3 53 bc d8 2a bb be
       -0.0038519923 -0.02467113 -0.01292883 -0.36556125
000050 0d 80 e9 bc 45 1a c7 bc a0 11 57 ba 01 42 57 be
       -0.028503442 -0.024304518 -0.00082042255 -0.21021272
000060 52 3e fb 3c 55 af 22 3c 89 ba 69 be 4a 96 4e 3e
       0.030669365 0.009929498 -0.22825064 0.20174518
000070 01 f3 06 3c 50 56 85 bc 65 81 84 bc 0b f3 32 3b
       0.008236648 -0.016276509 -0.016174981 0.002730551
000080 d6 e6 9d be 22 a1 32 be ae a8 61 3c 91 c9 d9 3c
       -0.30840176 -0.1744428 0.0137731265 0.026585372
000090 f1 fe 3e bd 4b a6 08 bd 20 ff ea bc 3d 98 6a 3c
       -0.04662985 -0.033361714 -0.028686106 0.014318523
0000a0 94 d6 ac 3d 45 33 69 3e c6 f0 99 3e de 3e 32 be
       0.08439365 0.22773464 0.30066508 -0.17406794
0000b0 6c 9a 2a 3d df 73 3f 3d 45 a8 b4 bc bf 36 e9 3c
       0.041651174 0.046741363 -0.022052893 0.028468488
0000c0 f7 36 f5 bc 44 dc 49 bd 68 7f f0 3b e7 5f 09 bf
       -0.029933436 -0.049282327 0.0073394068 -0.5366196
0000d0 42 a8 b8 3c bc f0 98 be c2 2e cf 3c c1 af b3 be
       0.02254117 -0.29871166 0.02529085 -0.35095027
0000e0 b8 03 fe 3d a2 ba 3d bc f1 92 f0 bb 2a c5 7c b9
       0.12403053 -0.011580141 -0.0073417355 -0.00024106042
0000f0 13 58 3f 3d a6 c7 22 3d 6a d1 f7 ba a6 ab 7c 3c
       0.046714853 0.03974118 -0.0018907015 0.015421784
000100 5e c8 54 3e dd 05 19 bc 3f 06 80 be f7 dd 16 3e
       0.20779559 -0.009339777 -0.25004765 0.1473311
000110 75 23 a1 3e b1 10 4a be db b5 6c ba 08 74 8f bc
       0.31472364 -0.1973293 -0.0009029784 -0.017511383
000120 9f ba eb bb 07 b6 ad bc 8f 16 13 bf dc a0 21 be
       -0.007193878 -0.021204961 -0.57456297 -0.15784019
000130 2d e5 1c 3e 8a e0 cd 3c 83 2f 0d bd 69 9e e2 bb
       0.15321799 0.025131483 -0.03446914 -0.0069158566
000140 18 b3 3b bc 1c ab 16 bd 96 9f b4 3c de cf 49 bc
       -0.0114562735 -0.036784276 0.022048753 -0.012317626
000150 8e 2f 22 bb ba de 09 3d c4 1a d0 bc e2 7e 72 be
       -0.0024747583 0.033659674 -0.025403388 -0.23681214
000160 5f 44 b5 3c 7d a5 90 bb bd 83 bf 3c 5a 2a 87 bc
       0.022127328 -0.004414259 0.023378247 -0.016499687
000170 46 9f 0e bd f5 85 43 3b 5d 1e d7 39 bd 70 31 3c
       -0.034819864 0.0029834483 0.00041030618 0.010830102
000180 5d 8a e9 3c 5e 0f 6e be ab f8 c1 3c 7e 12 33 3c
       0.02850836 -0.2324805 0.023678144 0.010929702
000190 d0 d9 2e 3c 66 2d 17 bb c2 cc bd bc d9 54 0a 3d
       0.010672048 -0.002306783 -0.023168925 0.033772323
0001a0 2f 7c bd be fa 83 3a bb a1 ae 04 bb 4c 6f 8c bb
       -0.37008807 -0.0028460012 -0.0020245689 -0.0042857286
0001b0 81 0f 45 3c 17 a6 86 bc e5 82 c1 bb c6 11 1e 3b
       0.012027622 -0.01643662 -0.0059054964 0.002411948
0001c0 3e 27 52 3c e8 5e d4 b9 27 38 a2 3c e1 00 1d bb
       0.012826739 -0.00040506502 0.019802166 -0.0023956823
0001d0 43 5b 90 bc 61 56 e7 bd ae d7 0f 3c 06 7d 1a bc
       -0.017621642 -0.11295772 0.008779449 -0.009429222
0001e0 f6 ad 88 be 51 87 48 bc b7 a2 81 bc 99 a6 f8 bc
       -0.26695222 -0.012239293 -0.015824659 -0.030352877
0001f0 ca 43 c3 be 27 b5 69 3c 47 96 67 be 87 a8 0c 3a
       -0.38137656 0.0142643815 -0.2261592 0.00053656887
000200 9a 21 3c bc 77 62 b6 bc 18 8e 27 be 42 d2 64 be
       -0.011482621 -0.022263749 -0.16362798 -0.22345832
000210 4c b1 a6 3c 06 ba 8e be 81 66 9c be df 94 d3 3b
       0.020348214 -0.278763 -0.30546954 0.006456956
000220 a2 9b f9 bc b2 c6 b8 3a 16 29 26 3b 9a b2 15 be
       -0.03046972 0.0014097302 0.002535408 -0.14618912
000230 6b 11 6a 3c a3 58 d1 3c 59 51 15 3d eb 39 9d 3c
       0.014286379 0.02555496 0.036454532 0.019192657
000240 d6 f7 ed 3c 24 0a 93 39 97 6d f7 3c 5c 22 af bc
       0.029048841 0.0002804558 0.030203624 -0.021378689
000250 e1 ca 2b be ef 53 4d be 24 82 ed bd d0 73 89 bc
       -0.16776611 -0.2005155 -0.11597088 -0.016778857
000260 0e f3 1f 3b 21 05 91 3c d4 be e8 bc 71 8a 4d bc
       0.0024406346 0.017702641 -0.028411306 -0.012545214
000270 02 58 de ba f2 f4 8f bc 09 f4 86 3c 76 89 43 3a
       -0.0016963484 -0.017572854 0.016473787 0.0007459143
000280 a3 97 23 be 97 e3 b1 bb fa 01 68 be 81 83 6e bc
       -0.15975814 -0.005428742 -0.22657004 -0.01455772
000290 72 74 b1 bc 54 df 8a 3c f6 53 67 3d ae 48 9f 3b
       -0.02166197 0.016952194 0.056476556 0.004860959
0002a0 1d e5 89 bb 45 d3 dd 3c dc 7d aa bc 0b d2 93 be
       -0.0042082206 0.02707828 -0.020811968 -0.28871188
0002b0 da 28 71 3d 3a de 46 3c e9 d4 ec bc ea 96 2a bd
       0.05887685 0.012137944 -0.028910117 -0.04164783
0002c0 e3 25 9a 3b 54 bb 56 be b2 d8 5a be 5e 5a e6 be
       0.0047042235 -0.20969898 -0.21371725 -0.4499082
0002d0 ae 45 02 bd 80 fe f1 3c 5c e8 6a 3b b1 11 e0 bc
       -0.031804733 0.0295403 0.0035844063 -0.027352186
0002e0 d7 5d bd 3c 48 f7 8f be 31 3b 9b be f4 51 08 bf
       0.023116035 -0.28118348 -0.30318597 -0.5325005
0002f0 ba 08 df 3b b4 c4 03 3d 12 4f ea bc d8 bf 20 bd
       0.00680646 0.032170013 -0.028602157 -0.039245456
000300 ce 8f b6 3c 83 9e a5 bb ad 25 e1 ba 4b 5c 09 be
       0.022285368 -0.0050542965 -0.0017177366 -0.13414113
000310 a3 27 7a 3c da b5 a1 ba fc 0c 72 3c df 66 a2 3e
       0.015268239 -0.0012337521 0.0147736035 0.3171911
000320 a4 18 40 bc 58 35 cc bc 79 6e ca bb b7 7e 3e bc
       -0.011724625 -0.02492778 -0.00617772 -0.011626891
000330 62 ff 0b 3c 2f 0e 83 be 67 ef 82 3c 7e 0d 8c 3b
       0.008544775 -0.2559676 0.015983297 0.0042740693
000340 67 65 2e bc ce a5 38 bb c0 4d 17 ba 6a 32 92 bc
       -0.010644293 -0.0028175 -0.00057717785 -0.017846305
000350 72 4b f9 bb 29 4f c7 3c 15 07 95 bc 66 4d a0 3c
       -0.0076078707 0.024329739 -0.018191854 0.019568156
000360 fd 44 20 bd 05 6d 8b be 3d 1e 2d 3c aa e9 4f be
       -0.039128292 -0.27231613 0.010566291 -0.2030398
000370 d1 ae 97 be 3c 69 8b 3c 90 b1 8a bc 9d cb 1c bd
       -0.29625562 0.017017953 -0.016930372 -0.03828012
000380 33 21 18 be 2b 46 c9 bc d7 b5 50 3b 29 16 98 3e
       -0.14856414 -0.024569592 0.0031846666 0.29704407
000390 9e 5d 0f 3e 0f aa f5 bc 54 cf 5b be 7f 2e 7a 3b
       0.14000556 -0.029988317 -0.21465808 0.0038174686
0003a0 6e e4 c7 3c 08 c0 36 bc 06 a1 a3 3c 8f a9 a5 bc
       0.024400916 -0.011154182 0.019974243 -0.020222453
0003b0 59 7e a6 3c a0 8d 87 bb 6f dd c5 3c ec 72 26 bd
       0.02032392 -0.004136756 0.02415344 -0.04063694
0003c0 ba 75 95 be f9 98 14 3d 6f 44 e7 b9 27 4e 02 3c
       -0.2919138 0.0362787 -0.0004411074 0.007953203
0003d0 c3 55 b8 3c a5 49 44 bc 36 4a 83 be e6 e7 7b be
       0.022501832 -0.011980449 -0.25642556 -0.24600181
0003e0 61 f2 be 3c a0 4f cc bc a2 b8 30 3a 55 66 bb bb
       0.023308935 -0.024940312 0.00067413796 -0.005718986
0003f0 19 d9 00 bf 82 60 ed bb a9 fe d8 bd eb 27 29 be
       -0.50331265 -0.0072441706 -0.105954476 -0.16519134
