models/BipedalWalkerHardcore/critic.pth (torch, 530647 bytes, 5 tensors)

l1.weight f4 [400, 28]
000000 ef 62 e7 bf c7 8d d1 c0 cc 4d 02 3f 7f 06 ae be
       -1.8077067 -6.548557 0.5089996 -0.3398933
000010 8c 9d ee bd 4e 0f 7f 3c eb 49 f4 3b 9a f2 c7 bc
       -0.116511434 0.015567614 0.007455101 -0.024407674
000020 05 41 57 bd 33 d6 06 c0 52 df 02 bf 9a b2 74 bf
       -0.05255224 -2.1068237 -0.5112201 -0.95585024
000030 e4 a3 9e be 03 04 4f 3d 17 a0 36 3f 25 3a b7 be
       -0.30984414 0.050540935 0.7133803 -0.35786548
000040 b1 98 01 bf 3d b1 3d bf 46 c0 b8 be 93 e4 9f 3e
       -0.50623614 -0.7409857 -0.36084193 0.31229076
000050 d0 61 21 3f 72 f9 35 3f 56 03 6c 3e 6f 6b 59 be
       0.63039875 0.7108375 0.23048148 -0.21232389
000060 48 15 06 3e 35 b4 0f bd 66 ad 8a bd b4 59 9a bd
       0.13094056 -0.03508397 -0.067713544 -0.07536641
000070 34 9c 86 3e de 25 50 3f 3b 31 bc bf e0 fa 3d 3f
       0.2629105 0.8130778 -1.4702524 0.7421093
000080 5f 4a e3 3e 8b 7b 89 be a0 da d2 3e 6a 14 0b bf
       0.44392678 -0.26852068 0.41182423 -0.54328024
000090 e6 aa 4b bf 0f 2e b4 3e 86 97 c6 3e 4e b7 20 bf
       -0.79557645 0.3519139 0.38787478 -0.627797
0000a0 e0 71 7b bd 0d 10 b7 be a4 cf 33 bf 55 ea 29 bf
       -0.061387897 -0.35754433 -0.7023871 -0.6637319
0000b0 4f 05 4f bf 17 82 84 bf 03 60 82 bf dc 64 2a bf
       -0.80867475 -1.03522 -1.018555 -0.6656015
0000c0 27 a5 75 bf ac 20 20 bf a4 56 3a bf 15 a3 ae be
       -0.9595513 -0.62549853 -0.72788453 -0.34108797
0000d0 07 29 d2 bd 46 71 db 3d f5 42 9b 3e d4 04 93 3c
       -0.102617316 0.107149646 0.30324522 0.017946638
0000e0 d5 f8 11 40 ef b3 12 40 53 5f 90 bf 33 88 ab bf
       2.2808125 2.2922323 -1.1279091 -1.340094
0000f0 02 77 4b bf 58 3f 8b 3d 74 1b df 3d ed c1 3b 3e
       -0.79478467 0.06799191 0.10893908 0.18335696
000100 42 01 3c bd 7a 8a c4 3e a0 f3 b9 be 0e 0d 4e 3e
       -0.045899637 0.383869 -0.36318684 0.20122167
000110 d2 14 5c 3e cc 19 15 3f 26 a5 8b 3e 16 2d 64 3f
       0.21492317 0.5824249 0.27274436 0.89131296
000120 27 65 97 3f 2c 86 71 3f 01 9d 98 3e 06 93 7c 3e
       1.1827744 0.94345355 0.29807284 0.2466546
000130 c5 11 5e bf a1 4f cd bf a7 c0 28 c0 58 05 79 bf
       -0.86745864 -1.6039926 -2.6367586 -0.9727378
000140 5d a9 5b 3d e4 3e ff 3d 94 e8 12 3e e1 b6 fe bc
       0.053628314 0.12463167 0.14346534 -0.031093063
000150 d5 d7 60 3c 19 fe 35 41 28 4d 20 c0 01 81 06 40
       0.013723333 11.374536 -2.5047092 2.1016238
000160 ff 7b 3a bd 0d 16 bf 3d 09 ed bc 3d a2 1e 69 3e
       -0.04552841 0.09330378 0.09224898 0.22765592
000170 d2 99 79 bd 5d 24 5b be a0 dc 01 3f 29 90 a7 bf
       -0.06093771 -0.2140059 0.5072727 -1.3090869
000180 b1 02 84 be 07 06 68 bf be 32 d8 3e bb 7c 75 3f
       -0.25783303 -0.90634197 0.42226213 0.9589345
000190 c6 c5 ba 3f 88 78 43 3f 44 f7 21 3f 83 74 46 3e
       1.4591606 0.7635579 0.6326792 0.19380383
0001a0 5a 0b b3 3e c3 84 7a 3e 7a f3 65 3e 94 fb 59 bf
       0.34969598 0.24464707 0.2245616 -0.851495
0001b0 d7 eb 9c bd c0 81 08 bd b2 dd 30 3e 71 d7 1d bc
       -0.076621704 -0.033326864 0.1727207 -0.009633885
0001c0 40 ab 1c c0 37 43 4d c0 b6 6b a4 3f 98 ef 97 bd
       -2.4479523 -3.2072275 1.2845371 -0.07418746
0001d0 f4 ae 60 3e 9e f5 16 be db 7b ba be e4 95 44 bb
       0.2194174 -0.14742133 -0.3642262 -0.0029996568
0001e0 64 1a d3 bd 57 04 10 3e 17 4d 63 3d 2d a0 ca 3e
       -0.10307768 0.14064156 0.05549344 0.3957533
0001f0 ec d3 d6 bc e1 f0 2a be 3f 56 c0 be 93 0f 30 3e
       -0.0262241 -0.1669345 -0.375658 0.17193441
000200 54 9d 73 3f 30 1b 30 3f ef ca d1 3d af 36 1b bf
       0.9516194 0.68791485 0.10243785 -0.60630316
000210 62 4a 84 bf b6 17 09 bf 0a 2a 4d 3e 2f bf 2b be
       -1.03352 -0.53551805 0.20035568 -0.1677215
000220 dc 61 00 3d 1c 7a 49 bc a8 dd b9 3d 3b 0b c6 3c
       0.031343326 -0.01229718 0.09075481 0.024175277
000230 ef 97 a3 bf b4 0a 06 40 77 53 49 40 d2 3c 0a c0
       -1.2780741 2.0944033 3.1457193 -2.1599622
000240 f5 35 bc bd 51 85 83 bf d0 fb 09 c0 5e f1 2f 3f
       -0.09189979 -1.027506 -2.1559944 0.6872767
000250 03 9f 5d 3f c6 f2 57 3d 1b 5e 05 3f 9c c8 36 3f
       0.8657076 0.05272176 0.5209672 0.71399856
000260 7c 59 64 be b9 4d 09 bf 5e 09 7b 3f 54 bd 1d 3e
       -0.2229976 -0.5363422 0.9806117 0.15404254
000270 df c3 2d bf 23 77 86 bf a7 f4 6a bf 53 03 6c bf
       -0.67877 -1.0505108 -0.9177956 -0.9219257
000280 e5 d4 59 bf 88 62 a7 be ad c6 63 bf e3 88 9b bf
       -0.85090476 -0.3269236 -0.8897503 -1.215115
000290 86 ff a7 3c 1f 35 9f 3e 94 b9 ac 3e 81 99 31 be
       0.020507585 0.31095216 0.33735335 -0.17343713
0002a0 e5 32 ab 3f 01 c8 1c bf e6 9f 8d bf db e2 8a bc
       1.3374907 -0.6124268 -1.1064422 -0.016953876
0002b0 26 c9 65 bf 63 75 fa be 01 0a 71 3f 80 c6 68 be
       -0.89760053 -0.48917684 0.9415589 -0.22731972
0002c0 a5 a6 35 3f 11 ad 04 3f 1e 3f 9d 3e 8b f4 e5 3e
       0.70957404 0.5182658 0.30712217 0.44913134
0002d0 36 c3 5f 3f de 3c 3f bf 4d 1a 11 bf e2 82 8e be
       0.87407243 -0.7470225 -0.56680757 -0.2783423
0002e0 39 92 7b be 79 a1 93 3e b8 ac c5 be 63 43 6d bf
       -0.24567498 0.2883413 -0.38608336 -0.9268095
0002f0 91 97 81 bf 2f a5 a2 bf 26 45 82 bf 46 4a cb be
       -1.0124379 -1.270666 -1.0177352 -0.39705104
000300 2c 37 14 3f 49 9b 8e be 71 c0 38 3f 71 9f 54 be
       0.57896686 -0.27852848 0.7216864 -0.20763947
000310 f6 d7 f8 bf 4b 1f 8e c0 35 17 5e 3f 37 0c 30 c0
       -1.9440906 -4.44132 0.8675416 -2.7507455
000320 3e 62 13 c0 16 9d dd be b7 a9 d6 be 4c 8d 91 be
       -2.3028712 -0.4328391 -0.41926357 -0.28428113
000330 5d b3 9a be f2 59 51 bf af 78 06 be 57 97 2c 3f
       -0.30214968 -0.8177787 -0.13131975 0.67418426
000340 d8 de d5 bc 60 41 65 bf f4 ce 91 be 10 7c 16 3f
       -0.026107237 -0.8955288 -0.28478205 0.58783054
000350 74 bc 96 3f af 60 e6 3f 08 0f ad 3f 0e b7 4e 3f
       1.1776261 1.7998255 1.3520212 0.8074807
000360 c3 39 b4 be 04 b7 86 bf 48 21 93 bf 32 d7 14 bf
       -0.3520032 -1.0524602 -1.1494532 -0.5814086
000370 d0 ab 0c bd 0b 5b 9e 3d 6c 19 f3 bb 13 fa d7 bd
       -0.03434354 0.07732209 -0.007418802 -0.10545745
000380 33 03 b4 bf e1 8a ca c0 df 15 1c 40 23 60 01 40
       -1.4063476 -6.329453 2.438835 2.0214927
000390 e8 d2 e9 be 2c 5f f1 bd fc fd 6c be 02 6c 3d bc
       -0.4566872 -0.11785731 -0.23143762 -0.011561396
0003a0 6f a2 7d 3e 9f 80 02 bf 40 68 89 be 48 7b aa be
       0.24768995 -0.5097751 -0.2683735 -0.3329718
0003b0 64 2a e8 bd 08 c8 1b 3e d0 41 8a 3f cb 1c 67 3f
       -0.1133621 0.15213025 1.0801334 0.9027831
0003c0 e4 29 73 3f 30 94 de be 8d 73 a4 be c3 e7 7d be
       0.94985795 -0.43472433 -0.32119408 -0.24795441
0003d0 10 61 5a be 87 b2 fa 3c 5b 66 fd 3d 7e 35 32 3d
       -0.21326089 0.030602707 0.123730384 0.043508045
0003e0 ea 1a dd 3c 6c 7b 13 3d 9f be d3 bc 6b fa 54 3d
       0.026990373 0.036006376 -0.025847731 0.05199663
0003f0 5e d9 48 be 65 3b ff be 66 f1 e7 3d b3 6e 0f 3f
       -0.19614169 -0.49850002 0.1132534 0.5602829

l1.bias f4 [400]
000000 c0 60 94 3e 8e 9a af be bf 82 6f bc 0d 52 8b bf
       0.28980064 -0.34297603 -0.014618575 -1.0884415
000010 ae a4 8d 3f 36 46 18 bf 84 6b 06 bf 89 81 db bf
       1.1065881 -0.59482133 -0.52507806 -1.7148906
000020 27 ca e8 bf 19 24 0b bf 41 a7 77 3e a3 46 9f 3f
       -1.8186692 -0.54351956 0.24184896 1.2443432
000030 03 08 44 3f 91 e8 95 be 2f 58 b2 be 4c f8 b6 be
       0.76574725 -0.29278997 -0.34832904 -0.3573631
000040 43 af 3f bf 19 34 bc bf 91 5a 01 c0 2e be 67 3e
       -0.74876803 -1.4703399 -2.0211527 0.22631142
000050 8b 3a 70 bf fc 18 3d 3d f1 af 49 bf f7 ae ff be
       -0.9383933 0.046166405 -0.7878409 -0.49938175
000060 95 06 f3 bd 31 78 e3 bd d5 80 ec bd 68 08 36 be
       -0.1186649 -0.11106909 -0.1154801 -0.17776644
000070 75 22 0f c0 f1 96 c5 bf fc 44 c0 be af 4c f7 be
       -2.236478 -1.5436689 -0.3755263 -0.48300692
000080 18 77 9b bf 49 58 bc bf 28 e5 70 3f a0 fe 20 3f
       -1.214572 -1.4714442 0.94099665 0.62888527
000090 8c 0d 30 be 22 52 86 be 1d f5 2a 3d a7 03 99 bd
       -0.17192668 -0.26234537 0.041737664 -0.074714
0000a0 8e e3 c6 be 8c bc c4 bf 4d 18 89 be 47 09 00 bf
       -0.38845485 -1.537004 -0.26776353 -0.50014156
0000b0 91 81 01 3c f9 b3 45 3e fa 59 5e be 29 08 bc 3f
       0.007904426 0.19306935 -0.21714011 1.468999
0000c0 e5 63 cd 3f bb 89 3c bf 7c c0 0e be 2f a8 66 be
       1.604611 -0.7364766 -0.13940614 -0.22525094
0000d0 a3 52 2e 3f fb a2 6a bf f6 68 1d be d2 0c 99 be
       0.68094844 -0.9165494 -0.1537207 -0.29892594
0000e0 b0 e4 d2 bf c0 03 de be 5f 4f ce 3f cb 3e 06 3f
       -1.647604 -0.43362236 1.6117972 0.52439564
0000f0 f0 95 af be 24 5d 43 bf fa ad a4 bd c1 d3 71 3e
       -0.3429408 -0.76313996 -0.08040996 0.23615934
000100 18 75 a4 bf 05 02 e1 bf 4e c7 85 be f4 5b ba be
       -1.2848234 -1.7578741 -0.2612862 -0.3639828
000110 92 42 c7 be 8a e1 83 bf d3 09 40 bf db 28 9f 3f
       -0.38917977 -1.0303204 -0.7501499 1.2434343
000120 79 e9 d2 be 51 69 4f bd 3a df f7 bd a0 a9 90 bf
       -0.4119375 -0.050637547 -0.12103124 -1.1301765
000130 e5 23 86 3f 74 47 b1 bf 76 3d d8 3d bd d5 33 be
       1.0479704 -1.3849931 0.10558598 -0.17562003
000140 3c 08 e4 be 48 40 0f 3f 61 ba a7 bf 22 cb 6f bc
       -0.44537532 0.5595746 -1.3103753 -0.014635833
000150 7a c9 96 be 5a 8f cd be ae 0e e6 be d2 8e b3 3c
       -0.2945059 -0.4014843 -0.44933075 0.021918688
000160 d0 4c 2f bf 61 dd 2c bf 58 8c bd bf 6d 3c 4b bf
       -0.6847658 -0.675253 -1.4808455 -0.7938908
000170 88 15 f7 be 4f 4d 1c 3c 34 bf 98 bd b0 ff 5a be
       -0.48258615 0.009539916 -0.07458344 -0.213866
000180 3d 55 12 bf 5c aa 8c bf d8 2b 81 bf 39 bd 38 bf
       -0.57161313 -1.098949 -1.0091505 -0.7216373
000190 3d 5e 77 bf 90 30 67 3f 27 08 a9 be b0 ed 75 3f
       -0.9662817 0.90308475 -0.33014032 0.9606581
0001a0 42 88 1e bf 87 59 81 be 26 c5 55 3f 2c b0 7d be
       -0.6192666 -0.25263616 0.8350395 -0.24774235
0001b0 7d 6f d3 3d e7 3c 03 bb 45 64 bd be 26 1a 53 3f
       0.10323999 -0.0020025314 -0.36990562 0.82461774
0001c0 2a 74 61 3f 1c 7c 4f bf 39 f5 ba be 74 0c ff 3e
       0.8806788 -0.8104875 -0.36515215 0.49814188
0001d0 10 ef 8f 3d ac f1 e8 be d8 3d 9f 3c b3 60 b1 be
       0.070280194 -0.4549688 0.01943867 -0.34644088
0001e0 a5 a9 b1 bd ae af a3 be bc ed 04 3e 95 c3 d9 3e
       -0.08674935 -0.3196997 0.12981313 0.4253203
0001f0 ed 07 bc 3e 58 da 01 bf 23 b1 e5 bf 16 ad 9a 3e
       0.36724797 -0.5072379 -1.7944683 0.3021018
000200 2d 18 7d bf 2d a8 8c be 03 63 23 3d 2e 44 a0 bd
       -0.98865014 -0.27472058 0.039889347 -0.07825504
000210 40 30 07 bf dc e6 0e bf a7 f9 2e bf a3 9a f4 be
       -0.52808 -0.55821013 -0.6834969 -0.47774228
000220 6d d5 03 bd 36 5e 17 bf 01 ba 06 be 21 b9 78 bd
       -0.03218596 -0.5912813 -0.13156892 -0.060723428
000230 20 32 d8 be 9d 5b ef be 26 0f 56 3f 29 c8 88 be
       -0.42225742 -0.46749583 0.83616865 -0.2671521
000240 d0 69 03 be 95 95 09 be b2 ac db be 4a 13 6d 3d
       -0.12833333 -0.13435967 -0.42905194 0.057879724
000250 b2 f0 11 3f e1 48 12 3f 34 cc 84 bf e8 37 79 be
       0.57007897 0.57142454 -1.0374818 -0.24337733
000260 db 8e 33 bf c8 90 03 3f ab ed de bd 89 c4 a4 bf
       -0.70139855 0.51392794 -0.10885175 -1.2872478
000270 b7 30 53 be a5 87 a5 be a8 08 14 be 76 c8 2e bf
       -0.20624052 -0.3233005 -0.14456427 -0.6827463
000280 1b 90 9e be 98 cb 98 bf cb 33 1e 3f e8 3b 1c 3f
       -0.3096932 -1.1937132 0.6179778 0.6102891
000290 c5 1c 35 bf 39 c7 b6 3f 77 ce 0a 3f aa 82 d0 be
       -0.70747024 1.4279548 0.5422129 -0.4072469
0002a0 1f aa 54 bf a8 d1 fa 3f 6c 90 1c be 7c 34 c2 3f
       -0.83072084 1.9595232 -0.15289468 1.5172267
0002b0 85 00 16 bf 38 ed 2d 3e 0e 75 c9 3d a6 c0 6b 3f
       -0.5859454 0.16985023 0.098367795 0.92090833
0002c0 e7 32 06 3f 87 1e 7e 3c 3c af 8b bf 9b 3f 94 bf
       0.5242142 0.015510208 -1.0912852 -1.1581911
0002d0 c4 ae a6 bd df 38 10 bf 83 df 3b bf 2f ca 09 bf
       -0.08138803 -0.5633678 -0.73387927 -0.5382413
0002e0 3a 3f 44 bf 98 af a0 be b0 79 96 bf 4f fb 39 3f
       -0.76658976 -0.31383967 -1.1755886 0.7264909
0002f0 d0 c1 62 bf 57 95 d1 be 1f 84 1a bf e3 d2 51 bf
       -0.88576984 -0.4093425 -0.6035785 -0.8196241
000300 5e fb 7d be 1e 2b b8 3d 5e a0 73 be e5 b0 68 3e
       -0.2480292 0.08992599 -0.23791644 0.2272373
000310 6a 38 71 3e 38 01 1f bf 44 10 e5 bd 48 e7 ba bf
       0.23556677 -0.62111235 -0.11184743 -1.4601831
000320 92 81 9a 3f d0 a2 0c bf 5a f7 1a bf 87 f2 39 3f
       1.2070792 -0.5493593 -0.6053368 0.7263569
000330 d4 d6 94 be 46 ee a7 bf c3 c4 18 bf 62 35 04 bf
       -0.2907015 -1.311959 -0.59675235 -0.51643956
000340 2f 6c fb bd 96 6b 69 3f ec 81 f8 3f a0 20 cd 3f
       -0.12276494 0.9117979 1.9414649 1.6025581
000350 aa 3f 0e bf a6 3f 5d 3f 34 bb 03 3f 47 fd d0 3e
       -0.55565894 0.86425245 0.51457524 0.40818235
000360 19 aa a0 3f 18 d5 b5 3e ac 92 35 bf 56 e1 0d be
       1.255191 0.3551414 -0.7092693 -0.1385549
000370 af 9c 9d bf 72 92 7a bf aa 4d f7 be 3a 03 7c 3e
       -1.2313441 -0.9787971 -0.4830144 0.24610606
000380 07 38 05 be a1 a1 d6 be cf 66 b8 bf 39 c2 c9 3e
       -0.13009654 -0.41920188 -1.4406375 0.39405993
000390 e7 98 8b bf 00 2b 4f 3f 20 d9 fb be 7b e9 ad bf
       -1.0906037 0.8092499 -0.4918909 -1.3586878
0003a0 6c 06 fe be 0b 83 0b bf ab 3f a4 3f b3 2f 46 bd
       -0.49614275 -0.5449683 1.283193 -0.048385333
0003b0 e8 a3 e3 be aa 99 fd be da 70 ee bf d0 bc 7f be
       -0.44460988 -0.495313 -1.862819 -0.2497437
0003c0 1a a7 9a bf e5 c2 dc bd a2 98 9e be 4e 39 99 3e
       -1.2082245 -0.10779361 -0.30975825 0.29926533
0003d0 6d d5 80 bf c1 25 08 bf d6 e4 a5 3f 3f 20 7f bd
       -1.0065132 -0.5318261 1.296046 -0.06228661
0003e0 9a e4 a5 be 83 e2 ba 3e 06 c4 05 40 34 a1 22 bf
       -0.32400972 0.3650094 2.0900893 -0.63527226
0003f0 56 62 75 3d 7a ef 7b be be 58 3d bf 9a 9a 4b bf
       0.059908234 -0.24603072 -0.73963535 -0.7953278

l2.weight f4 [300, 400]
000000 cf ac 72 bd a1 bc 06 3c f7 72 b9 bc 03 a5 57 bd
       -0.059246834 0.008223684 -0.022637827 -0.0526476
000010 05 d0 3f bd 8e 87 9a 3c ff 6e 28 3d 02 ad f6 3c
       -0.046829242 0.018863466 0.04112148 0.030111793
000020 12 cc 31 bb ae 97 a6 3c 83 7d 38 3c e0 c9 55 bb
       -0.0027129692 0.020335998 0.011260393 -0.0032621548
000030 4e 08 43 bd 43 a0 1f 3d 08 c6 27 bc b1 71 36 3c
       -0.04761534 0.038971197 -0.010240085 0.011135505
000040 32 f7 9e 3c 74 2d 58 bc b9 d1 5b bb 58 21 01 bd
       0.019404981 -0.013194431 -0.0033541752 -0.03152594
000050 12 cb 75 3c 49 50 35 bd 05 72 e0 3c e2 8b b1 3c
       0.015002029 -0.04426602 0.027398119 0.021673147
000060 c8 16 5c bc 7d 7a 3f bc ca 16 d4 bc 18 05 32 3c
       -0.013433166 -0.011686918 -0.025889773 0.010865472
000070 04 bf 24 3c f9 45 85 bd 3a 1a 2e bd d4 9c 20 bc
       0.010055307 -0.06507487 -0.04250548 -0.009803016
000080 8f 7f 42 bd 9f c5 6f 3c 67 22 3a bd d6 64 a0 bd
       -0.04748493 0.014634519 -0.045442965 -0.07831733
000090 56 68 cb 3c c1 da 4d bd 74 2e a8 3b 80 b6 90 ba
       0.024830025 -0.050257448 0.005132491 -0.0011040717
0000a0 f2 ca 9b 3c f9 aa 34 3d ff df bb bc 26 fb 39 bd
       0.01901767 0.044108365 -0.022933958 -0.04540553
0000b0 9c 67 67 3c cb d8 3e 3d 57 e7 9e bc df 7b ec bc
       0.0141238235 0.04659347 -0.01939742 -0.02886766
0000c0 5f 62 cc 39 c1 98 1e 3d d2 d7 86 bb 84 8c 45 bd
       0.00038983204 0.038719896 -0.0041150833 -0.04822971
0000d0 80 e4 df bb 6e 5c a2 3c 33 85 04 3d 3b 01 d4 3b
       -0.0068326592 0.019819465 0.03235359 0.0064698732
0000e0 47 57 d6 38 1d 8c 11 bd a3 20 39 bd 86 9b 92 bc
       0.00010220572 -0.035534013 -0.04519714 -0.017896425
0000f0 8c cb 3a bc ba b3 38 3b 14 1f 80 bb 94 f6 98 bc
       -0.011401068 0.0028183297 -0.003909955 -0.018672265
000100 0e b1 38 3c d1 a8 f2 3c a4 91 b4 bc 92 ff 1e bd
       0.011272682 0.029621514 -0.022042103 -0.03881795
000110 5b c6 01 3d 91 b6 c4 3b e3 36 5a bd 87 87 e3 bc
       0.031683307 0.006003209 -0.053275 -0.027774585
000120 9c e1 60 3c 42 ea 4c bd 41 8c 4e 3c 33 93 56 bd
       0.0137256645 -0.050028093 0.012606681 -0.052386474
000130 50 16 1c bd f5 d7 3e 3d 27 57 32 bd 54 37 69 3c
       -0.038107216 0.04659267 -0.043540146 0.014234383
000140 10 df da 3b e3 63 72 3c af df 3c bd 17 46 ad bc
       0.006679423 0.014794323 -0.04611176 -0.021151586
000150 97 9e 16 bd 8a bb dc 3c eb 75 cb bc 35 c9 19 3c
       -0.036772337 0.026944894 -0.024836501 0.00938635
000160 ee 0a 09 ba c9 f4 15 3d 6f 50 80 bd 98 36 a1 bc
       -0.0005227764 0.0366104 -0.062653415 -0.019679353
000170 d3 5e ec bc 61 e2 d6 3c ad 5a 3a bd 5d a9 2a bc
       -0.02885381 0.026230993 -0.04549663 -0.010416356
000180 2c d7 48 bd 0b bd 0e bd 73 de 3f bd 1e 6c 90 3c
       -0.04903333 -0.034848254 -0.046843003 0.01762968
000190 e9 bc 14 bd 21 e3 44 bc ba be 55 bc a3 bc 25 3d
       -0.03631297 -0.012017042 -0.013045961 0.0404631
0001a0 a8 7f ad b9 fb 46 aa 3c 01 c0 5e bc d2 e6 4e bb
       -0.00033092243 0.0207858 -0.013595582 -0.0031570685
0001b0 cc 74 46 bd d6 af 45 bd 08 d8 28 bd d7 03 33 ba
       -0.04845123 -0.048263393 -0.04122165 -0.000682888
0001c0 ef c6 8a 3c a9 86 00 bd d5 3a 2a bd 2f ad a8 bc
       0.016940562 -0.031378422 -0.041560013 -0.020590393
0001d0 12 ed bf 3b 2c a8 94 bc 01 01 46 3c 0a f0 d6 3c
       0.0058571184 -0.018146597 0.0120852 0.026237506
0001e0 74 51 ec 3b 46 54 15 bd bd 53 16 bc 9e 68 fd bc
       0.0072118584 -0.036457323 -0.009175238 -0.030933674
0001f0 5c 5f 67 bc 4a 84 41 bd d0 f5 5c bd 02 33 11 bd
       -0.014121857 -0.0472453 -0.053945363 -0.035449035
000200 d2 bd cf 3c e3 df 7b bd 32 e9 95 bb 21 f7 7b bc
       0.025359068 -0.061492812 -0.004574918 -0.015378744
000210 8c b1 0e 3d 20 69 9d bc 84 98 71 3c 67 b3 91 bd
       0.03483729 -0.019215167 0.014745835 -0.071142964
000220 58 3d 9f bc f8 e5 cc bc b3 50 5b bd d9 d8 12 3d
       -0.01943843 -0.025012001 -0.053543758 0.035851333
000230 7e b9 11 bd 1c cc 95 bc 92 36 09 3d d4 77 98 3c
       -0.03557729 -0.018285803 0.033499308 0.018611826
000240 b5 61 2e 3c 80 54 39 3c 80 2e b7 bc 52 1d b9 bc
       0.010643412 0.01131165 -0.02236104 -0.022596989
000250 5e dd 3f 3d b3 f8 49 bd be 61 8a bd fa 8e a4 3c
       0.04684197 -0.049309444 -0.06756924 0.020087708
000260 5b a6 aa bd 86 75 e7 3c 9c a9 1f 3d 4a cb f6 3c
       -0.08332511 0.028254282 0.03898011 0.030126233
000270 c3 0d f5 bc 89 f7 28 3d ef 7f 51 bd 58 98 fb bc
       -0.029913789 0.041251693 -0.051147398 -0.030712292
000280 b7 e5 05 bc 96 6e 03 3c 2b 55 42 bc 4e f0 b6 bc
       -0.008172444 0.008021971 -0.011861126 -0.022331383
000290 c6 73 8d 3c 60 3a 98 bd 73 c0 ef bc 5a d4 b8 3c
       0.01726712 -0.07433009 -0.029266572 0.022562195
0002a0 a0 df 6b bc bc 07 4f 3b 00 5b 27 3c be 1b 40 bd
       -0.014396578 0.0031590303 0.010214567 -0.046901457
0002b0 9a 30 8b 3c 32 9d 1a bd e8 a0 52 bd fb 1a 84 39
       0.016990948 -0.03774757 -0.051422983 0.00025197104
0002c0 52 22 fb bc 38 21 2a bc 80 d1 c2 3b b2 bf 99 3c
       -0.030656014 -0.0103838965 0.0059453845 0.018768165
0002d0 b4 a9 24 3c 1c 86 69 bb 47 c6 6b bd 4e 7d a7 3c
       0.010050226 -0.0035632914 -0.05756214 0.020445492
0002e0 74 3b d9 bc 68 c8 6d 3c e9 a7 43 bd 33 5c 22 3d
       -0.026517607 0.014513113 -0.047767553 0.03963871
0002f0 d6 e5 16 bc c6 27 af bd fb 5a f2 bc 9a e1 27 bd
       -0.009210071 -0.08552508 -0.029584398 -0.040986635
000300 e3 6e 4c bd 68 cf 81 bd 56 82 cb 3c b2 a2 ec 3c
       -0.049910437 -0.06338388 0.024842422 0.028886173
000310 a1 37 b2 3c d6 f8 e9 bc f1 ff 32 bc f3 2e 7c bd
       0.021755042 -0.028561037 -0.010925279 -0.06156821
000320 26 ff 2e bd 1b 61 e1 3c dd 4a ea 3a be 0a 25 bd
       -0.042723797 0.027512124 0.0017875094 -0.040293448
000330 77 01 52 3c ff e1 42 bd 31 41 88 bc a0 d0 1d bd
       0.012817732 -0.047578808 -0.016632648 -0.03852904
000340 92 a6 b9 3c f0 bb e2 bb 50 9c 03 bd 4c 85 38 bc
       0.022662435 -0.0069193766 -0.032131493 -0.011262249
000350 7d 16 3d bd 38 90 28 bb 2d a8 19 bd 43 b4 08 bd
       -0.046164025 -0.0025720727 -0.0375139 -0.033375036
000360 30 c9 e1 bc 2b 74 dd bc 8a d0 12 bd 90 63 2c 3d
       -0.027561754 -0.027032932 -0.03584341 0.042087138
000370 a2 0d f4 3c dd 9a a5 bc e6 fc f7 bc 14 06 5e bd
       0.029791657 -0.020215446 -0.030271959 -0.054205015
000380 9a 55 ac bc 02 9a d5 3c 5e f9 1c bd fc 0a 4f bd
       -0.021036912 0.026074413 -0.038323753 -0.050547585
000390 e0 be 1b 3c 04 0b d2 bc 18 7d 19 bd 30 f8 24 bb
       0.009505957 -0.025640018 -0.037472814 -0.0025172345
0003a0 e4 35 60 3c 08 cb 36 bd 91 f7 45 bd e0 70 03 bb
       0.0136847235 -0.04462722 -0.0483318 -0.0020056292
0003b0 30 cf 1d 3d 52 af d3 bc 96 37 bc 3c ec 5e 5d bc
       0.038527668 -0.025840435 0.022975724 -0.013511401
0003c0 94 7d 2f 3d f9 92 68 bc 46 61 43 bb 55 94 7f bd
       0.04284437 -0.014195197 -0.0029812618 -0.06239732
0003d0 9a a9 91 bd 7b 24 25 3d 52 42 31 bd 01 35 0e 3d
       -0.07112427 0.040317994 -0.04327614 0.034718517
0003e0 c0 eb ce 3a 6c 54 8d bc 83 bc 6f bd 76 32 f9 bc
       0.0015786812 -0.01725217 -0.05852939 -0.03041957
0003f0 2b 81 96 3c 65 3d 81 3c c5 14 67 bc 8b bb 2e 3d
       0.018372139 0.015776346 -0.014104073 0.042659324

l2.bias f4 [300]
000000 f6 2a 88 bd 32 93 03 bc f4 2b a0 bc 13 b8 a0 bd
       -0.06648819 -0.0080307 -0.019552208 -0.07847609
000010 a9 f8 93 bd 88 d0 73 bd 00 af 2a be 5e ae ba bd
       -0.072251625 -0.059525043 -0.1666832 -0.09115289
000020 48 72 eb be 9b 26 94 3c 42 0d c1 bd 94 d5 55 bd
       -0.45985627 0.018084815 -0.09426357 -0.052205637
000030 26 b8 a9 bc d0 25 48 bd 9b 02 58 bd 39 14 48 bd
       -0.020717692 -0.048864186 -0.05273686 -0.04884741
000040 75 b9 89 bd 0a 34 d8 bd 22 cb fd bb 3f 9e 93 3d
       -0.06724826 -0.10556801 -0.0077451626 0.072079174
000050 7d 27 52 be 1f ee 99 bd 7c 9d d6 bc 2b a2 cc bc
       -0.20522876 -0.07516121 -0.026198141 -0.024979671
000060 17 52 88 bd df 6a 37 bd c3 00 df 3f 3b 48 a2 3f
       -0.066562824 -0.044779655 1.7422107 1.2678293
000070 aa dd bf bc 1e 99 1a bd 1b ef fc bc 26 d6 82 bd
       -0.023421127 -0.03774368 -0.030875733 -0.06388502
000080 cc bf 10 40 58 2d 6e 3f e1 82 80 bd b4 9f bc bc
       2.2617064 0.9303794 -0.06274963 -0.023025371
000090 f0 38 31 bd 2a 23 34 bd aa af 2f bd 25 81 4c bd
       -0.04326719 -0.043978848 -0.042892136 -0.04992785
0000a0 bf 11 b7 be e3 c8 f4 3e f8 65 01 3f 5c 36 b3 3d
       -0.35755727 0.47809514 0.50546217 0.087506026
0000b0 f7 8f b8 bd a9 40 79 bd 19 63 86 bd 8d 0e e4 bd
       -0.09011834 -0.06085268 -0.0656187 -0.11135588
0000c0 b7 e2 f2 bc 80 56 d2 bd 92 18 33 bd 50 a1 78 3f
       -0.029649122 -0.10270405 -0.043724604 0.97121143
0000d0 06 d2 91 bd a4 78 0a 40 53 81 2a bc c1 1b a4 bc
       -0.07120137 2.1636133 -0.01040681 -0.020032765
0000e0 e4 dc 0c 40 05 64 7b bd c4 31 72 bd 9c ff 9e bd
       2.200982 -0.061374683 -0.05912949 -0.07763597
0000f0 eb ab 95 be 8c e6 bf 3a 0d ad 06 bc a2 88 0f bd
       -0.29232726 0.0014640852 -0.008219969 -0.035042413
000100 93 28 ec bf 3a d5 c0 3b 07 ae 13 40 35 78 ee 3f
       -1.8449882 0.0058847936 2.3074968 1.8630434
000110 30 59 21 40 87 5c 94 3f d4 ab b9 bb 16 74 31 bd
       2.5210686 1.1590737 -0.0056662355 -0.0433236
000120 75 a7 0f be 50 df 41 bc 53 8a 68 3f cd 68 43 bd
       -0.14028724 -0.011833027 0.90836066 -0.047707368
000130 d4 d5 8c 3d b6 08 63 bd 65 f5 5b bd 20 41 04 bb
       0.06876722 -0.05542823 -0.053700823 -0.002018042
000140 f6 c6 56 bd 83 17 f6 bc ff 00 8f bd c2 5f 01 bc
       -0.052435838 -0.030040508 -0.06982612 -0.007896366
000150 44 53 d9 bc 43 45 da bd ad 25 d2 bc 8f 7e 13 3d
       -0.026528962 -0.10657742 -0.02565273 0.036009368
000160 4a f1 36 bd ec 6b b1 bd 0e ab ec bc f6 d4 8a bd
       -0.044663705 -0.086631626 -0.028890159 -0.067789
000170 eb 79 aa bc 12 89 eb bc 7a aa 75 bd f2 2e c2 bd
       -0.020810088 -0.028751884 -0.059977032 -0.0948161
000180 1b 53 19 bd 6d bd bf 3e 3c a1 5e bd 9c d7 95 bd
       -0.03743277 0.37449208 -0.054352984 -0.07316515
000190 04 f8 6d bd ac f3 69 bc 30 f5 f0 bd fa 03 80 bd
       -0.058097854 -0.014279287 -0.11765516 -0.062507585
0001a0 cc e9 11 40 8c db 02 be 1a e4 88 bd 44 e3 12 bd
       2.2798948 -0.12779063 -0.06684132 -0.03586127
0001b0 da 48 93 bd 65 cd a7 bd 98 4f 49 be 71 0b 71 bd
       -0.0719163 -0.08193473 -0.19659269 -0.058848802
0001c0 d4 73 d0 bb 6a a2 dc bc b4 0a 23 bd 54 b7 a1 bc
       -0.006361464 -0.026932914 -0.03980513 -0.019740738
0001d0 02 39 41 bd e5 9e 13 3f df 54 9a bd e7 55 8f bd
       -0.047173508 0.5766433 -0.07535719 -0.069988064
0001e0 7f 05 60 3d 64 6a 49 bd e8 2d d4 bd b8 db cf bc
       0.05469274 -0.049173728 -0.103603184 -0.025373325
0001f0 e5 52 96 3d 42 31 10 bd 47 70 2e 3d 53 cc b9 bd
       0.073400296 -0.035203226 0.042587545 -0.09072175
000200 af 0b ac bc d5 0f fc bc 33 d5 05 40 41 06 15 40
       -0.021001665 -0.030769268 2.0911376 2.3285067
000210 c7 86 69 bd 1f 93 8b 3f c1 95 97 3e 5e 65 bb bd
       -0.0570133 1.0904273 0.2960644 -0.09150194
000220 73 0d dd bc c6 5a 90 bc b9 9f 2f bd 41 92 d8 3d
       -0.026983952 -0.01762141 -0.042876933 0.10574771
000230 7b 1f 60 bd 81 97 c0 bd a1 32 cc 3c 83 bb ba bd
       -0.054717522 -0.09403897 0.024926485 -0.09117796
000240 28 46 e5 bd 20 d4 b9 bd d6 28 de bb 47 73 99 bd
       -0.11195022 -0.09073663 -0.0067797704 -0.074926905
000250 20 d9 89 bf 71 54 8c 3e 5f 29 1b 3f 23 29 f9 bb
       -1.0769386 0.27408174 0.6061 -0.007603781
000260 90 4d 8b bd dd 6f 1c 3c f2 a4 a1 bd 09 54 25 bd
       -0.06801903 0.009548155 -0.07892789 -0.040363345
000270 d8 97 d4 bb 86 dd 97 bf c1 12 8a bd ac 3a 0c be
       -0.0064878277 -1.1864479 -0.06741858 -0.13694257
000280 4b ea 9e 3f 00 06 28 bd ab 3e 8f 3f f1 90 7a bc
       1.241525 -0.041021347 1.1191 -0.015293346
000290 c3 41 1f bc 54 7a a2 bd a8 ae 40 be e5 d5 4c be
       -0.009720269 -0.079334885 -0.18816626 -0.2000347
0002a0 65 6d 8b bd d4 29 9c bc 6a 39 8e bd 31 5e 17 40
       -0.06807975 -0.019062914 -0.069445446 2.365124
0002b0 50 84 dc ba 5a 21 7e bb 7b c8 4e bc 85 e3 d1 3e
       -0.00168241 -0.0038777203 -0.01262104 0.40993896
0002c0 ca 1e 94 3a 06 dd 64 3e 27 cc 78 3f ec d1 62 3f
       0.001130068 0.22349939 0.9718651 0.88601565
0002d0 f4 c4 bd be 76 50 8a bd c1 76 b9 bd 90 a1 98 bd
       -0.37064326 -0.06753628 -0.09055854 -0.074526906
0002e0 c9 9d 07 bb d9 2b 03 40 9c f2 15 40 a1 97 8e 3f
       -0.0020693413 2.0495512 2.3429327 1.1140023
0002f0 f7 2b 8f bd e1 5c 99 bd 44 1c 9a bc d8 9d 9c 3b
       -0.069908075 -0.07488418 -0.018812306 0.0047795586
000300 0a 8a bf bd 74 49 71 bb 5d 68 2d be ac 16 44 bd
       -0.09352501 -0.0036817463 -0.16934343 -0.047873184
000310 b8 f8 77 bd a9 67 9d bd c2 20 e5 bc 84 88 19 c0
       -0.06053993 -0.07685787 -0.027969722 -2.3989573
000320 3e 26 9c bb b2 4c f0 bb 6e 95 79 bd ba 92 c0 bc
       -0.004765301 -0.0073333615 -0.060933523 -0.023507465
000330 b5 92 c0 bd e9 fc e2 3e f9 4c 6d bc 2e 24 87 bd
       -0.09402982 0.4433358 -0.014483684 -0.065986976
000340 76 69 dc ba 44 84 32 bd 9f 03 51 bc e6 fa 04 bd
       -0.0016816098 -0.04358317 -0.012757211 -0.032465838
000350 e3 6e c5 3b e6 a9 53 bd c9 34 2a bd 7d 7b 92 bd
       0.0060251816 -0.0516757 -0.041554246 -0.0715246
000360 69 ab c1 bd d1 f1 2d 3e 3e a2 43 ba 62 e5 84 3d
       -0.09456522 0.16986777 -0.00074628356 0.06489064
000370 b2 f7 04 40 48 f2 4d bd ec a6 c4 bd 7e df 95 3c
       2.0776181 -0.050279886 -0.0960215 0.018295046
000380 ff e4 43 3d a8 6b cf bc 03 0f ab bd cc bc 00 bf
       0.04782581 -0.02531989 -0.08352473 -0.5028808
000390 ed eb 81 be 8d f8 64 bd 51 df 6d 3f 83 43 8e bd
       -0.2537531 -0.0559011 0.9291888 -0.069464706
0003a0 7d bf f4 bc dc f0 d9 bd 20 5c df bc 51 b6 47 bc
       -0.029876465 -0.106416434 -0.027265608 -0.012189464
0003b0 50 53 09 bd b0 ed 34 bd 21 34 3c bd ab 6d 1a bd
       -0.03352672 -0.04417199 -0.04594815 -0.037702244
0003c0 fd e2 00 40 06 17 d2 bd c9 29 b7 bc 43 9d 63 bd
       2.0138543 -0.102582976 -0.022358792 -0.0555699
0003d0 33 fc ac bd 7d a5 3e bd aa d1 10 40 1d f1 6e 3f
       -0.08446541 -0.04654454 2.2627969 0.9333666
0003e0 d4 44 0a be 4c 40 22 bc 59 00 d4 bd a9 05 c4 be
       -0.13502818 -0.009903025 -0.10351629 -0.38285568
0003f0 33 e9 5b 3f fb a8 ca bd d0 e5 46 3e 88 0e e8 3c
       0.8590271 -0.09895512 0.19423604 0.028327242

l3.weight f4 [1, 300]
000000 b9 0f 24 bc 23 39 b1 bc 18 9c fa 3b 4b b2 e3 bb
       -0.010013514 -0.02163369 0.0076480024 -0.0069487444
000010 ee cc 13 3c e9 8e bc 3b 89 b7 df 3c 08 f1 12 bd
       0.009021027 0.005754341 0.027309196 -0.035874397
000020 74 80 4a b9 1a 29 1b bc 6a fd 6a bc 61 b2 9d bb
       -0.00019312074 -0.009470249 -0.014342645 -0.004812524
000030 24 1e 8b 3c 52 1b ac bc 00 bc fe 3b 57 9f d5 3c
       0.016982146 -0.021009121 0.007773876 0.026076956
000040 9a 44 c0 3c fb 2f e7 3b 9e 08 42 3c e8 cb 21 bf
       0.023470212 0.0070552803 0.011842875 -0.6320176
000050 5f 66 37 c0 f7 a7 f0 3b a0 11 57 ba c3 bc 36 be
       -2.8656232 0.0073442417 -0.00082042255 -0.17845444
000060 52 3e fb 3c 54 66 95 bc 77 c4 f8 bf 42 73 95 3e
       0.030669365 -0.01823727 -1.9434956 0.29189497
000070 9c aa b9 bc 50 56 85 bc 65 81 84 bc 2b 10 e9 bc
       -0.02266436 -0.016276509 -0.016174981 -0.028450092
000080 df 9e 1b be c9 1d a2 bc 5f bc 78 bc 10 9e a9 bb
       -0.15197323 -0.019789593 -0.01518163 -0.005176313
000090 f1 fe 3e bd be 3b d6 ba 20 ff ea bc 3d 98 6a 3c
       -0.04662985 -0.0016344709 -0.028686106 0.014318523
0000a0 1d 79 89 bc e2 2c d1 bf fd f3 9f 3f de 3e 32 be
       -0.016781384 -1.6341822 1.2496334 -0.17406794
0000b0 6c 9a 2a 3d 8f 4e 8c ba 0c 3e a6 bc 70 e0 f5 3c
       0.041651174 -0.0010704565 -0.020293258 0.030014247
0000c0 3d ed 8a ba 5e b0 3d bc 68 7f f0 3b 30 ab e8 bf
       -0.0010599267 -0.011577694 0.0073394068 -1.8177242
0000d0 98 5d fe 3c f7 10 0c bf c2 2e cf 3c 63 06 a1 be
       0.031050488 -0.54713386 0.02529085 -0.31450185
0000e0 e9 83 42 3e a2 ba 3d bc f1 92 f0 bb 2a c5 7c b9
       0.18995632 -0.011580141 -0.0073417355 -0.00024106042
0000f0 88 b2 eb 3e 9c 3a 0f 3c 6a d1 f7 ba a6 ab 7c 3c
       0.46034646 0.008742001 -0.0018907015 0.015421784
000100 1b bd 8e 3f 76 d3 ba 3b 7f b9 75 be fd f9 c5 3e
       1.115146 0.0057014776 -0.23996542 0.38667288
000110 22 7a 3f 3f 23 13 39 c0 47 91 bb 3c 2c 42 bb 3b
       0.74795735 -2.891793 0.022896422 0.0057146754
000120 80 01 e4 3b 07 b6 ad bc d0 c0 6b bf a4 b3 5a be
       0.0069581866 -0.021204961 -0.92091084 -0.2135759
000130 31 b0 56 3e fd e3 63 bb c5 65 32 bb 3a 7c cb 3c
       0.20965649 -0.0034773343 -0.0027221304 0.02483951
000140 18 b3 3b bc 1c ab 16 bd f1 17 1f bc 72 ec fb 3b
       -0.0114562735 -0.036784276 -0.009710298 0.0076880986
000150 a7 a5 ef 3c e8 ef f8 3a 3c 0a c3 3b 11 60 a7 be
       0.029253794 0.0018992396 0.0059521478 -0.3269048
000160 5f 44 b5 3c 11 b9 df 3c 27 e2 06 bc 5a 2a 87 bc
       0.022127328 0.027309926 -0.00823263 -0.016499687
000170 8c 68 bd 3c f5 85 43 3b 48 88 44 3c 7b 5f 8b 3c
       0.02312114 0.0029834483 0.011995383 0.017013302
000180 5d 8a e9 3c 4b d8 43 be ab f8 c1 3c 7e 12 33 3c
       0.02850836 -0.19125478 0.023678144 0.010929702
000190 68 37 cc bc 50 68 b4 3c 97 44 a1 3c d9 54 0a 3d
       -0.024928764 0.022022396 0.019686026 0.033772323
0001a0 ba 49 75 bf ce 7d c8 bc a1 ae 04 bb ef 79 07 3a
       -0.9581562 -0.02447405 -0.0020245689 0.0005168011
0001b0 95 33 ea bb 17 a6 86 bc b2 c2 d3 3c 8a 79 ed bc
       -0.0071472623 -0.01643662 0.025849674 -0.028988618
0001c0 3e 27 52 3c e8 5e d4 b9 27 38 a2 3c e1 00 1d bb
       0.012826739 -0.00040506502 0.019802166 -0.0023956823
0001d0 43 5b 90 bc 0a 90 e5 bc a7 41 bc bc 06 7d 1a bc
       -0.017621642 -0.028022785 -0.022980524 -0.009429222
0001e0 36 24 0d bf 51 87 48 bc fa 85 b9 3b 69 ef a9 bc
       -0.5513338 -0.012239293 0.005661723 -0.020744042
0001f0 67 18 ec be 27 b5 69 3c 31 c1 61 be 2c fa de 3c
       -0.46112368 0.0142643815 -0.22046353 0.0272189
000200 9a 21 3c bc 77 62 b6 bc e2 27 21 bf 51 59 20 bf
       -0.011482621 -0.022263749 -0.6295148 -0.62636286
000210 4c b1 a6 3c 02 42 61 3f 3c 04 f5 be b6 f3 4f 3c
       0.020348214 0.87991345 -0.47854793 0.012692383
000220 a2 9b f9 bc b2 c6 b8 3a 16 29 26 3b 9a b2 15 be
       -0.03046972 0.0014097302 0.002535408 -0.14618912
000230 28 15 8e bc a3 58 d1 3c 59 51 15 3d eb 39 9d 3c
       -0.017344072 0.02555496 0.036454532 0.019192657
000240 d6 f7 ed 3c f2 91 00 bd 97 6d f7 3c 5c 22 af bc
       0.029048841 -0.031389184 0.030203624 -0.021378689
000250 27 fb 59 bf 13 8f 88 3c 49 78 d7 bc d0 73 89 bc
       -0.85148853 0.016669786 -0.026302474 -0.016778857
000260 5c 28 f0 bc 26 87 f8 bb 27 56 58 3b e0 34 59 3c
       -0.02931612 -0.0075844703 0.0033010335 0.013257235
000270 3d ff ee 3c 22 2f 21 bf 4d 4d e7 ba ec cc b7 3c
       0.029174441 -0.62962544 -0.0017646939 0.022436582
000280 8c 06 11 c0 a8 cd ca 3c 84 a4 cd bf e4 50 61 bc
       -2.2660246 0.024756268 -1.6065831 -0.013752196
000290 72 74 b1 bc 54 df 8a 3c 26 80 00 3d cd 66 dc bc
       -0.02166197 0.016952194 0.031372212 -0.026904488
0002a0 fb 2e e1 3c 45 d3 dd 3c dc 7d aa bc 7e 4f b8 be
       0.027488222 0.02707828 -0.020811968 -0.35998148
0002b0 da 28 71 3d 3a de 46 3c 57 27 32 3b 79 a8 b4 bb
       0.05887685 0.012137944 0.0027184093 -0.0055132476
0002c0 c7 a4 dd bc 1f 05 0a be 42 ae a4 bc 58 cd 27 bf
       -0.027056111 -0.13478516 -0.020102624 -0.65547705
0002d0 8d 9b 1c 3c 80 fe f1 3c f2 7d e6 bc 95 bd f8 bc
       0.009558571 0.0295403 -0.028136227 -0.030363837
0002e0 d7 5d bd 3c 9e 4a 58 be f5 5d 20 bf 83 c7 ba bf
       0.023116035 -0.21122214 -0.6264337 -1.4592136
0002f0 bd 50 a2 bc 6d ad 52 3a 12 4f ea bc 54 19 87 bc
       -0.01981389 0.0008036707 -0.028602157 -0.01649157
000300 5b ba 9e bc 13 27 b5 3c 03 27 f6 3c ce 49 e0 bd
       -0.01937597 0.022113359 0.0300479 -0.10951577
000310 a3 27 7a 3c 16 11 a5 bc fc 0c 72 3c 95 da 77 3f
       0.015268239 -0.020149749 0.0147736035 0.96817905
000320 9f 45 92 3c 58 35 cc bc 79 6e ca bb b7 7e 3e bc
       0.017855464 -0.02492778 -0.00617772 -0.011626891
000330 4b f9 bd bc c9 70 97 bf 37 d2 98 3c 7e 0d 8c 3b
       -0.023190161 -1.1831294 0.018654926 0.0042740693
000340 67 65 2e bc d6 0d ed 3c 38 a4 fc 3c 6a 32 92 bc
       -0.010644293 0.028937262 0.030840024 -0.017846305
000350 06 e4 c5 3c 29 4f c7 3c 15 07 95 bc 66 4d a0 3c
       0.024156582 0.024329739 -0.018191854 0.019568156
000360 58 97 a2 bc ef b7 05 bf 3d 1e 2d 3c 47 33 7b bc
       -0.019847557 -0.52233785 0.010566291 -0.01533205
000370 c8 83 a5 be 3c 69 8b 3c eb b8 89 bb 9d cb 1c bd
       -0.32327104 0.017017953 -0.004202952 -0.03828012
000380 69 83 07 be 2b 46 c9 bc 30 8e 22 bc 7c ce 1f 3b
       -0.13233723 -0.024569592 -0.009921595 0.002438455
000390 92 54 5b bf e9 48 fc ba b8 ba 8a bc 7f 2e 7a 3b
       -0.8567592 -0.0019247803 -0.016934738 0.0038174686
0003a0 6e e4 c7 3c a1 ad a8 3c 06 a1 a3 3c 8f a9 a5 bc
       0.024400916 0.020590605 0.019974243 -0.020222453
0003b0 59 7e a6 3c c6 95 e1 3c e4 3c e2 bb a5 02 3e bc
       0.02032392 0.027537238 -0.0069042314 -0.01159731
0003c0 32 c0 98 bf ee 03 94 3b 6f 44 e7 b9 27 4e 02 3c
       -1.1933653 0.00451707 -0.0004411074 0.007953203
0003d0 43 49 14 3b a5 49 44 bc 6e 6e 91 bf 46 3e 44 bf
       0.0022626675 -0.011980449 -1.1361825 -0.7665752
0003e0 fe 18 e0 3c a0 4f cc bc 5c 4b d1 bc 85 f3 b2 bf
       0.027355667 -0.024940312 -0.02554863 -1.3980566
0003f0 50 26 e5 bf 28 a2 c8 3c 83 66 3d bc 99 a1 08 be
       -1.7902317 0.024491385 -0.011560085 -0.13342895
