models/CarPole_actor.pkl (torch, 139287 bytes, 6 tensors)

weight f4 [128, 4]
-0.4027484 0.30526048 -0.39792454 0.16819274 0.35262144 0.02880261 0.24132815 0.028544988
-0.12835833 0.27959064 0.42299727 -0.085004576 -0.025339525 -0.47462666 0.14858067 0.5503071
-0.4755246 0.26353788 -0.1583267 -0.20768769 -0.22195056 0.012784488 0.5206061 0.27991822
-0.3763291 0.51252645 -0.0658974 0.44622275 -0.16617627 0.5133969 -0.24895532 0.37676954
-0.34261125 0.36248213 0.07066642 -0.21388526 -0.2089263 -0.15749939 0.41900492 0.52483195
-0.2331838 -0.15969163 -0.40346646 -0.3934187 -0.50068724 0.058253266 0.031774964 0.4206864
-0.23123173 0.21470453 -0.53202903 -0.05855646 0.26738188 0.052021258 0.1547634 -0.39321637
0.22038652 -0.23971416 -0.4558623 -0.38334638 0.22768036 0.14601605 -0.27533057 -0.037444714
0.41125417 -0.16503517 -0.08058763 0.43441066 0.46014443 0.4040448 0.3460409 -0.14217857
0.29976657 -0.4095993 -0.21366718 0.070147626 -0.18905388 -0.17893413 0.28758168 0.45074627
0.40411004 0.21007572 -0.030184088 0.33083642 0.28704354 0.20250337 -0.2392965 -0.26120007
0.09578714 -0.10861467 0.6344377 0.20224907 -0.25629517 0.022960622 -0.40178677 0.2338533
-0.14004873 -0.11079357 0.46105227 -0.06727978 -0.0421926 -0.15146917 0.23394755 0.26321968
0.3584988 -0.076460116 -0.497211 0.41611904 -0.4509211 -0.2794087 0.17176098 -0.5317964
-0.04514773 -0.03019792 0.3747643 -0.06602638 -0.035694476 -0.35589477 0.15394564 -0.28043428
-0.14158733 0.1618311 -0.29423502 0.3463547 -0.34637198 -0.19144288 0.31017274 0.52094513
-0.10969268 -0.008845306 -0.35003173 -0.4315977 0.20391892 -0.10761 -0.09308123 0.33416745
-0.07078377 0.39203033 0.43646836 -0.19130862 0.08411616 0.008444309 -0.20170814 -0.014691472
-0.062448584 0.32879928 0.019967131 0.5438723 0.09152607 -0.475394 -0.029303933 -0.25416157
0.1876125 -0.020753754 0.53698915 0.09243808 0.17371 -0.18549067 -0.37897065 -0.0587653
0.43986166 -0.28847882 -0.13118424 0.2979621 0.1958576 0.19982904 -0.19855547 0.20769523
-0.43999088 0.4325531 0.29304484 -0.042473517 -0.48164153 -0.3186745 0.2799688 -0.260246
0.2722042 0.42766356 0.020891074 0.517127 0.1724697 0.3829508 0.5662066 0.53946936
0.30546063 0.21836321 0.29083067 0.4464441 0.02820507 0.30823776 -0.07130519 0.27348167
0.3618643 -0.24014063 -0.41358873 0.016780294 0.43455032 -0.09090864 -0.41651917 -0.4390251
-0.28339636 0.45385042 -0.20347847 0.17001922 -0.1371056 0.30422616 -0.350617 0.25554115
-0.5026147 -0.49288258 -0.5440493 -0.2846041 0.056726657 0.08175338 0.2974875 0.2654224
-0.1459454 0.16577591 0.22213781 0.5134793 0.4724686 -0.0443521 -0.14462733 0.41709495
0.3700184 -0.11106485 0.4962372 0.54282975 -0.066381335 -0.3187996 -0.3921697 -0.099762894
0.1445646 -0.44281054 -0.068400726 0.31292102 0.34782246 -0.0052314964 -0.33565637 -0.16051547
0.21617655 -0.0674845 0.31369263 -0.46678883 0.37918913 0.22485805 0.57381946 0.15985031
0.45422068 -0.010655468 0.55624384 0.29215336 0.3392788 -0.26359302 0.5006616 0.10723382
00000000: 0a35 cebe 1a4b 9c3e c4bc cbbe b83a 2c3e
00000010: cc8a b43e 73f3 eb3c ba1e 773e 2ed7 e93c
00000020: 5e70 03be 8126 8f3e 1993 d83e e116 aebd
00000030: d694 cfbc 4402 f3be 8825 183e ede0 0c3f
00000040: f677 f3be 70ee 863e 6520 22be 15ac 54be
00000050: 0247 63be 0776 513c 7146 053f 7151 8f3e
00000060: 35ae c0be ef34 033f 37f5 86bd 4f77 e43e
00000070: 1d2a 2abe fb6d 033f 25ee 7ebe f0e7 c03e
00000080: be6a afbe 4297 b93e 8eb9 903d bd04 5bbe
00000090: c7f0 55be 8547 21be d087 d63e 635b 063f
000000a0: bcc7 6ebe 3486 23be 2893 cebe 2d6e c9be
000000b0: 0a2d 00bf fa9a 6e3d 7726 023d 3564 d73e
000000c0: 03c8 6cbe 81db 5b3e 0e33 08bf e6d8 6fbd
000000d0: 47e6 883e 3e14 553d 4c7a 1e3e a853 c9be
000000e0: 01ad 613e a177 75be c966 e9be fa45 c4be
000000f0: 0a25 693e 3b85 153e 21f8 8cbe a15f 19bd
00000100: e88f d23e fbfe 28be 210b a5bd 136b de3e
00000110: 0d98 eb3e f6de ce3e 462c b13e 4297 11be
00000120: 017b 993e 00b7 d1be 92cb 5abe 8fa9 8f3d
00000130: 5797 41be 823a 37be e83d 933e 37c8 e63e
00000140: 83e7 ce3e 171e 573e 9f44 f7bc 6463 a93e
00000150: 5ff7 923e 0b5d 4f3e 240a 75be 04bc 85be
00000160: 0c2c c43d 5e71 debd 826a 223f 611a 4f3e
00000170: 1f39 83be ea17 bc3c ffb6 cdbe 3d77 6f3e
00000180: ef68 0fbe bde7 e2bd 0b0f ec3e fbc9 89bd
00000190: 26d2 2cbd bc1a 1bbe f28f 6f3e bbc4 863e
000001a0: 288d b73e 1f97 9cbd 7192 febe 8e0d d53e
000001b0: 21df e6be a80e 8fbe 1ce2 2f3e cf23 08bf
000001c0: d3ec 38bd a161 f7bc 1be1 bf3e d738 87bd
000001d0: 5f34 12bd d737 b6be eda3 1d3e 1595 8fbe
000001e0: 45fc 10be 0db7 253e f9a5 96be 6755 b13e
000001f0: ab57 b1be 9a09 44be f6ce 9e3e a95c 053f
00000200: 8ea6 e0bd e7eb 10bc 5c37 b3be 60fa dcbe
00000210: 1fd0 503e a262 dcbd 5fa1 bebd ff17 ab3e
00000220: 15f7 90bd 33b8 c83e c878 df3e 68e6 43be
00000230: 1845 ac3d 005a 0a3c 948c 4ebe 80b4 70bc
00000240: 16ca 7fbd 6158 a83e 1c92 a33c 373b 0b3f
00000250: 0572 bb3d d866 f3be cd0e f0bc 7721 82be
00000260: 7e1d 403e c703 aabc 1f78 093f 2d50 bd3d
00000270: 09e1 313e 44f1 3dbe 7108 c2be e2b3 70bd
00000280: 8c35 e13e 7fb3 93be 2955 06be 7d8e 983e
00000290: e58e 483e fc9f 4c3e 2052 4bbe 0fae 543e
000002a0: 7c46 e1be 9a77 dd3e f909 963e b6f8 2dbd
000002b0: b899 f6be 4e29 a3be 1258 8f3e f73e 85be
000002c0: 595e 8b3e b8f6 da3e c223 ab3c 6f62 043f
000002d0: e69b 303e 2112 c43e eaf2 103f aa1a 0a3f
000002e0: 5665 9c3e 9b9a 5f3e c2e7 943e 5294 e43e
000002f0: 520e e73c 57d1 9d3e 7508 92bd ca05 8c3e
00000300: 4746 b93e 6de7 75be e7c1 d3be d476 893c
00000310: 617d de3e 4f2e babd 0042 d5be e6c7 e0be
00000320: 5419 91be 155f e83e a95c 50be 8519 2e3e
00000330: 6965 0cbe 88c3 9b3e 1284 b3be 4ad6 823e
00000340: 5bab 00bf 1b5b fcbe d146 0bbf a1b7 91be
00000350: 365a 683d 516e a73d 4850 983e 72e5 873e
00000360: b672 15be 29c1 293e 1878 633e 6173 033f
00000370: 68e7 f13e 8caa 35bd 3019 14be 788d d53e
00000380: 0d73 bd3e f875 e3bd cd12 fe3e e4f6 0a3f
00000390: f0f2 87bd b339 a3be 78ca c8be 7d50 ccbd
000003a0: be08 143e 10b8 e2be ae15 8cbd 2f37 a03e
000003b0: c915 b23e f96c abbb 27db abbe 2b5e 24be
000003c0: 635d 5d3e 5035 8abd 529c a03e f2fe eebe
000003d0: 1425 c23e 3041 663e d5e5 123f cdaf 233e
000003e0: 9d8f e83e 4694 2ebc ff65 0e3f 2095 953e
000003f0: f3b5 ad3e aaf5 86be 5c2b 003f 689d db3d

bias f4 [128]
-0.077913 -0.29061824 0.40257597 -0.13001134 0.05151739 -0.20543513 0.22331755 -0.077820554
-0.22943272 0.040393595 0.15725975 -0.059101652 -0.01056246 -0.23151956 0.13826172 0.1719643
-0.41094255 -0.15500957 -0.47379988 -0.2916075 0.12417019 -0.19650881 0.003967158 -0.16228566
-0.15788995 -0.50481147 -0.1783746 0.17798455 0.30688915 0.4399646 0.05270243 -0.17910227
0.3224763 -0.19867192 -0.2817237 -0.32296067 0.10138339 0.27491337 -0.09129447 0.043519806
-0.26790708 0.24229503 -0.17631331 -0.2828962 -0.009874118 0.12601642 0.30142882 0.34933597
-0.038159806 0.035572797 0.09734763 -0.15283182 -0.027324874 -0.23603585 0.07811472 0.1859467
-0.07486891 0.15105388 0.16350783 -0.34992063 0.45271626 0.42696768 0.44908968 0.3036292
0.35689005 0.37094203 0.44163236 0.0102493 -0.4897962 0.04507786 -0.17369352 -0.070825554
0.40040874 -0.50132114 0.33954 -0.10099531 0.03722066 0.13381049 -0.38559577 0.14256014
0.036921714 0.2834371 0.4169 0.03527485 -0.34434482 0.3900826 -0.41501096 -0.42334804
-0.0754839 0.3398799 0.45342305 0.16652955 0.13227859 -0.25011215 -0.24937654 0.28034353
0.2430481 -0.27349767 -0.477285 0.084836245 0.27670124 -0.17607377 -0.18390396 -0.23805027
-0.23628378 0.13392183 0.054676387 0.199059 -0.43158698 0.2265524 0.10546419 0.14942683
-0.0736593 0.15430878 0.080762886 0.2414649 0.28868777 0.19307247 0.40192753 -0.40752754
-0.09041966 -0.28849164 -0.34259847 0.4471436 0.25972018 0.35820886 0.0563956 0.41003695
00000000: da90 9fbd eacb 94be 701e ce3e b121 05be
00000010: e603 533d 965d 52be 5bad 643e 6260 9fbd
00000020: 69f0 6abe c173 253d b308 213e 9314 72bd
00000030: 2b0e 2dbc 7713 6dbe 7b94 0d3e 6917 303e
00000040: 1067 d2be d4ba 1ebe e695 f2be 944d 95be
00000050: f14c fe3d 9b39 49be effe 813b 362e 26be
00000060: e7ad 21be 533b 01bf d5a7 36be 9541 363e
00000070: 9320 9d3e 0a43 e13e 81de 573d 9666 37be
00000080: 9d1b a53e a770 4bbe 173e 90be 1a5b a5be
00000090: 18a2 cf3d 72c1 8c3e 98f8 babd d341 323d
000000a0: 1e2b 89be 301c 783e 7a8b 34be c5d7 90be
000000b0: 0dc7 21bc 730a 013e e154 9a3e 2adc b23e
000000c0: 754d 1cbd c8b4 113d 325e c73d f27f 1cbe
000000d0: 6ad8 dfbc 62b3 71be 9cfa 9f3d d068 3e3e
000000e0: df54 99bd dead 1a3e 996e 273e cc28 b3be
000000f0: 6dca e73e 829b da3e 15ef e53e 4975 9b3e
00000100: 4bba b63e 1dec bd3e a31d e23e aeec 273c
00000110: 91c6 fabe 90a3 383d b7dc 31be fd0c 91bd
00000120: 6002 cd3e 9556 00bf 30d8 ad3e a1d6 cebd
00000130: b174 183d 9e05 093e cf6c c5be 49fb 113e
00000140: 393b 173d ab1e 913e eb73 d53e 5c7c 103d
00000150: f74d b0be e8b8 c73e 517c d4be 13c1 d8be
00000160: 4e97 9abd bd04 ae3e 1127 e83e b986 2a3e
00000170: 0a74 073e b30e 80be 905c 7fbe 3089 8f3e
00000180: 9ae1 783e e307 8cbe b35e f4be a0be ad3d
00000190: c9ab 8d3e af4c 34be 5251 3cbe 73c3 73be
000001a0: 60f4 71be ce22 093e 59f4 5f3d 1fd6 4b3e
000001b0: f8f8 dcbe 5afd 673e 9cfd d73d 5903 193e
000001c0: b0da 96bd 1f03 1e3e 0367 a53d 9342 773e
000001d0: e2ce 933e cab4 453e 72c9 cd3e 73a7 d0be
000001e0: f12d b9bd 2db5 93be 1169 afbe 02f0 e43e
000001f0: 0bfa 843e 2767 b73e 13ff 663d 5df0 d13e

weight f4 [256, 128]
-0.05917301 -0.0483547 0.013662446 -0.05352005 -0.057562023 -0.029172972 -0.05695304 -0.0048350766
-0.005472145 0.061362706 0.07699734 -0.08157282 -0.08081581 0.019125028 0.024839384 0.00050550577
-0.07153731 0.031632576 0.06682282 -0.025356598 0.00062436116 -0.04923954 0.0293492 0.056462042
-0.07821161 0.088286676 -0.052714106 -0.011005085 -0.04550977 -0.08398339 0.010361023 -0.05452292
-0.09042412 -0.08752684 -0.041183807 -0.07931693 0.042299785 -0.037733823 -0.034970976 0.046168305
0.06141933 0.01281559 0.029244341 0.08076366 -0.06527837 -0.018695913 -0.09351883 0.030173387
0.05142259 -0.03418702 -0.06595577 0.08271708 0.013824105 -0.061566092 0.017685615 0.018880695
0.0063387826 0.044307794 0.077774726 -0.049034 0.018794725 -0.01165669 0.044924214 -0.09186961
-0.014500149 -0.069761656 0.011930509 0.030766854 -0.029518787 -0.033714578 0.007140558 0.039985858
0.034854796 0.050423585 0.039878584 -0.08693416 -0.02322425 -0.052783996 -0.026573062 0.021974592
0.06340609 0.0766228 0.03529659 -0.048676375 -0.0636596 0.058002394 -0.045273285 0.04574593
-0.047212552 -0.0646789 0.07986948 -0.09412204 -0.021228522 0.021128498 -0.06803535 0.062399503
-0.054508515 0.061175954 -0.016760118 -0.059466492 -0.07784823 0.068507336 -0.06780219 0.0422633
0.05787245 0.008961685 -0.036685985 -0.0524237 0.05421767 -0.07393306 0.06527396 0.08112686
0.009366788 -0.046379182 -0.012482978 0.049877055 -0.03389096 -0.022430405 -0.05164263 0.07446956
0.08237945 -0.06286259 -0.032179844 -0.012183224 -0.043879144 0.05512919 0.0075867767 -0.040652342
-0.011426281 -0.039775126 -0.06235143 -0.041309413 0.08383074 -0.00026550097 -0.113041386 -0.052852537
-0.042559344 -0.06321586 0.10275841 -0.060741562 0.117047735 0.09728734 0.024379067 -0.055900026
-0.010499134 0.055778947 -0.036511384 0.09893885 -0.11131575 0.10671446 0.0361784 0.1321578
-0.011154316 0.00959846 -0.10861855 0.06061869 0.013295348 0.0022015031 -0.021741455 0.00033967174
0.013481444 0.000870418 -0.020656856 0.0650144 -0.08278611 0.006599735 -0.077203475 0.07561279
-0.043071818 -0.021765498 -0.030447163 -0.045404598 -0.08306579 -0.13304096 0.018135244 -0.07142767
0.02523862 -0.0041515254 0.04081369 0.12224242 0.102884136 -0.06266549 -0.01650467 -0.064430445
-0.113464594 0.030436456 0.047207676 0.02897672 -0.070143886 -0.07856398 -0.08003112 -0.031235257
-0.045591485 0.03167721 0.07280765 -0.00040758462 0.059075996 0.028953554 0.026849631 0.00025231187
0.0061539435 -0.01346644 0.024649601 0.048426833 0.0059162667 0.040779732 0.07101163 -0.058722008
0.10496619 -0.098539084 0.074126214 -0.051835287 -0.014464243 -0.036813896 0.08372781 0.033735417
-0.07451369 0.04855125 0.04763434 -0.058066487 -0.02361492 0.09595671 -0.13043141 0.103932455
0.0517538 0.09650017 0.04368072 0.12689683 0.08742858 -0.059673935 0.04309889 -0.0077867913
-0.012690703 -0.02164796 0.029550204 0.08514587 0.043061614 -0.032606 -0.009281214 0.052228898
0.091892056 0.10029759 -0.08172717 -0.042603664 0.073862486 -0.02910195 0.0831925 -0.022478815
0.03238248 -0.06269468 0.0776703 -0.074048296 0.04458765 0.085581094 0.03213612 0.093448766
00000000: 665f 72bd 940f 46bd 74d8 5f3c d737 5bbd
00000010: 28c6 6bbd 28fc eebc 9747 69bd 906f 9ebb
00000020: ae4f b3bb 7657 7b3d c8b0 9d3d a70f a7bd
00000030: c282 a5bd 17ac 9c3c f77b cb3c eb83 043a
00000040: 2782 92bd 2991 013d 67da 883d a4b8 cfbc
00000050: 2bac 233a 66af 49bd bc6d f03c be44 673d
00000060: 692d a0bd a5cf b43d bfea 57bd ac4e 34bc
00000070: 7468 3abd 7cff abbd 48c1 293c 6d53 5fbd
00000080: 4830 b9bd 4641 b3bd 5ab0 28bd ea70 a2bd
00000090: 8a42 2d3d c88e 1abd ba3d 0fbd fa1a 3d3d
000000a0: d692 7b3d 7bf8 513c d491 ef3c 6b67 a53d
000000b0: abb0 85bd 2c28 99bc cd86 bfbd 2e2e f73c
000000c0: 7ea0 523d b007 0cbd d213 87bd 9367 a93d
000000d0: 807e 623c ba2c 7cbd 6ce1 903c b0ab 9a3c
000000e0: 90b5 cf3b 177c 353d 5b48 9f3d e0d7 48bd
000000f0: 65f7 993c b4fb 3ebc 7402 383d 2226 bcbd
00000100: 0892 6dbc 33df 8ebd 2e78 433c c50a fc3c
00000110: 62d1 f1bc 4c18 0abd 58fb e93b 36c8 233d
00000120: e7c3 0e3d f688 4e3d ba57 233d 890a b2bd
00000130: c840 bebc 0834 58bd c0af d9bc 0f04 b43c
00000140: 0ddb 813d 6aec 9c3d 2893 103d e160 47bd
00000150: f75f 82bd eb93 6d3d 7b70 39bd 1660 3b3d
00000160: f361 41bd 5f76 84bd 9c92 a33d 0ec3 c0bd
00000170: 70e7 adbc ac15 ad3c 1e56 8bbd 9f96 7f3d
00000180: 5244 5fbd a393 7a3d 844c 89bc 2393 73bd
00000190: e56e 9fbd 934d 8c3d e0db 8abd 481c 2d3d
000001a0: aa0b 6d3d 08d4 123c 0b44 16bd 3cba 56bd
000001b0: 5913 5e3d 376a 97bd 5bae 853d d725 a63d
000001c0: 2877 193c 19f8 3dbd 6885 4cbc e24b 4c3d
000001d0: 3fd1 0abd f8bf b7bc 3987 53bd 7f83 983d
000001e0: 8fb6 a83d 1abe 80bd 03cf 03bd 259c 47bc
000001f0: 9eba 33bd 25cf 613d 7f9a f83b 1283 26bd
00000200: 4c35 3bbc 3eeb 22bd 3764 7fbd 0f34 29bd
00000210: 73af ab3d f032 8bb9 3e82 e7bd e77b 58bd
00000220: b552 2ebd 5177 81bd 0073 d23d 25cc 78bd
00000230: b9b6 ef3d 963e c73d 9cb6 c73c 6df7 64bd
00000240: 8f04 2cbc 7778 643d f68c 15bd 74a0 ca3d
00000250: 83f9 e3bd 1c8d da3d cd2f 143d 6054 073e
00000260: 98c0 36bc dc42 1d3c 6773 debd 4e4b 783d
00000270: bbd4 593c 1847 103b 231b b2bc f815 b239
00000280: 46e1 5c3c c32c 643a 9138 a9bc 4526 853d
00000290: c48b a9bd 9742 d83b db1c 9ebd e1da 9a3d
000002a0: 136c 30bd 8f4d b2bc 546c f9bc 2cfa 39bd
000002b0: 661e aabd e43b 08be 5d90 943c ac48 92bd
000002c0: 39c1 ce3c 8509 88bb 412c 273d 3c5a fa3d
000002d0: ebb4 d23d c456 80bd cd34 87bc 1cf4 83bd
000002e0: 2060 e8bd e055 f93c d65c 413d 9660 ed3c
000002f0: 99a7 8fbd 27e6 a0bd 5be7 a3bd 15e1 ffbc
00000300: 23be 3abd f6bf 013d 2d1c 953d 15b1 d5b9
00000310: acf9 713d 0130 ed3c c2f3 db3c ba48 8439
00000320: 05a7 c93b 58a2 5cbc f6ed c93c 375b 463d
00000330: 3edd c13b a608 273d 8c6e 913d 7d86 70bd
00000340: 84f8 d63d dcce c9bd 7ccf 973d 3d51 54bd
00000350: 6ffb 6cbc 2bca 16bd 7c79 ab3d 262e 0a3d
00000360: a29a 98bd addd 463d 3a1c 433d 20d7 6dbd
00000370: 1474 c1bc f484 c43d d08f 05be 8ada d43d
00000380: cbfb 533d e2a1 c53d 8eea 323d 3ef1 013e
00000390: c10d b33d a86c 74bd 7688 303d 5728 ffbb
000003a0: abec 4fbc 1057 b1bc 4513 f23c f560 ae3d
000003b0: 6061 303d de8d 05bd 3c10 18bc f8ed 553d
000003c0: e731 bc3d d368 cd3d 9360 a7bd 2e81 2ebd
000003d0: 3745 973d 3667 eebc d460 aa3d 7e25 b8bc
000003e0: 7ea3 043d 1266 80bd 9b11 9f3d a2a6 97bd
000003f0: 8aa1 363d 2445 af3d 2aa1 033d 1162 bf3d

bias f4 [256]
-0.02188474 -0.04216116 -0.06438682 -0.0780245 0.0154068945 -0.059775215 -0.054132815 0.026276404
0.057327487 -0.05068103 -0.009185898 0.020071518 0.015960013 -0.054540165 0.053320892 0.06678876
-0.0424424 0.06217613 0.057482503 -0.08924538 -0.006507217 0.07022671 0.014597817 -0.059654463
-0.040949874 -0.004119562 0.009770149 -0.08366345 -0.06706496 -0.03878562 0.049628254 0.05758506
-0.04953857 -0.073193535 0.10641087 -0.04210174 -0.063918546 -0.06780661 -0.045196693 0.10006568
0.09956053 -0.029724346 -0.06625265 -0.075657 0.02588391 0.08017716 0.035638656 -0.00417239
0.06107332 0.033957236 0.03691257 0.0007081958 0.0041779573 -0.07092259 -0.020542296 0.08005684
0.07406288 -0.04248793 0.007974255 0.028372692 0.029284416 0.018971203 0.09381915 -0.06297752
0.018997489 -0.045330264 -0.08496094 -0.067601085 -0.0069915554 -0.0059153787 0.018313404 -0.08955893
-0.030303247 0.044956785 -0.059525024 0.029557588 -0.04242781 0.047158595 -0.07732025 -0.028240774
-0.038750354 -0.033401523 0.044068843 0.107179984 0.09558171 -0.09293663 -0.03815045 -0.05028006
-0.078989156 0.056719065 0.06319236 -0.031576596 -0.06688895 0.061641153 -0.047641087 -0.06254792
0.044806205 -0.027352499 0.068539016 0.023634735 -0.024498893 -0.03540448 0.11091439 0.01219596
-0.079203956 -0.06774152 -0.060863897 -0.035306245 -0.066312015 0.06534754 0.051962946 -0.0036156592
0.07189617 0.02825252 -0.0765688 0.054520197 -0.02483952 0.02349038 0.06625482 0.05565179
-0.034644507 -0.021141507 -0.030692082 -0.012059013 -0.0672725 0.081076674 -0.06199428 -0.014097571
-0.07884974 -0.007660568 0.0070126876 0.059889376 0.07796594 -0.027915247 -0.022611815 -0.082951784
0.04308697 0.027392192 -0.037017625 -0.0056460532 0.045777366 -0.015269099 0.057379764 -0.052265335
0.091334455 -0.07138703 -0.009093983 -0.002584677 -0.026022654 0.081441194 -0.082169205 0.05376788
0.011911046 0.026016615 -0.017818702 -0.048897017 -0.07872903 -0.054078516 0.096004404 -0.051937632
0.05966705 0.08200428 -0.09354285 0.026050579 -0.081381924 -0.0483153 0.015710318 0.024849402
0.07189166 -0.017962664 0.059119727 -0.01648438 -0.039656915 0.062018793 0.03416302 -0.019908942
-0.003215117 -0.02162015 0.09520024 0.05576592 -0.08428494 0.08185379 0.052051034 -0.06725347
-0.0008734671 -0.09594465 -0.055062767 -0.0051696897 -0.07500112 0.015207688 0.040319923 -0.06944368
-0.05072082 -0.02743025 0.033577554 0.028113035 -0.036386672 -0.038000174 -0.05076754 -0.0534658
0.031481635 0.08752349 0.09359973 0.031227684 -0.032325707 -0.04322561 -0.09251443 0.01568988
0.034719363 0.024961606 -0.011418113 -0.05279562 0.07863018 -0.049472954 -0.019790888 -0.09404937
0.04889763 0.039465144 0.0646869 -0.020700546 0.052584134 -0.064307496 -0.06231429 -0.03611332
0.04152726 -0.061447684 -0.051130902 0.038699165 0.007641578 0.09858608 -0.013370692 -0.03472873
-0.044742145 -0.07083564 0.0052647144 -0.03932499 -0.002030203 0.04505204 -0.05770679 -0.07221973
-0.09427086 0.075238824 -0.022523971 0.040700063 0.009241688 0.016948856 0.045818936 0.016732084
-0.10475081 -0.043564394 -0.018276038 -0.04233599 0.060476847 0.083678044 0.062746175 -0.0021669883
00000000: a047 b3bc 2eb1 2cbd 3ddd 83bd 4fcb 9fbd
00000010: 336d 7c3c dbd6 74bd 5fba 5dbd 9d41 d73c
00000020: 3ad0 6a3d e996 4fbd 7380 16bc 066d a43c
00000030: 93be 823c 8265 5fbd 0267 5a3d 8cc8 883d
00000040: 15d8 2dbd 66ac 7e3d c672 6b3d 48c6 b6bd
00000050: 7e3a d5bb 05d3 8f3d af2b 6f3c 3d58 74bd
00000060: 0ebb 27bd 64fd 86bb fa12 203c be57 abbd
00000070: 5b59 89bd acdd 1ebd ff46 4b3d 50de 6b3d
00000080: f5e8 4abd 7ee6 95bd f1ed d93d e072 2cbd
00000090: bae7 82bd 31de 8abd 2b20 39bd 3cef cc3d
000000a0: 64e6 cb3d 7980 f3bc 78af 87bd 0ff2 9abd
000000b0: 7e0a d43c ec33 a43d d7f9 113d 8bb8 88bb
000000c0: 0528 7a3d be16 0b3d a331 173d 37a6 393a
000000d0: 3fe7 883b dd3f 91bd 5148 a8bc d7f4 a33d
000000e0: 47ae 973d d307 2ebd 73a6 023c d96d e83c
000000f0: dfe5 ef3c 7f69 9b3c 4124 c03d 5cfa 80bd
00000100: 9fa0 9b3c 3aac 39bd 0000 aebd 7072 8abd
00000110: 6b19 e5bb cbd5 c1bb fe05 963c ac6a b7bd
00000120: 843e f8bc 9b24 383d 83d0 73bd c122 f23c
00000130: c9c8 2dbd 5f29 413d 145a 9ebd 3259 e7bc
00000140: b1b8 1ebd 09d0 08bd 8881 343d 2e81 db3d
00000150: 58c0 c33d 8f55 bebd a543 1cbd 77f2 4dbd
00000160: 11c5 a1bd 4052 683d ff6a 813d 7656 01bd
00000170: 13fd 88bd 6f7b 7c3d 4d23 43bd 2019 80bd
00000180: b686 373d 5912 e0bc 2f5e 8c3d a29d c13c
00000190: e7b1 c8bc 4a04 11bd 1527 e33d 90d1 473c
000001a0: af35 a2bd 11bc 8abd 6c4c 79bd 489d 10bd
000001b0: 98ce 87bd eed4 853d 19d7 543d b2f4 6cbb
000001c0: 4d3e 933d d471 e73c 1ad0 9cbd 9250 5f3d
000001d0: 407c cbbc e66e c03c 9bb0 873d 22f3 633d
000001e0: 66e7 0dbd f430 adbc f66d fbbc 2b93 45bc
000001f0: 2ac6 89bd 870b a63d b7ed 7dbd 80f9 66bc
00000200: f97b a1bd 8105 fbbb b0ca e53b 904e 753d
00000210: 9bac 9f3d 84ae e4bc 6a3c b9bc a0e2 a9bd
00000220: f67b 303d 9765 e03c cb9f 17bd 8702 b9bb
00000230: 0c81 3b3d 3e2b 7abc 0b07 6b3d 2d14 56bd
00000240: 8f0d bb3d 5d33 92bd eefe 14bc af63 29bb
00000250: 762d d5bc a4ca a63d 5448 a8bd b53b 5c3d
00000260: 8c26 433c cc20 d53c 87f8 91bc 3d48 48bd
00000270: b03c a1bd 6f81 5dbd f59d c43d 8ebc 54bd
00000280: 7065 743d dcf1 a73d 6593 bfbd 0668 d53c
00000290: 91ab a6bd 44e6 45bd edb2 803c f990 cb3c
000002a0: ef3b 933d 7026 93bc 8727 723d 400a 87bc
000002b0: 4a6f 22bd 6b07 7e3d 86ee 0b3d 1418 a3bc
000002c0: b6b4 52bb be1c b1bc 58f8 c23d ce6a 643d
000002d0: 959d acbd f6a2 a73d 7733 553d 30bc 89bd
000002e0: 63f9 64ba a17e c4bd 7f89 61bd 8066 a9bb
000002f0: 309a 99bd ab29 793c 8126 253d 7d38 8ebd
00000300: a2c0 4fbd 67b5 e0bc 9e88 093d 4f4d e63c
00000310: 310a 15bd 12a6 1bbd a0f1 4fbd f4fe 5abd
00000320: e3f2 003d 843f b33d 37b1 bf3d 33d1 ff3c
00000330: f667 04bd 560d 31bd 3578 bdbd 1088 803c
00000340: e435 0e3d 487c cc3c 0913 3bbc 3840 58bd
00000350: dc08 a13d 27a4 4abd 8020 a2bc f59c c0bd
00000360: e248 483d 34a6 213d 917a 843d 3194 a9bc
00000370: 7662 573d a6b3 83bd 453d 7fbd 90eb 13bd
00000380: 7d18 2a3d 91b0 7bbd a36e 51bd 0483 1e3d
00000390: 3466 fa3b 80e7 c93d bf10 5bbc b63f 0ebd
000003a0: 8a43 37bd 4712 91bd a083 ac3b 3e13 21bd
000003b0: 270d 05bb 7d88 383d f45d 6cbd f0e7 93bd
000003c0: 1511 c1bd d016 9a3d 3184 b8bc 1cb5 263d
000003d0: 736a 173c 54d8 8a3c a3ac 3b3d b911 893c
000003e0: 9887 d6bd 9470 32bd a1b7 95bc 8168 2dbd
000003f0: 92b6 773d 655f ab3d 1181 803d 0804 0ebb

weight f4 [2, 256]
-0.05744439 0.069140665 -0.056270476 0.08011827 -0.05200097 0.077209525 0.02006704 -0.041794162
-0.07358414 0.02418292 -0.0025115807 0.036421787 -0.006285264 -0.0934638 -0.03792539 0.05025308
0.012205319 0.028036408 0.049244046 0.08241321 -0.024616335 -0.089581564 0.074879915 -0.09670379
0.054749344 0.08010807 -0.090832874 -0.054379933 -0.011203767 -0.040551677 0.027668795 0.07983228
0.07769632 -0.0067039775 -0.01813302 -0.032359228 -0.052698936 0.12956409 -0.120341145 -0.06403312
-0.10819591 0.011367942 0.042077273 0.049430735 -0.10157303 -0.010089047 -0.011302324 -0.099361084
-0.03452036 -0.07094916 0.002680851 -0.0688109 0.033182867 0.03708763 0.061105084 0.02794387
-0.094524615 0.0045021945 0.008202166 -0.0490029 0.056587014 0.03826068 -0.07514261 -0.076924324
0.07511075 0.037837878 -0.031639084 -0.096492395 0.08409058 0.09593348 0.072816774 0.061085634
-0.10394254 0.09513754 -0.06007438 -0.031264376 0.1032003 0.076861806 0.04040306 0.014050829
-0.026448987 0.05664851 -0.09908483 -0.051400144 -0.05809483 -0.04488102 -0.071401745 0.01405726
0.0029622242 -0.021119328 0.04726309 0.042565193 -0.044615716 0.09433192 0.019232204 -0.088511966
-0.10043984 -0.008712946 -0.014501914 -0.027854802 -0.07638298 -0.09743258 -0.06650588 0.019884087
-0.04916575 0.0664706 0.03319718 -0.11542151 -0.037971936 -0.06733649 -0.0143866595 0.08268584
-0.017191095 0.013969958 -0.01559328 -0.10724857 0.052908473 0.012625238 -0.07307701 0.037457436
-0.012804716 -0.09301792 -0.09792242 -0.06450569 -0.057505775 0.10393785 0.08635218 -0.062632374
-0.06971061 0.0077815275 0.09509356 0.04495822 -0.034888465 -0.052719176 0.025467673 0.011225406
-0.0011913971 0.040791407 0.026834494 0.042881116 -0.010793595 -0.058201827 -0.1152173 0.08630111
-0.08561762 -0.016645456 -0.066182874 0.041213028 0.014323072 0.09526133 0.01437118 0.045363348
0.044307236 0.01487459 0.10854352 -0.048796684 0.044129476 -0.06546893 -0.06952767 0.008644983
0.0800686 -0.11776255 0.024936784 0.09651456 0.03580845 -0.0059554414 0.04356815 -0.104156785
0.05142049 0.09489549 0.004411385 0.057779983 0.048395034 0.020396363 0.0139772305 0.09512488
0.10195116 -0.07545118 0.014052972 0.0049103843 0.08542802 -0.04146657 0.040375717 -0.028292753
0.03280576 0.041217223 -0.0831445 0.019958122 -0.01925352 -0.09447959 -0.07945844 -0.08728311
-0.07797934 -0.06375765 0.07323768 0.023716228 -0.037145853 -0.029174967 -0.0021110806 -0.10265148
-0.070221804 -0.061828706 -0.051824894 0.10154064 -0.053667508 -0.07068901 0.022654448 -0.0014835653
-0.040524915 0.046171937 0.09855101 0.022130996 -0.0864894 -0.033270877 -0.043199796 0.017626803
0.060919475 -0.038909394 -0.047971852 -0.03416043 0.004423549 -0.016586732 0.03887328 -0.020838896
0.041949507 0.06084862 -0.09720273 0.016579524 0.039642543 -0.06414626 0.065393224 -0.005139835
0.004365043 0.06359064 -0.086847335 0.036607895 -0.06892944 0.113062434 0.054425552 0.08781819
0.03999142 -0.010890736 0.015969964 -0.09195375 -0.04983236 -0.03568038 -0.017690012 0.08455819
-0.05205768 -0.034844488 -0.0074439445 5.031891e-05 -0.03232653 -0.06895168 -0.1182354 -0.051111087
00000000: cf4a 6bbd 9f99 8d3d df7b 66bd 0c15 a43d
00000010: f8fe 54bd 0720 9e3d a263 a43c 5b30 2bbd
00000020: 48b3 96bd 421b c63c 5599 24bb 032f 153d
00000030: 9ef4 cdbb f369 bfbd a757 1bbd 2cd6 4d3d
00000040: d1f8 473c 9cac e53c 20b4 493d 42c8 a83d
00000050: 32a8 c9bc 8a76 b7bd a45a 993d a30c c6bd
00000060: d940 603d b30f a43d 9606 babd 7ebd 5ebd
00000070: 0190 37bc 8419 26bd aba9 e23c 1b7f a33d
00000080: 401f 9f3d 0aad dbbb b38b 94bc 1c8b 04bd
00000090: d7da 57bd 73ac 043e 6b75 f6bd cc23 83bd
000000a0: d195 ddbd 9b40 3a3c 3859 2c3d e277 4a3d
000000b0: 8505 d0bd 884c 25bc 622d 39bc d37d cbbd
000000c0: 3965 0dbd cb4d 91bd 37b1 2f3b bbec 8cbd
000000d0: c2ea 073d 33e9 173d 5349 7a3d 8bea e43c
000000e0: 1f96 c1bd 2587 933b 6162 063c 44b7 48bd
000000f0: c9c7 673d 3bb7 1c3d 5ee4 99bd 808a 9dbd
00000100: aad3 993d e4fb 1a3d fc97 01bd ce9d c5bd
00000110: af37 ac3d c678 c43d f620 953d ee34 7a3d
00000120: d4df d4bd 78d7 c23d 8e10 76bd 130f 00bd
00000130: ae5a d33d b969 9d3d ae7d 253d 7335 663c
00000140: 8cab d8bc 4508 683d fdec cabd f588 52bd
00000150: d8f4 6dbd 29d5 37bd 143b 92bd 6c50 663c
00000160: e021 423b 7102 adbc f196 413d d758 2e3d
00000170: f8be 36bd 1831 c13d db8c 9d3c c345 b5bd
00000180: 67b3 cdbd bfc0 0ebc 7099 6dbc c12f e4bc
00000190: ae6e 9cbd bc8a c7bd 3c34 88bd f4e3 a23c
000001a0: 0762 49bd bd21 883d c4f9 073d 1d62 ecbd
000001b0: 7688 1bbd b7e7 89bd 06b6 6bbc 3257 a93d
000001c0: 57d4 8cbc 40e2 643c f57a 7fbc 23a5 dbbd
000001d0: 8eb6 583d 16da 4e3c 66a9 95bd f86c 193d
000001e0: dfca 51bc 2e80 bebd 8d8b c8bd 8f1b 84bd
000001f0: 2d8b 6bbd 5edd d43d 69d9 b03d 6745 80bd
00000200: 70c4 8ebd 2ffc fe3b 6ac0 c23d 1c26 383d
00000210: 35e7 0ebd 10f0 57bd 95a1 d03c c4ea 373c
00000220: a728 9cba e414 273d 03d4 db3c 1ca4 2f3d
00000230: 9ed7 30bc 0a65 6ebd 0cf7 ebbd a3be b03d
00000240: 4a58 afbd 0d5c 88bc e38a 87bd fece 283d
00000250: 51ab 6a3c 5f18 c33d 1975 6b3c ebce 393d
00000260: 817b 353d 8db4 733c 114c de3d 08df 47bd
00000270: 1cc1 343d 9314 86bd 8664 8ebd b0a3 0d3c
00000280: 02fb a33d 7e2d f1bd 3a48 cc3c 6da9 c53d
00000290: e2ab 123d dd25 c3bb 8474 323d 2750 d5bd
000002a0: 4b9e 523d 9158 c23d 618d 903b b4aa 6c3d
000002b0: df39 463d 4616 a73c c100 653c d5d0 c23d
000002c0: c5cb d03d 2686 9abd 703e 663c 4ae7 a03b
000002d0: e3f4 ae3d dad8 29bd 0261 253d 34c6 e7bc
000002e0: 555f 063d 64d3 283d aa47 aabd 377f a33c
000002f0: 8fb9 9dbc 847e c1bd 1bbb a2bd 7dc1 b2bd
00000300: a2b3 9fbd 5f93 82bd a3fd 953d 8948 c23c
00000310: 4026 18bd 5700 efbc 0e5a 0abb f03a d2bd
00000320: 73d0 8fbd 1940 7dbd 5746 54bd 8af4 cf3d
00000330: 76d2 5bbd 66c5 90bd d295 b93c 3174 c2ba
00000340: 74fd 25bd c91e 3d3d 1dd5 c93d 104c b53c
00000350: 5b21 b1bd 0b47 08bd 45f2 30bd 1666 903c
00000360: b386 793d 755f 1fbd 227e 44bd cfeb 0bbd
00000370: 6bf3 903b e6e0 87bc 9739 1f3d 55b6 aabc
00000380: 3fd3 2b3d 673c 793d 3a12 c7bd c8d1 873c
00000390: 3860 223d 1d5f 83bd e2ec 853d 106c a8bb
000003a0: a208 8f3b cf3b 823d 04dd b1bd 29f2 153d
000003b0: e12a 8dbd 478d e73d 54ed 5e3d 06da b33d
000003c0: 0bce 233d 0f6f 32bc 71d3 823c 3f52 bcbd
000003d0: 041d 4cbd 9725 12bd a5ea 90bc d82c ad3d
000003e0: 6f3a 55bd 18b9 0ebd 55ec f3bb 850d 5338
000003f0: d368 04bd 8a36 8dbd 6725 f2bd dc59 51bd

bias f4 [2]
0.03697057 0.0651331
00000000: 746e 173d 8164 853d
